Results_paper/regression/10-shot/3_modes/hard/it2/n_models/models20_0.pt (torch, 10759 bytes, 9 tensors)

net.0.weight f4 [40, 1]
000000 96 fb 91 bd 1d c1 d1 3e 42 7b 17 bf d9 d4 ac 3d
       -0.07128064 0.40967646 -0.5917245 0.08439035
000010 4c 0d 63 3e 21 4d 2a 3f 12 09 c5 3c 34 df 06 bd
       0.22173041 0.6652394 0.024052177 -0.032927707
000020 6c 90 16 3f 53 0d 5d be f9 a2 b7 3e 9e 2f f1 be
       0.5881412 -0.21587114 0.35866526 -0.47106642
000030 50 9c 0a bf 73 8c 2c 3f 18 0a 3c 3e 1e 8b 4f 3f
       -0.54144764 0.6740181 0.18363225 0.8107165
000040 ea ad 13 be 0f 92 44 3f 12 f5 4e 3f 94 34 e1 3d
       -0.14421812 0.7678537 0.808427 0.109963566
000050 a3 c2 ee 3e a4 9d 1b bd 3c 22 47 3f ac 74 5e 3c
       0.4663287 -0.037992135 0.7778661 0.013577621
000060 5e 74 97 be 80 9c 01 3f 2e 35 80 3e 48 27 41 3f
       -0.2958097 0.50629425 0.25040573 0.75450563
000070 56 8d a9 3e d6 24 33 3e 1f 9c 82 be 26 17 3a bf
       0.33115643 0.1749452 -0.25509736 -0.7269157
000080 33 52 dd 3e 18 6a 59 be 26 6c 09 bf 41 41 41 3f
       0.43226776 -0.21231878 -0.53680646 0.75490195
000090 c0 12 69 bf 9a 93 5a 3f c6 4d 87 bd a8 f5 52 3f
       -0.91044235 0.8538147 -0.06606631 0.8240609

net.0.bias f4 [40]
000000 90 a6 d0 bd 00 ae ae be 60 c1 58 3e a0 e5 d2 3d
       -0.10188019 -0.34117126 0.21167517 0.10297704
000010 74 4f af be d8 7c cd 3e 70 75 03 be 96 82 2b 3f
       -0.34240305 0.4013431 -0.12837768 0.66996133
000020 00 52 83 3c f2 40 7a 3f b4 b2 37 bf c0 95 11 be
       0.016030312 0.9775535 -0.71757054 -0.14217281
000030 8c 4a 9a 3e fa a6 54 bf 28 4c 06 be e0 9c c7 3d
       0.30135 -0.83067286 -0.13114989 0.097467184
000040 ca 3d 22 3f ec bb 66 bf 84 f8 e8 be c8 46 99 be
       0.6337553 -0.90130496 -0.45502102 -0.29936814
000050 30 2b 5c 3e a0 a8 74 bd 4e eb 2a 3f 7e 64 6d bf
       0.2150085 -0.059731126 0.66765296 -0.92731464
000060 66 4f 5f 3f 7c 21 46 3f 80 fc f8 3e 00 59 89 3e
       0.8723053 0.77394843 0.48630142 0.26825714
000070 e4 41 05 bf 80 e4 7f 3c 44 20 6f 3f 00 fa df be
       -0.52053666 0.0156184435 0.9340861 -0.43745422
000080 9c 2a 66 3f 88 97 c5 3e 84 aa 26 bf 44 ea 0b bf
       0.89908767 0.38592172 -0.65103936 -0.54654336
000090 0c 18 09 bf 28 17 49 bf 4c fc 43 bf b0 7e b4 3e
       -0.5355232 -0.7855096 -0.7655685 0.35252905

net.1.weight f4 [40]
000000 50 03 81 3f 65 24 7d 3f ba d6 82 3f e9 d1 7f 3f
       1.0079136 0.9888366 1.0221779 0.9992967
000010 6c 5c 7b 3f d1 03 7b 3f 89 4d 7e 3f 04 75 82 3f
       0.981879 0.980527 0.9933706 1.019196
000020 30 98 7e 3f 87 d2 81 3f 18 c9 7c 3f 3c 31 81 3f
       0.9945097 1.0142373 0.98744345 1.009315
000030 c8 8a 82 3f 23 2d 7e 3f 5d 4d 7a 3f 18 3b 7d 3f
       1.0198603 0.99287623 0.97774297 0.98918295
000040 f0 9f 81 3f 08 42 80 3f a3 9b 7c 3f a7 59 7e 3f
       1.0126934 1.0020151 0.9867498 0.9935555
000050 b1 4c 7b 3f 9b 66 83 3f e5 b4 7c 3f dd 71 7d 3f
       0.98163897 1.0265688 0.98713523 0.99001867
000060 37 37 80 3f b5 c8 7e 3f 35 33 7f 3f 56 7c 7a 3f
       1.001685 0.99525005 0.9968751 0.9784597
000070 5b 02 7c 3f a4 53 7e 3f 14 5e 81 3f b3 7a 81 3f
       0.98441094 0.99346375 1.0106835 1.011557
000080 00 81 7c 3f f2 b9 81 3f 4c 07 82 3f e8 2d 7e 3f
       0.9863434 1.0134871 1.0158477 0.992888
000090 1a 1e 81 3f a4 b6 7e 3f e9 e4 82 3f 25 63 7c 3f
       1.0087311 0.9949744 1.0226108 0.9858878

net.1.bias f4 [40]
000000 bf 34 f1 bc cd 2e 65 3b 29 6a 40 3c 45 1f 5a bb
       -0.029444097 0.0034970522 0.011744061 -0.0033282798
000010 27 33 11 3c b9 17 b4 bb 96 50 cd bc 4b 95 7c 3b
       0.008862293 -0.005495992 -0.02506284 0.0038541134
000020 47 51 01 3d 09 b7 9f bb f2 d7 6c bc 0b 87 0b bd
       0.031571653 -0.0048741144 -0.014455782 -0.034064334
000030 bd 2c be 3c 47 e4 e0 bc c0 2c 27 be 71 6d a1 3d
       0.023214692 -0.027452601 -0.16325665 0.078822024
000040 73 92 82 3d 1d 2c b7 3c a2 06 a4 3c b6 68 0e bd
       0.06375589 0.022359902 0.020022694 -0.03476783
000050 fc fa 68 bd e9 d2 4f bb 19 c1 ff 3c 34 02 63 3c
       -0.056879982 -0.0031711406 0.031220006 0.013855506
000060 81 9d a9 3b 78 81 00 3d be 0f 36 3d 71 34 5d bc
       0.0051762466 0.03137347 0.044448607 -0.013501273
000070 d8 a3 c6 3b 3b 36 a5 bb 02 c6 10 3d 30 b3 b7 bb
       0.006062012 -0.005041865 0.035345085 -0.0056060776
000080 5b a1 b4 bb 28 c7 91 3c e1 95 46 3b cd c8 0c bd
       -0.005512399 0.01779516 0.0030301737 -0.034371186
000090 81 80 ea 3d 5c 22 ca bb 15 d0 aa 3c 9e cf 3a bd
       0.114502914 -0.0061686467 0.020851174 -0.045608155

net.3.weight f4 [40, 40]
000000 ba aa a1 bd b0 a5 18 3d 16 eb 8c 3d de ed 21 3b
       -0.07893892 0.037267387 0.068807766 0.002470843
000010 0d 12 9a bd b0 27 a2 bd f8 b3 1c bd dd 90 95 3d
       -0.07522974 -0.07917726 -0.03825757 0.07303021
000020 ed a0 13 3e fa ae 08 be 8c 90 0a ba 82 24 a2 bd
       0.14416857 -0.13347998 -0.00052858214 -0.079171196
000030 5b 41 93 bd ea d4 08 3e 91 5d f3 bc 11 f5 03 be
       -0.071902 0.1336247 -0.029707702 -0.12886454
000040 96 72 fd bd 12 c9 59 bd a5 54 a7 3d c9 df f4 bc
       -0.12375371 -0.05317027 0.081704415 -0.029891865
000050 7e 1c 65 bd d2 b4 11 be fb 5d f9 bd fb 31 b6 3c
       -0.055935375 -0.14229134 -0.121761285 0.02224063
000060 44 60 e9 bd c9 ab 55 3d e6 ab b6 3d 56 c1 43 bd
       -0.11395314 0.05216578 0.08919506 -0.0477918
000070 66 cc 22 be b2 e6 86 3c 5b d8 14 bd 44 b8 2f 3e
       -0.15898284 0.016467426 -0.036339145 0.17160136
000080 a8 87 13 3e 93 8f 91 bd 67 df e1 3d 9b f8 d6 bc
       0.14407218 -0.07107463 0.11028939 -0.026241591
000090 b6 24 14 3e d9 c2 45 bc 59 01 ed 3d d9 25 10 3e
       0.14467129 -0.012070381 0.11572523 0.14076938
0000a0 19 a1 88 bd 99 74 92 bd 76 b1 b1 3d 68 83 18 3e
       -0.06671352 -0.071511455 0.08676426 0.14893878
0000b0 86 9a 8b 3c d7 53 56 3d 82 ac 0c 3e b1 2b 09 3d
       0.017041456 0.05232605 0.13737682 0.033488933
0000c0 79 b2 e7 3d 21 52 35 3d 37 c9 9a 3d de 51 8e bb
       0.11313338 0.044267777 0.0755791 -0.0043432554
0000d0 cd 4f 77 bd 8e d2 52 3c fe b9 f8 bc 8a 48 52 ba
       -0.06037884 0.012867583 -0.030362125 -0.00080216734
0000e0 0a 79 19 be af 4c 8a bd 47 33 08 3c 9f 1e 87 3d
       -0.14987579 -0.067529075 0.008313007 0.065976374
0000f0 3c 26 d5 bd 21 d8 2b 3d 0f e1 e3 3d 47 69 0f be
       -0.10407683 0.041954163 0.11126911 -0.14005004
000100 17 48 0f 3e dc 0b 90 3d a3 54 f2 3d e2 5f bb bc
       0.13992344 0.07033512 0.118325494 -0.022872869
000110 5c 5e 0b bd 69 3e b2 3d 90 ff 02 3e 5c 3a f2 bc
       -0.034025535 0.0870331 0.12792802 -0.029568844
000120 89 33 82 bd 73 84 ee bd 27 37 a3 bd d1 6e 0b 3e
       -0.06357486 -0.116463564 -0.07969504 0.13616492
000130 0a 08 09 3e fc 37 17 be 19 c9 a3 3d c1 f2 ee bd
       0.13381973 -0.1476745 0.07997341 -0.116673954
000140 4d 36 27 be 09 a0 49 3d d1 f9 92 bc 51 29 5c 3d
       -0.16329308 0.049224887 -0.017941387 0.05375034
000150 14 42 07 3e 2d 05 5d bc 49 b7 b9 3d f2 2e 30 bd
       0.132088 -0.0134900035 0.09068162 -0.04301352
000160 53 b9 f3 bd c0 95 e1 bd 34 c9 f5 bc 45 33 06 3e
       -0.11900582 -0.11014891 -0.030003168 0.13105495
000170 b8 23 59 bc ac 19 a4 bb d7 e6 9a 3d 9e bd ab 3d
       -0.013253145 -0.005007943 0.075635605 0.08385776
000180 5f b8 23 be 45 37 0f 3d 49 58 04 bd be d5 c1 3c
       -0.159883 0.03496482 -0.032310758 0.02366149
000190 f7 53 85 3d 38 72 c9 bd 5e 6c e8 bd e8 34 01 be
       0.06510156 -0.098362386 -0.113487944 -0.12617838
0001a0 20 5c cb 3d 4e 08 16 3e ae 4a c7 3c 8e 45 6c 3c
       0.09929681 0.14651605 0.024327602 0.01442088
0001b0 62 6d b4 3c 65 c3 df 3d c6 e6 ce bc 1e a1 3b bd
       0.022024814 0.109259404 -0.025256526 -0.04580795
0001c0 dd 0c b0 bc cd f2 08 3d 76 14 1e 3b e3 51 77 3d
       -0.021490509 0.033434678 0.0024121082 0.060380828
0001d0 b6 cc ed bc e2 b0 fc bd a6 43 de 3d 0e 5a 8b 3d
       -0.029028278 -0.12338425 0.10852747 0.06804286
0001e0 41 24 17 3e c8 c5 a5 3d e8 82 ab bc e9 7b a3 3d
       0.14759924 0.080943644 -0.020936444 0.07982618
0001f0 b3 91 1b 3e 4c c8 8d bd 2d a0 bc 3d dc 6a 09 3e
       0.15192299 -0.06922969 0.092102386 0.1341967
000200 4b 1e 1c bd dc aa 77 bd 74 59 25 3e df 04 d0 bd
       -0.038114827 -0.06046568 0.16147405 -0.10157179
000210 3d 7e 20 3d e3 89 10 bd 16 a9 e8 bd 5e 3b 0b be
       0.03918289 -0.03528775 -0.113603756 -0.13596866
000220 b0 6f 05 be dc b8 91 3d 25 c3 0f 3e db 67 fd bd
       -0.13030887 0.07115337 0.14039285 -0.123733245
000230 3c 05 27 3d 8d d0 c4 3d 3e e6 df bd d3 26 62 bd
       0.040776476 0.096100904 -0.10932587 -0.055212807
000240 2a 9b 81 bd a2 11 f8 3d 7a be c2 bd c4 2d 49 3d
       -0.06328423 0.12112738 -0.09508987 0.04911591
000250 db 46 3e 3c 29 bd b0 3d 83 04 e9 bd 01 4c b0 3d
       0.011613573 0.086298294 -0.11377814 0.086082466
000260 bd 5f cb bd 31 b6 05 3d ba 30 3f 3d 54 8b 84 bd
       -0.0993037 0.032644454 0.04667733 -0.06471887
000270 db 8f 0c be 4a 1c 33 3d 02 58 39 3d 16 a5 c1 bd
       -0.13726752 0.04372815 0.045249946 -0.09455316
000280 4a 90 2c 3d 16 20 ff bd 19 58 f5 bd 3d 1e a8 bc
       0.042129792 -0.12457292 -0.11979694 -0.020522231
000290 6e b3 f9 3d c9 96 5e bd 09 19 ca bc 42 a5 26 bd
       0.121924266 -0.05434302 -0.02467014 -0.040684946
0002a0 11 9c bc bc 8b 9f ca 3d a7 22 03 3d 95 b2 d8 3c
       -0.023023637 0.09893712 0.03201547 0.026452342
0002b0 b0 22 38 3d b0 ec 8a 3d f6 48 cb bd 53 e2 80 3d
       0.044954956 0.06783426 -0.099260256 0.06293168
0002c0 37 ec c8 bd 90 d7 76 3d 4e e2 05 3e bb a6 50 3d
       -0.098106794 0.06026417 0.1307461 0.050940257
0002d0 15 27 3a 3d 0c 60 60 bc 46 2f 17 3e 5f d8 2b 3e
       0.045447428 -0.013694774 0.14764127 0.16781758
0002e0 8e cb 40 bd 99 47 98 3d 98 f4 f7 bd e3 d0 eb bd
       -0.047069125 0.07435531 -0.121071994 -0.11514451
0002f0 ba 12 91 bd ae 5e 72 bd 17 e6 60 3c f0 b9 b2 bd
       -0.0708365 -0.059172325 0.013726733 -0.08726871
000300 c8 33 81 3d 52 c7 5d 3d 3a 4f 25 bd 64 a7 ee bc
       0.063087046 0.054145165 -0.04035876 -0.029132552
000310 c2 9e 1a 3d 06 5a c7 bd bf 0e 78 3b 3c bd 86 bd
       0.03774906 -0.097339675 0.0037850586 -0.06579062
000320 66 2e 5e 3d 16 e3 e8 3b f4 a5 2e bd f1 67 0c 3d
       0.054243468 0.007107149 -0.042638734 0.034278814
000330 fa 9e 73 bd 32 1c 6e 3c df ed 98 bd 28 24 d1 bd
       -0.059477784 0.0145330895 -0.07467245 -0.102119744
000340 35 dc 4c 3c de a3 7a bd 06 24 f2 3d 30 1f a3 3d
       0.012503673 -0.061191432 0.11823277 0.07964933
000350 7b 5b dd bd 99 67 dd bd 36 41 0f be fa af 00 3e
       -0.10808464 -0.10810775 -0.1398972 0.1256713
000360 94 0a b9 bc 50 85 e1 3a 6f 5a 25 3e 70 72 e0 bd
       -0.022588052 0.0017205868 0.16147779 -0.10959327
000370 04 35 1e be 37 09 5e 3b c3 3f 16 3d 11 7c f0 3d
       -0.15449911 0.0033880004 0.0366819 0.11742414
000380 f4 c9 12 3e d0 bc 05 3e 36 e6 fa 3d e0 d6 15 3e
       0.14334852 0.13060308 0.122509405 0.1463275
000390 64 75 4b 3d 8d 3a fa 3d 9c 30 7e 3d de 3e ed 3d
       0.0496725 0.12218199 0.062058076 0.115842566
0003a0 d5 a3 c8 3c b2 8f 6b 3d d5 f9 c5 3d 3d 18 0a be
       0.024492184 0.057510085 0.09666792 -0.13485809
0003b0 4e 4a aa bd fb 42 b3 3b 68 d7 5f bc e8 39 6d bd
       -0.08314954 0.005470631 -0.013662197 -0.05791655
0003c0 32 8e bf 3d 9b d9 98 bc 52 59 38 bd c4 c0 05 3d
       0.093532935 -0.01865845 -0.045007057 0.03265454
0003d0 06 7c e4 3d 65 82 2d bd 61 04 31 3e c3 c6 b6 bc
       0.11156468 -0.042360682 0.17286827 -0.022311574
0003e0 da 2c 10 3e 33 0a 5b 3d f1 47 68 3d 30 42 bd 3c
       0.1407961 0.053476524 0.056709234 0.02310285
0003f0 2e 82 cf 3d 2c da c0 bd c4 f2 09 be b0 bc 09 be
       0.10132252 -0.09416613 -0.13471514 -0.13450885

net.3.bias f4 [40]
000000 85 cc 0c be 5c df 03 be ec 56 04 3e f7 ec 1a be
       -0.13749893 -0.12878174 0.12923783 -0.15129457
000010 f6 da 9b bc 86 24 66 3d 78 00 2d bd 4b 6c 72 bd
       -0.019025307 0.056187175 -0.042236775 -0.059185307
000020 2c f4 b2 bd d0 f7 9a bd 4a fc 27 bd d6 30 db 3c
       -0.08737978 -0.07566798 -0.041012086 0.026756685
000030 9c b9 29 bb 26 51 8d 3d e2 8a be bc 37 ae 89 3d
       -0.0025897985 0.069002435 -0.023259584 0.06722682
000040 6c 6d e9 3d 22 69 9b 3c 1f c3 02 3e 0f a0 12 3d
       0.11397824 0.01897103 0.12769745 0.035797175
000050 d2 22 4a bd 4e d6 09 3e 86 2f b9 3c 25 ef b6 bc
       -0.049349613 0.13460657 0.022605669 -0.02233083
000060 8b e1 24 bd c6 3b 59 bd 1e 48 ba 3d 34 61 a3 3d
       -0.040254157 -0.05303552 0.090957865 0.079775244
000070 68 6b d9 bc a3 b9 f0 3c 06 e5 10 3e e3 82 20 be
       -0.026540473 0.029385393 0.14149866 -0.1567493
000080 c3 42 9c 3d 9f 71 bc 3d 92 96 10 3e 3e 89 c1 bd
       0.07629921 0.09201359 0.14119938 -0.09450005
000090 9d ba 34 bd 89 fb ff bd 1b 0b ae 3b 08 f5 2e bb
       -0.04412328 -0.124991484 0.0053113825 -0.0026696343

net.4.weight f4 [40]
000000 31 bb 81 3f 98 02 82 3f 19 80 82 3f 05 00 83 3f
       1.0135251 1.0157042 1.0195342 1.0234381
000010 ab 00 88 3f 30 17 86 3f 18 17 86 3f bc ab 84 3f
       1.0625204 1.0475826 1.0475798 1.0364909
000020 32 23 83 3f 13 48 81 3f 74 1b 82 3f a1 62 86 3f
       1.0245116 1.010012 1.0164628 1.0498849
000030 da 98 84 3f 4d 33 82 3f a1 9d 80 3f 9c 94 85 3f
       1.0359147 1.0171906 1.0048105 1.0435977
000040 9c a6 82 3f 90 aa 85 3f 30 82 84 3f 6b 4a 82 3f
       1.0207095 1.0442677 1.035223 1.017896
000050 16 3e 8b 3f 37 98 83 3f 44 c8 81 3f 50 95 86 3f
       1.0878322 1.0280827 1.0139241 1.0514317
000060 56 d8 86 3f da d1 81 3f c6 91 8c 3f cf 37 88 3f
       1.053477 1.0142167 1.0981987 1.0642031
000070 a8 46 86 3f e2 d3 85 3f ee 9d 8a 3f a5 20 7f 3f
       1.0490313 1.0455287 1.0829446 0.99659187
000080 b1 92 83 3f 58 27 86 3f c8 5c 8a 3f 1e 8c 84 3f
       1.0279142 1.0480757 1.0809565 1.035526
000090 8e 5e 83 3f c7 a7 89 3f a6 98 84 3f 28 7c 8a 3f
       1.0263231 1.0754327 1.0359085 1.081914

net.4.bias f4 [40]
000000 8a 38 63 3c 65 85 fe 3b e9 d8 ff 3c 6b ea 8f 3c
       0.01386846 0.0077673667 0.03123136 0.017567834
000010 5c d5 5a 3d 18 8f 8e 3d 4c 07 10 3d 24 aa 04 3d
       0.05342613 0.06960887 0.03516321 0.03238882
000020 1d 93 5d 3d 11 9c 82 3c b9 92 5a 3c ab e0 2a 3d
       0.054095376 0.015943559 0.0133406455 0.041718166
000030 d9 61 c4 3c 1d 42 29 3c 1a 20 07 3c 6c 3b e3 3c
       0.023972439 0.010330704 0.0082474 0.027738295
000040 fe eb 07 3c aa f2 7d 3d c2 59 0c 3d 66 90 2d 3c
       0.008296011 0.061999 0.034265287 0.010593509
000050 09 64 91 3d c2 6e 9b 3c e1 de 7a 3c d2 3f 1f 3d
       0.07099158 0.018973712 0.015311928 0.038879223
000060 a1 ae 02 3d a9 7c b9 3c b5 9b 58 3d 37 bc 2b 3d
       0.03190482 0.02264245 0.05288287 0.041927543
000070 16 ed 25 3d 0f f7 36 3d b3 42 df 3d 72 90 97 bb
       0.040509306 0.044669207 0.10901394 -0.0046253735
000080 8e b0 17 3d a4 24 dd 3c fa df 8c 3d 95 ac 77 3d
       0.03703361 0.02699501 0.06878658 0.06046732
000090 e4 87 a7 3c 71 92 56 3d 44 90 6d 3d 13 8f 6f 3d
       0.02045054 0.05238575 0.05799891 0.058486056

net.6.weight f4 [1, 40]
000000 36 ad 10 be 47 aa b6 3d c5 af 14 3e 3f 10 33 3e
       -0.14128575 0.089191966 0.14520176 0.17486666
000010 42 67 b0 3e c5 ca 90 3e e5 a2 89 be dd 27 90 be
       0.3445378 0.282797 -0.2688209 -0.28155413
000020 39 df 49 3e b4 e3 ad 3d 3c fe 94 3c 35 f7 95 be
       0.19714059 0.084906965 0.018187635 -0.29290166
000030 2c 1d 6f 3e 44 e0 ce b9 64 67 27 3c f9 f9 8f 3e
       0.23350972 -0.00039458473 0.010217521 0.28120402
000040 99 27 e1 bd 18 b6 9a 3e 9c a5 79 3e 09 44 2f bd
       -0.10993881 0.30217052 0.24379581 -0.042789493
000050 92 30 d5 3e 18 63 3e 3e a8 e0 94 3d 43 b2 98 3e
       0.4163862 0.18592489 0.07269412 0.29823503
000060 2f 92 97 3e a8 ab e8 3d c5 ee e5 be 78 72 ba 3e
       0.29603717 0.11360866 -0.4490873 0.36415458
000070 62 16 a1 3e ee 81 89 3e 2f 22 df 3e 78 05 88 bc
       0.3146239 0.2685694 0.43580768 -0.01660417
000080 b2 61 4d 3e 89 5a a6 be 3f 85 d4 3e 9e 43 81 3e
       0.20056799 -0.32490948 0.4150791 0.252469
000090 4c c3 6a be 28 04 c3 3e 50 72 7f 3e 49 a4 cf 3e
       -0.22926062 0.38089108 0.2494595 0.40555027
