Results_paper/regression/10-shot/3_modes/hard/it2/n_models/models12_10.pt (torch, 10759 bytes, 9 tensors)

net.0.weight f4 [40, 1]
00000000: d1fd 8bbe 2835 103e 92d5 c03e f32f 29bf
00000010: f205 963e 27de 3bbf 2aaa 693f df3e 4c3f
00000020: b220 953e ba10 1bbf 2048 b2be e78b 62be
00000030: 1a86 473f b67d 56bf 582c 043f 22f7 033f
00000040: b415 83bd 5222 003f 7f73 27bd fc3d 9ebe
00000050: 3e02 48bf 3bb2 79bf f9d5 88bd 139b cb3e
00000060: 32dd 99be 25a1 833e 3c52 11bf aa15 ba3c
00000070: 02c9 6e3f 5c0a 213f d3f9 8a3e 944f 553f
00000080: 225f 76bf 498a 2e3f 19c3 503f 0c4f d53e
00000090: aa4a 10be 65d2 5b3f 0264 a1bd 8f29 c2be
-0.27342084 0.14082778 0.3766294 -0.6608879 0.2930141 -0.7338585 0.91275275 0.79783434
0.29126507 -0.605724 -0.34820652 -0.22123681 0.77939 -0.8378557 0.51630163 0.5154897
-0.06400624 0.5005237 -0.04088163 -0.30906665 -0.7812842 -0.97537583 -0.06681437 0.3976675
-0.3005157 0.2570888 -0.56766105 0.022715408 0.93275464 0.6290643 0.27143726 0.8332455
-0.9623891 0.68179756 0.81547695 0.4166187 -0.14090982 0.8586791 -0.07880403 -0.37922332

net.0.bias f4 [40]
00000000: dc5f 043f ac37 6b3f 1044 f3be 30f5 40bf
00000010: f0aa 38bf e091 553e 6073 fabd 8274 143f
00000020: 80e1 4fbc 8cc9 60bf 18ab 893e f8c3 da3e
00000030: e051 50bf 4a82 263f bc0d b5be 4ed7 6b3f
00000040: 2e6e 31bf 566f 4b3f f49f 78bf 049e 9abe
00000050: 4c65 f03e bc26 21bf eb63 f3ba 1e36 433f
00000060: ae1e 5ebf 4818 7b3e 84a1 f53e d0cc bc3d
00000070: 2cd8 68bf 501b 713f f2c2 33bf b4fc 1e3f
00000080: 6011 cf3d 008e 8a3c cefe 04bf 660e 22bf
00000090: a810 193e 4e3a 6e3f e015 53bf 94f3 eb3e
0.5170877 0.91881824 -0.47512865 -0.75374126 -0.7213583 0.20856428 -0.12229037 0.57990277
-0.012688041 -0.87807536 0.26888347 0.42727637 -0.8137493 0.65042555 -0.3536204 0.92125404
-0.69308746 0.7946676 -0.9711907 -0.3019868 0.46952283 -0.6294973 -0.0018569207 0.7625445
-0.86765563 0.24520981 0.4797479 0.092187524 -0.9095485 0.941823 -0.7021934 0.62104344
0.10110736 0.016913414 -0.519513 -0.6330322 0.1494776 0.93057716 -0.82455254 0.46084273

net.1.weight f4 [40]
00000000: cd9e 7e3f c26b 7f3f cd4b 7f3f c4a0 813f
00000010: 4b98 7d3f 072b 803f a7d0 7e3f b2bd 7e3f
00000020: 9035 7e3f 0eb9 7d3f c7f3 803f 83c0 803f
00000030: 7e04 803f c287 803f e100 803f 73f5 7b3f
00000040: 206a 7d3f d3f7 7e3f 3a31 823f c92c 823f
00000050: f705 823f 0c5a 803f fd3d 813f 4b64 7c3f
00000060: e0ab 7f3f 3dda 7f3f c4c0 7f3f e328 803f
00000070: 5ebb 7e3f beba 7f3f 2afe 7d3f 69b0 7e3f
00000080: f8e7 7f3f 4aa0 7f3f 899d 7b3f 23b6 7e3f
00000090: 68d2 7f3f 5e25 803f 6683 813f 8c04 823f
0.9946106 0.997738 0.9972504 1.0127187 0.99060506 1.0013131 0.9953713 0.995082
0.9930048 0.99110496 1.0074395 1.005875 1.0001371 1.004143 1.0000268 0.984214
0.9899006 0.995969 1.0171273 1.0169917 1.015807 1.002748 1.0097042 0.98590535
0.99871635 0.9994238 0.9990351 1.0012478 0.9950465 0.9989432 0.9921595 0.9948793
0.9996333 0.99853957 0.98287255 0.9949667 0.9993043 1.0011404 1.0118225 1.0157638

net.1.bias f4 [40]
00000000: 8b24 38bc 3a16 68bc 1817 013c a09b 643c
00000010: 5f74 553b deb9 ca3b d75e f43b f4b8 8a3b
00000020: d9ba 3b3c c8c9 3d3a 14f3 a53b ad53 d4bb
00000030: bba1 4cbb fb63 953c a609 dabc b408 9a3c
00000040: f493 52bb d298 1a3b 56bf a53c a5ee 5a3c
00000050: 7c1c 3b3c 9a28 91bc c86f e4ba f0a5 9a3c
00000060: a4da 5f3d 0ff2 7c3c 75ce cd3c 8aa5 e63b
00000070: a96d 8abc fa22 31bd 7643 8fbc c4af 533b
00000080: 0ffc 2d3c f78b 8d3c 7782 683c daa4 c03b
00000090: 013e 71bc 6410 9bba 6ff4 873c 2ff6 2a3d
-0.011239181 -0.0141654555 0.007879041 0.0139531195 0.0032570583 0.006186708 0.007457595 0.004233474
0.011458122 0.00072398456 0.0050643776 -0.0064797015 -0.0031224329 0.018236151 -0.026615929 0.018802978
-0.0032131644 0.0023589623 0.020232838 0.013362561 0.011420365 -0.017719556 -0.0017428333 0.018877953
0.05465187 0.015438571 0.02512286 0.0070387768 -0.016897993 -0.043246247 -0.017488223 0.003230081
0.0106191775 0.017278655 0.0141912615 0.005879027 -0.014724256 -0.0011830446 0.016596047 0.041738685

net.3.weight f4 [40, 40]
00000000: ccca c33d 3c05 38bd c41f c13d d833 13be
00000010: a5e8 ca3d 3f45 acbd 90d1 b8bc e605 5ebd
00000020: 46cf 9b3d f8b0 fb3d 131f c8bd bcc8 bbbb
00000030: 7499 86bb 28a3 a53d 22a8 0dbe df40 b7bd
00000040: 8931 ffbb 951c cb3d cc1b 703d c12d 463d
00000050: 72ba 1abe 12c7 503d 6b0e ad3d 318c bb3d
00000060: fed6 863c e781 e83d 9b73 9b3d e461 ff3c
00000070: d4f8 edbd e554 0fbe 5d9e cf3d b5b2 44bd
00000080: a324 21bd 43b2 8cbd 9017 cf3d 9518 6b3c
00000090: e7f4 e03d dd6d 8d3c b405 07be b445 17be
000000a0: fc08 d43d 6c92 59bd 841a adbd 49cc cdbd
000000b0: 449e 6f3d 0bbb dabd d0ab 863d 3062 303c
000000c0: a68a 803d 3923 e0bd 6756 c6bd 48ad 143e
000000d0: 606a 0bbe 8827 5e3d 25d3 96bd 7a52 b63d
000000e0: b6ef ca3d e418 133e 7c35 0cbc f4dd 603c
000000f0: 2e4f 023e 44e1 9a3d 6e59 bdbc ff05 ea3d
00000100: 55cd c8bd 2d16 393b 0e4c b9bd 265e 9a3c
00000110: 6604 853c 89eb 28be 47a6 89bd c6f6 b53d
00000120: fa44 db3d 12f7 10be 94ef fc3d f8c9 973d
00000130: 0e58 a5bc 8f0a 27be 758c 263c acf0 533d
00000140: 4bac ea3c a607 ff3d 27e6 2ebb b02c 11be
00000150: 46d6 95bd ed89 fa3d 21ba 153d 919c bdbd
00000160: 787b 213d 859c 233d 47c3 b43c cbd0 9dbd
00000170: d261 273e 2d56 863d 9a4d 8ebd 6cab cfbc
00000180: d3e1 393d e715 debd a456 923d cd99 ffbd
00000190: 089f b5bc 9dd4 463d 92de c93c c413 a73d
000001a0: 8483 703d eb34 a238 ab5c e2bd 4404 c63d
000001b0: 13ec 40bd f760 833d 8943 3ebd e6b8 abbd
000001c0: 5db7 633d 87f7 06bd 27f1 3bbc 1505 0cbd
000001d0: a46b 143d 5be0 1abd 46d3 babd 1f09 29ba
000001e0: 8e75 d7bd f874 fb3d 81af 693d bbd0 03be
000001f0: 514b 39bd 46bb 093e 65aa 03be c2fb 563d
00000200: 492f 1fbc 3f80 8ebd 5036 843d 20cc 83bd
00000210: 9ac2 fdbd e766 ef3d c8d8 b03d 4cc8 a7bd
00000220: 973c eebc 4662 35bc 57d3 cb3d 16fe 17be
00000230: b2b8 0cbe ae23 cabd 127c 173e 96ba 083e
00000240: 573a a1bd 11d2 ef3d 6761 c93d 201f 173e
00000250: bb6f 9d3d d453 1bbe 1df5 1a3d b9a8 cb3d
00000260: 179b 2ebb 5a03 21be 8b31 d1bc dd9f 64bd
00000270: 73b7 6d3d 5177 21be bded 5bbd e543 b8bd
00000280: ee16 96bd 4ed1 b13d 513a 113e 5829 2dbd
00000290: 042e 2cbd 7800 5bbd ee96 123e 2b5b 45bd
000002a0: 7347 07bd 1e93 dcbd 558a f83d c643 fbbd
000002b0: 2420 3d3d d6dd bd3d f00e 623d 3afd b5bd
000002c0: 4fd2 013e 9816 4cbd 24b2 e43d a0a9 a23d
000002d0: 687f 153d 6589 983d 682e 49bd fee0 d0bb
000002e0: d50b 183d ee21 a4bd e058 c9bd 5703 f83d
000002f0: bc21 59bc 7c63 8b3b 2f0a 20bd 17ac 743c
00000300: e919 eb3d 2c66 e43d a132 91bc 45d5 103d
00000310: 1c69 063e 69a3 35bd 5141 d0bd d0df 1cbe
00000320: f793 f6bd 892e 72bc 7504 133d 39c4 3abc
00000330: b86e 58bc 5381 08bd b826 f13d 1385 22bd
00000340: 8cc2 64bd b7ba 7bbd 66ad 1cbd ee14 ba3c
00000350: 2d4d be3d f4d7 6abc f402 833d 9d89 993c
00000360: b52b 173e 5aa1 12be 2700 673d ffb7 c8bd
00000370: 4d43 25bd 661b cc3b 195b c53d 8c79 083d
00000380: e290 223d 3074 06be 064f ff3d 7b9c 26be
00000390: 1da7 d1bd c2d7 363d 697e 9739 38e5 e53c
000003a0: cb93 163e ec9e 75bc 1674 103e 7ba7 fbbd
000003b0: 8a6c 193e 2037 0c3e 8fb1 19be 8c0f b8bd
000003c0: 0cf7 b63d 153e c83d d49e 8dbd a692 14be
000003d0: 6a17 0fbe c482 e7bb a219 d2bd f86c 16be
000003e0: 0070 bf3d 9ea8 573c a255 59bd e58b e6bd
000003f0: 5059 bbbc 9952 44bd 81cb eb3c 9d76 b5bd
0.09560165 -0.044926867 0.09429887 -0.14375246 0.09907655 -0.08411645 -0.022560865 -0.054204844
0.07607894 0.122896135 -0.09771552 -0.0057307165 -0.0041076485 0.0808776 -0.13833669 -0.0894792
-0.0077878875 0.09917561 0.05862026 0.048383478 -0.15110186 0.0509711 0.08450016 0.09157599
0.016459938 0.11352902 0.07590409 0.031174608 -0.11619726 -0.13997228 0.10137627 -0.04802199
-0.03934158 -0.06869938 0.10111916 0.0143491225 0.109842114 0.017264301 -0.1318577 -0.14772683
0.10353276 -0.053118154 -0.08452323 -0.1004873 0.058500543 -0.10680207 0.065757394 0.010765597
0.06276445 -0.10944218 -0.09684449 0.14519227 -0.13614798 0.05423692 -0.073644914 0.0890245
0.099090025 0.14364964 -0.008557674 0.013724793 0.12725517 0.07562497 -0.023113932 0.11426925
-0.09804789 0.0028241978 -0.090477094 0.018843722 0.016237449 -0.164961 -0.06721168 0.08884959
0.107065156 -0.1415675 0.123503834 0.07411569 -0.02018359 -0.16312622 0.0101653235 0.051743194
0.028646609 0.12452631 -0.0026687474 -0.14177203 -0.0731626 0.122333385 0.03655446 -0.09258378
0.03942439 0.03994419 0.022065772 -0.0770584 0.16345909 0.065594055 -0.06948395 -0.025350295
0.04538138 -0.10844021 0.07145432 -0.12480507 -0.022170559 0.048542608 0.024642263 0.08158067
0.058719173 7.734619e-05 -0.11052831 0.09668782 -0.047100138 0.06414979 -0.046451125 -0.08384876
0.05559479 -0.032950904 -0.011471069 -0.034184534 0.036235467 -0.03781162 -0.091223285 -0.00064481975
-0.10520469 0.122781694 0.05705214 -0.12872593 -0.045237843 0.13450345 -0.12857969 0.05248619
-0.0097158635 -0.06958055 0.06455672 -0.06435418 -0.12390633 0.11689549 0.08635098 -0.081925005
-0.029081626 -0.0110707935 0.09952419 -0.1484302 -0.1374233 -0.098700866 0.14793423 0.13352427
-0.078724556 0.11709989 0.09833031 0.14757967 0.076873265 -0.15168697 0.037831414 0.09944291
-0.0026642734 -0.15723935 -0.02553632 -0.05581652 0.05803628 -0.15768172 -0.05369352 -0.08997325
-0.07328592 0.086825 0.14182402 -0.042275757 -0.04203607 -0.053467244 0.14315388 -0.048182648
-0.033027124 -0.10770248 0.1213576 -0.12268786 0.04617323 0.092708275 0.055190027 -0.0888619
0.12677883 -0.049826235 0.1116679 0.0794251 0.036498457 0.07448081 -0.049116522 -0.0063744774
0.03712066 -0.08014284 -0.09831405 0.12110012 -0.013252672 0.004253803 -0.03907221 0.014933608
0.11479551 0.111523 -0.017724337 0.03535964 0.13126034 -0.044345293 -0.10168708 -0.15319753
-0.12039941 -0.014781603 0.035892922 -0.011399322 -0.013209991 -0.03332646 0.11774963 -0.03967769
-0.055849597 -0.061457362 -0.038251303 0.022715058 0.09292064 -0.014333714 0.06397048 0.018742377
0.14762767 -0.14319363 0.05639663 -0.098007195 -0.040347386 0.006228852 0.09636516 0.03331904
0.039688952 -0.1313026 0.124662444 -0.1627063 -0.102369525 0.044639356 0.00028895147 0.028063402
0.14704816 -0.014991503 0.14106783 -0.12287804 0.1498281 0.13692904 -0.1500914 -0.0898734
0.08933839 0.09777466 -0.0691506 -0.14509067 -0.13973776 -0.007065149 -0.10258795 -0.14690006
0.09347534 0.01316276 -0.05306018 -0.112571515 -0.022869736 -0.047930334 0.028783562 -0.08860514

net.3.bias f4 [40]
00000000: 6531 1fbe a211 423d 2fdc 9e3d 6a8b 1abe
00000010: 7f51 c1bd c709 903d 6aec 20bc 76c2 fbbc
00000020: 678a 0c3e a43a c93d b06c 7fbd 6996 853d
00000030: cda5 b4bd 964f 9a3d cf19 97bd b59e 843d
00000040: bb55 ddbd f1d2 d6bd 6d64 b0bd c1dd 78bd
00000050: e88d 1bbe 7a4d 1dbe d686 ea3d 0f0e 92bd
00000060: e058 983d 114c 903c 5683 82bb eade 533d
00000070: 794a f03d 159f acbd 12c6 9a3d 4a65 153e
00000080: 6b05 0bbe 91c7 66bd f264 05be 45a4 eb3d
00000090: 39e9 f23d ef59 1fbd 51da 4bbd a5bd 4c3c
-0.15546186 0.047380097 0.077568404 -0.15092245 -0.09439372 0.07033115 -0.0098219905 -0.030732375
0.13724671 0.09825638 -0.06235951 0.06522829 -0.088206865 0.07534711 -0.073779695 0.064755835
-0.108073674 -0.10489453 -0.08612905 -0.060758356 -0.15190852 -0.15361586 0.11451499 -0.07131588
0.074388266 0.017614396 -0.0039829416 0.05172626 0.117329545 -0.0842878 0.0755731 0.1458942
-0.13576286 -0.056342665 -0.13026789 0.11505941 0.1186089 -0.038904127 -0.04976875 0.012496387

net.4.weight f4 [40]
00000000: 7163 853f b3e5 873f 1b20 833f 162d 803f
00000010: daa8 843f 0b82 8d3f 9eb7 803f e945 7f3f
00000020: abfb 853f aaef 833f b623 833f aad3 873f
00000030: 6a36 8a3f ec4d 893f 73d5 833f 9b47 823f
00000040: 786f 803f e617 833f a912 863f 3710 823f
00000050: e372 813f f7ec 813f 521e 823f 7a9f 823f
00000060: 74ac 813f 4d4a 833f ce3e 833f d561 883f
00000070: f457 863f be70 883f 1936 833f 3b7a 813f
00000080: 9427 883f 1366 803f 2217 803f c1e1 833f
00000090: 6a63 823f 1d74 823f 780c 823f 91a9 833f
1.0420972 1.0616974 1.0244173 1.0013759 1.036403 1.1055311 1.0056036 0.9971605
1.0467428 1.0307515 1.0245273 1.061147 1.0797856 1.0726905 1.0299515 1.0178102
1.0034018 1.0241668 1.0474445 1.0161198 1.0113186 1.0150441 1.0165503 1.0204918
1.0130754 1.025705 1.0253541 1.0654856 1.0495591 1.0659406 1.0250884 1.0115427
1.0637078 1.003115 1.000706 1.030327 1.0186589 1.0191685 1.0160055 1.0286123

net.4.bias f4 [40]
00000000: 2684 643d 02e9 023d 634d 8c3c 4e38 723a
00000010: e79e ea3c a76a f83d be8a 86bb d55d 78bb
00000020: 0b54 933d 38f6 ff3c 25f7 133d bcd9 3c3d
00000030: 1b6a a53d dc91 c73d 2f8a 2b3d 3862 7a3c
00000040: 4747 ae3b 180b e53c ed2b 703d a548 bb3c
00000050: 31d0 043c d5ae 1c3c 92c2 873b f05e bb3c
00000060: 7a61 e73b e472 ee3c 1cfe 353d e1f5 b73d
00000070: c3d9 853d e5be 763d a5ae a23c fb9b 093c
00000080: fbfe 813d d418 8b3b 285b 53bb 87b2 3f3d
00000090: 8305 9e3c b434 813c d3b6 163b bee6 d83c
0.05579009 0.031960495 0.017126745 0.00092399574 0.028640224 0.12129717 -0.004105895 -0.0037897725
0.07193764 0.031245336 0.036124367 0.046106085 0.08076879 0.09744617 0.04187983 0.015282206
0.0053185555 0.027959391 0.05863564 0.022861788 0.008106277 0.009563168 0.0041430676 0.022872418
0.0070611807 0.029107518 0.04443179 0.089824446 0.065356754 0.060240645 0.019858668 0.008399005
0.06347462 0.004244903 -0.0032250378 0.046801116 0.019289738 0.015772201 0.0022997155 0.026477214

net.6.weight f4 [1, 40]
00000000: e43b 853e b6eb b5be b79f 263e df76 4bbd
00000010: 8325 6bbe f271 f03e 4980 d2bd df11 103c
00000020: 520c a73e ce73 603e a871 3b3e 4356 aebe
00000030: c8c6 d73e c8b7 c03e 35ef 6b3e 7a3a 053e
00000040: 2063 b13c 704d 363e ceea 8e3e 40ac 083e
00000050: 3f69 1dbe 30b4 d03d 80b0 00be 26e2 213e
00000060: 011b 18bd a903 403e a50e 493e 5521 b93e
00000070: 2cda 933e 5f17 b43e 0e76 3e3e fd05 58bc
00000080: f62e bb3e 323d 6c3d 17f3 55bd 8e9b 703e
00000090: a01d e53d 9579 6fbd 280b 0bbe 1eda 543e
0.26022255 -0.35531396 0.16271864 -0.04967391 -0.22963528 0.46961933 -0.10278375 0.008793323
0.32626587 0.21919176 0.18305075 -0.34050187 0.42143846 0.37640214 0.23040469 0.13010588
0.021653712 0.17802978 0.27913517 0.13346958 -0.1537218 0.10190618 -0.1256733 0.15808925
-0.037135128 0.18751396 0.19634493 0.36158243 0.2887739 0.3517408 0.18599722 -0.0131850215
0.36559266 0.057675548 -0.05223378 0.2349684 0.11187291 -0.05846556 -0.13578475 0.2078633
