Results_paper/regression/10-shot/3_modes/hard/it2/reptile/5models_0.pt (torch, 10759 bytes, 9 tensors)

net.0.weight f4 [40, 1]
000000 72 6c ca 3e 42 9b 9d be ec 08 70 bf 8a 62 40 be
       0.39535862 -0.30782515 -0.93763614 -0.1878759
000010 cc 69 0a 3f 04 7b 49 bf 40 76 38 3f 92 67 36 bf
       0.54067683 -0.7870333 0.72055435 -0.71251786
000020 d2 ad 02 3f 10 a7 16 bf bc 83 6c 3e 38 0d 51 be
       0.5104648 -0.5884867 0.23097128 -0.20415199
000030 9b 68 62 bf 3c 93 a6 3e da 89 29 3f 8d 92 73 3f
       -0.88440865 0.32534206 0.6622597 0.95145494
000040 12 b7 45 3f 4a 83 f2 3e 1d d6 f4 3e 5a f5 4a 3f
       0.7723247 0.4736579 0.47819605 0.79280627
000050 78 3d 7d 3e cd 42 93 3c 3a 86 3e 3f fa 18 1c bf
       0.2473048 0.017976189 0.74423563 -0.6097561
000060 5e 35 38 be 58 27 33 be 89 46 99 be b0 d2 26 bf
       -0.17989108 -0.17495477 -0.29936627 -0.65165234
000070 38 66 40 bf ee 13 2e be 5b 9c 29 3f ef 2b 8d 3e
       -0.75155973 -0.1699979 0.66254205 0.2757258
000080 87 96 28 bf 82 17 8d 3d 12 a9 8c 3d d7 7c 5d 3e
       -0.65854686 0.068892494 0.06868185 0.21629654
000090 e2 cf da bd 00 c2 42 3f 3a f3 3e 3f 27 c7 60 3f
       -0.10684182 0.7607727 0.74589884 0.8780388

net.0.bias f4 [40]
000000 c4 dc d4 3e 40 4f fe bc 9a f6 48 bf f6 ac 60 bf
       0.4157468 -0.031043649 -0.78501284 -0.8776392
000010 2c a0 4a 3f ea 07 59 3f 0e 47 17 bf d2 73 2c bf
       0.7915065 0.847777 -0.59092796 -0.6736423
000020 92 33 05 bf 18 eb 7f 3e 78 8d 18 be e8 b9 04 3f
       -0.52031815 0.24992025 -0.14897716 0.5184617
000030 08 57 3d be c2 cd 29 3f 16 9f 19 bf b0 e0 67 be
       -0.18490231 0.66329587 -0.6000837 -0.22644305
000040 18 28 13 be a0 b7 f3 3d 38 7a 80 3e e0 56 0b 3e
       -0.14370763 0.11900258 0.25093246 0.13607359
000050 ba fc 41 3f 36 12 a3 be 60 32 2a bf ec fe 2a 3f
       0.75776255 -0.3184983 -0.66483116 0.6679523
000060 44 b8 36 bf 90 eb 17 bf 78 0c f8 3e 20 47 ce bd
       -0.7137492 -0.59343815 0.48447013 -0.1007216
000070 dc 17 f5 3e 64 4a b9 be 6a 1b 53 bf c0 3b 77 3e
       0.47869766 -0.36189568 -0.82463706 0.24143887
000080 70 6d be 3d ac ad f4 be 14 fb 85 3e 48 51 59 3f
       0.09298217 -0.4778875 0.2616812 0.8488965
000090 48 6b b0 be 68 dc 2d bf b0 81 0a 3e 00 e6 3d 3e
       -0.3445685 -0.6791444 0.13526034 0.1854477

net.1.weight f4 [40]
000000 6f 5f 7a 3f 3e f1 80 3f 3d b8 80 3f 2e 0d 80 3f
       0.9780187 1.0073621 1.0056225 1.0004022
000010 32 8e 80 3f 93 b6 7d 3f e8 55 7f 3f 87 28 81 3f
       1.0043395 0.9910671 0.9974046 1.0090493
000020 f7 2e 7b 3f 24 01 7f 3f bf a3 7c 3f 9b 87 80 3f
       0.9811854 0.99611115 0.98687357 1.0041384
000030 cc ea 7f 3f 6f 13 80 3f 1d e2 7d 3f 68 ab 79 3f
       0.99967647 1.0005931 0.99173146 0.9752717
000040 f4 11 80 3f 90 40 80 3f 92 75 7d 3f 9f 49 7d 3f
       1.0005479 1.0019703 0.99007523 0.9894046
000050 a6 3a 80 3f b8 16 80 3f ac 33 7c 3f 3e 5b 80 3f
       1.0017898 1.0006933 0.98516345 1.0027845
000060 ab 87 82 3f 3b bf 80 3f f7 e7 80 3f d7 6b 80 3f
       1.0197653 1.0058359 1.007079 1.003291
000070 ae 10 82 3f 3d 13 7d 3f b5 0a 7e 3f 56 92 81 3f
       1.016134 0.9885748 0.9923509 1.0122783
000080 f2 0b 80 3f b2 27 7f 3f 9b 53 81 3f f2 d0 7e 3f
       1.0003645 0.99669945 1.0103639 0.99537575
000090 90 39 7e 3f 7d 3a 80 3f 68 f0 7c 3f 21 02 7f 3f
       0.99306583 1.0017849 0.9880433 0.99612623

net.1.bias f4 [40]
000000 e4 a7 76 bd f3 ba 4d 3d 98 81 0b 3d e9 0b fd 3b
       -0.060218707 0.050227117 0.034059137 0.007722367
000010 f5 fb 1f bd d5 a7 59 3c cc f6 4b bd 16 e5 71 3d
       -0.039058644 0.013284643 -0.04979591 0.059056364
000020 ce 32 e3 3b 02 4a e2 3d 29 36 ca bc a5 7a 54 bd
       0.0069335466 0.11049272 -0.024684029 -0.051874775
000030 5f 83 39 3e 9e 8d 21 bd c7 4c 92 bd 04 2f 26 be
       0.1811652 -0.039441697 -0.0714355 -0.16228873
000040 99 e9 77 bd ac 6d 05 3c a8 01 7c 3d 2f a5 6a bd
       -0.06052551 0.008143824 0.061525017 -0.057286438
000050 43 6c 34 bd 19 02 04 bd 5a 9b 18 bd 10 e8 75 3b
       -0.04404856 -0.032228563 -0.03725753 0.0037522353
000060 32 e7 c3 3c 2f 69 a7 3d 30 58 0f 3d 5e 64 08 bd
       0.023913953 0.08174359 0.03499621 -0.033298843
000070 ed 7f c0 bb 19 73 57 3d ad 8c 80 3d e4 cc 57 3c
       -0.005874625 0.0526 0.06276832 0.013171408
000080 4e 04 ef 3c d3 87 26 bd ec 5a 97 bc 76 b8 2b bd
       0.029176857 -0.040656876 -0.018475972 -0.041923963
000090 a3 e8 91 3c 76 0a e0 bc d1 e2 d5 bc 06 86 15 3d
       0.017811125 -0.027348738 -0.026109131 0.036504768

net.3.weight f4 [40, 40]
000000 4e 30 c8 bd ab 03 38 bb 77 b6 09 be 0e 21 d3 bd
       -0.097748384 -0.0028078358 -0.13448511 -0.10309039
000010 4a 43 1c be 65 d5 c1 3d 2d 65 7e 3d 6f c9 4e bc
       -0.15260044 0.0946453 0.062108207 -0.012621268
000020 6c b7 95 3c 90 48 1b 3e b6 d8 b5 3d d8 6a c7 3d
       0.018275939 0.15164399 0.08879225 0.09737176
000030 e7 4c ce bd 6b 91 45 bd e0 1c d5 bc bf 3f 20 3e
       -0.10073262 -0.048234385 -0.026014745 0.15649317
000040 c7 aa 16 be 02 d3 0b 3e b3 81 b1 3d a9 90 20 3d
       -0.14713584 0.13654712 0.08667316 0.03920046
000050 0e d9 ab 3d e5 ce 17 3e b6 25 19 be 12 2f f3 3d
       0.08391009 0.14825018 -0.14955792 0.11874212
000060 e9 a1 a1 3d 65 5f 80 3d 20 e9 fd 3c c2 78 f0 3d
       0.0789221 0.06268195 0.030994952 0.11741783
000070 36 16 f7 3d d5 9b 77 3d cd d9 e3 3b bf 23 b0 3c
       0.12064783 0.060451347 0.006953454 0.02150142
000080 c4 7a e1 3d ca 5a d1 bd 2b 05 a1 bd 18 7f dc 3d
       0.11009744 -0.10222395 -0.07862314 0.10766429
000090 f0 1d 82 3d b9 6d 17 3d 65 17 0a 3e a7 b7 cb bd
       0.063533664 0.036969874 0.13485487 -0.09947138
0000a0 8d 7e fe 3d 25 79 fc 3d 64 9b 0d be f3 57 70 3d
       0.124264814 0.12327794 -0.13828808 0.058677625
0000b0 da 38 d1 3d 0e c3 54 bd e1 b8 b7 3d 01 30 18 3e
       0.10215922 -0.05194383 0.0897081 0.14862062
0000c0 24 00 d3 3d f1 33 a8 3d 2a 29 b2 bd 09 d3 f7 bb
       0.10302761 0.08213032 -0.08699258 -0.007562999
0000d0 aa 33 b5 3d fe bd 8b bd 38 2a 01 3e a3 9f 20 bb
       0.08847745 -0.068233475 0.12613761 -0.0024509213
0000e0 dc a1 39 3c 5f da 80 bd 65 cc 9f 3c e6 09 88 bd
       0.011330094 -0.06291651 0.019506643 -0.06642513
0000f0 55 e8 0a 3e 0f 22 49 3b 86 5e 46 3d 9d 51 0d 3e
       0.1356519 0.0030690467 0.04842999 0.13800664
000100 ee 4b 14 3e 75 1a 7f bd 2e 4c 91 3c a0 db 6a 3b
       0.1448209 -0.06228109 0.01773652 0.0035836473
000110 fc 7d 34 3d f3 de 55 3d 9b 7e c8 bd fc 88 da bd
       0.04406546 0.052214574 -0.09789773 -0.10670659
000120 a7 a5 ac 3c 3c 69 71 3c e6 26 14 be e7 3e 10 3e
       0.021075083 0.0147345625 -0.14467964 0.14086495
000130 53 71 a6 bd 20 e6 32 3a 19 36 f6 3d 38 3e db 3b
       -0.08127084 0.00068244524 0.12022037 0.0066907667
000140 aa 40 aa bd 04 c0 80 bd 89 2b 0d be 32 9a 84 3c
       -0.08313115 -0.06286624 -0.13786139 0.016186807
000150 52 43 14 3e 6d d1 f5 3d c2 49 01 3e 1c d8 dc 3d
       0.14478806 0.120028354 0.12625793 0.10783407
000160 70 7e ae bd e8 72 18 3e 74 d8 10 be 93 e5 d3 3d
       -0.0852021 0.14887583 -0.1414507 0.10346522
000170 aa f5 b3 bd d4 93 97 bc 90 12 26 3c 18 cb 0a be
       -0.08787091 -0.018503107 0.010136262 -0.13554037
000180 2c 97 fd bd 71 f5 ab bd c1 33 8f 3b d1 f7 92 3d
       -0.12382349 -0.083964236 0.004370183 0.071761735
000190 b3 46 4c 3d 7b 22 37 3c 89 01 8f 3d 03 63 00 be
       0.04987211 0.011177654 0.06982715 -0.1253777
0001a0 b3 88 2c 3e c2 f4 ef bd 73 f7 f6 3d 54 62 2e bd
       0.16849022 -0.11716606 0.12058916 -0.04257424
0001b0 85 79 5c bd 82 ba 0f be fe 62 e8 3d f1 10 58 3d
       -0.053826828 -0.14035991 0.11347006 0.05275053
0001c0 14 8c 2b bd 97 56 01 3e 64 71 a6 3d d6 e3 9a 3d
       -0.041881636 0.12630688 0.08127096 0.075629875
0001d0 85 42 f5 bd 8d ff 18 bd fe 32 cf 3d 75 3f e7 3d
       -0.11975578 -0.037353087 0.10117148 0.112914
0001e0 21 89 d6 bd 41 48 14 bc a6 91 be bd 22 fd d9 bd
       -0.10475374 -0.00905043 -0.09305124 -0.106439844
0001f0 00 fb bd 3d 68 7d 96 bd 32 fb d5 bd c3 bf 28 3d
       0.0927639 -0.07348138 -0.10448302 0.041198503
000200 82 88 f4 3c 25 16 11 be 70 fe a9 bd c2 64 a9 bd
       0.029850248 -0.14168604 -0.08300483 -0.08271171
000210 06 ea 01 3e 4c 50 cc 3d 50 be 21 bc 0a 7a 16 bd
       0.12686929 0.09976253 -0.009872034 -0.03673748
000220 61 49 97 3d 2a c6 03 be d7 46 2e 3e 18 b1 b7 bc
       0.07387043 -0.12868562 0.17019211 -0.022423312
000230 8b 82 16 3e 68 4e 80 bd 03 ac f9 ba 06 6e 76 bd
       0.14698236 -0.06264955 -0.0019048456 -0.06016352
000240 ba 1e d7 bd 3d 1e 85 bd b7 e9 79 3d 3a 61 11 be
       -0.105039075 -0.06499908 0.061013903 -0.14197245
000250 ae 7c 0d be af c8 13 be 14 d4 0f bd 44 1b 02 3e
       -0.13817093 -0.14432023 -0.035114363 0.12705714
000260 ff af 77 3c 37 05 e5 3d c2 2a 13 bd 37 42 8f bd
       0.015117644 0.11182635 -0.03592945 -0.06995051
000270 d7 a0 40 bd f0 d2 19 bc 4e 22 70 bd c3 79 08 bc
       -0.04702839 -0.00938867 -0.058626465 -0.0083298115
000280 02 ba 69 3c f5 89 05 3d 97 ad c4 bd 29 15 85 bd
       0.014265539 0.03260227 -0.09603422 -0.064981766
000290 4e 7a ac 3d 81 32 18 3e 92 06 19 3e 7d 73 4a 3d
       0.08421765 0.14863016 0.14943913 0.049426544
0002a0 d4 55 a4 bd b8 d9 ee 3d 99 8f cc 3d 03 30 c5 3d
       -0.08024183 0.1166262 0.099883266 0.09628298
0002b0 6e fe be 3b 6d dd ea bc ec 16 19 bd d2 2f 16 3e
       0.00582867 -0.028670037 -0.037375376 0.1466668
0002c0 fa 9c 15 3e eb f7 3f 3c 24 6a cb bc 94 04 5a bd
       0.14610663 0.011716823 -0.024830885 -0.053227022
0002d0 16 a8 22 3b 3a c3 18 3c e9 98 b0 bd 09 6d fb 3d
       0.0024819425 0.009323889 -0.08622915 0.12276656
0002e0 e6 57 9d bd 2d 3c 2c 3e f4 76 8f 3d 6c 18 a0 bd
       -0.07682781 0.1681983 0.070051104 -0.07817158
0002f0 13 3d ad 3d 2e af bd bc 76 75 04 3e 96 fb de 3d
       0.084589146 -0.023154821 0.12935433 0.1088783
000300 f7 5e 11 3e 29 54 0c be f4 2b 4e bd d0 1f fb 3d
       0.14196382 -0.1370398 -0.050334886 0.12261927
000310 81 29 0b 3d cb 13 a4 3d b0 66 ad bd 3b 5e 44 bd
       0.033975128 0.08011588 -0.08466852 -0.047941428
000320 48 49 b4 bc 26 3b 06 3d 33 96 c3 bd 35 3f 07 3e
       -0.0220076 0.032771252 -0.095501326 0.13207705
000330 97 0b 94 bd 8a 62 10 3e 3c 43 fe 3d eb 7c 06 3e
       -0.07228773 0.1410009 0.12415168 0.1313359
000340 71 0c 1a 3e 72 fb 40 bd 75 7c 0e 3e a1 96 bf 3d
       0.15043809 -0.047114797 0.13914664 0.09354902
000350 7c 78 0b 3e a4 38 1a be d9 d3 06 be 50 4d 4a 3c
       0.1362018 -0.15060669 -0.13166751 0.012347534
000360 58 8a 59 3d 60 0a 24 bd 15 5b ca bb f6 a2 0c be
       0.05311045 -0.040048957 -0.0061754086 -0.1373404
000370 9b 02 cf bd 10 b7 00 3e 95 da 5a 3d 9e df d8 bd
       -0.10107919 0.12569833 0.053431112 -0.105895266
000380 b8 c2 fc bd 57 85 9a bd 6c fe cd 3d 78 4b dc 3d
       -0.12341827 -0.07544964 0.10058293 0.10756582
000390 b3 7e 17 be 52 ef e5 bd b9 61 a4 3d 2b 1f d0 bd
       -0.14794426 -0.11227287 0.080264516 -0.10162195
0003a0 fe 9d 8d bc 40 b8 2f bd 2a 0d 13 be ec f3 5a 3d
       -0.01728725 -0.042900324 -0.1436049 0.05345528
0003b0 64 5b f9 3d 2e 44 9c 3b 0e f3 1d be 65 a0 18 be
       0.121756345 0.00476887 -0.1542475 -0.14904936
0003c0 6b 9d 28 bc ae f8 d4 3c 5b f1 92 3d 2c 4a c9 3c
       -0.010291438 0.025997486 0.07174941 0.0245715
0003d0 ab ce f3 3d 03 0f 69 bd 42 9b 08 3e 94 6d 0f be
       0.11904653 -0.056899082 0.13340476 -0.14006644
0003e0 51 25 2c bd 8d bd 16 be 5e e9 9e 3d e5 c4 1b be
       -0.042027775 -0.14720745 0.07759355 -0.15211828
0003f0 20 6b dc bd e8 44 88 3d 37 bd f3 3d 6c e2 07 be
       -0.1076262 0.06653768 0.11901324 -0.13269967

net.3.bias f4 [40]
000000 df 5e a8 bc 8b 8d 53 bd 7b f4 3a 3d 59 2c b4 bc
       -0.02055305 -0.051648658 0.04564331 -0.021993803
000010 32 5a a6 bd 23 7d 09 3d 43 20 2c bd 20 54 a0 bd
       -0.08122672 0.033566605 -0.042022955 -0.078285456
000020 ab 3b 75 3d 2d 55 89 bc 99 07 02 3e 4a 59 83 bb
       0.059871357 -0.016764248 0.12698211 -0.004008447
000030 c1 16 b7 3d ff a7 2e 3d bb 2e 02 bd 41 fe ac bd
       0.08939887 0.042640682 -0.031782847 -0.084469326
000040 af 7f ba bd 2e 99 5c 3d 12 a5 5b bd 6c 86 2f 3d
       -0.09106385 0.05385702 -0.05362422 0.042852804
000050 89 bc 08 bd 05 a1 94 3d f6 ae 8b bd 7e 82 8c bd
       -0.033382926 0.072572745 -0.068204805 -0.06860827
000060 0f 61 aa 3d 56 32 0d 3e 4b 9b 6c bd aa c9 13 be
       0.08319294 0.13788733 -0.057765286 -0.14432397
000070 b8 d5 0f bd d9 9f b0 3d b8 c3 f7 3d 68 82 05 3e
       -0.035115927 0.086242385 0.12097877 0.13038027
000080 9f 6c b4 bd 91 8d 0d be 6a b6 54 3d 43 fa dc bc
       -0.0880978 -0.13823535 0.051931776 -0.026974803
000090 d8 1a c8 bd c2 ff b7 3d 31 dd 0c 3c ea 5e 04 be
       -0.09770745 0.08984329 0.008597658 -0.12926832

net.4.weight f4 [40]
000000 58 83 86 3f 74 91 8a 3f e8 02 8d 3f 55 be 84 3f
       1.0508833 1.0825639 1.1016512 1.0370585
000010 01 57 90 3f 07 40 87 3f 09 9e 8b 3f 13 83 8a 3f
       1.1276551 1.0566415 1.0907604 1.0821251
000020 0e ad 8c 3f 43 dd 8b 3f a8 08 91 3f 02 99 86 3f
       1.0990312 1.0926899 1.1330767 1.0515444
000030 2e e7 86 3f ca fb 86 3f b2 f6 85 3f 1a f4 84 3f
       1.05393 1.054559 1.046591 1.0386994
000040 d8 57 89 3f 59 00 86 3f 6f 7f 89 3f 53 6b 88 3f
       1.0729933 1.0468856 1.0742015 1.0657753
000050 dc f0 8c 3f 1b 70 86 3f 80 e2 89 3f 82 57 8f 3f
       1.1011004 1.0502962 1.0772247 1.119858
000060 ab e3 85 3f 0e 47 91 3f 14 7e 8b 3f e8 1f 8d 3f
       1.0460104 1.1349809 1.0897851 1.1025362
000070 8e 8b 89 3f 5a 33 8b 3f 32 52 92 3f a9 52 8b 3f
       1.0745714 1.0875046 1.1431334 1.0884601
000080 67 04 85 3f ef 2f 8b 3f 21 99 8b 3f 14 32 88 3f
       1.0391968 1.0874003 1.0906106 1.0640283
000090 b0 a0 8f 3f 97 ff 83 3f f7 a5 87 3f c4 fd 8d 3f
       1.1220913 1.0312375 1.0597523 1.1093068

net.4.bias f4 [40]
000000 0f 69 ea 3c 96 ab 05 bd 9d 96 97 3d 86 9e 7c 3d
       0.028614549 -0.03263434 0.07401774 0.061674617
000010 d8 18 18 3c 63 97 74 3d b7 d4 b4 3d 73 ab e4 3b
       0.009283267 0.059714686 0.08829635 0.006978446
000020 15 6c 13 3d b1 5a 91 3d 02 1e 87 be d3 8c 2f 3d
       0.035991747 0.07097376 -0.26390082 0.04285891
000030 0d 6f 0e 3e 2d 8d 45 3d 55 86 0d 3d ea af 27 3e
       0.1390955 0.04823034 0.034551937 0.163757
000040 9c 06 1f bd c4 7f 5a 3d 79 57 07 3d 4b fd 89 3d
       -0.038824663 0.053344503 0.033042405 0.06737765
000050 7b 36 0c 3e 54 7c 59 3d e9 cf 8a bd 02 3c db 3c
       0.13692658 0.053097084 -0.06777937 0.026762012
000060 eb 90 61 3d 78 a7 01 3e de 2e fd 3d 26 96 82 3c
       0.055069845 0.1266154 0.12362455 0.015940737
000070 f7 d6 ac bd f4 ba ea 3d 95 06 3f bd f3 93 27 bb
       -0.08439439 0.1146144 -0.046637136 -0.0025570362
000080 16 50 4d 3d 9c d8 bd 3d 7e 1b 0c bd 5e 77 5c 3d
       0.050125204 0.092698306 -0.034205906 0.053824775
000090 f6 f3 08 be 67 5a 3c 3d 31 09 41 3d 09 d6 94 3e
       -0.13374314 0.045984652 0.047127906 0.29069546

net.6.weight f4 [1, 40]
000000 ae e9 d6 bd 19 48 8f 3e 52 84 c2 3e 54 29 f3 3d
       -0.104937896 0.27984694 0.37991577 0.11873117
000010 a3 99 d9 3e 8c 4d 73 3e ea 6b ad 3e 91 8d b7 be
       0.42500028 0.2376005 0.33871394 -0.35850194
000020 79 35 ae 3e c6 df ac 3e e1 bd 07 3f 99 54 de 3d
       0.3402517 0.33764476 0.5302411 0.108559795
000030 99 d4 8f 3e 1b ea 35 3e e5 c2 c6 bd 40 5f 62 3e
       0.28091887 0.17765085 -0.09705142 0.22106647
000040 22 9f 91 3e a5 c4 1b 3e b5 13 6f 3e 52 18 47 3e
       0.2844172 0.15211733 0.23347361 0.19442871
000050 5c 07 e4 be fa ea 07 3e a5 56 a6 3e f9 49 e5 3e
       -0.44536865 0.1327323 0.3248798 0.44783
000060 45 9c cf 3d da cf f8 3e 28 90 cb be b7 c3 b1 3e
       0.10137228 0.48596078 -0.3975842 0.3471963
000070 ff 22 9d 3e dd 87 d0 be 79 2c f1 3e 6e 31 bc 3e
       0.30690762 -0.40728655 0.47104242 0.36756462
000080 77 0b 47 3d 8a 52 9a 3e 84 37 ba 3e d4 85 27 3e
       0.048594918 0.30141097 0.3637048 0.16359645
000090 e7 4b df 3e c4 50 f0 3b 95 a6 11 3e 7a 3d 06 3f
       0.43612596 0.0073338468 0.14223702 0.52437556
