Results/regression/5-shot/3_modes/hard/it4/maml/5models_1.pt (torch, 10759 bytes, 9 tensors)

net.0.weight f4 [40, 1]
000000 7c 9a e2 bf 13 9e 44 be 6c eb bc bd 63 c4 e0 bf
       -1.7703395 -0.19200926 -0.09224591 -1.7559932
000010 29 b4 99 3f 53 d6 84 3f 72 47 d8 3f 70 70 a6 bd
       1.2008106 1.0377907 1.6896803 -0.081269145
000020 33 1a 28 bf fa f6 c1 3f b8 0d 37 bf 9a 06 94 3f
       -0.65664977 1.5153496 -0.7150531 1.1564515
000030 2c 93 a2 3f 81 f9 73 3e f6 f9 23 3f cb 08 9f 3f
       1.2701163 0.23825647 0.64053285 1.2424558
000040 17 bc c6 bf 39 1f 6c bd 5b ba 05 be 36 c0 e9 bd
       -1.552615 -0.057646964 -0.1305937 -0.114136145
000050 f7 50 aa 3f 2d df 2a 3f 9c 97 63 bf 24 33 b7 3f
       1.3305959 0.6674679 -0.8890321 1.4312482
000060 4c ca 89 3f b5 00 a0 3f da ca 44 bf 28 a2 e0 bf
       1.0764861 1.2500216 -0.76872027 -1.7549486
000070 a1 c0 bf be 22 4e 39 3f 78 f5 58 bf f7 39 f6 3f
       -0.37451652 0.72384846 -0.84749556 1.923644
000080 20 73 c0 3f f9 b2 82 be 7b 96 55 3f aa 8f 0a bf
       1.5035133 -0.2552717 0.8343274 -0.54125464
000090 3a 50 90 3f ca db db bd 89 6b bd 3f e5 e7 0d be
       1.1274483 -0.10735281 1.4798442 -0.13857992

net.0.bias f4 [40]
000000 84 09 ae be 77 52 18 bf 4b d0 bf be d4 4b 85 3d
       -0.33991635 -0.5950083 -0.37463602 0.06508604
000010 c1 1f 05 3f 5f 61 b4 bd 31 30 3a 3f 95 7b aa be
       0.5200158 -0.088076346 0.72729784 -0.3329741
000020 f0 8c 74 bf 37 44 57 3e 31 8b 7d 3f 27 08 19 3e
       -0.95527554 0.21022116 0.99040514 0.14944516
000030 1c 40 d9 3d 19 38 d8 3d 53 d9 a0 3e ed 43 fa 3e
       0.10607931 0.10557575 0.31415805 0.48879948
000040 37 0c 8a bc d4 ae 6e bf 13 1c 26 3f 7e df 7d 3f
       -0.016851528 -0.93235517 0.6488659 0.99169147
000050 a4 53 e8 bd 70 b4 2e bf fe c9 6f bf 7e 2e 0e 3f
       -0.11344078 -0.68244076 -0.9366759 0.5553969
000060 87 ea 0c bf e9 0a 74 3f 05 64 14 3f bf eb 9b 3d
       -0.5504536 0.9532915 0.5796512 0.076133244
000070 34 5a 1c 3f d0 a9 38 bf be 7e 27 bf 2f e9 a1 be
       0.6107514 -0.72134113 -0.6542777 -0.31623217
000080 a6 8a 2f 3f 28 87 58 3e 70 e9 01 bf 8b 20 e8 be
       0.68570936 0.21145308 -0.5074682 -0.45337328
000090 4b 2e 19 3f 06 3f 18 3d 18 46 fa 3d 21 0f 65 3f
       0.5983626 0.03716948 0.122204006 0.8947621

net.1.weight f4 [40]
000000 dd ac 6f 3f a1 12 5d 3f 11 72 5f 3f 12 98 6f 3f
       0.93623143 0.8635655 0.87283427 0.93591416
000010 3e e8 80 3f ed 47 79 3f a7 a8 67 3f d9 b3 55 3f
       1.0070875 0.97375375 0.9049172 0.8347755
000020 ca 3e 5a 3f 24 63 66 3f d4 41 53 3f 6c 82 59 3f
       0.8525206 0.89995027 0.8252232 0.84964633
000030 b1 00 82 3f 9f 6b 40 3f 82 65 5d 3f bb 8a 4a 3f
       1.0156461 0.75164217 0.86483014 0.79117936
000040 fa 45 75 3f 64 f8 48 3f 24 a0 4e 3f b4 16 69 3f
       0.958099 0.78504014 0.80713105 0.9105027
000050 d0 5c 6a 3f 66 b3 5a 3f 47 6a 48 3f 21 52 55 3f
       0.9154787 0.8542999 0.78287166 0.83328444
000060 a4 90 7b 3f 71 37 60 3f 6b 41 82 3f 07 17 4c 3f
       0.9826758 0.87584597 1.0176214 0.79722637
000070 4e b5 6d 3f 74 e8 61 3f e5 76 64 3f 32 d6 63 3f
       0.92854774 0.8824532 0.8924392 0.8899871
000080 85 8b 3b 3f bc 20 7b 3f 60 7c 4f 3f 53 f7 76 3f
       0.73259765 0.98096824 0.81049156 0.96471137
000090 a0 57 85 3f be 6c 5c 3f 76 4f 72 3f 45 15 6d 3f
       1.0417366 0.8610343 0.946525 0.9261058

net.1.bias f4 [40]
000000 48 0f 30 3d 86 36 b7 3e 54 57 a5 bd c3 9b b7 3c
       0.042983323 0.35783786 -0.08073297 0.02241314
000010 c4 76 9c 3e 7d 19 da 3e 92 49 b0 3e 36 10 19 3f
       0.3055936 0.4259757 0.3443113 0.5979036
000020 b9 5a 5b 3e cf 4b d1 3e 2b 7d 2f 3a f6 42 75 3e
       0.21421327 0.4087815 0.00066943717 0.23951325
000030 e8 f4 36 3d a9 5f 3e 3f 74 37 96 be 77 b1 2f 3f
       0.044667155 0.74364716 -0.29339182 0.68630165
000040 22 89 24 3e 7d 85 3b 3f aa af 80 3e b0 1a db 3e
       0.16067937 0.7325056 0.2513402 0.42793798
000050 cf 20 8f be b2 df 90 be ee ff c3 3d c5 44 24 3f
       -0.27954718 -0.28295666 0.09570299 0.64167434
000060 97 df 04 3f e5 25 49 3e 98 0f 98 3e 5c a7 6c bd
       0.5190367 0.19643362 0.29699397 -0.057776794
000070 37 aa 00 3e 0a 00 e6 3c d7 79 db bd a6 1a 27 3d
       0.12564932 0.02807619 -0.107165985 0.0407969
000080 f3 47 13 bf 7b 40 88 3e b7 0b d2 3e 50 c3 c7 3e
       -0.5753166 0.26611695 0.41024563 0.390162
000090 88 b0 dd 3e 6f d3 be 3e 4e fc bc 3e 14 80 a7 3e
       0.43298745 0.37270686 0.36911243 0.32714903

net.3.weight f4 [40, 40]
000000 d3 e4 1d 3e 2b c9 76 3d f0 bb 57 3d a5 73 42 3e
       0.15419321 0.060250442 0.052669466 0.18989427
000010 3e 89 a6 3c cd cc 74 be 78 79 30 be 30 e2 3c 3e
       0.020329114 -0.2390625 -0.17233837 0.18445659
000020 ba 5c 6e 3d d1 f8 2c bd e3 bb b2 3c 53 16 9f bd
       0.0581939 -0.042229477 0.021818107 -0.0776793
000030 f4 19 28 be 7b 0e 58 3e 45 f7 02 be ac 79 55 be
       -0.1641615 0.21099274 -0.12789638 -0.20847195
000040 24 1d db 3d 28 3a 34 3d 23 65 9b bd 80 fc 82 bd
       0.106989175 0.044000775 -0.0758765 -0.06395817
000050 b3 c8 25 be 23 0e 4f 3d b1 b9 01 3e 62 e0 b4 bd
       -0.16189842 0.05055059 0.12668492 -0.0883186
000060 f8 a2 a4 bd 6f 52 11 be d1 91 69 3d 7a de 44 3e
       -0.08038896 -0.14191602 0.057023827 0.19225493
000070 4f 89 2d bc 91 ee 6f be 1b 46 82 3d cc 59 12 bd
       -0.010591819 -0.2343085 0.06361028 -0.03573017
000080 59 c0 9c bc 35 5d 71 bd db e3 67 bd d8 f6 82 bd
       -0.019134687 -0.05892678 -0.056613784 -0.06394738
000090 50 01 17 be 77 dd 4f bc bc a2 0d be 74 b6 00 3e
       -0.14746594 -0.012687079 -0.1383161 0.125696
0000a0 76 4a 0e be 7a b2 e5 bd 37 95 a4 bd e7 c9 02 be
       -0.13895592 -0.11215682 -0.08036273 -0.12772332
0000b0 49 5b a2 bd 8a 09 1c 3e 66 80 10 be ae ba db bd
       -0.079275675 0.15238014 -0.1411148 -0.10728966
0000c0 3a 40 54 3e 69 1f 2b be 48 51 20 bd 1c 7f 88 bc
       0.20727625 -0.16711201 -0.039140016 -0.016662173
0000d0 7a cc 24 be e9 c9 1e bd 07 ff c3 bd 38 22 9a 3d
       -0.16093627 -0.038766775 -0.09570127 0.07526058
0000e0 8e 61 c0 3b 65 81 ca bd 5c 12 72 bd 3a 9b bc 3d
       0.0058710044 -0.09887961 -0.05909954 0.092092946
0000f0 66 c8 0d be b6 c9 20 3e 8b d5 50 3d 88 28 66 3c
       -0.13845977 0.15701947 0.0509849 0.014047749
000100 d6 9c fc bd ae 4d c6 bd 08 43 d2 bc e5 8a 29 bd
       -0.123346016 -0.09682785 -0.025666729 -0.041392226
000110 34 34 97 bd cb f2 90 3b 2e 98 0a 3e d1 af 89 bd
       -0.07383004 0.0044234744 0.13534614 -0.067229874
000120 32 7c e2 3c 31 45 7e 3c 06 e2 3d be 76 f5 ff 3c
       0.027647112 0.015519426 -0.18543252 0.031244975
000130 d1 fa c3 3d 61 d8 a6 3d f6 3d c5 bd f3 9e a4 3d
       0.09569324 0.0814674 -0.09630959 0.0803813
000140 4f 2d a9 bd fd bb c1 3c d4 ea a8 3d 2d 49 5b be
       -0.08260595 0.02364921 0.08247915 -0.21414633
000150 95 ae 31 3c bd be da 3c cb f1 6e 3b 4d 43 d9 bc
       0.010844846 0.02670228 0.0036460038 -0.02652135
000160 97 a9 f3 3d a7 c3 e5 bd e4 72 78 bd 48 3e c3 bd
       0.11897581 -0.11218958 -0.060656443 -0.095333636
000170 a0 6a 50 3d 5f aa ab be 5e 3d d4 bd 44 30 eb bc
       0.050882936 -0.3352842 -0.10363267 -0.028709538
000180 03 da 55 be cd ac 3b be e9 30 e1 3c 95 be 0b 3c
       -0.20883946 -0.18327637 0.027489142 0.008529325
000190 5e 15 dd 3d 27 2c ae bd 8f ca 00 be e8 11 f5 bd
       0.10795091 -0.08504515 -0.1257727 -0.11966306
0001a0 e0 f9 bb bd 18 2f e2 bd 68 ad 43 be 83 0b 80 bc
       -0.09178519 -0.11044139 -0.19109118 -0.01563049
0001b0 91 cd 03 39 b9 f1 8e 3d 41 e6 bd bd 19 75 f9 3d
       0.00012569713 0.06979699 -0.09272433 0.12180538
0001c0 f2 a6 b3 3d 87 1d 35 be b8 f2 49 be c9 0c 93 bd
       0.08772077 -0.17687045 -0.19721496 -0.07180173
0001d0 49 93 4a 3d ba 63 77 bd 98 d8 38 be ff 20 b6 3d
       0.04945687 -0.06039784 -0.18051374 0.08893012
0001e0 bd 62 0f 3e 6a 9b e8 3d 49 69 59 bd 70 4a 9f 3e
       0.1400251 0.11357768 -0.053078923 0.3111148
0001f0 e0 80 b4 bd e3 de 8e bd 09 cc 37 be 53 58 8f 3d
       -0.088136435 -0.06976106 -0.17948927 0.069992684
000200 b0 1a 86 3d 31 90 e0 bd b6 8d e9 3d 4e 32 28 be
       0.06548059 -0.10965002 0.11403982 -0.1642544
000210 23 06 23 3c f7 5f 45 3e 06 d0 0c be 05 5b 38 3d
       0.009950194 0.19274889 -0.1375123 0.045008678
000220 e6 ea 15 3e 91 7d c7 3d c4 a7 52 3e c7 02 bd bd
       0.14640388 0.09740747 0.2057181 -0.09229045
000230 51 c7 1e 3c 1c 28 25 bc c5 3e 27 3e 61 32 e9 bc
       0.009691075 -0.010080364 0.16332538 -0.028466405
000240 05 68 1c be b0 04 cb 3d c1 33 4e 3d 1f 5a f2 3d
       -0.15274055 0.099130034 0.050342325 0.118335955
000250 f0 81 19 3d 83 e2 1a 3d 19 1a 20 3e 19 94 02 be
       0.037477434 0.037813675 0.15634955 -0.12751807
000260 b0 67 13 3d b6 da 2e 3e 0f ce 88 bd c1 8b 2d 3e
       0.035987556 0.17075619 -0.066799276 0.16947843
000270 c6 e0 19 3c ff b2 bb 3d ff c4 b1 bd ca 4f d7 bd
       0.009391969 0.09165 -0.08680152 -0.105132654
000280 a2 a5 b6 be a5 7d aa be ef 1d 0a bf da e3 fc be
       -0.35673243 -0.33298984 -0.53951925 -0.49392587
000290 39 9d df bd c4 2a a9 3b 00 6d 41 3c 0f 82 7f be
       -0.1091866 0.0051625688 0.011805773 -0.24951957
0002a0 ea b6 0d bf 00 ca 84 3d 04 fc f4 be ed b9 10 3e
       -0.5535723 0.06483841 -0.47848523 0.14133425
0002b0 fb 0b ca 3d 80 9a 42 3d 0a e7 2f bc c8 ce 1e be
       0.09865566 0.047510624 -0.010736236 -0.15508568
0002c0 d0 0b 9c be 6d 6d 1d be fa 35 ae be 29 c3 de bd
       -0.30477762 -0.15373774 -0.34025556 -0.108770676
0002d0 3c d7 13 bd b8 7c 40 3e 89 7b f4 be 6b e1 18 3d
       -0.036093935 0.18797576 -0.477505 0.03732435
0002e0 45 4e cb bb 5e ae 35 3e ec 22 95 be 42 6a e0 be
       -0.006204399 0.17742297 -0.29128206 -0.43831068
0002f0 40 88 a2 be 32 2f 2e 3e e6 03 d7 be f6 88 51 bd
       -0.31744576 0.17010191 -0.41995162 -0.051156007
000300 39 f6 98 3d bb a4 a7 be b4 d5 5f 3d 55 1d 0b be
       0.07468838 -0.32742867 0.054647163 -0.13585408
000310 70 26 e6 3c 32 5b ab be 38 dc 93 bd d2 84 cf be
       0.0280945 -0.33468014 -0.07219738 -0.4053102
000320 60 47 bc bd 38 66 bb bd 6a 0d a2 3c 68 55 36 bc
       -0.09193301 -0.09150356 0.019781787 -0.011128761
000330 27 8b 30 bc c1 47 d4 bd 13 3c d9 3d 54 7d 00 be
       -0.010775364 -0.103652485 0.106071614 -0.12547809
000340 8d fd 14 be 99 62 4e 3c 48 24 81 bd aa d2 47 be
       -0.14549847 0.01259675 -0.06305748 -0.19513956
000350 f3 89 76 3d 90 b8 60 be e8 b2 e9 3d 62 0f a1 bd
       0.060190152 -0.21945405 0.11411077 -0.07864262
000360 10 ca f0 3c 64 b8 22 3c 4d a2 9b bd 9f a5 16 3d
       0.029393226 0.009931657 -0.07599316 0.036779042
000370 f7 37 a6 bd 77 60 d2 3c 66 bd bc bc c4 af d2 bd
       -0.08116143 0.025680764 -0.023039531 -0.10287431
000380 14 25 d2 3c 1d 15 42 3d 53 74 4b be 2d d5 1e 3b
       0.025652446 0.047383416 -0.19868593 0.002423595
000390 ab 29 5d be 3d 67 a6 bd 44 3d 10 be b6 2f 79 bd
       -0.21597926 -0.0812516 -0.14085871 -0.060836516
0003a0 93 5f df 3b 10 da 15 bc ea 49 00 be ce 44 2e 3d
       0.0068168133 -0.009146228 -0.12528196 0.042546086
0003b0 88 31 36 be de 5b 52 bd 5f c5 da 3d ac bb 6e 3d
       -0.17792332 -0.051357143 0.10682177 0.058284447
0003c0 c3 1d 5b 3d fa af 11 be 45 9f 34 be 63 bf 00 3e
       0.05349518 -0.14227286 -0.17638882 0.12573008
0003d0 18 ed b4 3d 38 2f e9 bd 5c 18 11 bc de 03 a3 bc
       0.088342845 -0.113859594 -0.008855905 -0.019899305
0003e0 b8 ec 4b be 74 f4 f3 3b 83 0f 90 3d 0f a1 c1 3c
       -0.1991452 0.0074449126 0.070342086 0.023636369
0003f0 e7 01 02 be b1 68 66 3e 99 fb 34 be 4b 72 4a bd
       -0.12696038 0.22500874 -0.17674102 -0.049425405

net.3.bias f4 [40]
000000 07 91 3d 3e 39 db 50 be e3 6f e7 be d8 b6 99 3e
       0.18512355 -0.20396127 -0.4520255 0.3002231
000010 80 8c a7 bd 72 fa 0b be 75 b7 bc 3e bb 36 b3 3d
       -0.08181095 -0.13669756 0.36858717 0.087506734
000020 a5 08 91 bd df c0 74 be 9a 46 2d 3d 6e 3f dc 3d
       -0.07081727 -0.239017 0.04230366 0.10754286
000030 85 15 16 bf 3c 96 2f 3e 11 3a 79 be 12 af e9 3d
       -0.58626586 0.17147154 -0.24338557 0.11410345
000040 6e 63 49 bd 98 0b 3c 3d 44 d3 86 3e b7 66 24 3d
       -0.04916709 0.045909494 0.26333058 0.04013702
000050 c8 17 fb 3b 89 c6 c9 be bc e2 1d 3d ea 55 e2 be
       0.007662747 -0.39409283 0.03854631 -0.44206172
000060 47 4b 77 3e dc f4 01 3f 53 bd 94 3c 32 79 f1 bc
       0.2414981 0.5076425 0.018156683 -0.029476736
000070 9f 99 dd be 88 f6 b9 bd 15 7b 4e bf 63 66 87 bd
       -0.43281266 -0.09080225 -0.8065656 -0.066113256
000080 ff d3 93 3d d8 f3 aa 3e 9b 1f a5 3e f0 72 a0 bf
       0.072181694 0.33389163 0.32250676 -1.2535076
000090 73 9f 23 3d 98 65 0b 3e 36 02 d7 be 89 73 2e be
       0.039946984 0.13612974 -0.41993874 -0.1703626

net.4.weight f4 [40]
000000 92 d3 8d 3f 95 57 b1 3f d3 24 cd 3f e8 22 8f 3f
       1.1080191 1.3854853 1.6026863 1.1182528
000010 d4 23 98 3f f6 a5 b4 3f 53 99 a3 3f b6 28 8a 3f
       1.1885934 1.4113147 1.2781166 1.0793674
000020 61 97 88 3f 93 07 89 3f 49 2f 9a 3f 5a e4 9e 3f
       1.0671197 1.0705436 1.204568 1.2413437
000030 c6 b6 e6 3f c4 0a a5 3f 7a bd d9 3f be 85 bb 3f
       1.8024528 1.289391 1.7010949 1.465019
000040 65 bc 8a 3f 0f 6a a6 3f a4 29 b4 3f 9d c1 b2 3f
       1.0838743 1.3001117 1.4075208 1.3965336
000050 42 e8 95 3f 5d d4 e1 3f 92 57 a3 3f 8f 70 b1 3f
       1.1711504 1.7642933 1.2761099 1.3862475
000060 fa 57 92 3f fc ad 9e 3f f2 50 89 3f d1 f2 89 3f
       1.1433098 1.2396846 1.0727828 1.0777227
000070 73 08 b8 3f 29 69 9e 3f a2 4e c4 3f 58 81 97 3f
       1.4377578 1.2375842 1.5336497 1.1836348
000080 4d 1e 98 3f 60 05 a4 3f 60 6e 96 3f 39 14 18 40
       1.1884247 1.281414 1.1752434 2.3762343
000090 d7 40 85 3f 96 ac 90 3f 5f ec d2 3f 3c f9 93 3f
       1.0410413 1.1302669 1.6478385 1.1560435

net.4.bias f4 [40]
000000 3f b8 01 3e 6f c1 f4 be 2e a1 d5 be 1f b8 b0 3d
       0.1266794 -0.47803828 -0.41724533 0.08628868
000010 e3 ce 08 3f c3 a4 0a bf c2 2a 17 bf 47 14 a5 bd
       0.53440684 -0.54157656 -0.5904962 -0.08060508
000020 40 42 b2 3c d2 d8 af be b7 7f 23 3e 77 76 f2 3e
       0.021760106 -0.34345108 0.15966688 0.47356007
000030 eb 64 8a be c8 ca 15 bf 73 98 c5 be 82 f0 1f bf
       -0.2703012 -0.58512545 -0.38592872 -0.6247636
000040 2c eb 37 3e 70 b5 25 bf e2 34 9d bd 11 eb 98 bb
       0.17960805 -0.64729977 -0.07676102 -0.004666694
000050 7a 15 21 bf d4 16 95 be 25 53 e9 3e b4 fb 99 be
       -0.62923396 -0.2911898 0.45571247 -0.30074847
000060 34 71 28 bf 86 a8 ac bd c5 af 29 bf 34 12 1c bc
       -0.65797734 -0.08430581 -0.6628383 -0.009525824
000070 13 a9 dc be 71 34 04 3f 25 34 83 be e8 c6 03 3e
       -0.43097743 0.5164252 -0.2562572 0.12868845
000080 3d 26 0d bf e7 87 0f bf 7c 82 b0 3d 9b 6e 8c be
       -0.5513647 -0.56066746 0.08618638 -0.27428135
000090 fd 20 34 3d 80 5e 1b bf d7 4b 7a be 72 58 0f 3f
       0.043976773 -0.6069107 -0.24442993 0.5599433

net.6.weight f4 [1, 40]
000000 3a 07 75 3e 3e a9 15 bf a6 2c 42 bf 59 6c 89 3e
       0.23928538 -0.5846137 -0.7584938 0.26840475
000010 66 74 ad 3e 53 ca 17 bf e3 a9 09 bf eb a0 80 3e
       0.33877867 -0.592931 -0.5377485 0.2512277
000020 40 7a 50 3e d4 f6 91 bd 41 71 c3 3e 67 4f ce 3e
       0.20359135 -0.07127157 0.38172343 0.40294954
000030 47 d7 6b bf 27 66 19 bf e9 e4 58 bf ba 8b 56 bf
       -0.9212536 -0.599215 -0.8472429 -0.83806956
000040 2e b9 55 3e f4 ba 1a bf de 7e c0 3e 71 dd b1 3e
       0.20871422 -0.6044152 0.37596792 0.3473926
000050 5f 8a d8 be da 43 41 bf e5 df f8 3e 54 23 c9 be
       -0.4229307 -0.7549416 0.48608318 -0.39284766
000060 13 fa de be 04 fa 88 3e 69 d3 ed be db 20 25 3e
       -0.43550166 0.26753247 -0.46450356 0.16125815
000070 cc 70 08 bf 25 1e db 3e 47 1a 2b bf 8c 31 a4 3e
       -0.53297114 0.42796436 -0.6683697 0.3206905
000080 3e 27 ce be a2 9a 0f bf f5 51 af 3e b6 83 ac 3f
       -0.40264314 -0.56095326 0.34242216 1.3477695
000090 eb 5e 3d 3e d5 1a c4 be 6f 59 41 bf ae 77 ab 3e
       0.1849324 -0.3830172 -0.7552709 0.33489746
