Results_paper/regression/5-shot/3_modes/hard/it2/reptile/5models_4.pt (torch, 10759 bytes, 9 tensors)

net.0.weight f4 [40, 1]
0.3480875 0.6198762 0.8017817 0.026266158 -0.074652776 0.58058596 -0.44593173 0.02757667
-0.9563997 0.27292895 -0.5840069 0.94896257 0.85653996 -0.98476315 -0.7252105 0.18979554
-0.16066979 0.6424617 -0.66542125 0.8035389 0.07261325 0.7686639 0.9319134 0.7664534
0.39230734 -0.4731749 0.7838423 0.5807221 0.9779094 -0.9861045 -0.94908834 -0.55484736
-0.60136527 -0.9511789 0.5744995 0.35921758 -0.95208865 0.434895 -0.86208194 -0.64095086
00000000: 8638 b23e 35b0 1e3f 9141 4d3f 202c d73c
00000010: 8ee3 98bd 48a1 143f 2a51 e4be 78e8 e13c
00000020: 9cd6 74bf 58bd 8b3e 7a81 15bf 36ef 723f
00000030: 3446 5b3f 7019 7cbf 65a7 39bf c359 423e
00000040: 9f86 24be 5f78 243f 0c59 2abf bab4 4d3f
00000050: 41b6 943d 28c7 443f e091 6e3f 4a36 443f
00000060: 82dc c83e fb43 f2be e4a9 483f 34aa 143f
00000070: 4558 7a3f 5871 7cbf 74f7 72bf 7a0a 0ebf
00000080: 13f3 19bf 7680 73bf 6612 133f 5eeb b73e
00000090: 15bc 73bf 8faa de3e 67b1 5cbf 5b15 24bf

net.0.bias f4 [40]
0.9017389 0.3495791 0.2478143 -0.2644406 0.80723035 0.2380948 -0.6219288 0.36588156
-0.7426398 -0.15295732 -0.7844305 -0.2207315 0.7498139 0.92177474 -0.98874676 -0.96325564
-0.20387936 0.2036233 -0.2724831 0.6293255 0.7435224 0.7785697 0.8049209 0.92669785
0.19642258 0.23614943 -0.7371739 0.109740734 0.109493494 0.199615 -0.09117043 -0.78330195
-0.5239086 0.65255415 -0.28930223 0.78341174 -0.05810857 0.10421598 0.98844004 0.999506
00000000: 5cd8 663f 08fc b23e 08c3 7d3e c264 87be
00000010: a6a6 4e3f 20cf 733e ba36 1fbf d454 bb3e
00000020: a41d 3ebf d8a0 1cbe 70d0 48bf 7007 62be
00000030: cef3 3f3f 6ef9 6b3f 821e 7dbf ec97 76bf
00000040: c0c5 50be a082 503e e882 8bbe 7a1b 213f
00000050: 7c57 3e3f 5850 473f 4c0f 4e3f 123c 6d3f
00000060: 0023 493e 28d1 713e 6eb7 3cbf c0bf e03d
00000070: 203e e03d e067 4c3e 90b7 babd 7a86 48bf
00000080: e01e 06bf ca0d 273f 6c1f 94be ac8d 483f
00000090: 4003 6ebd 306f d53d 680a 7d3f a0df 7f3f

net.1.weight f4 [40]
0.9342663 1.0023719 0.96146446 1.0227803 0.9450128 0.9527972 0.9079025 0.9325073
0.9427795 0.94430006 0.97193587 0.93424433 0.9066819 0.9390081 0.93941015 0.9627861
1.0566422 0.99951863 1.0038608 0.9882939 1.0255592 0.92815864 0.9518927 0.9741543
0.98974985 0.91265833 0.9982649 0.9515513 0.94538075 0.91859597 0.9457389 1.0075455
0.88816905 0.9837485 0.98598605 0.94130254 0.9324349 0.9571354 0.94178724 0.9435272
00000000: 142c 6f3f b94d 803f 8922 763f 77ea 823f
00000010: 5cec 713f 84ea 733f 4c6c 683f ccb8 6e3f
00000020: ff59 713f a6bd 713f cad0 783f a32a 6f3f
00000030: 4e1c 683f d662 703f 2f7d 703f 2679 763f
00000040: 0d40 873f 74e0 7f3f 837e 803f d400 7d3f
00000050: 8645 833f ce9b 6d3f 3daf 733f 2d62 793f
00000060: 3f60 7d3f faa3 693f 4a8e 7f3f de98 733f
00000070: 7904 723f 1b29 6b3f f21b 723f 40f7 803f
00000080: 0c5f 633f f1d6 7b3f 9569 7c3f 34f9 703f
00000090: 0eb4 6e3f d306 753f f818 713f 008b 713f

net.1.bias f4 [40]
0.17485598 0.079233825 0.03822647 -0.21370088 0.1519124 0.11421807 0.18006717 0.36634398
0.45648265 0.46698508 -0.07193757 0.08089924 0.35672903 0.2650892 0.28852198 0.4996288
-0.45198917 -0.17548048 -0.17197251 -0.18054499 -0.064029895 0.09530711 0.19537649 -0.06406083
-0.09302586 0.0998379 -0.15999219 -0.28503412 0.20526096 0.54018664 0.05700208 -0.081047215
0.26924515 -0.24148315 0.67216593 0.15854335 0.10866624 0.10263425 0.06724199 0.20652997
00000000: 720d 333e 5845 a23d 5c93 1c3d 67d4 5abe
00000010: ed8e 1b3e 2aeb e93d 8763 383e 7091 bb3e
00000020: 18b8 e93e ab18 ef3e 0154 93bd 80ae a53d
00000030: 30a5 b63e c6b9 873e 27b9 933e 59cf ff3e
00000040: 206b e7be 28b1 33be 9019 30be c9e0 38be
00000050: 1b22 83bd 6030 c33d c610 483e 5332 83bd
00000060: 5884 bebd d077 cc3d fed4 23be feef 91be
00000070: ee2f 523e ac49 0a3f 037b 693d 15fc a5bd
00000080: 80da 893e 5c47 77be 1113 2c3f 3059 223e
00000090: 688c de3d e831 d23d 2bb6 893d 987c 533e

net.3.weight f4 [40, 40]
-0.13833852 0.06962559 -0.15916121 -0.10026279 0.11000185 -0.10829353 -0.02924332 -0.009393589
0.1407828 -0.012405618 -0.12872529 -0.06003757 0.08511118 0.1294907 -0.068086445 -0.02775327
0.08456336 0.0465153 -0.03887899 -0.07061583 -0.14458632 -0.15762013 0.14910373 -0.012406371
0.04077102 0.043123204 0.07301864 0.047155026 -0.08635356 0.07450624 0.122658305 -0.03789816
-0.050322913 -0.15498166 -0.0065772794 -0.027925722 0.10076843 0.13262837 -0.019921888 -0.14869198
-0.029999657 0.060737297 0.020273088 0.019070124 0.056390412 0.11389368 0.10186709 -0.02643628
-0.001697914 0.089731835 -0.09190292 -0.03980866 0.09038507 0.11683466 0.17032884 -0.16605285
0.12883751 0.10428574 -0.15080626 -0.02699922 -0.12039859 0.06607557 -0.14497162 0.046126485
-0.12479702 -0.0068200435 -0.011860922 -0.084246926 -0.16644678 0.15154207 -0.08595303 -0.13628533
0.10882658 -0.09552341 -0.17309697 -0.16990249 -0.012746704 0.114187285 -0.08215408 0.1307899
-0.038624473 -0.05775317 -0.0030023572 -0.0015315899 -0.09437324 0.050207686 0.052944407 0.015869562
0.1008954 -0.0050427215 0.067511894 -0.10729242 0.08667217 -0.06985164 0.005165057 -0.14033015
-0.12485667 -0.1336156 0.05783823 -0.06517459 -0.06629927 -0.1408581 -0.06251027 -0.14311053
0.04808055 0.10827611 0.009056529 0.14288044 -0.10943836 -0.109315135 -0.049630783 0.12727448
0.07411293 -0.09265174 -0.090185724 -0.029308008 0.13894843 0.1408212 0.10641262 0.10737344
-0.06389683 0.1040769 0.15962286 0.100085415 0.11675658 -0.13634674 0.038501397 0.03840188
0.015886351 0.2132585 0.10358782 0.09062768 0.18907876 0.09297782 0.041071672 0.016739836
0.23011974 -0.101004794 -0.051033173 -0.0058702594 0.06941876 0.07036406 -0.058766916 -0.025169171
0.031745374 -0.11917098 0.07362154 0.11873356 -0.08578056 0.091712765 -0.0055881436 0.16082996
-0.020227635 0.18753889 0.18769526 0.03210534 -0.020972801 0.14346349 -0.08662658 0.17284238
-0.02153699 -0.07798818 -0.20423605 -0.30779704 0.077364914 -0.047598857 0.052336216 0.254186
-0.044200946 0.23385334 -0.056231182 -0.037793465 0.010902827 -0.1369569 -0.193507 0.28750142
0.4020203 -0.31324092 0.028771844 -0.091879606 -0.29087093 -0.011675116 0.07581688 -0.2323221
-0.19449402 0.104474366 -0.23791526 -0.27201965 0.0020863996 -0.07133414 -0.12708357 0.011982081
-0.1153704 0.053367894 0.43907067 -0.10318569 0.05681851 -0.018570455 -0.15397033 -0.10468027
-0.14124165 0.037137304 0.04136609 0.018827993 -0.14753294 -0.09004225 -0.055240568 0.041995794
0.053532086 -0.14597611 -0.17580107 -0.10094244 -0.0105942935 -0.12969731 -0.19055827 0.08654348
-0.008299122 -0.033797417 0.09942327 -0.21950412 -0.13357456 -0.119319245 0.068249 0.04647971
-0.08420417 0.060344614 0.026190769 -0.0626924 -0.1293208 -0.1736489 0.09655568 -0.08501108
-0.11640894 -0.06267276 -0.17380837 -0.10083069 -0.14297801 -0.024003614 -0.1179593 0.08012892
-0.060245454 0.045557495 0.07828541 -0.004619058 -0.07028238 -0.01689391 -0.1256582 -0.20350365
-0.051611803 -0.17294241 -0.08252626 -0.115094736 -0.22077636 0.019881958 -0.12885079 -0.2554544
00000000: 9da8 0dbe dd97 8e3d 28fb 22be 9456 cdbd
00000010: a648 e13d 00c9 ddbd b08f efbc 91e7 19bc
00000020: 5e29 103e ef40 4bbc 90d0 03be f4e9 75bd
00000030: c54e ae3d 3699 043e e870 8bbd d35a e3bc
00000040: 8e2f ad3d d486 3e3d 933f 1fbd 089f 90bd
00000050: 700e 14be 2c67 21be a6ae 183e 1744 4bbc
00000060: 83ff 263d f5a1 303d cc8a 953d a125 413d
00000070: 23da b0bd ba96 983d 4734 fb3d 1a3b 1bbd
00000080: 661f 4ebd 83b3 1ebe 3886 d7bb 7cc4 e4bc
00000090: ae5f ce3d bbcf 073e 3a33 a3bc b642 18be
000000a0: d7c1 f5bc acc7 783d bf13 a63c f338 9c3c
000000b0: a2f9 663d 1741 e93d b19f d03d e690 d8bc
000000c0: 8a8c deba 53c5 b73d 9937 bcbd 680e 23bd
000000d0: cf1b b93d 0347 ef3d af6a 2e3e c209 2abe
000000e0: fbed 033e c393 d53d f56c 1abe 782d ddbc
000000f0: 8993 f6bd a152 873d 7173 14be 20ef 3c3d
00000100: 9495 ffbd ac7a dfbb 5054 42bc a789 acbd
00000110: 0671 2abe d82d 1b3e 2408 b0bd 628e 0bbe
00000120: 78e0 de3d c7a1 c3bd 5540 31be ebfa 2dbe
00000130: 8dd7 50bc 06db e93d 6640 a8bd caed 053e
00000140: b234 1ebd 978e 6cbd 32c3 44bb a1bf c8ba
00000150: c246 c1bd 93a6 4d3d 3cdc 583d e200 823c
00000160: 3fa2 ce3d 6a3d a5bb ad43 8a3d 21bc dbbd
00000170: 2e81 b13d 600e 8fbd a33f a93b b5b2 0fbe
00000180: dbb4 ffbd 87d2 08be c8e7 6c3d 417a 85bd
00000190: e9c7 87bd 1b3d 10be 6205 80bd 918b 12be
000001a0: 1cf0 443d ddbf dd3d d661 143c 404f 123e
000001b0: 3821 e0bd 9de0 dfbd a649 4bbd 3e54 023e
000001c0: 85c8 973d 32c0 bdbd 4bb3 b8bd 5917 f0bc
000001d0: 7f48 0e3e 6f33 103e dcee d93d 9be6 db3d
000001e0: 57dc 82bd 4526 d53d 2d74 233e 95f9 cc3d
000001f0: 131e ef3d 7b9e 0bbe a4b3 1d3d 4a4b 1d3d
00000200: 1824 823c 7060 5a3e da25 d43d 019b b93d
00000210: dd9d 413e 286b be3d c53a 283d fb21 893c
00000220: 82a4 6b3e 9adb cebd 2908 51bd 4e5b c0bb
00000230: 6c2b 8e3d 081b 903d 94b5 70bd 942f cebc
00000240: 7007 023d ea0f f4bd e4c6 963d 952a f33d
00000250: b8ad afbd e7d3 bb3d bf1c b7bb 9cb0 243e
00000260: 6db4 a5bc 320a 403e 3033 403e e480 033d
00000270: 27cf abbc 18e8 123e 4769 b1bd 98fd 303e
00000280: 576e b0bc 44b8 9fbd 4123 51be 9397 9dbe
00000290: 7f71 9e3d 05f7 42bd 805e 563d ab24 823e
000002a0: 0d0c 35bd 4077 6f3e ab52 66bd 52cd 1abd
000002b0: c5a1 323c 6e3e 0cbe b326 46be 6333 933e
000002c0: 9bd5 cd3e 1d61 a0be eeb2 eb3c 602b bcbd
000002d0: 09ed 94be fc48 3fbc e145 9b3d d8e5 6dbe
000002e0: 7129 47be a8f6 d53d 0fa0 73be 2946 8bbe
000002f0: fabb 083b a217 92bd 3222 02be 7e50 443c
00000300: 5147 ecbd 4b98 5a3d dfcd e03e 0553 d3bd
00000310: 87ba 683d 1121 98bc 66aa 1dbe 9c62 d6bd
00000320: a7a1 10be 491d 183d 7d6f 293d 2a3d 9a3c
00000330: e012 17be 1268 b8bd ef43 62bd c803 2c3d
00000340: 7644 5b3d c37a 15be 3205 34be e9ba cebd
00000350: b093 2dbc 5fcf 04be b521 43be b53d b13d
00000360: 0af9 07bc 296f 0abd 6d9e cb3d b0c5 60be
00000370: c5c7 08be a65d f4bd 22c6 8b3d 8261 3e3d
00000380: 3c73 acbd ea2b 773d 068e d63c df64 80bd
00000390: ac6c 04be 04d1 31be fcbe c53d 4a1a aebd
000003a0: cf67 eebd 935a 80bd d2fa 31be 5280 cebd
000003b0: d468 12be 3aa3 c4bc a594 f1bd a21a a43d
000003c0: f0c3 76bd 7f9a 3a3d 1a54 a03d 785b 97bb
000003d0: 35f0 8fbd 1965 8abc 8bac 00be 4363 50be
000003e0: e666 53bd d117 31be 8703 a9bd cab6 ebbd
000003f0: 3313 62be 7ddf a23c 76f1 03be ebca 82be

net.3.bias f4 [40]
0.026702119 -0.10268257 -0.08263 -0.031912256 -0.08240518 -0.12363617 -0.046990305 0.053012777
-0.1373698 0.024047326 0.0038326685 -0.14938726 -0.015350576 -0.01760102 -0.011376563 -0.011034421
-0.09568235 -0.09555693 0.051624097 0.12951806 -0.06744822 0.07650974 -0.047227144 0.08502921
-0.069641046 0.070207834 0.047090452 -0.13182883 -0.04169006 -0.14377032 0.0944655 -0.118355766
-0.11755535 -0.05948481 -0.07805636 -0.12845765 0.054208267 -0.07001647 -0.15180425 0.04806768
00000000: 67be da3c 3d4b d2bd eb39 a9bd 6db6 02bd
00000010: 0cc4 a8bd f634 fdbd e878 40bd ed23 593d
00000020: abaa 0cbe e6fe c43c 822d 7b3b f9f8 18be
00000030: fb80 7bbc 0430 90bc c464 3abc b7c9 34bc
00000040: 1cf5 c3bd 5ab3 c3bd ca73 533d 62a0 043e
00000050: 4b22 8abd 23b1 9c3d 4071 41bd cb23 ae3d
00000060: f79f 8ebd 20c9 8f3d ebe1 403d 23fe 06be
00000070: 32c3 2abd 8738 13be 2177 c13d 8264 f2bd
00000080: dcc0 f0bd 58a6 73bd 03dc 9fbd 678a 03be
00000090: 7d09 5e3d cc64 8fbd 9372 1bbe 9ee2 443d

net.4.weight f4 [40]
1.0265609 1.0894668 1.0292473 1.2479223 1.5569624 1.4500068 1.4416285 1.126017
1.3086687 1.083166 1.5670162 1.0646425 1.1406397 1.0880625 1.3623857 1.1725509
1.0505779 1.1719817 1.0884166 1.0768694 1.2664294 1.3247612 1.0298007 1.0353407
1.2660084 1.7005397 1.0722394 1.356077 1.3200269 1.3314824 1.5434647 1.3535264
1.0803854 1.0182246 1.022198 1.0750008 1.461991 1.0270683 1.232884 1.1948845
00000000: 5966 833f a673 8b3f 60be 833f ebbb 9f3f
00000010: 8b4a c73f d399 b93f 4887 b83f 5321 903f
00000020: 7582 a73f 2fa5 8a3f fd93 c83f 3546 883f
00000030: 7b00 923f a245 8b3f a862 ae3f 2616 963f
00000040: 5679 863f 7f03 963f 3c51 8b3f dbd6 893f
00000050: 5c1a a23f c691 a93f 82d0 833f 0b86 843f
00000060: 900c a23f 49ab d93f 243f 893f ee93 ad3f
00000070: a4f6 a83f 046e aa3f 4090 c53f 5a40 ad3f
00000080: 124a 8a3f 2f55 823f 62d7 823f a099 893f
00000090: 8522 bb3f f976 833f 25cf 9d3f faf1 983f

net.4.bias f4 [40]
0.03857783 0.06736212 0.04055768 -0.45523882 0.41112742 -0.08276455 -0.06305234 0.065306865
-0.29958037 -0.10412039 0.3613148 0.014158574 0.049807798 0.07933131 -0.24046598 -0.13665068
0.05834946 0.14173667 0.065809965 0.0031963317 0.22869492 -0.66445667 0.039552856 0.045413926
-0.10415269 0.049699895 0.08123602 0.037467945 -0.07817235 -0.28788283 0.17049485 0.0635484
0.06562117 0.032414645 0.02566861 0.062907696 -0.030155726 0.0358533 0.062508404 -0.20239854
00000000: c903 1e3d 27f5 893d cf1f 263d 1015 e9be
00000010: 4b7f d23e 7680 a9bd 9621 81bd 9bbf 853d
00000020: 9962 99be 123d d5bd 41fe b83e 5df9 673c
00000030: 4303 4c3d 7478 a23d b73c 76be 28ee 0bbe
00000040: d8ff 6e3d 6b23 113e 60c7 863d 8c79 513b
00000050: 002f 6a3e d519 2abf 2d02 223d f403 3a3d
00000060: 014e d5bd 1e92 4b3d 125f a63d fd77 193d
00000070: d318 a0bd 6165 93be 3496 2e3e aa25 823d
00000080: 6464 863d 38c5 043d fa46 d23c c0d5 803d
00000090: 2409 f7bc e9da 123d 6804 803d 9041 4fbe

net.6.weight f4 [1, 40]
0.099287175 0.38396057 0.13336957 -0.8916951 -1.2758923 1.0666243 -1.0580013 0.4849645
-0.9172826 -0.4058771 -1.2952987 -0.3031765 0.53525424 0.38118684 -0.9680382 0.61696035
0.26285312 0.5391507 0.39608005 -0.35060975 0.7982264 -1.1260158 0.117594555 0.16929565
-0.7886662 -1.4019464 0.35083017 0.8831547 0.8815255 0.93949306 1.2022353 0.933828
0.3861424 0.0048007574 0.095747106 0.34593928 -1.0803459 0.115989886 0.662029 -0.691633
00000000: 1357 cb3d 7b96 c43e 0892 083e 2146 64bf
00000010: 7050 a3bf 2587 883f 966c 87bf 444d f83e
00000020: 08d3 6abf 20cf cfbe 59cc a5bf f339 9bbe
00000030: 6c06 093f ec2a c33e 5ad1 77bf 1df1 1d3f
00000040: af94 863e c805 0a3f 01cb ca3e 1f83 b3be
00000050: 9158 4c3f 4921 90bf 6ad5 f03d d75b 2d3e
00000060: 07e6 49bf fb72 b3bf 03a0 b33e 6d16 623f
00000070: a8ab 613f 9e82 703f d9e2 993f 5a0f 6f3f
00000080: 75b4 c53e ac4f 9d3b 0f17 c43d f41e b13e
00000090: c648 8abf 1b8c ed3d bc7a 293f dc0e 31bf
