Results_paper/regression/10-shot/5_modes/hard/it4/maml/5models_1.pt (torch, 10759 bytes, 9 tensors)

net.0.weight f4 [40, 1]
0	0xbfb893bd	-1.4420086
1	0xbf8f43c9	-1.1192561
2	0x3ed32a5f	0.41243264
3	0xbfc9bcd4	-1.5760751
4	0xbe90c150	-0.28272486
5	0xbea2bd17	-0.3178489
6	0x3f8d79a0	1.1052742
7	0xbf9364cb	-1.1515135
8	0x3fa3cb14	1.279635
9	0x3f82072b	1.0158437
10	0x3fcb90a2	1.5903513
11	0xbfcbbac2	-1.5916369
12	0xbe52d1e0	-0.20587873
13	0xbde6414d	-0.11242924
14	0xbfba9463	-1.4576534
15	0x3db2a8ef	0.08723628
16	0x3fd0f1cb	1.6323789
17	0x3e4cbc39	0.19993676
18	0x3e2e9364	0.17048413
19	0xbf95f3bb	-1.1715006
20	0xbfd70847	-1.6799401
21	0xbe8ef097	-0.2791793
22	0xbea85810	-0.32879686
23	0x3f5d3152	0.8640338
24	0x3f3d9536	0.740558
25	0xc00f7f9e	-2.2421641
26	0x3f110343	0.566456
27	0x3fb56a9c	1.417316
28	0xbfafce71	-1.3734876
29	0x3f970ca9	1.1800739
30	0xbf960c13	-1.1722435
31	0x3f4929b1	0.7857924
32	0xbcd65152	-0.026161823
33	0x3e074e78	0.13213527
34	0xbd19b3e7	-0.037525084
35	0x3e337d45	0.17528255
36	0x3fb9bde6	1.4511077
37	0x3f8d378b	1.1032575
38	0xbf2663bf	-0.6499595
39	0xbfc8e623	-1.5695232

net.0.bias f4 [40]
0	0xbf7ad2f9	-0.9797817
1	0x3f0906e8	0.53526163
2	0xbdc54381	-0.09632016
3	0x3def603f	0.11688279
4	0xbf20eac9	-0.62858254
5	0x3f26f03e	0.6521033
6	0xbe9bba9e	-0.30415815
7	0xbe57f808	-0.2109071
8	0x3d9db203	0.07699969
9	0xbcd4cc66	-0.025976371
10	0xbdc87a37	-0.09788936
11	0xbf00923e	-0.5022315
12	0x3f14c9b3	0.5812027
13	0xbf5a6740	-0.85313797
14	0x3d9c6adb	0.076375686
15	0x3ebbe8e6	0.36701125
16	0xbf00893b	-0.502094
17	0x3dde41d4	0.108523995
18	0xbf1298ed	-0.57264596
19	0xbf000698	-0.5001006
20	0xbf6beacd	-0.9215515
21	0xbe99ef00	-0.30065155
22	0xbf4975e3	-0.78695506
23	0xbf35acd8	-0.70966864
24	0x3f0508df	0.5196666
25	0x3e52a4eb	0.20570724
26	0xbd8d9154	-0.06912485
27	0xbf79eb91	-0.9762507
28	0xbee670bd	-0.45007887
29	0xbf251078	-0.64478254
30	0xbe1b5af3	-0.15171413
31	0x3e22df3f	0.15905474
32	0x3eab7f86	0.3349573
33	0xbe30953a	-0.17244425
34	0x3e93a027	0.28833124
35	0x3f6c84d1	0.9239016
36	0x3db6989b	0.08915826
37	0xbf07f394	-0.53106046
38	0x3d1df83f	0.038566824
39	0xbd6bc90f	-0.05756479

net.1.weight f4 [40]
0	0x3f74d746	0.9564098
1	0x3f4d6d76	0.8024515
2	0x3f4647df	0.77453417
3	0x3f8d1bf9	1.1024162
4	0x3f97388e	1.1814134
5	0x3f6d31dc	0.92654204
6	0x3f106929	0.5641046
7	0x3f458221	0.77151686
8	0x3f3e8fa2	0.74437916
9	0x3f8758dd	1.0573994
10	0x3f3e79f9	0.74404866
11	0x3f632c04	0.8873904
12	0x3f81d353	1.0142616
13	0x3f72a362	0.9478055
14	0x3f1db0d6	0.61597955
15	0x3f37091d	0.7149828
16	0x3f292c98	0.6608367
17	0x3f522d33	0.8210022
18	0x3f57c5b5	0.8428605
19	0x3f56b4c7	0.83869594
20	0x3f823c88	1.0174723
21	0x3f37a9c5	0.7174342
22	0x3f98a898	1.1926451
23	0x3f2f2964	0.6842253
24	0x3f17f0a4	0.59351563
25	0x3f735c19	0.95062405
26	0x3f2ecd3a	0.682819
27	0x3f0f2cbf	0.5592765
28	0x3f818abf	1.0120467
29	0x3f5a3963	0.85243815
30	0x3f4d35f0	0.8016043
31	0x3f33b12c	0.7019222
32	0x3f2b4225	0.66897804
33	0x3f37f51f	0.718584
34	0x3ed3d05d	0.41369906
35	0x3f572bc4	0.84051156
36	0x3f5c2148	0.85988283
37	0x3f41b4c5	0.7566646
38	0x3f27f758	0.6561179
39	0x3f8b0895	1.0861994

net.1.bias f4 [40]
0	0xbee14a67	-0.44002077
1	0xbf5f169a	-0.8714386
2	0x3ef4021b	0.47657856
3	0xbdc6117b	-0.09671303
4	0x3e1031ec	0.14081544
5	0x3f0389e5	0.51382285
6	0xbf7cc55d	-0.9873865
7	0xbef1aadc	-0.47200668
8	0xbf2bd88f	-0.6712732
9	0xbd5a938a	-0.05336336
10	0xbf19cc9a	-0.6007782
11	0xbeb0c6e4	-0.34526742
12	0xbe2a0f30	-0.16607356
13	0x3f2213e2	0.6331159
14	0xbf11949e	-0.56867397
15	0x3f919a88	1.1375284
16	0xbf60ec03	-0.87860125
17	0xbebf8652	-0.37407166
18	0xbeaa7e60	-0.3329954
19	0xbf03f418	-0.5154433
20	0xbe19b2dc	-0.15009636
21	0x3f3742e3	0.71586436
22	0x3e311880	0.17294502
23	0xbf2de6af	-0.6793012
24	0xbf46438f	-0.77446836
25	0x3e69a467	0.22816621
26	0xbf475c0b	-0.7787482
27	0xbf79f44e	-0.97638404
28	0x3ef32bf3	0.47494468
29	0xbe99ccb1	-0.3003898
30	0xbf3c4a2f	-0.73550695
31	0x3f337761	0.7010403
32	0x3f6fa696	0.93613565
33	0x3f69b383	0.9128954
34	0x3f172e3a	0.5905491
35	0x3ecce3cc	0.40017545
36	0xbf201cdc	-0.62544036
37	0xbf430f37	-0.7619509
38	0xbf85d7da	-1.0456498
39	0x3dbd2c13	0.09236922

net.3.weight f4 [40, 40]
0	0x3d42f1ca	0.04759387
1	0x3cc3b5c6	0.023890387
2	0xbd79c04b	-0.0609744
3	0x3e3d70c1	0.18500043
4	0x3e7aa462	0.2447677
5	0x3e4a5dc1	0.19762327
6	0xbcd4fe47	-0.026000155
7	0x3cc95fba	0.024581779
8	0x3e23eb9a	0.16007844
9	0xbc4d1d9c	-0.012519266
10	0x3d7b4648	0.061346322
11	0x3e211cfd	0.15733714
12	0xbd1f461c	-0.03888522
13	0xbd4ff280	-0.050768375
14	0x3dfb6ff3	0.12277212
15	0x3e80b7d5	0.25140253
16	0xbe24fcc1	-0.16112043
17	0x3db3e69a	0.08784218
18	0x3c7b84f8	0.015351526
19	0x3e343ef7	0.17602144
20	0x3ab803d3	0.0014039226
21	0x3de02443	0.109444164
22	0x3e23889f	0.15970086
23	0x3e0ba939	0.13638772
24	0xbdbc077d	-0.09181116
25	0x3d7b0db6	0.061292373
26	0x3f1c1d20	0.6098194
27	0x3d25a2ba	0.04043839
28	0xbcc0c1b0	-0.023529857
29	0xbd9274f8	-0.07151216
30	0x3ded93bf	0.11600446
31	0xbdcf4595	-0.101206936
32	0x3e2fc062	0.17163232
33	0x3d62d045	0.055374403
34	0x3df0a20d	0.11749659
35	0xbe4d1d03	-0.20030598
36	0xbde02290	-0.10944092
37	0xbd0bde44	-0.034147516
38	0xbd1b8aaf	-0.037974056
39	0x3e01a498	0.12660444
40	0x3dc03a7e	0.093861565
41	0xbd133f76	-0.035949193
42	0xbdae9e79	-0.0852632
43	0x3e289545	0.16463192
44	0x3e069dfd	0.13146205
45	0x3e24ceba	0.16094485
46	0x3da79907	0.081834845
47	0xbd255adf	-0.040369865
48	0x3e56eaf5	0.20988066
49	0xbd5b7844	-0.05358149
50	0x3d05bd70	0.032651365
51	0x3c8834b0	0.016626686
52	0x3cc6e36e	0.024278369
53	0x3dd389e5	0.10329036
54	0x3db98859	0.090592094
55	0x3e1a9aca	0.1509811
56	0x3ced9cc3	0.029005414
57	0x3e188f07	0.1489831
58	0xbb8f7d89	-0.0043789786
59	0x3d92685e	0.07148813
60	0x3d8ff3ec	0.07028946
61	0x3ddca853	0.10774293
62	0xb88fb5ae	-6.852612e-05
63	0xbd0238e4	-0.031792536
64	0x3db2fc53	0.08739533
65	0x3e643527	0.22285901
66	0x3ea7379c	0.32659614
67	0x3d31ba19	0.043390367
68	0xbd2cdf00	-0.042204857
69	0x3d6ddb5d	0.05807053
70	0xbe0de0ca	-0.13855281
71	0xbc9a1522	-0.018808905
72	0x3dd461b5	0.10370199
73	0x3cd8e114	0.026474513
74	0x3e0ab63b	0.13546078
75	0x3e161909	0.14657988
76	0x3e13a25b	0.14417402
77	0x3e2809a6	0.1640993
78	0xbeb714e4	-0.35758126
79	0x3e2277ad	0.15865965
80	0xbdfc9a55	-0.12334124
81	0xbd19111f	-0.037369844
82	0xbe230f69	-0.15923847
83	0xbde0027f	-0.10937976
84	0xbd8c3c77	-0.0684747
85	0xbe21c2c0	-0.15796947
86	0xbd91be12	-0.07116331
87	0xbd4a0d9f	-0.049329396
88	0xbd8e96b6	-0.069623396
89	0xbe021f1c	-0.1270718
90	0x3da75d5f	0.08172106
91	0xbd413af0	-0.047175348
92	0x3db6ea5a	0.08931418
93	0xbc153462	-0.009106727
94	0x3c257756	0.010099253
95	0x3a8e2a17	0.0010846284
96	0x3d123bc4	0.03570153
97	0xbbb2e9cb	-0.005459999
98	0xbd93c97f	-0.07216167
99	0xbdc15e99	-0.09441871
100	0xbe54b064	-0.20770413
101	0x3d7b19f8	0.061304063
102	0xbc2b4f1f	-0.010455876
103	0xbdc365cf	-0.09540903
104	0x3dcf3f84	0.101195365
105	0xbdafe935	-0.085894026
106	0x3e602347	0.21888457
107	0xbd9dbba7	-0.077018075
108	0xbdb2b0ce	-0.08725129
109	0x3de42864	0.111405164
110	0xbb876d6e	-0.004132918
111	0xb99967ce	-0.00029259775
112	0x3d27f7a4	0.041007653
113	0xbbabad86	-0.0052391915
114	0xbe0fdf9c	-0.14050144
115	0xbc81a59f	-0.015826045
116	0x3db7149e	0.08939479
117	0xbe290c62	-0.1650863
118	0x3d2e7ba4	0.04259838
119	0xbd867c63	-0.06566694
120	0xbdbbf939	-0.09178395
121	0x3c98e1c5	0.018662343
122	0xbe19c7f7	-0.15017687
123	0xbd225984	-0.03963615
124	0x3e139a36	0.14414296
125	0x3c1b8cd6	0.009494027
126	0xbe19f1ab	-0.15033595
127	0xbdd09a5e	-0.10185693
128	0xbc926128	-0.017868593
129	0xbd8aabfd	-0.067710854
130	0xbd864945	-0.06556944
131	0xbdb490f5	-0.08816711
132	0x3dfb2260	0.12262416
133	0x3d16e002	0.036834724
134	0xbd3206bb	-0.04346345
135	0x3c3d0288	0.011536248
136	0xbe18c4d5	-0.14918835
137	0xbe0f18cb	-0.13974302
138	0x3e0b513e	0.1360521
139	0xbdd868c8	-0.105668604
140	0xbd307119	-0.04307661
141	0xbd415a2f	-0.047205146
142	0x3ceebe02	0.029143337
143	0x3d3a0ea6	0.045424126
144	0xbe346c85	-0.17619522
145	0x3e21fa42	0.15818122
146	0x3e248a7b	0.16068451
147	0xbd95a74c	-0.073073
148	0x3dbdc8ad	0.092667915
149	0x3e18f103	0.14935689
150	0x3e37c1d1	0.17945029
151	0xbdfb2c61	-0.12264324
152	0x3e13c1fd	0.1442947
153	0x3db35797	0.08756941
154	0xbd006b67	-0.031352427
155	0xbd3f8b7f	-0.046763893
156	0x3d83458d	0.0640975
157	0xbe03be21	-0.12865497
158	0xbd68aee7	-0.056807425
159	0xbd4818ab	-0.04885165
160	0xbd987f67	-0.07446175
161	0xbd4ef84d	-0.050529767
162	0xbe570719	-0.20998801
163	0x3d78b260	0.060716987
164	0xba136bbf	-0.00056236604
165	0xbd85242d	-0.065010406
166	0xbd9d47db	-0.07679721
167	0xbbb329cc	-0.005467629
168	0x3db41048	0.08792168
169	0xbcaaf03b	-0.020866504
170	0xbd99ae19	-0.075039096
171	0xbcef2a10	-0.029194862
172	0xbd4d80ce	-0.050171666
173	0x3c8aee32	0.016959284
174	0x3dd14609	0.10218436
175	0xbe848e15	-0.2588965
176	0xbe76bf1f	-0.24096344
177	0x3c389387	0.011265642
178	0xbb84fc9f	-0.004058435
179	0xbc6a6dc0	-0.014308393
180	0x3c6e49b4	0.014543939
181	0x3c976804	0.018482216
182	0x3e0ab2c4	0.13544756
183	0xbcc26be8	-0.023733094
184	0xbe10e702	-0.14150622
185	0xbc883a8f	-0.016629485
186	0x3ec6b2c3	0.3880826
187	0xbd901e8f	-0.070370786
188	0xbd10ab3f	-0.035319563
189	0xbc9dc7fb	-0.019260397
190	0x3e0a4ca2	0.13505796
191	0xbc1cae1f	-0.009562998
192	0xbcc28c70	-0.023748606
193	0x3d8cb4d6	0.06870429
194	0xbde90d43	-0.113794826
195	0xbc84d06e	-0.016212668
196	0xbdea1d4b	-0.114313684
197	0xbe3c26e5	-0.18374212
198	0x3d134ad0	0.03596002
199	0xbdff7738	-0.12473911
200	0x3e428a58	0.18998086
201	0x3e7368b1	0.23770405
202	0x3e4227d9	0.18960513
203	0x3de5a801	0.11213685
204	0x3de58c67	0.1120842
205	0x3e4b3b17	0.1984676
206	0xbdbd9f8c	-0.09258947
207	0x3de02b17	0.10945719
208	0xbd89a95c	-0.06721756
209	0xbdbbe33c	-0.09174201
210	0x3e00dd1a	0.12584344
211	0x3ee90f3c	0.45519435
212	0x3df55807	0.119796805
213	0xbd34a419	-0.04410181
214	0x3e61ba1c	0.22043651
215	0x3c737dce	0.014861537
216	0xbd505ca6	-0.050869606
217	0x3e4d918f	0.20075057
218	0x3d2fe102	0.042939194
219	0x3f029a92	0.51017106
220	0xbc21ba48	-0.009871073
221	0x3d2676d7	0.04064068
222	0x3e758e92	0.23980168
223	0xbdb5cf72	-0.08877458
224	0xbdcd72b7	-0.10031646
225	0x3d22910f	0.03968912
226	0xbe28ed45	-0.16496761
227	0xbda1c577	-0.078989916
228	0x3cb78a5c	0.022404842
229	0x3e32fb4d	0.17478676
230	0x3eedbf3c	0.46434963
231	0xbc4e2c1c	-0.012583759
232	0xbd59098c	-0.05298762
233	0x3e0dbf79	0.13842572
234	0x3db2ade9	0.08724577
235	0xbd0e250f	-0.03470331
236	0x3e440078	0.19140804
237	0x3d46c340	0.04852605
238	0x3e6b0e44	0.2295466
239	0x3e4655b9	0.19368638
240	0xbb877181	-0.0041334038
241	0x3e6dfb48	0.23240387
242	0x3e0d952c	0.13826436
243	0x3d891a1d	0.06694434
244	0xbd8aa141	-0.06769038
245	0xbdc02512	-0.093820706
246	0xbdcc95f5	-0.099895395
247	0xbab546e3	-0.001383033
248	0x3d2a9bd4	0.041652516
249	0x3e0f2825	0.13980158
250	0xbda4feed	-0.08056436
251	0x3e0b4d44	0.13603693
252	0x3c18cc2d	0.009326023
253	0x3e6ea7c8	0.23306191
254	0xbe0d1421	-0.1377721
255	0x3dec2101	0.115297325

net.3.bias f4 [40]
0	0x3e1a7684	0.15084273
1	0x3ea43b86	0.32076663
2	0xbca8c362	-0.020600978
3	0xbe89a551	-0.2688394
4	0xbe47306b	-0.19452064
5	0x3d0df586	0.034657978
6	0xbd799d6b	-0.06094114
7	0xbf3384e0	-0.70124626
8	0xbeb3ab2e	-0.35091537
9	0xbec7c2d3	-0.39015827
10	0x3dc6709d	0.09689448
11	0x3da0cf2a	0.078520134
12	0xbf04a918	-0.51820517
13	0xbf078270	-0.52933407
14	0xbed3f547	-0.4139807
15	0x3ef407dc	0.47662246
16	0x3d888ac8	0.066670954
17	0xbf0de524	-0.55427766
18	0xbe8a59ae	-0.27021545
19	0xbdcad225	-0.09903363
20	0x3d587675	0.052847344
21	0xbd87662d	-0.06611285
22	0xbe56455e	-0.20924899
23	0x3de2116e	0.11038481
24	0x3dfcf9f0	0.12352359
25	0x3e3774e1	0.1791568
26	0x3e59f5df	0.21285199
27	0x3de1f584	0.110331565
28	0x3e1951f4	0.14972669
29	0x3e71401a	0.23559609
30	0xbd96df82	-0.073668495
31	0x3dd1737e	0.102271065
32	0x3d6aefb5	0.05735751
33	0x3f28cd6d	0.65938455
34	0x3e5e18fc	0.21689218
35	0xbe3ac1e4	-0.18238026
36	0xbecc4181	-0.39893726
37	0x3ec49a4e	0.38398975
38	0x3e713efd	0.23559184
39	0xbe972739	-0.29522112

net.4.weight f4 [40]
0	0x3faca4bc	1.3487773
1	0x4066535e	3.5988383
2	0x3ffe1ed1	1.9853154
3	0x3ff4aa21	1.9114419
4	0x3fe55101	1.7915345
5	0x3fdca339	1.7237312
6	0x4014afa8	2.3232212
7	0x3fe47bc1	1.7850267
8	0x3fe1e1e5	1.7647063
9	0x3fce318b	1.6108869
10	0x3fd8e73b	1.6945566
11	0x3fec4c51	1.846079
12	0x4005b5f9	2.0892317
13	0x3ff09f5b	1.8798631
14	0x3ff14bd8	1.8851271
15	0x3fe8dd93	1.8192619
16	0x3ff0c6de	1.881069
17	0x40457cba	3.0857377
18	0x3fdd7318	1.7300749
19	0x3fc655a3	1.5494884
20	0x3fabe5be	1.3429487
21	0x3fff9d28	1.9969835
22	0x3fec1c26	1.844609
23	0x3fd5a6fe	1.6691587
24	0x3fafc33c	1.3731456
25	0x3fa7ca34	1.3108582
26	0x4048be58	3.1366177
27	0x3fca0d80	1.578537
28	0x3fc67c51	1.5506688
29	0x3fabf7a2	1.3434947
30	0x3fd19b55	1.6375529
31	0x3fc774a3	1.558247
32	0x3fe8044c	1.8126311
33	0x3fe54c82	1.7913973
34	0x400c105b	2.1884983
35	0x406037af	3.5033987
36	0x400055f2	2.0052457
37	0x3fe26248	1.7686243
38	0x3fb0e848	1.3820887
39	0x3fb1baa3	1.3885082

net.4.bias f4 [40]
0	0xbeb47bfa	-0.35250837
1	0x403c7bdc	2.9450598
2	0x3f48dbe1	0.7846051
3	0x3f6f68ef	0.9351949
4	0x3eee9851	0.46600583
5	0x3e3d74aa	0.18501535
6	0x3fa49814	1.285891
7	0x3ebdf8b5	0.3710381
8	0x3ee008a4	0.43756592
9	0xbca4b450	-0.020105511
10	0xbe2494d1	-0.16072394
11	0x3f20a811	0.6275645
12	0x3f4bbdc2	0.7958642
13	0x3f1eb2ed	0.6199177
14	0x3eb86ee0	0.3602209
15	0x3f372ddc	0.7155435
16	0x3f91cdad	1.1390892
17	0x403a0cb6	2.9070258
18	0x3f4314a7	0.7620339
19	0x3e9b30ba	0.30310613
20	0xbecefc03	-0.40426645
21	0x3fe076a4	1.7536206
22	0x3f1b3f6d	0.60643655
23	0x3f26b98a	0.6512686
24	0xbec5aef7	-0.3861005
25	0xbf207463	-0.6267759
26	0x403c1e4e	2.9393497
27	0x3f08f04e	0.53491676
28	0xbdbf22c7	-0.09332805
29	0xbf068147	-0.5254101
30	0x3ea239e2	0.31684786
31	0x3f4751b7	0.7785906
32	0x3fa24b3a	1.2679207
33	0x3f072b5f	0.52800554
34	0x3fcd4a4e	1.6038301
35	0x4037e02e	2.8730578
36	0x3f4e8e97	0.80686325
37	0x3f50a598	0.81502676
38	0xbe166f84	-0.14690977
39	0xbe44222d	-0.19153662

net.6.weight f4 [1, 40]
0	0xbea9808b	-0.33105883
1	0xbd9a836b	-0.07544597
2	0xbeb41247	-0.35170195
3	0xbec6d4ed	-0.38834324
4	0xbeee42de	-0.4653539
5	0x3f0c077c	0.5469892
6	0xbea8fef5	-0.33007017
7	0xbf10ea7b	-0.5660779
8	0xbf117907	-0.568253
9	0xbe823ed6	-0.25438565
10	0xbd29112f	-0.041276153
11	0x3f1911c2	0.5979272
12	0xbe04ada7	-0.12956868
13	0x3e83227d	0.2561225
14	0xbeae01fe	-0.33985895
15	0x3ea855bd	0.32877913
16	0x3ed73222	0.42030436
17	0x3e2957b2	0.1653736
18	0x3e8c5cd2	0.27414566
19	0x3ec4a72c	0.38408792
20	0xbefd32af	-0.4945273
21	0x3e640fa4	0.22271591
22	0xbeb04153	-0.34424838
23	0x3ed01796	0.40642995
24	0xbeaa2e5a	-0.33238488
25	0xbe93022e	-0.287126
26	0x3ea050c9	0.31311634
27	0x3ed72778	0.420223
28	0xbe8b4d6a	-0.272075
29	0xbeb20a81	-0.3477364
30	0xbedc4164	-0.4301864
31	0x3e5bf5ff	0.21480559
32	0x3f00aa13	0.5025951
33	0x3ed0a9c3	0.40754518
34	0x3f31b65f	0.694189
35	0xbe717503	-0.23579793
36	0xbf062739	-0.524036
37	0x3e7ef56a	0.24898306
38	0xbed018f7	-0.40644047
39	0xbdf47b06	-0.11937527
