Results_paper/regression/5-shot/3_modes/hard/it1/maml/5models_2.pt (torch, 10759 bytes, 9 tensors)

net.0.weight f4 [40, 1]
00000000: 265a 0fbe 1d3f fc3e 6ab5 05bf 4c99 c2bd
00000010: f959 5dbe a28e d13f 9948 b83f 9b77 63bf
00000020: a89f d93e b02b de3f e90f 6f3f 1f52 dc3e
00000030: 1ba5 e9bf d72d bd3f 16a5 f0bf 49a2 92be
00000040: bcd4 5ebf f844 c03f 7c36 a8bf 61f6 b33e
00000050: 9e29 5b3f decf 373f aba7 473e 9f92 f4bf
00000060: a7c7 a8bd af9d 46bf 1ca6 3fbf 4167 b9bc
00000070: f232 91be 8f8c a03e 2740 73bd a4e7 d2bd
00000080: 1bb1 a33f d29a 7cbe 22d4 97be 0720 393e
00000090: f7ff d2bf 4af4 62bf 5e76 77bf 03ff 283e
-0.13999233 0.49266902 -0.5222994 -0.09501895 -0.21616353 1.6371653 1.4397155 -0.8885438
0.4250462 1.7357082 0.9338365 0.43031403 -1.8253511 1.4779614 -1.880038 -0.2863944
-0.87043357 1.5021048 -1.3141627 0.3514891 0.8561038 0.71801555 0.19497554 -1.9107245
-0.08241206 -0.77584356 -0.7486284 -0.022632243 -0.2835918 0.31357238 -0.059387352 -0.10298088
1.2788423 -0.24668434 -0.29654032 0.18078624 -1.6484364 -0.88654006 -0.9666499 0.16503529

net.0.bias f4 [40]
00000000: c415 4f3e 0f24 6ebf 40af 783f e563 173f
00000010: 2cdc d3be d2a2 983e 42b5 69be 9318 60bf
00000020: cd1f 1f3f 2fb4 073e f811 a13e b2fb c23e
00000030: 7ae5 58be 3279 4ebf 8956 683f 7d75 6d3f
00000040: bade 503f c37d 383f 4103 31bf 233a 0fbe
00000050: 71c3 493f 20fe ab3e 3fb1 39bf 4d21 afbe
00000060: c91f 433f 298e 2dbf 0847 36be 527c ca3c
00000070: 8a16 86bf c752 1bbe ccf1 81be 790d 953e
00000080: 52f1 d4be 4e2c abbe 0cbb 3bbe 6d20 6dbf
00000090: 2a70 0dbe 7697 fa3e 0bd5 cabe 419e 1fbf
0.20223147 -0.9302377 0.9714241 0.591368 -0.41378915 0.29811722 -0.2282305 -0.875375
0.621579 0.13252328 0.31459022 0.38082653 -0.21181288 -0.8065368 0.9075704 0.927574
0.81589854 0.720669 -0.6914559 -0.13987021 0.78813845 0.3359232 -0.7253608 -0.34205094
0.76220375 -0.67795044 -0.17800534 0.024717484 -1.0475628 -0.15168296 -0.2537979 0.2911184
-0.41590363 -0.3343224 -0.18333071 -0.926276 -0.13812318 0.4894368 -0.39615664 -0.6235085

net.1.weight f4 [40]
00000000: 52c2 393f a72b 5e3f 1f4c 5b3f 0eec 5d3f
00000010: f0a8 763f 38a3 713f 7dca 743f 83a0 5e3f
00000020: 5fd1 643f e1b7 5b3f d8aa 733f f7be 633f
00000030: 6fde 7f3f b880 4f3f 300b 6c3f ad74 813f
00000040: 36ab 443f 43ba 303f ee16 803f 851c 4e3f
00000050: 77e7 5f3f 6268 603f 7b79 753f 8a41 613f
00000060: 7a57 3a3f 730c 643f c82b 663f 292b d53e
00000070: 642f 5f3f 6ed6 613f 8cfc 653f 9bc4 5c3f
00000080: d8ee 6c3f 359c 7a3f 99fb 6a3f bf20 503f
00000090: 635d 753f 92d8 703f 16eb 623f cdd7 6b3f
0.72562134 0.8678536 0.85663027 0.86688316 0.9635153 0.9438968 0.9562147 0.8696367
0.89381975 0.8582745 0.9518256 0.88963264 0.9994878 0.81055784 0.9220457 1.0113732
0.7682375 0.6903421 1.0006998 0.8051227 0.8746256 0.87659276 0.9588849 0.8799063
0.7278973 0.89081496 0.89910555 0.4163449 0.8718169 0.8821782 0.8983848 0.86237496
0.92551947 0.97894603 0.9179016 0.81299967 0.9584562 0.9408046 0.8863996 0.9212616

net.1.bias f4 [40]
00000000: 221f 343f b65f 483e 3d9a 99bb e12f c33d
00000010: 00f6 de3c cbb8 24bd f6a6 793e 1e6a 2b3d
00000020: 27c8 923d 0ea9 1cbe bb85 c13e dd03 18bf
00000030: 147e 863e 22ed 4cbf cbe7 7d3e 00ed 0d3f
00000040: 49b3 9c3e 6cc7 0b3f f011 bdbe baff a93e
00000050: d2fe 8e3e c53c 873e b13a 903e 5b50 e23e
00000060: 3326 cb3e 14e7 073f 4de8 953e addd 303e
00000070: d842 a13e 0cf9 cb3e 1fd7 de3e fd21 ec3c
00000080: 5464 8b3c 87e9 503e be9a 80be d31e ac3e
00000090: 6824 c83d 963e 803e 44f0 cc3d aab4 c03e
0.70360005 0.19567761 -0.004687576 0.095306166 0.027216911 -0.040215295 0.24380097 0.041849248
0.07167082 -0.15298864 0.3779734 -0.59380895 0.26268065 -0.80049336 0.24795453 0.5543976
0.30605534 0.5460117 -0.36927748 0.33202916 0.27928787 0.2641355 0.28169778 0.4420193
0.3967758 0.5308697 0.29278794 0.17272063 0.3149631 0.39838445 0.435235 0.0288248
0.017015614 0.20401584 -0.2511806 0.33617267 0.09772569 0.2504775 0.100067645 0.37637836

net.3.weight f4 [40, 40]
00000000: d617 3f3e 0a90 30bc dda3 973e 9745 08bd
00000010: 91b2 5bbd 19f2 323e 058c 5b3e 80b5 ce3c
00000020: 1939 3a3e a625 513e 3260 9cbd 749d a5bd
00000030: 6256 713e 7150 03be ea10 423e 1ec0 8ebd
00000040: a1f1 cc3d 8766 9abd a227 623e 76b2 053d
00000050: eebb b83c 234b ad3c 025e 2f3d 8d0c a53c
00000060: 5e0b 683d 0f03 523e 789f e9bd 340b 6cbd
00000070: 8b8c 6e3e 31d4 d33d 13b5 733e 0148 a3bd
00000080: fdb9 81bd 0cea 99bd e906 c03d 1ae0 4fbd
00000090: 97d7 613e e027 383e aa1c 5d3e fd1c 1a3e
000000a0: 6f29 a53d cbcd 073e 11d3 c1bd 755f f4bd
000000b0: a8b8 763d 64d5 21bc 0109 a8bd d3dc b9bc
000000c0: 769b a8bc 6887 953e c35d d0bd ba3d fd3e
000000d0: 4715 a13d a95c fe3e ae08 ef3d e34b 253e
000000e0: 067b 2b3d d198 a9bd efaa 51be ba4b de3c
000000f0: a5ae d9bc a69c 033e 22c0 bdbc f5c3 443d
00000100: dc1d 083e 79d2 f83c 0ea2 e03d 864c 523d
00000110: 27e4 9cbd d45b 05be c9a9 83bd 6137 0cbe
00000120: 8091 2c3d 9b3d d03d 448c 0cbe b4e7 62be
00000130: e7b3 d53d 367d 813d ef76 0a3c 4a3b 0fbd
00000140: 86a5 17be d48d c3bd 0307 9f3b 0be4 f9bd
00000150: cbbf 86be 5a59 99bd 9945 07be f006 31be
00000160: f0c2 f33d 8a2a 74bb 8e5f b03c 43ab 12be
00000170: 0ad4 02be 6aa5 11bd ae5d 73be 57d0 a0be
00000180: 0a7a debe 450a c5bd 89c3 29bd dc2a 293e
00000190: 59fa 86bd 2b14 36bd ae13 97bd 3fcb 5cbe
000001a0: c828 4dbe fee6 c8be 433b 49be 43c1 18be
000001b0: dbb8 a2be 21c9 1bbd 957b adbe 4bad 33be
000001c0: 5319 ceba aaf9 bbbe 6892 85be 4d5e 453d
000001d0: 6307 cfbd 605b fabd d96e 13be 3fa9 273e
000001e0: 6da2 44bd 64f5 80bd 5826 283e d3b6 563b
000001f0: 7020 8ebd bcea 953d f38a 423e 3149 02bd
00000200: 09f5 e33d c88e 243e 8dac f33d c213 74bd
00000210: 4254 1b3d 023f 283e def3 2c3e dc9b 0b3e
00000220: 59ee 1f3d 3a5b 46bb 4bb6 3f3e 72c4 1a3d
00000230: 0805 fc3c fa50 193c 4b9f 233e 0f90 fe3d
00000240: c0a2 803d a132 c93d a1eb 953c ae47 13bd
00000250: 5bdf 423e d757 643d d19b d8bd 641e f13d
00000260: 8412 c93d 6fb9 23be 33c8 89bd 00fd f9bb
00000270: f695 923d 5c6e dfbd 4bca cd3d 9016 0f3e
00000280: ed17 853d 9a82 f0bd f252 103e 4d47 1ebe
00000290: 938a d5bd ab71 683e f82d 1abc 9987 abbd
000002a0: acb0 723c 614e 683e 5290 343e b0c3 d23d
000002b0: 5aaa efbd 0f62 8e3a c76e 99bd 2654 013d
000002c0: c65e 41be de9f 9dbd 74f2 a9bc 4722 9f3d
000002d0: 26e2 a4bb 59c8 d0bd aa89 2f3d ca75 3e3a
000002e0: 956e 2f3d b320 953d 5c92 bbbd 833a fb3c
000002f0: fc91 103e 8108 573d a386 cbbd d71a 273d
00000300: 5014 1d3d 10c4 62bd fa4a d83c 00d2 40be
00000310: 5090 dcbd 921a d7bd dade 9fbc 69c8 35be
00000320: ab73 e63d 72f8 573d c9fa 54bd 169a 5bbd
00000330: 095a 653d 9b7d 07be 0e63 22be 622e 203e
00000340: 2c9e f63d b6f9 153e edd6 6b3d 3493 533d
00000350: df87 63bd 3e08 403e 10d4 a03d 07b3 7e3e
00000360: 5e80 0dbc 2598 05be ed35 ed3d 0f40 933d
00000370: 05f1 91bd 4a77 86bd b4a8 263d 06f4 f93c
00000380: 64e6 1f3e 6cbd 423e 7f1d 93bd e216 ce3d
00000390: 6ad2 183e 01ed d83d a5a5 83bd 3dfe 4ebd
000003a0: 1ad4 01be 10b1 c33d a08f e53c a912 19bd
000003b0: a1bb ad3c 7c5e 2a3e 1dbd 283e 62e0 13bc
000003c0: 4e59 63bc e405 04be fe3d 863d 9332 afbc
000003d0: 5e35 4bbe d23c f2bd 32eb 08be 5caf 4dbe
000003e0: abe2 bfbb 1995 4d3d bd91 1dbe a42e a73d
000003f0: e555 72be 416d 0abe 69b1 6bbc 9672 d6bd
0.18661436 -0.010776529 0.29617205 -0.03326949 -0.05363709 0.17475165 0.21440132 0.02523303
0.18185844 0.20424518 -0.07635535 -0.080866724 0.23568109 -0.12823655 0.18951765 -0.06970237
0.100070246 -0.07539087 0.22085431 0.032640897 0.02255055 0.021153992 0.042814262 0.020147586
0.056651466 0.2050898 -0.114073694 -0.05762787 0.232958 0.10343207 0.23799543 -0.07972718
-0.063343026 -0.07515344 0.09376318 -0.05075083 0.22054897 0.17983961 0.21592966 0.1505012
0.080645435 0.13262098 -0.09464086 -0.119322695 0.060234696 -0.009877536 -0.08204842 -0.022688305
-0.020581942 0.2920487 -0.10174134 0.49461156 0.078653865 0.4968007 0.116715774 0.1614223
0.04186537 -0.082811005 -0.20475362 0.027135719 -0.026572535 0.12852725 -0.023162905 0.04803844
0.1329264 0.030373799 0.109684095 0.05134251 -0.07660704 -0.13023311 -0.06428868 -0.13693
0.042130947 0.10168 -0.13725382 -0.221587 0.10434704 0.0632271 0.008451208 -0.03496865
-0.14809236 -0.09548536 0.004853131 -0.12201699 -0.263182 -0.074877456 -0.13210143 -0.17287803
0.11902416 -0.00372568 0.021529939 -0.14323144 -0.12776199 -0.03555814 -0.23766205 -0.3140895
-0.43452483 -0.096210994 -0.041446242 0.16520256 -0.06590719 -0.044452827 -0.073768005 -0.21561907
-0.20035088 -0.39238733 -0.19651513 -0.14917473 -0.3178166 -0.03803361 -0.33883348 -0.17546575
-0.00157241 -0.36713916 -0.26088262 0.048185635 -0.10108831 -0.1222446 -0.14397754 0.16373156
-0.048006464 -0.062968045 0.16420877 0.003276278 -0.06939781 0.07320163 0.18998317 -0.031808082
0.11130721 0.16070092 0.11898146 -0.059589155 0.03792215 0.16430286 0.16889903 0.13633674
0.039045665 -0.0030266778 0.18721883 0.037785 0.030764118 0.009357685 0.15978734 0.12429821
0.06281042 0.0982411 0.018300833 -0.03595703 0.19030516 0.055747833 -0.105765946 0.11773375
0.09817985 -0.15988706 -0.06727638 -0.007629037 0.07157509 -0.10909721 0.1004835 0.1397345
0.06498704 -0.1174366 0.14094141 -0.15456887 -0.104268216 0.22699611 -0.009410374 -0.083754726
0.01481263 0.22686149 0.17633179 0.10291231 -0.11702414 0.0010862964 -0.07491832 0.03157439
-0.1888381 -0.07696508 -0.020745493 0.0777021 -0.005031842 -0.10194463 0.042855896 0.0007265477
0.04283007 0.072816275 -0.09158775 0.030667549 0.14118189 0.052498344 -0.09937789 0.04079708
0.03834945 -0.05536276 0.02640294 -0.18830109 -0.10769713 -0.10503115 -0.019515444 -0.17752232
0.11252531 0.05272717 -0.05199698 -0.053613745 0.055994067 -0.13231508 -0.15858099 0.15642694
0.12041888 0.14646038 0.057578016 0.051654056 -0.0555495 0.18753144 0.07852948 0.24872981
-0.008636562 -0.1304632 0.11582551 0.071899526 -0.07126049 -0.06565721 0.04068823 0.030511867
0.15615231 0.19017571 -0.0718336 0.10062958 0.14924017 0.1059208 -0.064280786 -0.05053543
-0.12678567 0.09555256 0.028022587 -0.03737131 0.021207632 0.16637605 0.16478391 -0.009025665
-0.013876272 -0.12892872 0.06554793 -0.02138642 -0.19844577 -0.11828007 -0.1337097 -0.20086426
-0.0058558783 0.05019102 -0.15387626 0.08163193 -0.23665579 -0.1351824 -0.01438556 -0.10471074

net.3.bias f4 [40]
00000000: f20d 4dbe bb31 f5be 7377 f43c 1caf 823e
00000010: dba2 09bd a2c5 1a3e 2b40 15bf e7b9 f6be
00000020: 10ff e5be 67e3 f83c 9b03 14bf b597 903e
00000030: 03f1 a73e 151d 9a3d 069a 2abe e6ec b13e
00000040: e4d7 f7be ae71 bfbd 9aed 19bb 1880 d2bd
00000050: 3abf 273e 748b 0abf 0409 16be 99b6 41be
00000060: 5af4 46be e1f7 3b3e d4db 6c3e 1f42 0d3e
00000070: 480e 7ebf a1fe fcbd 9ed8 e0bd 4fa0 383e
00000080: 33b1 3abe c1ca 8fbe 818a 913d dac9 223e
00000090: 6bfe 0dbe e7c0 863d 274f 52be db13 a03c
-0.20024851 -0.47889504 0.029842114 0.25524223 -0.033602577 0.15114453 -0.5830104 -0.48188707
-0.4492116 0.030381871 -0.57818 0.28240743 0.32801065 0.07525078 -0.16660318 0.34751052
-0.484069 -0.093478546 -0.0023487569 -0.10278338 0.16381541 -0.5411904 -0.14651877 -0.18917312
-0.1942915 0.18356277 0.23130733 0.13794754 -0.9924054 -0.12353254 -0.109788164 0.18029903
-0.18231659 -0.28084376 0.07106496 0.15897313 -0.13866584 0.06579762 -0.20538007 0.019540718

net.4.weight f4 [40]
00000000: 441e 963f 9416 cd3f 7f31 683f 563a bb3f
00000010: c329 a73f 9009 923f e525 0240 55c9 ed3f
00000020: 94bb ee3f 6499 7e3f b42e eb3f 2395 8a3f
00000030: c7ff b03f 36c7 803f fe4c e43f f4ba a33f
00000040: 4698 cc3f 56f2 cc3f e21c 9a3f 54e5 853f
00000050: a1f1 813f 00ce bf3f 169e da3f 32a2 833f
00000060: b70b b43f 7bff a03f d4a0 a63f c87b 993f
00000070: ca30 0b40 bbaa 5f3f f3f6 743f ad8d 9b3f
00000080: f8ab 6d3f 9219 713f 5471 933f 8656 8f3f
00000090: 1303 ab3f ccdb 9a3f 2edb 7c3f a4c9 863f
1.1727986 1.6022515 0.90700525 1.4627178 1.305962 1.1409168 2.033563 1.8577067
1.8650994 0.99452806 1.8373628 1.0826763 1.3828057 1.0060794 1.7835996 1.2791429
1.598397 1.6011455 1.2040064 1.046061 1.0151864 1.4984741 1.7079494 1.0283873
1.4066075 1.2577966 1.3017831 1.19909 2.1748528 0.8736989 0.95689315 1.2152611
0.9284053 0.9417964 1.151896 1.119828 1.3360313 1.2098327 0.9877194 1.0530286

net.4.bias f4 [40]
00000000: 0b36 0d3e 74df bd3a e077 97bd 948e 33bf
00000010: 7a01 783e cbd1 4bbf e5b4 81be 669b c2be
00000020: a163 96be 2bb6 5abd b279 b6be b0a5 32bf
00000030: e890 37bf 4eb9 e1bc 5f0a 96be 57b2 44bf
00000040: 30de cdbe 08a3 8cbe 17ed d8bc fa4e bdbd
00000050: 0461 ea3c 31a6 85be 6f1b 7abe 74db fb3b
00000060: cd2b 4c3e 8fd1 0fbf 7ef4 42bf ecf3 643d
00000070: 6b38 e6be d6f0 62be 2d5a 12bd 2852 443e
00000080: 9bae 06bd 72ea bfbe 8e0e 32bf de75 f83d
00000090: 8923 3f3e f3ce f13d 1b18 9dbe 5efc 413d
0.13790147 0.001448615 -0.07395911 -0.7013943 0.24219313 -0.79616994 -0.25333324 -0.38009185
-0.29372886 -0.053396385 -0.3563972 -0.6978407 -0.71705484 -0.02755418 -0.29304788 -0.76834625
-0.40208578 -0.27468133 -0.02648024 -0.09243579 0.028610714 -0.26103356 -0.24424528 0.007686073
0.19938584 -0.56179136 -0.76154315 0.055896685 -0.44964918 -0.22162184 -0.03573053 0.19171965
-0.03288136 -0.37483555 -0.6955346 0.121318564 0.186659 0.118070506 -0.30682454 0.047359817

net.6.weight f4 [1, 40]
00000000: 690c a43e d5dd 193f b74b bf3d a55f 48bf
00000010: ffb8 a33e 858b cebe d4c5 8a3f d77f 51bf
00000020: 8008 7bbf aed4 c33d 6472 73bf 6368 a5be
00000030: 92c3 32bf 1077 1e3e 7312 53bf 7e42 1ebf
00000040: c160 2abf 8d66 29bf 8ed8 ca3e 8cc8 613e
00000050: 45d7 5d3e d25a 0fbf 8170 32bf 2679 583e
00000060: 1191 ea3e 3ab0 05bf 973f 18bf 383a be3e
00000070: aa78 a13f bc22 8a3d 1f7c 843d 248d ba3e
00000080: eb43 ea3d 9731 cebd 6d3b b4be a32a 943e
00000090: 08fd bd3e fe02 cf3e b5fe 2cbe 1fe4 4e3e
0.32040718 0.60104114 0.09340613 -0.7827094 0.31977078 -0.4034082 1.0841622 -0.81835693
-0.98059845 0.0956205 -0.9509642 -0.32306203 -0.69829667 0.15475106 -0.82450026 -0.6182021
-0.66553885 -0.66172105 0.39618343 0.22049159 0.2166415 -0.55997956 -0.6970292 0.21139964
0.45813802 -0.52222025 -0.5947203 0.37153792 1.2614949 0.06744906 0.06468987 0.36435807
0.114387356 -0.10068052 -0.35201588 0.2893878 0.3710711 0.4043197 -0.16894038 0.20204209
