Results_paper/regression/5-shot/3_modes/hard/it1/maml/model_0.pt (torch, 10759 bytes, 9 tensors)

net.0.weight f4 [40, 1]
1.1753988 -0.087289035 -0.9148029 0.6843764 -0.09241212 0.08182225 -0.653525 0.4211092
0.7189252 0.6522438 -1.1497456 -0.342019 -0.088507876 0.63602304 0.3942226 -0.25959337
-0.54917336 -1.7585659 -0.35639015 -1.326401 -0.98744935 -0.44398287 0.056363884 1.796133
-0.9576687 1.538913 -0.4573956 -0.10860868 -0.083190314 -1.133025 -0.07419855 1.3482351
0.6541449 0.036941644 -1.1097803 -0.096147075 -0.2372496 0.038993075 -1.2029357 0.276587
00000000: 7873 963f 98c4 b2bd 8630 6abf 4b33 2f3f
00000010: 9142 bdbd 6c92 a73d 6a4d 27bf a09b d73e
00000020: 7b0b 383f 73f9 263f dd2a 93bf 1d1d afbe
00000030: 9e43 b5bd 68d2 223f 8bd7 c93e 6ce9 84be
00000040: a096 0cbf b018 e1bf c578 b6be 82c7 a9bf
00000050: 7bc9 7cbf b951 e3be d1dd 663d b0e7 e53f
00000060: c729 75bf 1afb c43f c22f eabe 3a6e debd
00000070: af5f aabd f706 91bf 69f5 97bd f892 ac3f
00000080: 0a76 273f 1f50 173d 480d 8ebf c2e8 c4bd
00000090: 8ff1 72be 34b7 1f3d ccf9 99bf d09c 8d3e

net.0.bias f4 [40]
-0.45319444 0.7512282 0.19703454 -0.7444457 -0.87730175 0.26470354 0.36110562 0.71308607
-0.8559369 0.57915086 -0.7539867 0.44357702 -0.5027341 -0.8945276 -0.12757632 -0.3616391
0.24785854 -0.6108344 0.6516237 -0.52086437 -0.4276666 0.42361858 -0.09709283 -0.58090293
0.27295604 0.65541047 -1.0437386 -0.5587131 -0.21105053 0.7654514 -0.4179599 0.7469413
-0.013772566 0.547046 0.6621298 -0.3094861 -0.8085114 -0.3389957 -0.575972 -0.31928104
00000000: 1a09 e8be 7e50 403f 6cc3 493e fe93 3ebf
00000010: d996 60bf 3987 873e d6e2 b83e cf8c 363f
00000020: ae1e 5bbf 3b43 143f 4605 41bf 871c e33e
00000030: 2fb3 00bf c3ff 64bf 5ea3 02be c328 b9be
00000040: a1ce 7d3e a55f 1cbf d0d0 263f 5e57 05bf
00000050: 1ef7 dabe 89e4 d83e 9bd8 c6bd 0eb6 14bf
00000060: e5c0 8b3e fbc8 273f 3a99 85bf d207 0fbf
00000070: a11d 58be 9ff4 433f d7fe d5be 8c37 3f3f
00000080: 54a6 61bc 350b 0c3f 5781 293f f674 9ebe
00000090: 9afa 4ebf d890 adbe e772 13bf ce78 a3be

net.1.weight f4 [40]
0.76715034 0.9042281 0.9199447 0.6232846 0.8707892 0.7709097 0.95143515 0.87739444
0.6017991 0.90169567 1.0056657 0.9440088 0.8373242 0.8143956 0.7796787 0.98340875
1.0152321 1.0132589 1.0098448 1.1599946 0.97789466 1.0241971 0.67839223 0.8698583
1.0560025 0.88407916 0.9531675 0.93003094 0.86973006 1.0688497 1.004983 0.75198364
0.82489413 0.48453867 1.0536448 0.9806415 0.91158855 0.76144046 1.0284193 0.5438628
00000000: f763 443f 7e7b 673f 7f81 6b3f 948f 1f3f
00000010: 0aec 5e3f 575a 453f 4191 733f ec9c 603f
00000020: 810f 1a3f 87d5 663f a7b9 803f 90aa 713f
00000030: e15a 563f 3b7c 503f 0699 473f adc0 7b3f
00000040: 20f3 813f 78b2 813f 9842 813f b47a 943f
00000050: 4e57 7a3f e418 833f 1dab 2d3f 09af 5e3f
00000060: 172b 873f 0353 623f c902 743f 8216 6e3f
00000070: a1a6 5e3f 11d0 883f 48a3 803f 0082 403f
00000080: 432c 533f 7415 f83e d5dd 863f 520b 7b3f
00000090: de5d 693f c3ed 423f 3ea3 833f 983a 0b3f

net.1.bias f4 [40]
-0.101959646 0.20085917 -0.05531549 0.5540165 0.45675159 -0.5307187 0.16010748 -0.20355406
0.5055619 -0.64017767 -0.48409766 -0.47064182 0.48913446 0.010662537 -0.46301192 -0.25146952
-0.044292264 -0.6652168 -0.06183028 -0.10852059 -0.17191505 -0.2913378 -0.040979892 -0.88806444
-0.950452 -0.41768023 -0.44835603 0.3805393 0.28688458 -0.28007728 -0.059246115 -0.55314106
-0.2193083 0.58391416 -0.52221024 0.25270972 0.0990777 0.06450353 -0.37222952 0.37386027
00000000: 38d0 d0bd 07ae 4d3e 7f92 62bd 06d4 0d3f
00000010: 58db e93e 2edd 07bf 37f3 233e 7a70 50be
00000020: 816c 013f afe2 23bf a6db f7be f7f7 f0be
00000030: d56f fa3e ecb1 2e3c e60f edbe 9dc0 80be
00000040: ce6b 35bd a64b 2abf bf41 7dbd 0b40 debd
00000050: 800a 30be 3a2a 95be 88da 27bd 3158 63bf
00000060: d350 73bf 2fda d5be ec8e e5be 0cd6 c23e
00000070: 89e2 923e 4a66 8fbe 0eac 72bd a79a 0dbf
00000080: 5b92 60be 667b 153f 92af 05bf 2b63 813e
00000090: 40e9 ca3d 6d1a 843d de94 bebe 9d6a bf3e

net.3.weight f4 [40, 40]
-0.024568493 0.24816215 0.13644695 0.03940244 0.021227762 0.11429766 0.121105365 0.13807234
-0.048417363 -0.1613782 -0.020266404 0.21651143 0.1969767 -0.10275507 -0.16259564 0.102307044
0.017620487 0.0050582495 0.2523484 0.20220605 0.15818043 0.08828663 -0.087232925 -0.14419106
-0.020149628 -0.0042552277 -0.09207652 0.014246903 0.19057727 0.1389667 0.08046653 0.034147482
0.10233224 -0.107368834 -0.036914464 0.2694775 0.26143038 0.20469064 -0.05956509 -0.010649073
-0.15553962 0.12016182 0.040056575 0.07593038 0.11125184 0.21659738 -0.056396823 0.16222426
0.059812676 0.22069089 0.10838007 -0.0415675 -0.04731435 0.007789755 -0.0015847946 -0.018564269
-0.045414515 -0.095735736 0.055868704 0.08816433 -0.1582045 0.08630088 -0.112144515 0.5656404
0.21015859 -0.003780808 0.031548016 0.17402601 0.010752998 0.078420095 0.08270943 0.0031016497
0.09585885 -0.044487614 0.04391286 0.07372256 0.07428242 -0.009303642 0.04315134 -0.02573549
-0.025305975 0.065898225 0.042420078 0.07404409 0.09340897 0.17438234 0.12704755 0.1438351
0.23677403 -0.01785086 -0.17259887 0.06205768 0.19875273 0.14099874 -0.034666397 -0.028289597
0.07664151 -0.037954785 -0.098034225 -0.10459716 -0.09992543 -0.07478689 -0.016209584 0.5704423
0.35115853 0.06395122 0.0016371313 0.12939334 0.015484185 0.051915366 -0.14208286 -0.028827146
-0.1323867 0.054359723 0.0127020385 0.12572794 0.11032902 -0.0082503185 0.092543356 -0.060331516
-0.034385115 -0.113698296 0.100906454 0.12630068 -0.041242782 -0.073129185 -0.12916288 -0.17796218
-0.13068464 -0.14743656 0.15104732 -0.011351062 0.0036504192 0.10707853 0.06277918 0.18977332
-0.00862591 0.19705062 0.08654275 0.03499793 -0.03706499 0.09614252 0.14498486 0.15667512
0.17758337 -0.06239835 -0.007754272 -0.082652844 0.095109954 0.14540672 0.09879921 -0.034368806
0.023774333 0.096597426 0.24789628 -0.02103935 0.058146555 0.14237405 0.16948001 -0.0751008
0.09203257 0.112928994 -0.0483371 -0.00926928 0.0887817 0.09160119 -0.045643322 -0.21868737
-0.16264737 0.1832111 -0.03304079 0.04248996 0.11465375 -0.07755595 0.08016558 0.122911364
0.16373968 -0.13419686 -0.07247907 0.02315588 -0.10205595 -0.13701278 -0.023539847 0.16396657
-0.23089929 0.016712502 -0.19036825 0.021070788 -0.026443418 -0.10343835 0.059902567 0.07425372
-0.13029122 -0.10381781 -0.12461816 0.16718435 0.037936844 -0.030650174 -0.020440787 0.016186932
-0.09283249 0.047393303 0.073264755 0.020947639 0.1945716 0.052434653 0.13750784 0.0867372
-0.13531797 0.3433854 -0.035328545 -0.030475428 0.1980164 -0.064467885 0.18781441 -0.20494857
-0.041394453 -0.38483998 -0.0372127 -0.09157629 -0.10460967 -0.10574889 0.12920904 0.43488458
-0.26950324 0.18549189 -0.13542147 0.15786502 0.181285 0.020489134 0.01328806 0.16534838
-0.0647621 -0.022776488 -0.35015884 0.065453485 0.119949214 0.21319431 -0.18177031 -0.04040229
-0.053711634 0.03378611 -0.12589914 -0.07208848 -0.07582583 0.0065313196 -0.014619762 0.10411871
0.10166233 -0.0054781814 -0.19040798 0.09079014 -0.022798141 0.024803823 -0.20071714 0.06644744
00000000: dd43 c9bc 381e 7e3e c0b8 0b3e 7464 213d
00000010: d8e5 ad3c e414 ea3d 1706 f83d d662 0d3e
00000020: 4951 46bd 5440 25be bb05 a6bc 2cb5 5d3e
00000030: 43b4 493e 4071 d2bd 797f 26be 5b86 d13d
00000040: d758 903c acbf a53b cf33 813e 1a0f 4f3e
00000050: 0dfa 213e 9fcf b43d 2da7 b2bd d2a6 13be
00000060: d510 a5bc 706f 8bbb 9d92 bcbd d86b 693c
00000070: b026 433e 494d 0e3e a3cb a43d 3bde 0b3d
00000080: 9193 d13d 31e4 dbbd 9f33 17bd f4f8 893e
00000090: 34da 853e 6c9a 513e 86fa 73bd 7379 2ebc
000000a0: c745 1fbe 6617 f63d 5d12 243d 6381 9b3d
000000b0: 01d8 e33d b4cb 5d3e 5b00 67bd 1e1e 263e
000000c0: 23fe 743d cbfc 613e 5ff6 dd3d af42 2abd
000000d0: b1cc 41bd 3341 ff3b e2b8 cfba 1814 98bc
000000e0: 9204 3abd 1911 c4bd 95d6 643d 808f b43d
000000f0: 5c00 22be 84be b03d 06ac e5bd cfcd 103f
00000100: d033 573e 6fc7 77bb 7e38 013d e033 323e
00000110: 582d 303c b79a a03d 9063 a93d 0c45 4b3b
00000120: a551 c43d a538 36bd f9dd 333d dbfb 963d
00000130: 6221 983d 4e6e 18bc 76bf 303d 3cd3 d2bc
00000140: 7a4e cfbc a6f5 863d adc0 2d3d 6ea4 973d
00000150: 344d bf3d 4991 323e c118 023e 8249 133e
00000160: e474 723e f73b 92bc c2bd 30be 3230 7e3d
00000170: d685 4b3e f961 103e 5afe 0dbd 96bf e7bc
00000180: 39f6 9c3d 7a76 1bbd 2bc6 c8bd 0937 d6bd
00000190: b4a5 ccbd de29 99bd f6c9 84bc 8208 123f
000001a0: 0dcb b33e dbf8 823d 0395 d63a b07f 043e
000001b0: 61b1 7d3c 35a5 543d 2b7e 11be e826 ecbc
000001c0: 6190 07be 4da8 5e3d 361c 503c d3be 003e
000001d0: 2ef4 e13d 582c 07bc 5f87 bd3d 2e1e 77bd
000001e0: 68d7 0cbd a7da e8bd 0ba8 ce3d f754 013e
000001f0: 31ee 28bd c1c4 95bd 4643 04be b83b 36be
00000200: 32d2 05be 9cf9 16be 26ac 1a3e cef9 39bc
00000210: df3b 6f3b fd4b db3d 5f92 803d f053 423e
00000220: b053 0dbc a3c7 493e 533d b13d fd59 0f3d
00000230: 75d1 17bd 5fe6 c43d e976 143e 716f 203e
00000240: 6ad8 353e 6a95 7fbd 8c17 febb e545 a9bd
00000250: 02c9 c23d 80e5 143e 3d57 ca3d 4ec6 0cbd
00000260: 64c2 c23c dfd4 c53d 86d8 7d3e b75a acbc
00000270: 152b 6e3d 81ca 113e 2b8c 2d3e 73ce 99bd
00000280: 927b bc3d 5147 e73d 1ffd 45bd 2ede 17bc
00000290: 2ed3 b53d 6899 bb3d 7ef4 3abd 95ef 5fbe
000002a0: 088d 26be b19b 3b3e c855 07bd f409 2e3d
000002b0: 96cf ea3d a7d5 9ebd da2d a43d f4b8 fb3d
000002c0: 60ab 273e e76a 09be e86f 94bd 66b1 bd3c
000002d0: b602 d1bd 144d 0cbe a3d6 c0bc dae6 273e
000002e0: dd70 6cbe a8e8 883c e5ef 42be a59c ac3c
000002f0: de9f d8bc 7cd7 d3bd 655c 753d 5612 983d
00000300: 106b 05be 6f9e d4bd ce37 ffbd 6032 2b3e
00000310: aa63 1b3d 1316 fbbc 7073 a7bc 759a 843c
00000320: f61e bebd 7b1f 423d d50b 963d 629a ab3c
00000330: c73d 473e b8c5 563d dbce 0c3e 46a3 b13d
00000340: cb90 0abe 36d0 af3e aab4 10bd 9ba7 f9bc
00000350: d0c4 4a3e bd07 84bd 6c52 403e 0ade 51be
00000360: 3b8d 29bd bf09 c5be 586c 18bd 5a8c bbbd
00000370: 983d d6bd e092 d8bd 604f 043e 31a9 de3e
00000380: 54fc 89be 96f1 3d3e edab 0abe 5ea7 213e
00000390: c6a2 393e d4d8 a73c 2ab6 593c 1651 293e
000003a0: fea1 84bd c295 babc 0548 b3be 7a0c 863d
000003b0: efa7 f53d 9c4f 5a3e ff21 3abe df7c 25bd
000003c0: bb00 5cbd 4e63 0a3d b4eb 00be 20a3 93bd
000003d0: 934a 9bbd ae04 d63b ba87 6fbc 313c d53d
000003e0: 5734 d03d 5182 b3bb 4ffa 42be 2ef0 b93d
000003f0: 2bc3 babc 6331 cb3c cb88 4dbe 9815 883d

net.3.bias f4 [40]
-0.11834604 1.7106708 1.7822878 -0.45557415 -2.8028085 -2.0230784 0.39217678 0.6158508
-0.47889954 -2.0215745 -0.12590778 -0.2465657 -1.6871089 -0.52973133 0.1662784 -0.22075078
0.12047776 1.8231825 0.20602924 0.21570164 -1.0185608 1.7153795 -0.812515 0.6136141
-1.5236319 -0.4064103 -0.18106689 -0.44772375 -0.05173677 -0.44323215 0.059667315 0.09234502
1.1458188 -0.60748184 -1.3423932 -0.13806741 -0.4434371 -0.33045846 0.12358416 2.03219
00000000: 695f f2bd 43f7 da3f 0222 e43f 0441 e9be
00000010: 3761 33c0 1e7a 01c0 65cb c83e 66a8 1d3f
00000020: 5232 f5be 7a61 01c0 f8ed 00be b87b 7cbe
00000030: 2ff3 d7bf 799c 07bf e344 2a3e 7e0c 62be
00000040: 0bbd f63d 0b5e e93f 54f9 523e e4e0 5c3e
00000050: 3360 82bf 8e91 db3f fc00 50bf d015 1d3f
00000060: 5f06 c3bf 0315 d0be 9969 39be 0c3c e5be
00000070: efe9 53bd 53ef e2be b765 743d 631f bd3d
00000080: 31aa 923f ee83 1bbf 8ad3 abbf 8b61 0dbe
00000090: 300a e3be da31 a9be b119 fd3d 670f 0240

net.4.weight f4 [40]
1.1438777 2.9174886 3.2647288 1.1959071 3.7477639 3.7510498 1.31526 1.6314516
1.9388809 3.6384623 1.1859019 1.2502657 1.5090483 1.5195191 1.2573503 1.1839372
1.2477251 3.3780954 1.1029017 1.2372059 1.4318477 3.317213 1.285793 1.8117349
3.7485678 1.2287556 1.6211874 1.58361 1.1757857 1.1365774 1.2769545 1.2240494
1.5668305 1.4735147 3.4580612 1.2047678 1.289239 1.1646891 1.2913485 3.3492854
00000000: 966a 923f 22b8 3a40 51f1 5040 7c13 993f
00000010: 5ddb 6f40 3311 7040 715a a83f 68d3 d03f
00000020: 402d f83f 91dc 6840 a2cb 973f b508 a03f
00000030: 7f28 c13f 9a7f c23f dbf0 a03f 418b 973f
00000040: 75b5 9f3f b732 5840 e22b 8d3f c35c 9e3f
00000050: c946 b73f 384d 5440 dd94 a43f eee6 e73f
00000060: 89e8 6f40 dd47 9d3f 1283 cf3f bcb3 ca3f
00000070: 2580 963f 5e7b 913f 3f73 a33f a7ad 9c3f
00000080: e78d c83f 219c bc3f e050 5d40 d535 9a3f
00000090: c905 a53f 8814 953f e84a a53f b15a 5640

net.4.bias f4 [40]
0.1250962 -0.26018858 -0.140412 -0.06589476 0.5865616 2.760805 0.11472336 -0.3131617
0.9121048 2.0314853 0.21299548 0.16673683 0.2124475 0.13253635 -0.054083 0.21209691
0.289597 1.3323188 -0.046354245 0.16613157 0.44006023 1.0591646 0.18527162 -0.36989802
2.176207 0.317147 0.7121368 -0.016701981 0.097282276 0.052721996 0.08415288 0.17532505
0.4663326 0.19200757 2.1686919 0.14493503 0.2516148 0.18595724 0.35072657 0.371735
00000000: 3819 003e 7037 85be 2ac8 0fbe d5f3 86bd
00000010: e728 163f 07b1 3040 15f4 ea3d bb56 a0be
00000020: b37f 693f db03 0240 7d1b 5a3e 0fbd 2a3e
00000030: d68b 593e 9cb7 073e 2386 5dbd ef2f 593e
00000040: 0f46 943e 6c89 aa3f f3dd 3dbd 651e 2a3e
00000050: 934f e13e b592 873f d8b7 3d3e 4663 bdbe
00000060: fa46 0b40 1761 a23e 994e 363f 98d2 88bc
00000070: ee3b c73d 05f3 573d 5858 ac3d 6988 333e
00000080: 26c3 ee3e a29d 443e d9cb 0a40 d969 143e
00000090: a8d3 803e 936b 3e3e 6f92 b33e 0d54 be3e

net.6.weight f4 [1, 40]
0.18436283 -0.06327153 -0.035015192 -0.10610917 -0.4263032 0.019723332 0.37132874 -0.1544746
-0.009921398 0.011647343 0.12560156 0.21082093 0.4467244 -0.055878896 -0.019877223 0.19880788
0.09667435 -0.040278096 0.15362331 0.2915074 0.3088078 -0.03743656 0.22269449 -0.09991523
-0.051220328 0.11094559 0.09965948 -0.33688486 0.23908266 0.14698361 -0.17263828 0.20744295
0.26659855 -0.18762645 0.011917039 0.2439611 0.2829506 0.15437056 0.15664649 -0.031627294
00000000: 9cc9 3c3e 8194 81bd 176c 0fbd c44f d9bd
00000010: 6a44 dabe d392 a13c cd1e be3e 972e 1ebe
00000020: 5c8d 22bc 7fd4 3e3c b29d 003e 71e1 573e
00000030: 10b9 e43e 45e1 64bd 8fd5 a2bc 4b94 4b3e
00000040: 34fd c53d a5fa 24bd 6e4f 1d3e 7540 953e
00000050: 0e1c 9e3e 1457 19bd 060a 643e 5ba0 ccbd
00000060: 68cc 51bd 7137 e33d 451a cc3d 2c7c acbe
00000070: 16d2 743e df82 163e 17c8 30be ed6b 543e
00000080: 9b7f 883e 2621 40be af3f 433c f0d0 793e
00000090: e7de 903e 5113 1e3e f067 203e 9f8b 01bd
