Results/regression/10-shot/5_modes/hard/it2/reptile/multi_model_2.pt (torch, 10759 bytes, 9 tensors)

net.0.weight f4 [40, 1]
000000 69 cf e1 3e 97 96 03 bf 2a 1e 39 bf fb 82 6e bf
       0.44103554 -0.51401657 -0.7231165 -0.9316861
000010 37 a0 8e 3e 1b aa fd bd 94 7d 13 bf e5 98 7a 3c
       0.2785661 -0.12385961 -0.5761349 0.015295242
000020 a0 ae 37 3f 85 ce 6b 3f d0 f3 c2 be df f8 52 be
       0.7175083 0.92112 -0.3807664 -0.2060275
000030 ea ee 6e 3f 34 21 57 3f fa c7 fa 3e 1e e2 53 bf
       0.93333304 0.8403504 0.48980695 -0.827669
000040 ef 08 35 3e 30 50 42 3f 69 44 61 3f fe 61 6c 3f
       0.17679189 0.75903606 0.8799501 0.92337024
000050 54 ed d7 be 73 5c 47 3f 4a fa 1b 3d f6 ec 91 be
       -0.42173254 0.7787544 0.03808049 -0.285011
000060 3a e3 4b 3f 6e 8b 13 3f dd 23 2c bd 72 47 44 bf
       0.79643595 0.5763463 -0.04202639 -0.76671517
000070 35 1b 60 bf 1f 75 22 3e 9f 6c 13 3f be 3d 5b bf
       -0.87541515 0.1586499 0.5758762 -0.85641086
000080 72 1d 45 3f 02 37 4c bf ce 28 19 3f 63 a4 d9 be
       0.76998055 -0.79771435 0.5982789 -0.4250823
000090 93 c1 0d be af d4 c7 3d 42 7e 06 bf 6a f5 a8 bd
       -0.13843374 0.09757363 -0.52536404 -0.08249934

net.0.bias f4 [40]
000000 42 55 3c bf 00 71 a4 3b 18 6a 36 be c0 64 fc 3e
       -0.73567593 0.0050183535 -0.17813909 0.49295616
000010 aa 00 52 bf b8 5b 70 be 98 22 f1 be 84 ea 9a 3e
       -0.82032263 -0.23472488 -0.47096705 0.30257046
000020 d8 69 74 3f c0 f8 f7 be 98 34 65 bf d0 f2 84 3e
       0.95474005 -0.4843197 -0.89533377 0.259665
000030 86 96 11 bf d8 a9 36 3e e6 8b 0a bf b8 49 5d bf
       -0.56870306 0.17838228 -0.5411972 -0.8644061
000040 58 e8 e0 3e e0 fa 37 3e a8 4f 64 3f 78 32 07 3f
       0.43927264 0.17966795 0.89184046 0.52811384
000050 72 f5 72 3f 90 5d b3 3e f8 37 39 3f ac 6c d8 be
       0.9490577 0.3503232 0.72351027 -0.4227041
000060 1a a3 39 3f f2 39 68 3f 04 63 9a be 7a 9c 62 3f
       0.725145 0.9071342 -0.30153668 0.88520014
000070 48 29 ea be 8c ee 50 3f 2c 6f 58 3f 08 2c 71 be
       -0.4573462 0.81613994 0.84544635 -0.23551953
000080 44 2a d3 3e 48 9e 15 be 40 c0 7c be ca 8c 55 bf
       0.41243184 -0.14611161 -0.24682713 -0.8341795
000090 30 71 a9 3e e4 16 ca 3e 06 6f 0e 3f 64 2f e2 3e
       0.33094168 0.3947059 0.5563816 0.4417678

net.1.weight f4 [40]
000000 aa 44 77 3f b6 3a 7d 3f 92 0a 83 3f 01 5d 79 3f
       0.9658915 0.9891771 1.0237601 0.9740754
000010 d7 ed 78 3f 3f e2 83 3f b0 c8 7f 3f eb 7c 74 3f
       0.97237915 1.030342 0.999156 0.9550311
000020 22 44 6c 3f 1f 5d 5f 3f 52 59 80 3f 99 75 7e 3f
       0.9229146 0.87251467 1.0027258 0.9939819
000030 64 77 73 3f c5 52 6b 3f 49 b9 6c 3f 06 61 7a 3f
       0.9510405 0.9192317 0.9247022 0.97804296
000040 24 cc 6f 3f 6b 23 74 3f e0 ea 66 3f 9b 2f 6f 3f
       0.9367087 0.95366544 0.9020214 0.93432015
000050 31 34 72 3f 62 de 75 3f 76 64 74 3f c4 7a 83 3f
       0.9461089 0.96042454 0.9546579 1.027184
000060 a0 33 7c 3f ce 2e 74 3f 09 d1 78 3f ed dc 7b 3f
       0.98516273 0.9538392 0.9719396 0.9838398
000070 28 2a 7d 3f 91 74 73 3f cd c5 75 3f b2 09 83 3f
       0.9889245 0.9509974 0.96004945 1.0237334
000080 1d 54 6c 3f 53 33 84 3f 8c 47 7b 3f 6f cd 81 3f
       0.92315847 1.0328163 0.98156047 1.0140818
000090 1c a7 84 3f 3d b3 66 3f 12 c1 83 3f c3 e2 83 3f
       1.0363498 0.90117246 1.0293295 1.0303577

net.1.bias f4 [40]
000000 7f 0d df bb cb 07 8d bd 9a 99 c7 3d af 1e d2 3e
       -0.006807029 -0.06886252 0.09746094 0.41039035
000010 21 fc fa bc 5b 0f 0b be 2a a7 d5 bd cf 71 0b be
       -0.030637803 -0.13580076 -0.10432275 -0.13617633
000020 08 eb b1 3c 4a 12 d2 3e 01 90 00 bd 0c e2 70 3e
       0.021718517 0.41029578 -0.031387333 0.2352373
000030 c6 4b 00 be d3 12 ba be a4 25 b9 bc 6a ee f1 3d
       -0.12528905 -0.36342487 -0.022600956 0.11813052
000040 7f 62 f7 bd 3a 1d 84 38 ad 3e b8 3e 60 2a 09 bc
       -0.120793335 6.299694e-05 0.35985318 -0.008371919
000050 87 0f 1b 3f 16 31 eb bd 78 cc 54 be b7 a5 d4 bd
       0.6057057 -0.11483972 -0.20781124 -0.1038317
000060 7d 70 04 bf e5 b5 e5 3b 17 e0 17 bf 23 dc 7a 3c
       -0.51734143 0.007010209 -0.5932631 0.015311274
000070 96 ca e7 be 63 70 04 3d 17 56 90 bd 5a 6b 85 be
       -0.45271748 0.032333743 -0.0704767 -0.26058465
000080 b2 bd 1a bb ee 84 3d bd f1 13 4d be 93 b4 b8 3d
       -0.0023611602 -0.04626935 -0.20027138 0.09018817
000090 e6 c0 ea 3d 4d f5 9b bb b4 eb 32 3e c4 c3 36 3d
       0.11462574 -0.0047594667 0.17472726 0.04462029

net.3.weight f4 [40, 40]
000000 d7 da a9 3d 4e 01 a0 3d b4 7d 88 bb 92 06 38 be
       0.082936935 0.07812749 -0.0041653756 -0.17971256
000010 34 34 ea 3d 4f 38 f4 bd 6f e2 d5 3d 2d f3 26 be
       0.11435738 -0.119248025 0.104435794 -0.16303702
000020 48 32 bd 3d 90 91 dd bd 49 d2 ad bd f3 e6 39 be
       0.09238106 -0.108187795 -0.08487374 -0.18154506
000030 87 b4 e9 bc cd c7 eb bd 1c 19 1a 3d fc dd 14 bd
       -0.028528465 -0.11512718 0.037621602 -0.036344513
000040 9f d4 d4 bd 22 0a 30 3d 95 d1 fe bd a9 7e 7e bc
       -0.10392117 0.042978413 -0.12442318 -0.015533128
000050 59 84 20 bc 4e bd 75 bc e5 81 3d be 12 fa 1f be
       -0.009797179 -0.014998747 -0.18506582 -0.15622738
000060 26 26 4d 3d 75 ab e9 bd e8 48 e5 bd 1a 20 91 3d
       0.05008521 -0.11409656 -0.111955464 0.07086201
000070 2a 73 fa bd 5c 85 2b 3d 89 63 3e 3d 1c b0 0b 3c
       -0.12228997 0.04187523 0.046481643 0.0085258745
000080 0a fc 12 bd 98 63 86 3d 6f d0 8a bc f2 fa b2 bd
       -0.035884894 0.06561965 -0.016945092 -0.0873927
000090 c0 1b f6 bd 0b fa 7d bd 18 c7 fb 3c 65 a9 f2 3a
       -0.12017012 -0.062006038 0.030734584 0.0018513618
0000a0 57 e5 53 bd 54 b8 b1 3d fe 57 49 3e e7 fc bd bb
       -0.051732387 0.08677736 0.19662473 -0.0057979706
0000b0 d8 b6 9f 3c 10 15 90 3d 8f c8 a3 3d 76 8b e4 bd
       0.019496366 0.07035267 0.07997238 -0.111594126
0000c0 aa d2 38 be bd b5 e5 bd 59 f8 a1 bd f8 a7 ea bd
       -0.18049112 -0.112163045 -0.07908697 -0.11457819
0000d0 5b f9 60 3d 12 9a 3f be 9e 0d e3 bc d6 e5 62 3c
       0.054925304 -0.18711117 -0.027716454 0.0138487425
0000e0 cb 3b 0a be 42 d5 9f 3d fb e6 be 3d 7e a3 ce 3d
       -0.13499372 0.078043476 0.093214 0.100897774
0000f0 6c 7f a4 be b2 03 84 bc d6 ba 57 3d 2f 5f 83 bc
       -0.32128465 -0.016115043 0.052668415 -0.016036598
000100 cf 73 94 be 49 b8 a1 3d a9 f9 7e 3b 1a 77 08 bc
       -0.28994605 0.07896478 0.0038906133 -0.008329177
000110 75 38 30 3c df c4 b3 3d 63 06 d6 bd e9 f1 8a 3d
       0.010755648 0.087777846 -0.10450437 0.06784422
000120 15 a9 48 3d a1 4b c1 3c 38 e1 85 bd 3c eb 18 bc
       0.048989374 0.023595633 -0.06537098 -0.009333428
000130 41 35 14 3e f4 fd a1 bd 70 c7 dd 3d 76 40 21 3e
       0.1447344 -0.07909766 0.10829055 0.15747246
000140 9a 24 6a bd 4a 24 39 bb d1 78 1c 3d 10 70 d9 3d
       -0.057163812 -0.002825039 0.038201157 0.10617077
000150 54 7d 17 bc 74 81 78 bd ee 77 98 3c ed ff 90 3b
       -0.009246189 -0.06067033 0.018611874 0.00442504
000160 22 9a b9 3c 19 b9 c1 bc ee 75 05 3e 22 59 9a 3d
       0.022656504 -0.023647832 0.13033268 0.07536532
000170 41 ff a0 bd 78 ae 9a bd f6 27 f5 bd f4 71 6f bd
       -0.07861186 -0.075528085 -0.119705126 -0.058458284
000180 e2 ad f9 bd 60 07 10 3e 5c e8 30 be 05 b0 f0 bd
       -0.12191369 0.14065313 -0.17276138 -0.11752323
000190 6b b6 dc bd 36 9d a8 3d cf a2 9b bd 39 df 96 3c
       -0.10776981 0.082331106 -0.07599413 0.018416988
0001a0 d3 45 9c ba a3 22 b3 bd a1 76 3f be 46 6e 1e 3d
       -0.0011922665 -0.08746841 -0.18697597 0.038679384
0001b0 a4 e5 08 bd 8f db ee 3d 8a 0e 08 3e ae 76 e1 ba
       -0.033422127 0.11662971 0.13286796 -0.0017201507
0001c0 eb a4 ea ba 4c 77 28 3e a5 df 97 bd 7c f0 d3 3d
       -0.0017901933 0.16451758 -0.07415704 0.10348603
0001d0 76 9e 9d 3c 93 6f ff 3d 1f 71 e8 bc dc 87 b2 bd
       0.0192406 0.12472453 -0.028374253 -0.08717319
0001e0 08 f6 e8 3d 60 78 9d 3d 05 35 73 3d 38 d4 db bd
       0.11375052 0.07688975 0.059376735 -0.10733837
0001f0 99 45 e0 bd 12 b7 cd 3d 23 0c 0d 3e 6d 43 8c 3d
       -0.10950775 0.100446835 0.13774161 0.06848798
000200 0a e3 a3 bd c4 de 17 3d a4 e9 d1 bd 6f bc 00 3e
       -0.08002289 0.03707768 -0.102496415 0.12571882
000210 54 18 a8 bc de 69 03 be 40 73 d6 3a 68 14 90 bd
       -0.020519413 -0.12833354 0.0016361251 -0.07035142
000220 f8 d2 6d 3d b8 39 ff bd d3 df ef bd 5a 71 99 3d
       0.058062524 -0.12462181 -0.11712613 0.07492323
000230 20 b0 7a be 00 13 82 bd 7a b6 c5 bd 93 e9 91 bc
       -0.24481249 -0.0635128 -0.09653945 -0.017811572
000240 5c 49 3a be 60 ee 91 3d e3 00 8a 3d 0d da a4 3d
       -0.18192047 0.071255445 0.067384504 0.080494024
000250 74 de b4 bd 8b ed c2 bc c8 3d dd bd d8 21 87 3d
       -0.08831492 -0.02379491 -0.108027995 0.06598252
000260 16 f8 b1 bc 90 15 2d 3e 4a b6 39 bc e7 51 88 bd
       -0.021724742 0.16902757 -0.011334965 -0.06656247
000270 b4 c8 08 3e 43 8f 35 bc 1b 33 a6 bc 61 c6 c6 bd
       0.13357812 -0.01108152 -0.02028804 -0.097058065
000280 5b 1f 10 be 15 0d 29 3d 3a 40 9a 3d a3 f4 d8 3d
       -0.14074461 0.04127224 0.075317815 0.10593536
000290 59 99 74 3d 50 5b 41 bd 5c 1f c9 bd 26 87 94 3d
       0.059716556 -0.047206223 -0.098204345 0.0725234
0002a0 7c e4 9e 3d f7 a5 9e bd f4 8a 99 bb 68 f9 af bd
       0.07758424 -0.07746499 -0.004685754 -0.08592492
0002b0 40 9c f2 3b c1 c1 0e be 14 46 80 3c 73 3e 1f 3e
       0.0074038804 -0.13941099 0.015658416 0.15551166
0002c0 78 8a 03 3e ac ac e8 bc f2 87 5d bd 6b 36 a4 bd
       0.1284579 -0.028402649 -0.054084726 -0.08018192
0002d0 e4 87 ab 3d dd 7f 6d bd 6e 81 95 3d 10 ab 5c bd
       0.083755285 -0.057983268 0.073000774 -0.053874075
0002e0 55 ae 48 3c 82 05 1d 3d a2 b0 1e be 36 43 05 3d
       0.012248595 0.03833533 -0.15497068 0.0325348
0002f0 89 5c 84 3d fc d6 ef bd fd 04 b5 3d ee 3e 12 3b
       0.06462962 -0.11710927 0.08838842 0.002231534
000300 b7 a2 01 be cc 94 91 3d 06 57 10 be 5a b9 d4 3d
       -0.12659727 0.07108459 -0.14095697 0.103869155
000310 8b e5 1b be 90 f8 12 3e e1 f4 03 be 58 ff f0 3d
       -0.15224282 0.14352632 -0.12886383 0.11767453
000320 28 60 a5 3d 1c d9 76 3d 44 79 3e 3e d5 43 24 be
       0.08074981 0.060265645 0.18600947 -0.16041501
000330 5f 54 2e be c3 73 02 be 9c 87 83 bd b7 b9 13 bd
       -0.17024373 -0.12739472 -0.0642235 -0.036065783
000340 96 86 8c 3d 42 42 3c bd 3c c9 e9 bc 94 5a 05 3d
       0.06861608 -0.045961626 -0.028538339 0.032557085
000350 34 e9 69 bd f9 c7 df bd 2e 02 a9 3d 6b d3 24 3e
       -0.057107165 -0.10926814 0.08252369 0.16096275
000360 5e 0e 8a 3d 3e fc 6f 3d 68 f5 23 39 2e 29 22 be
       0.067410216 0.058590166 0.00015636312 -0.15836021
000370 0a 41 89 be fe 02 d1 bc 28 1e af bd 2b d6 f5 3d
       -0.26807433 -0.025514122 -0.08550674 0.1200374
000380 75 11 87 bd 51 c2 e2 bd 71 5d 7d 3c 57 d7 e9 3d
       -0.065951265 -0.11072219 0.015464173 0.11418026
000390 fa 7d 13 3d 76 a0 9a bd 03 7c 98 3d 03 89 8c 3d
       0.036008812 -0.07550137 0.07445528 0.068620704
0003a0 45 c0 4b bd 75 6d 53 3d 3c d0 3a be 3d 11 db bd
       -0.04974391 0.05161806 -0.18243498 -0.10696647
0003b0 a2 34 8f 3a 6d f6 f8 3d 0c 1a 76 3d ec cf 1f 3d
       0.001092572 0.12156377 0.060083434 0.03901665
0003c0 a9 5c 02 be d3 d6 6f 3d 84 be b3 3b 50 60 30 3d
       -0.1273066 0.05855448 0.0054853577 0.0430606
0003d0 eb df 3c 3d ab 0e 14 be 02 2a 5f 3d b0 fe cb 3d
       0.046111982 -0.1445872 0.05448342 0.09960687
0003e0 e6 15 43 3d a7 8a 23 be 4e 31 bb 3d 38 5c c8 3c
       0.047628306 -0.1597086 0.091402635 0.024458036
0003f0 fb fb 3a 3a 1a d3 92 3d 61 ee 33 be 6f 3b 24 3e
       0.0007132885 0.07169171 -0.17571403 0.16038297

net.3.bias f4 [40]
000000 c8 a8 d6 bd 5e 7b a3 3c 6e cf 00 be c3 5a 14 be
       -0.10481411 0.019956287 -0.12579128 -0.14487748
000010 17 af f1 bd f8 83 72 bd c8 89 0d 3e 44 07 83 bc
       -0.11800974 -0.059207886 0.1382209 -0.015994675
000020 43 55 bc 3d be 88 1c 3e 7f 05 0e be 8d a3 15 be
       0.0919595 0.15286538 -0.13869284 -0.14613171
000030 56 bf 07 3d 2f cb 1f 3d a9 f1 c3 bd 6b 08 82 bd
       0.033141457 0.03901213 -0.095675774 -0.06349262
000040 cb 8a 76 3a f3 62 59 3c cb 3a 9b 3d 6e 44 09 3e
       0.0009404837 0.01326822 0.07579573 0.1340501
000050 0c f6 f5 3d 6d 4d 9f 3d a8 9f 8c 3d ca 1e 92 3d
       0.1200982 0.0777844 0.068663895 0.07134779
000060 00 88 1a 3c e8 28 da bc c4 10 c7 3d 45 c1 1e be
       0.009431839 -0.026630834 0.09719995 -0.15503414
000070 f7 74 bb bd 55 f6 8e bd 5a b3 c7 bd 26 6a c7 3d
       -0.09153169 -0.06980578 -0.097510055 0.09737043
000080 39 95 e9 bd f9 60 0d be 24 98 60 3b 26 52 f3 bd
       -0.11405415 -0.13806523 0.003427037 -0.11880903
000090 ba 9b c2 bd 8c 2c 97 bc d9 2b 05 3e 5c b4 c3 bd
       -0.09502359 -0.018453859 0.13005008 -0.09555885

net.4.weight f4 [40]
000000 6e a4 95 3f 02 43 ba 3f 42 01 9b 3f c3 e8 a6 3f
       1.1690805 1.4551699 1.2109759 1.3039783
000010 01 81 9b 3f f8 cb 9f 3f 72 b6 99 3f c8 ee a0 3f
       1.2148744 1.2484121 1.2008803 1.257287
000020 10 eb 95 3f d0 c2 9a 3f 34 bc ad 3f 98 a9 95 3f
       1.171236 1.2090702 1.357306 1.1692381
000030 90 f5 98 3f 67 7a a1 3f 6e e3 9f 3f b5 82 94 3f
       1.194994 1.2615479 1.2491281 1.1602389
000040 58 41 a1 3f 3f ae 9d 3f 55 c6 9c 3f 60 b2 a2 3f
       1.2598066 1.2318801 1.2248026 1.2710686
000050 2a 68 9c 3f 32 4d ae 3f db eb a1 3f d8 70 a0 3f
       1.2219288 1.3617308 1.2650102 1.2534437
000060 e5 e0 9a 3f de e8 98 3f 6c 36 99 3f c5 f9 9a 3f
       1.2099882 1.1946065 1.1969733 1.2107474
000070 e2 91 9b 3f ed c9 97 3f 08 34 9e 3f ce b9 9a 3f
       1.2153895 1.1858498 1.2359629 1.2087953
000080 57 e3 aa 3f 4d 6b 98 3f 87 42 95 3f f5 3c e9 3f
       1.3350629 1.1907746 1.1660928 1.8221728
000090 0c 23 93 3f d5 a9 a1 3f a6 02 9c 3f b9 78 96 3f
       1.149507 1.2629954 1.2188308 1.1755592

net.4.bias f4 [40]
000000 81 04 00 3e 39 46 60 bf af 29 02 3d 52 bc 4c bf
       0.12501718 -0.8760715 0.031778034 -0.79974854
000010 84 ab e5 3d ed a3 43 bf 18 00 63 3c 8c 07 97 3e
       0.11214355 -0.76422006 0.013855003 0.29497945
000020 19 cb 94 3e e3 b6 83 3e 4e 82 57 3f dc 81 6b 3e
       0.290612 0.2572547 0.84183204 0.22998756
000030 07 c8 55 3e 56 b5 97 3e 24 b3 dc 3d 8e 9f 34 bf
       0.20877086 0.29630536 0.10776356 -0.7055596
000040 1c 25 c0 3e d4 3d 5a 3e 45 fe 6c 3e b1 7a ad 3e
       0.37528312 0.21312648 0.23143871 0.3388267
000050 74 fa 9c 3e d2 08 5b bf f0 f9 8c 3e 32 35 0a 3f
       0.3065983 -0.85560334 0.27534437 0.5398742
000060 46 69 26 be dc ea 22 3e cf 4c 04 bd 49 86 0e 3e
       -0.16251096 0.15909904 -0.032299813 0.13918413
000070 b5 2a 70 3e 31 61 88 be c4 5b 7a 3d 8d 54 65 3e
       0.23453791 -0.2663665 0.06112267 0.22395535
000080 29 34 96 be c1 cd 93 3e a0 7d 95 3e 83 43 94 bf
       -0.2933667 0.28867915 0.29197407 -1.1583103
000090 95 bb 8a 3e 84 70 90 3e 6a e7 42 3f 90 fe a9 3e
       0.2709624 0.28210843 0.7613436 0.33202028

net.6.weight f4 [1, 40]
000000 8c b9 8b 3e b9 be af bf cc 70 7a 3e 77 a9 90 3f
       0.2729 -1.3730079 0.24457091 1.1301717
000010 eb 41 c6 3d e7 3d 80 3f c1 94 4d 3e 7e f1 af bd
       0.096805416 1.0018891 0.20076276 -0.08590983
000020 64 bc e0 be d9 7d 5b 3d 9d 5b 68 3f 7f c7 00 3e
       -0.4389373 0.053586815 0.9076479 0.12576102
000030 36 7f ef bd 67 56 d8 3c 64 68 6d 3e fb 8c 50 bf
       -0.116941854 0.026408387 0.23184353 -0.8146512
000040 e5 f5 32 3e 46 8c 6e be 8c 2e 26 be b4 4b 16 be
       0.17476614 -0.23295698 -0.16228694 -0.14677316
000050 5d 9a e9 3d d8 36 9b 3f 86 41 9a bd 4a 3f a1 3e
       0.114063956 1.2126112 -0.07532029 0.31493598
000060 59 1f 26 3f c0 37 d4 be 4d a0 8d 3e 57 83 98 3e
       0.6489158 -0.41448784 0.27661362 0.29787704
000070 1b b7 6c bd 52 a1 d2 be 87 34 03 3f be 81 ef 3e
       -0.05779181 -0.41138703 0.51252025 0.46778673
000080 ae 5f 50 3f 31 a7 08 be 40 7e e0 be 90 bf fb 3f
       0.81395996 -0.13345028 -0.4384632 1.9667835
000090 82 59 31 be 13 ca dd bd 08 a7 ed 3e cd 1f eb be
       -0.17319301 -0.10829558 0.46416497 -0.459227
