Results_paper/classification_aircraft_fungi_bird/it2/reptile/5te_model.pt (torch, 180293 bytes, 30 tensors)

f_net.0.0.weight f4 [32, 3, 3, 3]
000000 9c 8e 6e 3d 12 49 58 be 93 ff 3c be fe 6a 05 be
       0.05824147 -0.21121624 -0.18456869 -0.13029096
000010 ed ae 51 be 22 1e 7a be 7c 6a ae ba cb c6 48 3e
       -0.20476885 -0.24425557 -0.0013306881 0.19607083
000020 31 44 a6 3e 9f a2 f9 bd 72 ee 3c 3d 72 c6 c8 bd
       0.324739 -0.12189221 0.046125837 -0.098034754
000030 98 64 bb bc b6 27 7b bd 8b 9c 02 be 6b eb 49 bd
       -0.022875115 -0.06131717 -0.12755029 -0.049296778
000040 36 de e4 3d f2 b6 3e 3e ac 56 12 3d 94 d8 e0 bd
       0.11175196 0.18624476 0.035727188 -0.10978809
000050 e8 dd c9 3d 96 ba f1 3d 32 31 f5 bd 14 b4 3a be
       0.098567784 0.118031666 -0.11972274 -0.18232757
000060 2b c4 50 be fa 42 42 bc 55 9d fc 3d 30 08 87 bd
       -0.20387332 -0.011856789 0.12334696 -0.065933585
000070 a6 ff 27 be a6 e7 cf 3d 6c de 3a be 68 a5 07 be
       -0.16406116 0.10151605 -0.1824891 -0.13246691
000080 f1 b9 92 bd 69 73 3f 3d ce 9d b6 3d 06 e5 69 be
       -0.07164372 0.046740923 0.089168176 -0.22841272
000090 73 4e 82 3d 31 32 eb bd 0f 62 35 be 27 e0 0f 3e
       0.06362619 -0.114841826 -0.17713188 0.14050351
0000a0 f9 c7 09 be 75 47 34 3b 4e 5f 65 be 2f 81 3f be
       -0.1345519 0.0027508412 -0.22399637 -0.18701623
0000b0 ac d0 d7 3d d6 b1 dd 3d 89 51 11 3e 28 6e d7 3d
       0.10537848 0.10824935 0.1419126 0.105190575
0000c0 c6 7f 65 be 4d be bb bd be 4c bd 3d f6 97 1b be
       -0.22412023 -0.09167156 0.09243153 -0.15194687
0000d0 d6 a9 14 3e e2 d8 12 bd 46 61 c2 3d 77 6c c7 bc
       0.14517912 -0.035851367 0.0949121 -0.024343712
0000e0 51 a8 f0 bd a1 9c 6b 3d 34 6d bf bc 18 68 cd 3d
       -0.11750854 0.05752242 -0.023367502 0.1002962
0000f0 37 fc 1c 3d 12 88 a8 bd 9c ba 81 bd 45 38 04 be
       0.03832647 -0.08229078 -0.06334421 -0.1291209
000100 96 af 51 bd b3 ba b4 3d df 0d 63 bd 36 a6 ff 3d
       -0.051192842 0.088246725 -0.05543315 0.12482874
000110 3c 13 54 bd 0d 05 c5 bd a8 7e 91 bc 76 06 3c be
       -0.051776156 -0.09620104 -0.01776059 -0.1836184
000120 32 85 12 bd bc 45 0e 3d a6 c7 28 3d b7 7f b1 bd
       -0.035771556 0.034734473 0.041206025 -0.08666938
000130 1b c0 40 be a4 f1 e2 bd 75 d7 23 be e4 fc 17 3e
       -0.18823282 -0.110812455 -0.16000159 0.14842564
000140 30 63 c1 bd 8a cf b4 be 97 dc 95 be 75 10 d8 be
       -0.09442747 -0.3531459 -0.2926986 -0.42200056
000150 53 11 8b be a2 c8 7d be 20 cf af be ff 8b 0b 3c
       -0.27161655 -0.24783567 -0.3433771 0.008517264
000160 af b2 a7 bd 07 a8 47 3d 87 9c 37 3e 74 67 61 3e
       -0.08188378 0.048744228 0.17930804 0.2201212
000170 f3 82 da bc db 2e 7c 3d fd 9e 08 3e c1 e8 76 3e
       -0.02667377 0.061568122 0.13341899 0.24112226
000180 53 db 40 3e 04 3e 54 3e 9e 1f 62 3e fe f2 16 be
       0.18833666 0.20726782 0.22082373 -0.14741132
000190 80 a3 cc be 05 ea 97 bd a4 2e 7e bd 91 8d 23 be
       -0.3996849 -0.074176826 -0.0620562 -0.15971972
0001a0 ef a3 a2 be a3 46 40 be 52 23 bd 3d de 6c 9d 3d
       -0.31765696 -0.18776946 0.092352524 0.076867804
0001b0 32 ee 46 be 11 96 62 3d 3a bf cc bd 85 5b 43 be
       -0.19426802 0.055318896 -0.09997411 -0.1907788
0001c0 af 5b 91 3d fe 34 b4 bd 05 a3 19 be f5 b0 c0 bd
       0.070975654 -0.0879917 -0.15003593 -0.09408752
0001d0 32 a0 ad 3d 04 f3 22 be f7 35 65 bc bc 7b 1b be
       0.084778205 -0.15913016 -0.013989917 -0.1518392
0001e0 a0 76 7b 3d 03 39 5d be f9 cc af 3d af 6d 5f be
       0.061392426 -0.2160378 0.08584017 -0.21819185
0001f0 49 d7 94 3d bc 58 43 3d db cf af 3d 89 c3 94 bd
       0.07267625 0.047692046 0.08584567 -0.07263858
000200 98 5d b8 bb c3 e7 18 bc f5 4a 04 3c 52 75 29 3c
       -0.0056263916 -0.0093326 0.008074512 0.010342913
000210 74 b7 00 3e d1 6a 1b bd ee cf e5 bd e2 96 41 3d
       0.12569982 -0.037943665 -0.112213 0.047263034
000220 ec 1f 5b be 8c 9f 01 be 49 da 3d bd be 5e 75 bd
       -0.21398896 -0.12658519 -0.04635075 -0.059904806
000230 3f 81 d9 3d b8 e9 c1 bc 2c cd 22 be 0f 93 1b be
       0.10620355 -0.023671016 -0.1589858 -0.15192817
000240 b9 20 96 3d 74 98 32 be c3 60 d6 bd f6 ee 65 3d
       0.0733046 -0.17440969 -0.104676746 0.056136094
000250 40 fb 95 3d b1 85 4d be d8 50 ee 3d 79 34 1f be
       0.07323313 -0.2007053 0.116365135 -0.1554736
000260 ed c1 0d be 4f ca 5b bd 06 b5 40 be 4d 72 d9 bd
       -0.13843508 -0.053659733 -0.18819055 -0.10617504
000270 f2 13 1c 3d 74 6c e9 bd 1e 65 1d be 96 51 e7 3d
       0.03810496 -0.11397639 -0.15370604 0.11294858
000280 79 35 98 3d 44 6a 0d be 0a 84 59 3c d4 29 a6 3d
       0.07432074 -0.13810068 0.0132761095 0.08113447
000290 6c 81 28 be 0e a8 a6 bc fe 1a 60 be ea f7 ee 3d
       -0.1645562 -0.020343807 -0.21885297 0.116683796
0002a0 5c d0 cc bd 2a a0 b2 3d dc f6 28 3d 0b 6c 17 3d
       -0.10000679 0.08721955 0.04125105 0.036968272
0002b0 e8 9a c0 bd f5 91 ec bc 89 b1 b7 bd 3c 16 ef 3d
       -0.09404546 -0.028878191 -0.08969409 0.11674163
0002c0 d7 c8 da bd ae e5 70 bd a4 2e 80 bd d2 52 6c be
       -0.106828384 -0.05881279 -0.06258896 -0.23078468
0002d0 a1 a5 3b 3e 28 26 76 bd 58 1f 11 3e c9 93 f8 bd
       0.18324901 -0.060094982 0.14172113 -0.12137563
0002e0 eb 31 91 3c 70 b4 24 bc b1 00 b6 3c 35 27 08 3e
       0.017723998 -0.010052785 0.022217127 0.13296206
0002f0 b1 b1 68 be 16 83 7c bc a7 48 96 3d d0 37 94 bd
       -0.22724034 -0.015412113 0.07338076 -0.07237208
000300 4a 21 86 be 4d d0 59 bd 0c 6e 92 3d 7e 35 f2 bd
       -0.26197273 -0.053177167 0.07149896 -0.11826609
000310 ca b4 06 3d d7 ea 63 be ef c8 36 3d 10 b1 77 3d
       0.032887258 -0.22257553 0.04462522 0.060471594
000320 53 82 20 be 60 fe 28 be 7f 4e 60 3d 62 ec 32 be
       -0.15674715 -0.16503286 0.05476236 -0.17472985
000330 b8 25 8e be f8 d9 b4 bd c5 0e 6b be 5b d5 e1 bd
       -0.27763152 -0.08830637 -0.22954853 -0.110270225
000340 b9 be 15 3e da bb 19 3e 22 32 13 be df 43 2e 3e
       0.14623536 0.15013066 -0.14374593 0.17018078
000350 06 d8 63 bd 48 8e ec bd da 83 63 be 4c 52 45 be
       -0.055625938 -0.115505755 -0.22218266 -0.19269675
000360 a4 c1 8e bd ca 89 72 3d 61 24 63 be 76 2c d7 bc
       -0.06970528 0.059213437 -0.22181846 -0.026266318
000370 f6 bf ea bd ce 71 1b bd 67 57 80 bd e9 c5 24 be
       -0.11462395 -0.03795033 -0.06266671 -0.16091122
000380 45 c7 00 be 78 c7 a9 3d 98 3a ca bd 3f b1 01 bc
       -0.12576015 0.08289999 -0.09874457 -0.007915794
000390 41 5a ec 3d 2e c1 c9 3c 07 f0 88 3c 24 29 4d be
       0.11540652 0.024628248 0.016716016 -0.20035225
0003a0 d5 76 9e 3d 8f ff 52 3c 6a 28 0c be 5f f4 7c 3d
       0.07737509 0.012878313 -0.13687292 0.061756488
0003b0 29 0b 26 be 85 46 04 be 81 bf 53 bc b2 35 93 3d
       -0.16215195 -0.12917526 -0.012924076 0.07187976
0003c0 ed e5 6d bd 83 6b 0a bc ad bf ee bd 77 ec 01 3b
       -0.058080602 -0.008448484 -0.11657653 0.0019824782
0003d0 fa ac 7d 3d 52 f3 75 be 7a 48 f5 bd aa e1 eb bd
       0.06193254 -0.240186 -0.119767144 -0.115176514
0003e0 a5 d9 e1 bd 01 e1 8a 3e 93 a8 4d 3e f9 57 b3 3e
       -0.110278405 0.2712479 0.20083837 0.35028055
0003f0 9f ff 75 3d 71 72 91 bb f2 ec dc bd 42 4c d8 bc
       0.060058232 -0.0044386913 -0.10787381 -0.02640355

f_net.0.0.bias f4 [32]
000000 37 9d 5b be 8d de d5 bd 43 8c 16 bd 45 5e 80 bd
       -0.21446691 -0.10442839 -0.036754858 -0.062679805
000010 01 55 13 bc fb 8b 34 bd b3 6a cd bd a8 6d 25 be
       -0.0089924345 -0.04407881 -0.10030117 -0.16155112
000020 f7 bf d4 bc 6c be 83 be c9 53 1e be 0f 8b b7 3e
       -0.025970442 -0.25731218 -0.15461649 0.3584828
000030 c2 07 cf be e9 1c dd be 42 42 cb be cb 5d 10 be
       -0.40435606 -0.4318612 -0.39698988 -0.14098279
000040 be 2a 73 bd bf 80 86 3f 1d b4 21 be 86 3a 82 be
       -0.059366934 1.050804 -0.15791364 -0.25435275
000050 0c e8 ea be 51 2d 4c bd e8 26 70 be 7f 1f 7b be
       -0.45880163 -0.049847905 -0.23452342 -0.24523734
000060 e8 3d 9e bd e7 d7 d6 bd 72 80 58 bc ad 5e 49 be
       -0.077266514 -0.10490399 -0.0132142175 -0.19665022
000070 79 76 2c be c0 ce 16 be 85 5a 56 bb 4a 8f cb be
       -0.16842069 -0.14727306 -0.0032707762 -0.39757758

f_net.1.0.weight f4 [32, 32, 3, 3]
000000 9f 2f 93 bd 65 fb 5a bd 6e f2 aa bc 19 f6 8d 3c
       -0.071868174 -0.053462405 -0.020867553 0.017329263
000010 14 15 04 bd be 3c 27 3d e1 8a 69 3d bb fe 91 3c
       -0.032246664 0.040829413 0.05701721 0.01782166
000020 a7 f4 5b 3c e3 c8 96 3d c0 60 23 bd 62 21 87 3d
       0.013425029 0.07362535 -0.03988719 0.06598164
000030 dd 1a bb bd da 88 78 3d 85 62 4c 3d 8a e8 83 3d
       -0.09135983 0.060677387 0.049898643 0.06440838
000040 00 ba de 3c 7f 66 a4 3b 80 0d 5c bc 51 26 9e bb
       0.027188301 0.0050171013 -0.013430953 -0.004826345
000050 2e ce b4 bb 07 68 21 bc b5 19 3b bb 04 a0 e1 bc
       -0.0055177426 -0.009851462 -0.0028549258 -0.027542122
000060 4a e8 10 3d 63 90 5e 3d 14 c0 8e bc 25 d2 90 bd
       0.035377778 0.054336917 -0.017425574 -0.07071332
000070 35 01 a1 bd 55 32 42 be 13 f1 b7 bd a8 b5 3a bd
       -0.07861558 -0.18964513 -0.08981528 -0.045583397
000080 2d 23 b2 bd 18 86 c7 bd 57 d2 f1 bd 69 26 fd bd
       -0.086981155 -0.09742373 -0.11807697 -0.12360842
000090 38 c9 4d bc 56 42 e1 3c 7b 4b d7 3a 05 7b 1a 3c
       -0.012560181 0.027497452 0.0016425693 0.009428744
0000a0 d5 d7 89 3d ba d5 7a 3d 0b 69 19 3d 18 80 aa 3d
       0.0673062 0.06123898 0.037453692 0.08325213
0000b0 62 45 5e 3b 26 63 d4 bc 42 db 3a bd fa 41 af bb
       0.0033915867 -0.025926184 -0.045619257 -0.005348441
0000c0 23 a2 87 bd d4 86 02 bd 65 93 0c 3c b9 35 88 bb
       -0.06622722 -0.031866863 0.0085800635 -0.004156795
0000d0 de 6d 48 3d 9a 9b ed bc 79 68 e9 3c b5 7b 13 3c
       0.048932903 -0.02900486 0.0284922 0.009001662
0000e0 af 5a cd bc 19 cf e4 bc d3 fc e2 3c f4 ff 6f 3d
       -0.025067655 -0.027930783 0.027708447 0.058593705
0000f0 ec 0f 75 3d 3b aa ab 3c da 9b b2 bc 84 e9 3d 3d
       0.059829637 0.020955196 -0.021802831 0.046365276
000100 bd 38 39 3d eb 06 07 3c 41 6f b2 3d 7a e9 e5 3c
       0.045220125 0.0082413955 0.08712626 0.028065432
000110 0d e8 85 bc ec 62 1c 3d b3 ce 53 bc 61 ae 79 3c
       -0.016346002 0.038180277 -0.012927699 0.015239329
000120 d9 48 cc bc 64 63 b9 bc 03 3a 75 bd 95 31 28 3d
       -0.02493708 -0.022630401 -0.059869777 0.04106291
000130 f5 56 10 3b b0 40 18 3d 3c 15 f1 bb 9f fc d0 3c
       0.0022024487 0.037171066 -0.0073572677 0.025511084
000140 85 bc ae bc 2a f1 83 bc 9a e6 b9 bc 09 4f a1 3b
       -0.021330127 -0.016106207 -0.022692967 0.004922752
000150 37 05 59 bd c2 0d 0f be 4a c7 a3 bd 3c 25 85 bd
       -0.05298349 -0.13970092 -0.07996996 -0.065012425
000160 a0 2e 0e be f8 06 04 bc d7 9a 9d ba fb ed 91 bd
       -0.13884974 -0.008058302 -0.0012024295 -0.07125469
000170 3f bd a8 3c c3 41 69 bd 64 d0 2c 3d ca e2 7c 3d
       0.020598052 -0.05694748 0.042190924 0.06173972
000180 59 8d ec 3b 13 27 ae 3c 8a 7a e3 3c ac 02 a3 3c
       0.0072189984 0.021258866 0.027768392 0.019898735
000190 9a 39 56 bd 63 76 8c bd 54 e3 95 3d 40 12 81 3c
       -0.052301027 -0.06858518 0.0731875 0.015755773
0001a0 d8 8f e6 ba f9 ae eb bb e5 7f 1e bd a6 ec 0b 3d
       -0.0017590476 -0.007192489 -0.03869619 0.034161232
0001b0 ff f3 97 3b 35 bb 27 bd d2 ad 88 3c 31 38 2b 3d
       0.004637241 -0.04095002 0.016684446 0.041801635
0001c0 7f 8d b6 3c 8d e5 9c bc f2 ae bf 3c fe 02 2c 3d
       0.022284267 -0.019152427 0.02339885 0.04199504
0001d0 8b 93 f5 bb a0 d6 8d 3d 18 29 83 3c 34 d8 00 3c
       -0.007494395 0.06925702 0.016010806 0.007864047
0001e0 fc 16 06 3d a0 cf c4 bb 57 89 16 bd 85 09 3e bc
       0.032736763 -0.006006196 -0.03675207 -0.011598949
0001f0 08 71 19 bc c8 28 ff bc d2 9e 16 be f2 19 07 be
       -0.009365328 -0.031147376 -0.14709023 -0.13193491
000200 d0 26 a9 bd b6 a9 ff bd 23 d4 6d be 4f 85 27 be
       -0.08259356 -0.12483542 -0.23225455 -0.16359447
000210 94 e4 69 bd 8c 1a c0 bd 5e 25 dd bd b1 39 87 3d
       -0.057102755 -0.093800634 -0.10798143 0.06602801
000220 5a 7b 5f 3d 88 ff 42 bd 23 63 16 3d 91 3d cd 3a
       0.054560997 -0.047606975 0.036715638 0.0015658607
000230 76 2f 11 3c 55 ee a8 3d 4e 1b 2a 3d d2 38 88 3d
       0.008861413 0.08248583 0.041529946 0.066514626
000240 ac 7b a7 3c b0 43 3d bd 35 88 0f bd 4d 1d 0d 3c
       0.020444714 -0.04620713 -0.035042007 0.008612943
000250 3a e9 53 bd e3 93 8d bd 95 1c b1 3d 14 86 16 3b
       -0.051736094 -0.06912973 0.0864803 0.00229681
000260 5b e4 b3 3d ae dd 17 bf e9 be e2 be 36 37 fd be
       0.0878379 -0.5932263 -0.44286278 -0.49456185
000270 85 34 87 be 53 0c e0 be 5f e2 00 be 9d c9 7f be
       -0.26407257 -0.43759403 -0.12586354 -0.24979253
000280 8e 04 a2 bd 4f 2c 0a be e9 28 9b 3d ac 19 2b 3c
       -0.07911025 -0.13493465 0.07576162 0.010443132
000290 5b 65 32 3c d6 f9 4f 3d 53 2f 47 3d b6 dc d3 3b
       0.010888423 0.05077537 0.048629116 0.00646552
0002a0 e2 a6 a9 bc 9b 64 3f 3d d3 32 83 3d 25 9c 2d bd
       -0.020709459 0.046726804 0.06406178 -0.04238524
0002b0 26 20 66 bd a3 33 86 bd 69 b1 a5 bc 29 a6 14 3d
       -0.056183003 -0.06552818 -0.020226197 0.036291275
0002c0 18 81 32 bd 89 c4 42 3d 7e cc d1 bc e9 27 7e 3d
       -0.043580145 0.04755071 -0.025610205 0.06204978
0002d0 aa 75 c3 3d aa db 56 be cd 26 28 be 9a bb 35 3e
       0.09543927 -0.20982233 -0.16421051 0.17747346
0002e0 a6 21 4a be bb fb bf bd 0b c5 10 3e 56 87 59 be
       -0.19739398 -0.09374186 0.14137666 -0.21243033
0002f0 6e 68 f6 bc 9a 64 1a bd 81 4b 5c 3d 31 7d d8 3c
       -0.030079093 -0.037693597 0.053782944 0.026426883
000300 a8 19 7a 3c d8 66 8e 3d 97 72 90 bd c8 ab 92 3d
       0.015264906 0.0695321 -0.07053106 0.07161671
000310 61 b6 2c 3c 2a 03 08 3d 0b 48 00 be 19 d8 de bd
       0.010541529 0.033206142 -0.12527482 -0.10881061
000320 d2 d5 1e be 20 13 23 bc 7e 07 e3 bd 90 28 09 be
       -0.15511253 -0.00995329 -0.110854134 -0.1339438
000330 20 23 38 bc 1c ef ed ba dc 44 85 bd 45 52 ea bc
       -0.011238843 -0.0018152925 -0.065072745 -0.028603682
000340 52 e4 81 3a 7b 6f 8d bc c1 16 b9 bc 7a 37 73 bd
       0.0009909964 -0.017265072 -0.022593858 -0.05937908
000350 03 47 41 bd d0 2f 40 3d b5 d4 3c bd ea 7b 30 bd
       -0.047186863 0.046920598 -0.04610129 -0.043086924
000360 dc 4f 19 bd 2f db 86 bc c0 fb 17 3c 3a 22 17 3c
       -0.037429675 -0.016461937 0.0092763305 0.009224469
000370 f4 f2 52 bd fd 63 4f 3c c3 d6 4a 3c 41 71 22 3d
       -0.05150123 0.012658116 0.012380305 0.03965879
000380 12 26 f0 bb 13 37 dd bd 87 fd 7e bd e1 02 11 3c
       -0.007328757 -0.1080152 -0.0622535 0.008850784
000390 a3 7d 25 bd dd 34 07 bd c6 ca 17 bb 19 15 b0 bd
       -0.04040302 -0.0330094 -0.0023161634 -0.08597774
0003a0 cf 36 06 3c 52 f4 16 bd c7 a0 ba bb 66 e1 07 3c
       0.008191778 -0.036854096 -0.0056954357 0.008293485
0003b0 96 ea b5 3d 72 98 d7 bc 67 54 34 3d 29 cd a6 3d
       0.08882634 -0.026317809 0.044025805 0.081446
0003c0 1a cf 9e 3d 37 bf 45 3c 9f ce 6b 3c 17 2a f7 bc
       0.07754345 0.012069515 0.014392524 -0.030171437
0003d0 67 6a f5 bc 0e 77 38 bd b3 f6 5c bd 10 a4 5c 3a
       -0.029957963 -0.045035414 -0.05394621 0.0008416781
0003e0 ed 88 15 bd 18 23 c0 bb 75 02 d6 bb c7 c4 ae 3d
       -0.036507536 -0.0058635585 -0.0065310546 0.08533626
0003f0 7d ef 62 bd 7c 8c 3a bd 40 48 25 3b 38 3f 12 3d
       -0.055404175 -0.045544133 0.0025220066 0.03570482

f_net.1.0.bias f4 [32]
000000 2b 99 0f bd a2 41 90 3d 89 b7 f4 bd 88 7f 99 bd
       -0.03505818 0.070437685 -0.11949069 -0.07495028
000010 d1 b9 22 be c4 ad 25 bc 4e 80 d5 bc 66 94 fc bd
       -0.15891196 -0.01011223 -0.026062157 -0.12332992
000020 0f 34 16 3e af 13 be bc 5b b2 c2 bd 80 73 e7 bc
       0.14668296 -0.023202745 -0.09506675 -0.028253317
000030 4a cc e5 bd 65 2a db bc c9 c3 85 bd 73 89 e1 3d
       -0.11220606 -0.026753614 -0.06531484 0.110125445
000040 11 6a 49 bd 9d b4 91 bd b0 b7 c2 3e c2 78 63 be
       -0.04917342 -0.071145274 0.38030767 -0.22214034
000050 14 1c 93 bd 17 d7 f5 bd 83 63 46 bd c5 e8 0c be
       -0.0718309 -0.12003916 -0.048434746 -0.1376067
000060 5b 15 fc bd 21 9b 3d 3c ef 42 9b 3e f6 a5 4b bd
       -0.12308761 0.01157263 0.30324504 -0.04971882
000070 57 32 e7 bc 84 bc af be b4 b4 5f be 45 a4 f5 bb
       -0.028222246 -0.34323514 -0.21846277 -0.007496389

f_net.2.0.weight f4 [32, 32, 3, 3]
000000 d2 49 ee bc 72 54 82 bd 5d 51 75 bd 66 87 cf bd
       -0.029087935 -0.06363763 -0.059892047 -0.10133247
000010 44 18 0b bd 78 0e 81 bd 13 58 31 bd 67 7c 2f bd
       -0.03395869 -0.06301588 -0.043296885 -0.04284325
000020 ea 74 1b bd 57 cb 8b 3e ca 45 8a be 9c 2f 85 be
       -0.037953295 0.27303573 -0.2700637 -0.26012886
000030 8b 75 89 3e 35 ad 46 be 8e 24 fd be 67 5a 25 3f
       0.2684749 -0.1940201 -0.49441952 0.6459107
000040 8d 2c 58 3a 30 86 c9 bd ab 73 2b 3e 3e a3 1e 3e
       0.00082463847 -0.09840047 0.16743343 0.1549196
000050 13 67 1e 3e f5 cf ed 3d d1 42 27 3d f5 a2 84 3d
       0.15469007 0.1161193 0.040835205 0.06476394
000060 ac 4d c5 3d 15 f5 7f 3d 99 6a e0 3b f6 4e a7 bc
       0.09633955 0.062489588 0.006848645 -0.020423394
000070 a9 f7 b7 bc dd 0b 47 3a e7 32 29 3d 20 dd 62 bc
       -0.02245696 0.00075930153 0.04130831 -0.013846666
000080 f0 f6 72 bd ca 08 01 3d c6 ce 19 bd 44 62 78 3d
       -0.05931753 0.031502523 -0.03755071 0.06064059
000090 ca 52 78 3d 5c c0 ed bd 32 6d 3d bd ed 96 c5 3d
       0.06062583 -0.11608955 -0.046246715 0.096479274
0000a0 59 3d 2c be eb 2d d9 3b 99 bb 0b 3e 5d 5a bd bd
       -0.16820277 0.0066277883 0.13645782 -0.09245751
0000b0 3c 59 15 3d cb b4 f3 bb 3b 20 d2 3c 6e 10 b3 3b
       0.036462054 -0.0074373237 0.025650134 0.005464605
0000c0 8c 12 c9 3c df 6d 8a 3c 61 03 8f bd a8 53 af b9
       0.024544977 0.016898094 -0.06983066 -0.0003344093
0000d0 9f e9 8d 3c 64 9b db 3c 90 bc a4 3d 7c 08 9f 3d
       0.017323313 0.026807494 0.08043778 0.0776529
0000e0 0e 7b 1b 3c 2c b2 db 3c 4c ac a7 bd e3 70 6f bd
       0.009489788 0.026818357 -0.0818716 -0.058457267
0000f0 b6 24 a1 3d cc 2e 09 bc 77 bc 36 3c 24 0a 22 3d
       0.0786833 -0.008372974 0.011153332 0.039560452
000100 71 ff 18 3c 17 ca 3b 3d 50 06 5d bb 2c 71 88 3b
       0.009338246 0.045847025 -0.0033725686 0.0041638818
000110 de 18 44 3d 72 d5 3d bc 5d 58 47 3d 4d ff a8 3d
       0.047875278 -0.011586534 0.048668254 0.0825182
000120 d4 be 90 bd 41 1b c3 be 00 71 98 be e5 98 59 bd
       -0.070676476 -0.3810673 -0.29773712 -0.053124327
000130 08 3f 18 bf dc c9 ee be 02 a8 a1 3e 6b 98 01 bf
       -0.5947118 -0.4663838 0.31573492 -0.50623196
000140 85 37 84 be d6 c3 5f 3d 74 a3 80 bd 47 60 b9 bd
       -0.25823608 0.054630123 -0.06281176 -0.090515666
000150 a1 32 36 bb 3b ae a2 bd 27 8f 35 bc 14 08 73 3b
       -0.0027801173 -0.07943388 -0.011081493 0.0037083672
000160 70 4a dc bc 12 f9 35 bd 84 6e 69 be cb 78 cf bd
       -0.026890963 -0.044426985 -0.22796065 -0.10130461
000170 8e 13 c7 3d 1e da 52 bc 83 0e 3b be 70 f9 19 3e
       0.09720527 -0.012869386 -0.18267255 0.15036559
000180 b5 60 dd 3d 19 83 c5 3d 11 4c e7 3d bf a7 c5 3d
       0.10809461 0.096441455 0.112938054 0.09651136
000190 ba 8f 7d bc c6 42 d4 3c b3 58 f9 3d 7a c0 82 be
       -0.015476162 0.025910746 0.12175121 -0.25537473
0001a0 f9 be bc 3d 28 0f c5 3e db 7c 7a be 8b 16 b2 3d
       0.09216113 0.38488126 -0.24461691 0.08695706
0001b0 69 cb a4 3d 36 aa 38 3d 17 8d 01 3e 19 c5 31 3c
       0.0804661 0.0450842 0.12651478 0.010850214
0001c0 02 2d c0 bc 83 5c 16 3c d5 77 67 bd 86 ae 48 bc
       -0.023458961 0.00917733 -0.056510765 -0.012248641
0001d0 ee 6d 78 3d 70 66 8d 3e 6c 32 24 bd 04 df 80 bc
       0.060651712 0.27617216 -0.04008715 -0.015731342
0001e0 bc 30 c8 3d a7 0d d3 be 4f 73 59 be 3b 7d f5 3e
       0.0977492 -0.41221353 -0.21235393 0.47947106
0001f0 13 8b c4 be bb 4b 48 bd 00 f5 e2 3d 4b 85 11 3d
       -0.38387355 -0.048900347 0.11081886 0.03552751
000200 f3 5e 99 3d 4f 18 68 bd e1 db 05 bd 99 2b 8c 3d
       0.07488813 -0.056663807 -0.032680396 0.06844253
000210 55 e9 3f bd c1 85 c7 bc 5b e3 cb bc b2 a8 7a 3c
       -0.046853382 -0.024355771 -0.024888685 0.015299009
000220 a5 c3 37 be ce 40 3d be a8 76 10 be 46 02 9b be
       -0.17945726 -0.18481752 -0.14107764 -0.30275172
000230 ba 67 4f be b3 26 8b 3f 13 d0 2b 3f db 66 7c 3f
       -0.20254412 1.0871185 0.6711437 0.98594445
000240 35 f7 91 3d ef 2f df 3d d8 ba a6 3d 78 b6 3b 3e
       0.07127229 0.108978145 0.08141106 0.18331325
000250 e9 98 f0 3d ba 82 26 3e 52 aa 30 3e 98 5c d9 3d
       0.11747915 0.16260806 0.17252472 0.10613364
000260 78 ba 0a 3e c1 8b 61 3d ef ae 84 bd 16 59 b7 bd
       0.13547695 0.05506492 -0.064786784 -0.08952539
000270 a9 a4 f1 3d 0c f8 fb bd 5f d9 bf bc 61 de a3 3d
       0.117989846 -0.123031706 -0.02341908 0.080014
000280 be 16 35 bd 56 c1 ee 3c 6e e3 84 bd d8 b0 30 be
       -0.04421114 0.029144924 -0.06488691 -0.1725496
000290 9f c4 de bd d5 6c c5 be 06 b3 e1 be e2 a3 b5 be
       -0.10877346 -0.38559595 -0.44081897 -0.35476595
0002a0 69 8a c4 bd 9e 0b ae be 32 cf 0a be 43 55 a2 3d
       -0.09596712 -0.33993238 -0.13555601 0.07926419
0002b0 0c 0a e7 3d c1 b7 b5 3d d7 39 ad 3d e1 cb fc 3d
       0.11281213 0.08872939 0.08458298 0.12343574
0002c0 37 44 fb 3d 62 87 57 3e bd 74 f8 3d 4a 57 3d 3e
       0.1226887 0.21047738 0.12131641 0.1849033
0002d0 30 ae 4f bd 05 3e 55 be ed 9f 7f be 47 e3 b1 bd
       -0.050703228 -0.2082444 -0.2496335 -0.08685928
0002e0 af 01 7c be c5 b9 5e be 46 15 b0 3d 9a 0b f2 bd
       -0.24610017 -0.21750553 0.085978076 -0.11818619
0002f0 1b 18 78 bd d5 b7 8d bd 43 09 0b be 25 53 8c be
       -0.060569864 -0.06919829 -0.13577752 -0.27407184
000300 63 2c 1f be 69 c1 11 be 61 20 47 be f7 7b 3a 3e
       -0.15544276 -0.14233936 -0.19445945 0.18211351
000310 2b bb e6 3c 74 b6 14 3b 87 d8 e5 ba 56 1d 58 3d
       0.02816542 0.0022691758 -0.0017535844 0.052762352
000320 1b 3d bb 3a c3 20 61 bd 9c d2 e6 3c 4e 23 a6 bd
       0.0014285179 -0.054962885 0.028176598 -0.081122026
000330 22 36 33 3d 73 d5 75 3d 2e 5d 39 bc b3 2b 14 bc
       0.043752797 0.060018014 -0.01131372 -0.009043622
000340 d4 cd 05 bc 82 79 45 bb 15 23 10 3c 72 02 32 3c
       -0.008166749 -0.0030132239 0.008797427 0.010864841
000350 28 19 fa 3c cf b2 0a 3e 8e 5f 92 3d e9 cc ce 3c
       0.030529574 0.13544773 0.07147132 0.025244193
000360 c8 09 bb bd ed 05 39 be e7 fb 67 be 4b 96 22 be
       -0.09132725 -0.18068667 -0.22654687 -0.15877645
000370 96 bf 4f be 46 d2 e8 bd fb e8 3c be d3 02 69 be
       -0.20287928 -0.113682315 -0.1844825 -0.22754984
000380 2f e1 c9 bd d8 ee 0a 3f f1 c3 67 3d f9 78 51 3e
       -0.098574035 0.54270697 0.05658335 0.20456304
000390 3d f9 06 3f 4b 48 03 be cd 3d 27 be 83 47 2a 3f
       0.5272406 -0.12820546 -0.16332169 0.6651537
0003a0 32 70 3a be 7f 41 3b bd f0 c2 01 bd 03 32 7b 3d
       -0.18206862 -0.04571676 -0.031680048 0.06132699
0003b0 b9 72 27 3e e4 72 04 3e bf 78 6c 3e d5 b2 6c 3e
       0.16352357 0.12934452 0.23092936 0.23115094
0003c0 b4 a0 61 3e a6 05 35 3e d3 07 79 3e 21 0f 47 3d
       0.2203396 0.17677936 0.24319391 0.048598412
0003d0 40 6a aa bd b6 5e aa bd ea 41 89 bd 9e 9d ad bb
       -0.08321047 -0.08318846 -0.06702025 -0.0052983304
0003e0 7c e6 7f 3c 05 f8 87 3c a3 73 96 bc 24 81 74 bd
       0.015618917 0.016597757 -0.018365687 -0.05969347
0003f0 52 9d 08 bc c6 d5 95 bd 8b 0a 99 3c 78 19 b1 bc
       -0.008338289 -0.07316165 0.018681785 -0.02161859

f_net.2.0.bias f4 [32]
000000 2c d0 ca 3c ec 75 bc 3a 5b 53 bd bb 61 f3 66 3d
       0.024757467 0.0014378405 -0.005777759 0.056384448
000010 1e 1d 7d 3c 03 db 0f bd d8 e1 0e bd 2b 78 9f bc
       0.015448837 -0.035120975 -0.03488335 -0.01946648
000020 db f9 b0 3c 6e 1b 1a be 7a 1d de bd 15 04 b9 3d
       0.021603515 -0.15049526 -0.10845466 0.09033982
000030 39 99 ac bb 29 47 9d bd a8 77 42 3d ac b8 7d bd
       -0.005267289 -0.07679588 0.047477394 -0.061943695
000040 d2 ae bf bc 6e cf 54 3d 46 08 a7 bd 18 46 75 bd
       -0.02339879 0.051955633 -0.08155875 -0.0598813
000050 40 d0 3c 3d 34 36 e6 bd ba f2 8c 3d a1 79 cb bd
       0.04609704 -0.11240807 0.06882234 -0.09935308
000060 98 35 ad bd 10 49 db 3d f2 94 ab bd c8 51 b9 bd
       -0.08457488 0.10707295 -0.083780184 -0.09048802
000070 ca 79 29 bd 02 71 12 3e fb 7c 38 be eb 2b 9f 3d
       -0.041375913 0.14300922 -0.18016426 0.077720486

f_net.3.0.weight f4 [32, 32, 3, 3]
000000 ce fe 89 be 7b 2d cf bd dc 46 18 be 3d a6 26 be
       -0.26952213 -0.101160966 -0.1487078 -0.16274352
000010 97 3f e1 bc d3 e5 50 3d 68 a6 bb be 2a ef 8c 3d
       -0.027496142 0.051000427 -0.36650395 0.068815544
000020 b7 af 9a 3c 9e dd ae be 04 93 01 be d2 b0 97 be
       0.018882615 -0.34153455 -0.12653738 -0.2962709
000030 41 d2 0d be 5d 5a 1a 3d 7a 0d 87 bd 0f 2a ec be
       -0.13849737 0.037683833 -0.06594367 -0.46125838
000040 6a 78 58 3d 4e 6a 86 3d 8f 46 89 bd 86 2c 48 be
       0.05284921 0.06563245 -0.06702911 -0.19548234
000050 3b 4d 75 bd b6 63 1e be c2 20 bc bd 2a 60 cb 3d
       -0.059888106 -0.15467724 -0.091859356 0.09930451
000060 d5 4e c5 bd 01 b8 dd 3c f5 e8 d7 bc 8b 9f 9e be
       -0.09634177 0.027065279 -0.0263562 -0.30981097
000070 ff f9 b5 be 48 40 89 be e5 66 86 be 8d 76 80 be
       -0.35542294 -0.26806855 -0.26250377 -0.25090447
000080 2f 53 08 3e f1 11 7f bc 82 fc 83 bc f7 b1 f1 3d
       0.13312982 -0.015568242 -0.016111616 0.11801522
000090 f3 d6 80 be 35 69 38 be 93 58 67 be 6d 82 05 3c
       -0.25163993 -0.18008883 -0.22592382 0.008148772
0000a0 f7 66 20 bd f5 bf 95 3c 82 a4 a0 be 9f 04 bb 3d
       -0.039160695 0.018280009 -0.3137551 0.09131741
0000b0 0c 7e ef 3d 48 87 93 3d c6 07 6a 3c 6d 56 87 bc
       0.116939634 0.07203537 0.01428408 -0.016520703
0000c0 30 d6 a0 3d 4c 0b 88 3c a3 96 9b 3c 1e 9d a0 3e
       0.07853353 0.01660695 0.018992728 0.3136987
0000d0 d6 2f 19 3e 2b da 1c 3c 8a 87 96 bd 0d c8 3c 3b
       0.14959654 0.0095735 -0.07350071 0.0028805763
0000e0 dc d0 9f bb d5 35 82 3c 94 a6 d5 b6 ca f3 98 bc
       -0.004877193 0.01589481 -6.367287e-06 -0.018670935
0000f0 23 5f 36 3e 74 70 1b bd 94 f9 fd bc 9a 0e de bd
       0.1780973 -0.03794904 -0.031002797 -0.10842629
000100 50 a4 98 3e b2 bf 17 3e 09 37 07 bd 45 b5 8d 3e
       0.2981286 0.1481922 -0.03301147 0.2767736
000110 88 0a e3 3e bd 7c 6c 3d b8 29 fe 3e 42 50 43 3f
       0.44343972 0.057736147 0.49641204 0.7629434
000120 10 19 b4 3e 26 b3 4a bd a7 60 b1 bd eb e7 d9 be
       0.3517537 -0.049487256 -0.08661013 -0.42559752
000130 31 64 63 be e1 8e 8a be 11 f5 84 3d 57 f3 9e 3e
       -0.22206189 -0.27062133 0.06492055 0.3104503
000140 b0 c2 23 3d 81 b3 14 be 33 c9 3f bd 4f 8b 62 bd
       0.03998059 -0.145216 -0.046822738 -0.055308636
000150 b0 06 e6 bd 52 d6 d3 bd bd ff 42 be 44 0e 06 be
       -0.11231744 -0.10343613 -0.19042869 -0.1309138
000160 28 f8 37 bd 8f 75 88 bd 65 a2 9e bd 02 23 1f be
       -0.044914395 -0.066630475 -0.07745818 -0.15540698
000170 f8 c4 28 be f2 9a 22 be b9 5a 09 bc e9 70 e9 bc
       -0.16481388 -0.1587942 -0.008383446 -0.028496223
000180 e1 10 eb bd f7 35 db bd bd 6b 3e bd 61 ad c3 bd
       -0.11477829 -0.10703652 -0.046489466 -0.09554554
000190 88 6c 22 be 93 f5 82 be a2 c3 23 bd 68 42 09 be
       -0.15861714 -0.25577983 -0.039981492 -0.13404238
0001a0 03 b7 05 be db 2f 8d 3e fa 17 86 bd 6d 0f 80 bd
       -0.13058095 0.27575573 -0.06547542 -0.06252942
0001b0 12 0f 1e 3b 6d 21 06 3b d4 35 cd bc 9c c5 05 bc
       0.002411787 0.00204667 -0.025050081 -0.0081647895
0001c0 24 59 8c bc 68 3d 6c bb dc 69 2b 3c 51 c0 8b bd
       -0.01713235 -0.0036047343 0.010462251 -0.06823791
0001d0 80 c5 1c bc d4 b8 e2 bb c2 b7 ae bc d4 1f 8c 3e
       -0.009568572 -0.006919006 -0.021327857 0.27368033
0001e0 d5 1c 53 3e 73 9e 13 be b1 18 ab bb 26 67 f5 3e
       0.20616467 -0.14415912 -0.0052214493 0.4793026
0001f0 27 e2 0b 3f b9 ff 08 3f ae 5a 58 3d a8 44 b1 bd
       0.54641956 0.535152 0.052820854 -0.08655673
000200 e3 34 a3 3c ee bd 2b 3c 59 bc 94 bd 99 e9 26 bb
       0.01992268 0.0104822945 -0.07262487 -0.0025468825
000210 76 9d 8d 3e 0b 35 aa bc b5 19 12 bd 18 9a 87 be
       0.27659196 -0.020777246 -0.035669047 -0.26484752
000220 be 1a 09 be be f5 39 be a3 24 3b be 32 96 aa bc
       -0.13389108 -0.1816015 -0.18275695 -0.020823572
000230 f8 a2 8d bb a3 db 9c be d8 d2 11 bc 1f 6b 3d 3b
       -0.004322406 -0.3063632 -0.008900367 0.002890296
000240 05 a0 e3 bd 65 ff 3a 3c e5 fd cc bd 73 62 d2 bd
       -0.11114506 0.01141343 -0.10009364 -0.10272684
000250 82 2f ab 3c 87 4e 31 bc 4e 61 41 be 01 b2 3a bc
       0.020896677 -0.010821945 -0.18884775 -0.0113949785
000260 57 75 12 bd 35 31 e8 3c ae 47 7a bd 74 cf 4f 3c
       -0.035756435 0.028343776 -0.061103515 0.012683738
000270 f3 83 11 3c ac 94 15 bd 2d 17 49 bd 10 80 5b be
       0.008881557 -0.036518738 -0.049094368 -0.2143557
000280 7b 7b fb bd f8 dd 38 be 08 b2 e3 bd 14 15 1c 3d
       -0.122794114 -0.18053424 -0.11117941 0.03810604
000290 4d bd cc 3c eb 6f 1c be 04 36 6e 3d b9 88 b3 3d
       0.02499261 -0.15277068 0.058156982 0.08766312
0002a0 ac 24 f2 3d 34 7e cc bb 20 52 dd bd 08 93 72 be
       0.11823401 -0.0062406305 -0.1080668 -0.236889
0002b0 94 68 4f be ee c3 25 be 94 59 a6 bc 19 4a 73 bd
       -0.20254737 -0.16188022 -0.020306386 -0.059396837
0002c0 5e bc f5 39 41 99 73 3e 2f 68 b3 3c 3a 6f a3 3d
       0.00046870386 0.2378893 0.021900265 0.07980199
0002d0 a2 ab 5e bd 4c d8 bf 3c 48 1c f5 bc 1e e4 0d 3d
       -0.0543629 0.023418568 -0.029920712 0.034641378
0002e0 10 5d a3 bd c6 6f ac bd 55 6d e1 3e ca b9 e8 3c
       -0.07976735 -0.084197566 0.44028726 0.028408904
0002f0 fe e0 2f bd fb 48 e1 3c 92 0e 77 3c 39 10 ed bc
       -0.04293918 0.02750062 0.015079157 -0.0289384
000300 52 75 8d 3d f9 d7 f8 3d 85 82 04 be 87 7d ac 3d
       0.06907143 0.121505685 -0.12940414 0.0842238
000310 c5 94 1d 3e cf 29 9c be 48 04 49 be 00 a6 c8 bc
       0.15388782 -0.30500647 -0.1963054 -0.024493217
000320 43 f9 7c 3c 93 0e 70 be 6b b9 df bb bf ef 5c 3e
       0.015440288 -0.2344306 -0.0068275235 0.21575831
000330 1b 82 c9 be 11 31 7e 3e b8 6c 65 3e 3a 80 61 be
       -0.39357075 0.24823405 0.22404754 -0.22021571
000340 d1 bd e4 bd 67 8f f3 bd d3 71 c4 bd 84 f2 59 3d
       -0.11169017 -0.11892586 -0.09592023 0.053209797
000350 61 f4 93 3d 8d a8 eb be b5 df dc 3d 1b 7e 12 3e
       0.07224346 -0.46027032 0.10784856 0.14305918
000360 fe 6f 90 3c 24 4e 5f bd 61 d3 93 3c b2 0b 14 3e
       0.017631527 -0.05451788 0.01804513 0.14457586
000370 40 d8 8e 3d 3a c3 b1 bc a6 73 6a 3e 50 d0 43 3d
       0.0697484 -0.021699537 0.22895679 0.047806084
000380 25 04 7b 3c 95 98 eb ba 4f 03 f5 bd 2f 53 61 bd
       0.015320812 -0.001797455 -0.11963522 -0.05501097
000390 6b 7c 06 3b bf 4b 85 bd 2f b6 be bc ff cc 4d be
       0.0020520936 -0.06508588 -0.023280231 -0.20097731
0003a0 ce 76 13 be a5 42 89 bd 85 38 9a be 16 50 86 be
       -0.14400789 -0.067021646 -0.30121246 -0.26232976
0003b0 21 4e 71 be 8c c5 00 be 1a 05 10 be 36 34 9a 3c
       -0.2356496 -0.12575358 -0.14064446 0.018823724
0003c0 78 e2 ca be 33 71 10 bd ab e9 b3 3c 4d 54 f9 bd
       -0.39625907 -0.035264205 0.021962008 -0.12174282
0003d0 f7 26 af 3c f6 9b aa bd 12 85 39 be 5b e4 7f bd
       0.021380885 -0.083305284 -0.18117169 -0.062473636
0003e0 2d f2 fb bd 31 c8 c5 be 28 bf 9e bd 5a d9 06 be
       -0.12302051 -0.38629296 -0.07751304 -0.1316885
0003f0 07 07 ec bd 33 ee 97 bd 1a dc af bc 73 f7 bf bc
       -0.11524778 -0.0741848 -0.021467257 -0.023433423

f_net.3.0.bias f4 [32]
000000 dd ce 28 bd f8 0d d0 3d 28 53 db ba f5 39 4f bd
       -0.041212905 0.10158914 -0.0016733157 -0.05059238
000010 85 71 c8 bb a9 4c 90 bc 3d 5a d8 3c b0 a7 d4 3c
       -0.006117048 -0.01761468 0.026410216 0.025958866
000020 ea 02 9b 3c 96 3d 19 3d 90 33 31 3d 69 cb 22 3d
       0.018922288 0.03741225 0.043262064 0.03974477
000030 b2 99 ac bc 55 29 88 3d f6 8f 9a 3c f5 77 fb 3c
       -0.021069381 0.066485085 0.018867474 0.030696848
000040 0a 32 7d 3c de 72 04 3e 8f 35 9a 3d 5e 0f 64 bc
       0.015453825 0.12934443 0.07529747 -0.013919679
000050 eb 8a 5f 3c 4d 31 30 3c 16 d6 a2 3c f8 a8 f8 3c
       0.0136439605 0.010753942 0.019877475 0.030354008
000060 94 dc ec bc ef b2 9d bc 64 81 95 bd c2 73 db 3c
       -0.028913774 -0.019250361 -0.0730007 0.026788596
000070 7a 13 a1 bd eb 29 a0 3d 3f 87 db 3a d5 a3 78 3d
       -0.07865043 0.07820495 0.001674868 0.060703117

f_net.5.weight f4 [5, 800]
000000 21 17 1f 3e 75 cd 8b 3e 47 62 00 3e 1d ae 96 3e
       0.15536167 0.2730519 0.1253749 0.29429713
000010 c9 1a 9e 3e 56 6a 47 3d 3b 7c d8 bd 9c 7e c6 3d
       0.3087981 0.048685394 -0.1057057 0.096921176
000020 9a 40 85 3d e2 62 49 3e 4b 61 a7 3c 9a 0b 8b 3e
       0.065064624 0.19666627 0.020432135 0.2715729
000030 93 a7 14 be f9 f0 dd 3d 0c c8 8e bd 50 2c 1f bd
       -0.1451705 0.108369775 -0.0697175 -0.03886062
000040 bd ee 1e 3e 55 ff 1a be 55 bd a5 3b 4b 6d 1b be
       0.15520759 -0.15136464 0.0050579705 -0.1517841
000050 fe 42 b8 3c 48 98 37 3d 3e 92 0f bd 1f cf 03 3f
       0.022492882 0.04482296 -0.035051577 0.51487917
000060 e3 a7 58 bd a3 ad 91 3e fd 0b 99 3d 75 d1 1b bd
       -0.052894484 0.28452787 0.0747299 -0.03804155
000070 31 fb f6 bc 9d 27 be bd 42 49 9f 3e 7a 77 08 bd
       -0.030149074 -0.092848994 0.3111058 -0.033317067
000080 9f 7f 37 3d 06 0d ea 3d d5 c1 13 bd 2d 2d 05 3f
       0.044799443 0.11428265 -0.036073525 0.5202206
000090 c5 6d 9c bd 9e 51 ad 3b c4 15 6a ba 62 b2 84 bc
       -0.076381244 0.0052892705 -0.0008929635 -0.01619834
0000a0 04 53 fd 3e d2 ce 98 bc e3 5d 36 3c ff 03 28 3c
       0.49477398 -0.018653307 0.011130783 0.010254859
0000b0 b3 c9 50 3c c2 7b c4 3e a2 0a b6 3b 36 44 50 bd
       0.012743401 0.3837567 0.0055554667 -0.0508463
0000c0 0f 04 40 3d 79 b1 89 bd 6a 40 ff 3d bc 45 d7 3d
       0.04687887 -0.06723303 0.12463458 0.10511348
0000d0 9a f5 5a be ef 9c 93 3e 42 7f b0 3e c6 52 6e be
       -0.21382752 0.28830668 0.3447209 -0.23273763
0000e0 70 48 5e be a8 45 80 be 95 05 8d be 77 49 62 be
       -0.2170732 -0.25053144 -0.2754332 -0.22098337
0000f0 2a c4 ce bd 9e 4e bf be 56 fb f1 be 83 a6 cd be
       -0.10096009 -0.37364668 -0.47262067 -0.401661
000100 69 b7 b9 be b4 25 8a 3c 98 2b 38 be c6 88 bb bd
       -0.36272743 0.016863681 -0.1798538 -0.09156947
000110 ac b7 9e 3d 2f fe 44 3e 5d c1 c0 3d 9a 02 f0 3d
       0.077498764 0.19237588 0.09411881 0.11719246
000120 8b 5e ec bd 02 56 70 bd 85 50 38 be b0 c8 d5 3c
       -0.1154147 -0.058675773 -0.17999466 0.026096672
000130 9d 45 a3 bc 70 d5 96 bd 64 96 11 bd 1e 76 f3 bc
       -0.019930655 -0.07364929 -0.035543814 -0.029719409
000140 09 de 94 3d a5 a5 a0 bc 38 0f 41 3d 1d 5a 05 bd
       0.07268912 -0.019610235 0.047133654 -0.03255664
000150 10 b7 dc bc 41 93 01 3d a1 2b bf bb bb 1d 30 3c
       -0.02694276 0.031634573 -0.0058340584 0.010749276
000160 bb 8a 05 bd 2d 23 84 3b e1 db be 3d 95 25 77 3d
       -0.032603007 0.0040325136 0.09319282 0.060338575
000170 ec 52 94 3d 76 bb b8 3c fa be 20 3d bb c6 2b 3d
       0.072423786 0.022550326 0.03924463 0.04193757
000180 4f de 1c 3d 86 1d 2b 3d d0 30 d2 3b 93 8c 0b 3c
       0.038297947 0.041776203 0.0064145103 0.008517402
000190 71 21 da 3c df 47 54 b9 57 58 4c 3c ab a9 02 3c
       0.026627274 -0.0002024467 0.012472234 0.007975022
0001a0 08 7e 49 3d e9 c5 1f bb 78 ea 82 bc 01 22 16 3b
       0.04919246 -0.0024379438 -0.015980944 0.0022908452
0001b0 20 49 0e bd b8 6b 00 bd da 01 90 3c 0d f7 a4 3c
       -0.034737706 -0.03135273 0.017579008 0.020137334
0001c0 ad 40 80 bb 93 13 7d bd c3 15 2c bc f6 8b 86 3d
       -0.00391396 -0.061786246 -0.010503235 0.06569664
0001d0 e5 52 8d 3d 71 a3 42 3d 8c 56 8f bd a6 52 ce bc
       0.069005765 0.04751915 -0.069989294 -0.025185894
0001e0 bc 21 89 bb f4 a1 37 3d 66 58 02 3c ef 6d ed 3c
       -0.0041849297 0.044832185 0.007955646 0.028983084
0001f0 92 fb 4f 3c c6 5e 88 be f7 1c 6a bd 85 bb 9c bd
       0.012694256 -0.26634806 -0.05715653 -0.07652954
000200 df 59 33 be c8 97 a9 be ff 6c cf be 1d 58 d3 be
       -0.17514752 -0.33123612 -0.40512845 -0.41278163
000210 ea d2 b1 be e0 1a 06 bf 37 cb 7e be fd ae e4 bd
       -0.34731227 -0.5238476 -0.24882208 -0.11166189
000220 21 6e 64 bc e3 e6 bc bd 2b be 8e 3e 20 2b d6 3c
       -0.013942272 -0.09223726 0.27879462 0.02614361
000230 e8 84 ec 3d 1f f3 23 3f 13 4c b9 3e 89 1a 19 3f
       0.11548787 0.6404285 0.36190853 0.59806114
000240 56 a8 e1 3e 90 d8 ef 3d d1 46 cb 3d c6 5c 00 3e
       0.44073743 0.11711228 0.099256165 0.1253539
000250 ca 3d 96 3d e8 7b c3 3d cb 26 59 3d 94 a5 19 3d
       0.07336004 0.095451176 0.05301551 0.037511423
000260 ab eb 59 3d 8c 00 84 3d 6a 62 b4 3b b1 e4 cb bb
       0.053203266 0.06445417 0.005504896 -0.0062223305
000270 5a 64 08 bd c6 cd 5b bd 38 95 84 bc b1 c1 12 bd
       -0.033298828 -0.053663038 -0.016184434 -0.03582925
000280 71 a8 21 3d 5e ef a6 3c 40 0e f8 bc b6 d2 29 bc
       0.03946728 0.020377811 -0.030280232 -0.010365179
000290 4b 1a 15 bd 40 5e 8b 3a a4 1d 87 3b fe 3e c0 3c
       -0.036402028 0.0010632947 0.0041234065 0.023467537
0002a0 9d d5 39 3d e1 0d 1d 3d 25 65 88 3c 75 5b c2 3c
       0.045369733 0.038343314 0.016649792 0.02372525
0002b0 97 59 34 3d 52 ba f0 3c 08 39 2f 3c 0e 54 ad 3c
       0.044030752 0.02938572 0.01069475 0.021158244
0002c0 3d f0 13 3c 83 ba b0 3d b9 cf 17 3d fa 55 36 bd
       0.009029445 0.08629324 0.037063334 -0.044515587
0002d0 11 da 21 3d 09 1a 49 bc fa 15 52 3b 80 85 83 3d
       0.039514605 -0.012274274 0.0032056556 0.064219475
0002e0 13 57 15 3c b4 d5 59 3d c4 40 27 bd 08 b9 7f bd
       0.009114998 0.05318232 -0.04083325 -0.06243232
0002f0 d9 2b 64 3c 40 e3 a2 bd b7 11 2f 3c e7 48 1e 3c
       0.01392647 -0.07953501 0.010685376 0.009660936
000300 5f 23 02 3c c4 f6 40 3d fa ed 50 3d bd 61 fb 3c
       0.007943003 0.047110334 0.051008202 0.030686254
000310 c1 86 48 3d aa ed 82 3d 18 11 20 3e d0 86 95 3d
       0.048956636 0.06392987 0.15631521 0.07301104
000320 4b 3f 7c bd 26 34 2c 3c a9 d8 6f bc e4 35 82 3e
       -0.0615838 0.01051048 -0.014639058 0.2543174
000330 32 53 41 3e 9f b8 0d be cc be c3 be 18 f2 b6 be
       0.18879393 -0.13839959 -0.38231504 -0.35731578
000340 f6 12 34 be 86 61 04 be 2b ed 83 be be 06 82 be
       -0.17585358 -0.12927827 -0.25766882 -0.2539577
000350 6f 27 b4 be 52 93 b7 be 9f 2d 9f be 7f 65 bc 3e
       -0.35186335 -0.35854584 -0.31089494 0.36796185
000360 10 ab c7 3c 1f 49 65 3d 73 b7 62 3e ad ed 0a 3e
       0.024373561 0.055977937 0.22140293 0.13567229
000370 8e e7 c7 3d 94 6a 27 3d 53 f9 95 bd d4 76 04 bc
       0.097609624 0.040873125 -0.073229454 -0.008084971
000380 c4 ae 04 be 78 e4 0e be 30 b7 0a be 2c eb 6b bd
       -0.12957293 -0.13954341 -0.13546443 -0.057597324
000390 ca 37 86 bd 6f 44 9f bd 8f df 15 bd 32 41 d0 bd
       -0.0655361 -0.077767245 -0.036590155 -0.10168685
0003a0 76 88 dc bd ea cd b0 bd 62 0d 20 be 20 e9 88 3c
       -0.10768215 -0.08633025 -0.15630105 0.016712725
0003b0 e7 0a 08 3c 2f 95 24 bd f1 d8 55 3c 43 8c 3e bd
       0.008303381 -0.040181335 0.013052211 -0.046520483
0003c0 52 e3 9a 3d 95 a8 15 3e b3 83 17 3e e9 db 9e 3d
       0.07562889 0.1461509 0.14796333 0.07756788
0003d0 8a 7c 00 3e 91 0d 04 3e ce 8a ba 3d 99 ab ba 3d
       0.12547508 0.128958 0.09108506 0.09114761
0003e0 91 c7 cc 3d 7a 10 97 3d 3d d5 1a be 3e 60 82 be
       0.09999002 0.073761895 -0.15120406 -0.25464052
0003f0 1a 8d d1 bd a4 b9 85 bd cd 7e 66 be ee a0 22 be
       -0.10231991 -0.06529549 -0.22509308 -0.15881702

f_net.5.bias f4 [5]
000000 d6 20 8b bc cd 70 96 3d 85 69 b6 3c d4 34 b3 bc
       -0.01698343 0.07345734 0.022267113 -0.021875776
000010 db 8f 18 3d
       0.037246566

te_net.0.weight f4 [64, 10]
000000 01 1b 77 be 7c 8b bf bb 5c 66 d2 3e 2a 39 34 bf
       -0.24131395 -0.0058454853 0.4109372 -0.70399725
000010 66 68 22 be 80 24 d0 3d 41 d1 cf be 6e 1e 7e bd
       -0.15860137 0.10163212 -0.40589336 -0.06204074
000020 37 22 38 3d f3 22 ba bd b4 79 4b bf ea 5b 4c 3e
       0.044954505 -0.09088697 -0.7948258 0.19956937
000030 54 85 d9 be 98 d3 d8 bd 9d 44 8c bd 20 6c 6a be
       -0.42484534 -0.10587233 -0.068490244 -0.22892809
000040 21 03 6c be 28 ab 00 3e 12 5b d7 3d 20 73 e2 3d
       -0.23048069 0.12565291 0.10515417 0.110571146
000050 97 f8 86 be d1 7a 08 3e 79 b2 0d bf 69 fc 0b 3c
       -0.26361534 0.133281 -0.5535045 0.008544066
000060 c8 92 e5 3d a0 56 f1 bd 69 c2 5f 3e 28 b9 2c 3d
       0.11209637 -0.117841005 0.21851505 0.042168766
000070 08 1b 85 be 08 fd 3f be ca 40 ab 3d 3e a8 71 3e
       -0.25997186 -0.18748868 0.08361967 0.23599336
000080 64 44 cc 3e 13 0d 5c bf 05 70 9c be 16 50 28 3d
       0.39895928 -0.8595745 -0.30554214 0.041092
000090 85 02 52 3e 82 d6 9e be e2 1f 74 3b 83 00 06 be
       0.20508774 -0.3102303 0.003725045 -0.13086133
0000a0 7b ae 71 3d 2f d3 2d 3d 81 e2 c8 3e 75 25 ed 3d
       0.05900429 0.04243773 0.3923531 0.1157941
0000b0 e5 b7 32 3e b9 af 6c 3e 5b ba 65 3e 87 cc 9b be
       0.17452963 0.23113908 0.2243437 -0.3042948
0000c0 5c 75 6a 3e 8b 9b 35 bc 5d 26 0f bd 0f 8d d4 bd
       0.22896332 -0.011084448 -0.034948695 -0.10378467
0000d0 99 20 02 bf 7f d0 9f 3e b0 1b 0d be 0a 98 84 bd
       -0.5083099 0.31213757 -0.13780093 -0.06474312
0000e0 a7 e4 26 be 5d 71 0e be 74 a9 fd bd e3 6f 30 be
       -0.16298161 -0.13910432 -0.12385836 -0.17230181
0000f0 83 e5 09 3e 3d f3 91 be 1b ad 8e be df fc 24 3d
       0.13466458 -0.2850589 -0.27866444 0.04028022
000100 f3 06 4e 3e ba 5e 26 bf 4a 92 54 3e 3b 19 24 bf
       0.20119838 -0.6498829 0.2075893 -0.64101
000110 72 cf c2 be 97 57 0a be 63 01 0d 3e 8b a7 b8 3e
       -0.38048893 -0.13509975 0.1377006 0.36065325
000120 da b9 09 3f 57 a9 1a bf 5b b3 ad be 22 04 35 3e
       0.5379921 -0.6041464 -0.339259 0.17677358
000130 85 16 2e 3e b0 8b 2a 3e 3c cc 41 be af c8 33 be
       0.17000778 0.16654849 -0.18925565 -0.17557023
000140 ea 16 93 3e 21 36 c3 bc cb bf cc 3d 6b 6b 1c be
       0.2872842 -0.023829522 0.09997519 -0.15275352
000150 bd a4 26 3d 80 e1 6b be 56 ea ab be 59 06 ec bd
       0.04068445 -0.2303524 -0.33577222 -0.11524648
000160 ac 46 44 3e 69 45 4c 3e 59 6c 45 3d 73 ec 72 3d
       0.19167584 0.19948353 0.04819903 0.059307527
000170 2d 4a 03 bd b3 bd fc bd d5 69 db 3d d6 8c b8 bd
       -0.03205316 -0.1234087 0.10713545 -0.09011237
000180 ee 04 3f be d0 7a 68 be b2 95 2f 3e f7 cb 51 be
       -0.18654224 -0.22703099 0.17146948 -0.20487963
000190 97 84 22 3d ae b1 5e 3d bc 7e 66 3f 73 db a7 be
       0.03967723 0.054368667 0.9003713 -0.32784614
0001a0 62 dd 72 3d 90 9e 0f be 1e dc 4c 3e 6a 1c 8f be
       0.05929316 -0.1402533 0.20005843 -0.27951366
0001b0 80 22 12 3e 69 76 22 be 97 4e 74 3e 44 60 64 be
       0.14270973 -0.15865482 0.23858105 -0.22302347
0001c0 42 9c 8b bd 04 b8 d4 be 5c 0e cd bc 6d 7a c5 bd
       -0.06816913 -0.41546643 -0.025031261 -0.096424915
0001d0 c6 61 d4 be 80 93 80 3e d5 f7 70 3e 1e c6 76 3e
       -0.41480845 0.25112534 0.2353204 0.24099013
0001e0 15 de 53 3e 54 03 8c 3e fc e6 9a be 0c 45 cd 3d
       0.20690186 0.2734629 -0.30254352 0.10022935
0001f0 ab 05 aa bd 76 bf 42 be 3a 22 41 3e 5b 4e bb bd
       -0.08301862 -0.19018349 0.18860713 -0.091458045
000200 e1 44 d7 3d 46 0f 30 be 7f 85 f9 be 9f 40 b6 3d
       0.105111845 -0.17193326 -0.48734662 0.08899044
000210 d5 c6 04 bf 4d 21 e1 bd 7d e1 78 be e3 2f 2f 3b
       -0.51865894 -0.1099268 -0.24304767 0.0026731424
000220 bd 19 02 3e 7d 33 99 bd 9b 14 6b 3c 84 ee a7 3e
       0.12705131 -0.07480524 0.014348174 0.3279916
000230 f7 22 7d 3e f2 2c 29 bf 2e bc ba be 45 f9 d1 3d
       0.2472037 -0.66084206 -0.36471695 0.102526225
000240 bf 63 a0 3e 6c fb 9d bd 42 e8 ab 3e 1e f5 1c be
       0.313261 -0.077139705 0.33575636 -0.1532788
000250 43 fc 05 bd b6 cc b8 bc 6a 1f f5 3e a9 7b e6 be
       -0.03271128 -0.022558551 0.4787553 -0.4501622
000260 36 19 9a bd 40 d0 72 3e ea 80 d0 3d 56 d4 a1 be
       -0.0752434 0.23712254 0.101808384 -0.31607312
000270 5a 8f 11 3e 0d 37 e2 bd 51 3f 8a 3d c2 a3 d1 be
       0.1421484 -0.11045656 0.06750358 -0.4094525
000280 2b cb 0a bf 78 58 13 3f 50 0c c3 bc b7 e6 f8 be
       -0.5421626 0.5755687 -0.023809582 -0.4861352
000290 c4 cf ee be b4 28 3d 3d 4d 7d af bd 01 fa 58 3e
       -0.46642888 0.046181396 -0.08568821 0.21189119
0002a0 c0 c4 be 3c c0 ae a4 3d 0a 9d 7c 3e 4d d5 dd bd
       0.023287177 0.080411434 0.2466928 -0.108316995
0002b0 2b 5e ea 3d 00 a8 70 be 96 6c 7f 3e d0 28 37 be
       0.11443742 -0.23501587 0.24943766 -0.17886662
0002c0 58 14 11 bf 59 4b 52 be 9b f2 0b bf a4 88 ae be
       -0.5667167 -0.20536555 -0.5466706 -0.34088624
0002d0 de 3a a3 bd a5 52 0a bf 2c 5b b6 3d 79 76 ee 3d
       -0.079702124 -0.54032356 0.089041084 0.116436906
0002e0 b8 62 9d 3e 90 81 07 3e 98 82 1f bf 4d de 98 3e
       0.3073938 0.13233018 -0.62308645 0.29857102
0002f0 c5 9e ca bc cf 23 fa 3d ba de c9 bd f0 f5 b4 3e
       -0.02473391 0.12213861 -0.09856935 0.35343885
000300 ed 5d 9e 3e 69 b1 23 bf 4f a7 f3 3d 48 77 1e 3e
       0.30931035 -0.6394258 0.11897146 0.1547519
000310 fa 07 14 be 05 ee 8c bd 0c d9 3d 3e cb 24 80 3e
       -0.14456168 -0.06881336 0.18539828 0.2502807
000320 6d 1a 9f be 76 a1 03 3e 70 3c 3d be 28 3b 81 3e
       -0.3107485 0.12854561 -0.18480086 0.25240445
000330 9b e9 c0 bc e1 bf 93 be ae 31 cd bd e6 24 b6 bd
       -0.023548892 -0.2885733 -0.10019241 -0.088937566
000340 be b5 35 be 90 4a e6 bd b9 79 5a be 0f 8a 26 3f
       -0.1774511 -0.112446904 -0.21335496 0.6505441
000350 ba 2f 49 3e a5 02 4b bf 10 40 9b be 64 1d 08 be
       0.19647112 -0.7930091 -0.30322313 -0.13292462
000360 31 3c 81 bd f8 7c 87 3e f2 a3 0a 3d 3e 5d 14 3d
       -0.06310309 0.2646253 0.033847757 0.036221735
000370 7e 93 65 3b 31 80 54 be a7 fb e1 3c a5 78 38 be
       0.003503054 -0.20752026 0.027585818 -0.18014772
000380 d6 4f b4 bd bb 0a 6f bd dd 27 c6 bd 30 32 83 be
       -0.0880429 -0.058359843 -0.09675572 -0.25624228
000390 7a 6e 29 3e 16 a7 0c 3c fd 09 2a 3e 66 3f 4a be
       0.1654605 0.008584758 0.16605373 -0.19750747
0003a0 43 70 48 3d 7d 38 8f be 5a c5 39 3d b6 c5 87 be
       0.048935186 -0.27972785 0.045354225 -0.2651803
0003b0 fb 41 8c 3e ee 6a 64 3e e8 1c 89 be 86 8e cf be
       0.2739409 0.22306415 -0.26779866 -0.40538424
0003c0 e5 d0 2d be 1a 34 16 3f 69 fa 39 3e c9 9a 53 bf
       -0.16974218 0.5867325 0.1816193 -0.8265806
0003d0 86 90 05 be ed b9 ec 3d fc 37 27 bd b3 a3 11 be
       -0.13043413 0.115589 -0.040824875 -0.14222603
0003e0 50 6f 18 3e ea 11 d1 bc 96 11 9b 3e 06 2a 3f 3d
       0.14886212 -0.025521237 0.30286855 0.046670936
0003f0 25 58 f0 3d 7d 6c fb bd 0c 73 94 3e 13 35 d5 bd
       0.11735562 -0.12276552 0.28994024 -0.10410514

te_net.0.bias f4 [64]
000000 7f 7f b2 be 0a e8 80 3e d8 24 78 be 5d 8f 8a 3d
       -0.34862897 0.25177032 -0.24232805 0.067656256
000010 7e 90 3b be 52 60 ce 3c 0d f3 a9 bd 86 8a 2a be
       -0.18316838 0.025192413 -0.082983114 -0.16654405
000020 ba 90 64 3e 74 71 7f be ae 50 6e be f0 f3 cc 3d
       0.22320834 -0.24945623 -0.23272964 0.10007465
000030 19 22 88 3e 43 79 17 3e c1 e6 83 3d a7 a8 7a be
       0.26588514 0.14792351 0.06440497 -0.24478398
000040 b7 4d 20 3e 54 f1 97 be 8f 3e 16 3d 7b 83 6c 3d
       0.15654646 -0.29676306 0.036680754 0.057742577
000050 b5 dd 0d 3e c7 63 45 3e 40 29 51 3e b3 46 47 3e
       0.13854106 0.19276343 0.20425892 0.19460563
000060 4f 6c a4 bd 89 28 33 be a0 09 a9 3e 51 8f 19 3d
       -0.08028471 -0.17495932 0.33015156 0.037490193
000070 ad b8 9b bb 43 4a 1d bc 35 bc 2e be 1d 50 86 3e
       -0.0047522397 -0.009600225 -0.17063983 0.26232997
000080 ba 4a 80 be 47 05 7f bc b5 4a 03 3e 27 0e 78 3c
       -0.25057012 -0.015565223 0.12821467 0.015140093
000090 b6 9e 6f be 5c 76 35 bd 08 47 bf 3d b0 64 2c be
       -0.23400387 -0.04430233 0.0933972 -0.16835284
0000a0 f8 8f b9 3d 4a 07 aa 3b 9d 53 a5 3e 89 d0 97 be
       0.09060663 0.005188857 0.32290354 -0.29651287
0000b0 b3 b5 81 3e e6 30 81 3e 5f 81 11 3e f6 58 66 3e
       0.25333938 0.2523262 0.14209507 0.22494873
0000c0 fa 2d b3 3d 85 a5 12 3e 21 44 08 3e ec a3 c0 3d
       0.08749004 0.14320953 0.13307239 0.094062656
0000d0 d6 08 04 3e 18 90 53 3e 06 c1 92 be 3c 50 33 be
       0.12893996 0.20660436 -0.2866289 -0.17511076
0000e0 4b 7e f0 bd 3f 24 8b bd 0c 68 8a be 2a 89 28 bd
       -0.117428385 -0.06794023 -0.27032506 -0.041146435
0000f0 9d 92 5c be 75 7c ae be 71 b4 05 3e f6 5a 08 be
       -0.21540304 -0.34079328 0.13057114 -0.13315949
