Results_paper/classification_aircraft_fungi_bird/it1/reptile/3models_2.pt (torch, 534505 bytes, 20 tensors)

conv_net.0.0.weight f4 [32, 3, 3, 3]
000000 95 69 0c 3d 5d 6e 1b 3c c3 8b be bc c9 91 ce 3c
       0.03428038 0.009486762 -0.023260003 0.025216
000010 5a 11 96 bb 3d b0 14 3d 15 41 2c 3d fe f6 7e bc
       -0.004579705 0.036300886 0.042054255 -0.015561817
000020 92 e6 98 bd 52 4c cb 3c f6 1e 1f bc d8 e3 b1 bd
       -0.07465853 0.024816666 -0.0097119715 -0.08686036
000030 e4 51 04 3d 54 0d 5f 3b e0 4f 81 bd de 27 c0 bc
       0.03230466 0.0034035044 -0.06314063 -0.02345651
000040 62 e6 e4 3c 49 87 a3 bd 00 54 96 bd 20 57 80 bc
       0.027941886 -0.07984788 -0.073402405 -0.015666544
000050 62 28 00 3e 00 90 63 bd aa 8f 3c bd 11 9e c3 bb
       0.12515405 -0.05555725 -0.046035446 -0.0059697707
000060 c2 e5 34 bd 89 ec 0e bc 24 47 fe 3d 28 e5 c1 3b
       -0.044164427 -0.008723387 0.12415913 0.00591721
000070 35 a0 87 3c a4 d9 94 bd 6f 76 78 3d 8c 62 77 bd
       0.016555885 -0.07268074 0.060659822 -0.060396716
000080 1d 4c 1e 3e ae cd d4 bd 2c e7 ac bd f7 be 4e 3d
       0.15458722 -0.10390793 -0.0844253 0.050475087
000090 f7 d9 e3 bd 81 94 30 bd 2c 03 0d bc cf 94 4b 3d
       -0.11125558 -0.043110374 -0.008606713 0.04970246
0000a0 ae 96 b6 bd 15 f7 2d bd e6 92 0d 3e 07 e6 d6 bd
       -0.089154586 -0.042471964 0.13825569 -0.10493093
0000b0 db 8e 44 3d df df f8 3d aa ba 1b be 81 50 c9 bd
       0.0479878 0.12152075 -0.15207925 -0.09829808
0000c0 ba e8 d8 3d 16 e0 7d ba 1b 83 93 3d 52 b6 54 bc
       0.10591264 -0.00096845755 0.07202741 -0.012982922
0000d0 69 d4 53 3c 8d c1 7a bd 6e d3 96 3c b4 01 14 be
       0.0129290605 -0.06121974 0.018411364 -0.14453775
0000e0 2c df bd bd ec fd 39 3d 5c 2a 83 bd b4 98 2d 3d
       -0.09271082 0.045408174 -0.06404564 0.042381957
0000f0 cf 21 8c 3c cf 49 9f bd 7e aa 8a bd aa f5 56 bd
       0.017105965 -0.0777775 -0.067708 -0.052480377
000100 e0 f9 8b 3d 2a e3 98 3d b9 a3 f8 bc 65 e9 c0 3d
       0.06834769 0.07465203 -0.030351507 0.094195165
000110 7f 68 8b 3d 51 03 ed bd 01 ae 29 3e b0 5a 87 3d
       0.068070404 -0.11572898 0.16570283 0.06609094
000120 14 bc 2b 3d e7 51 45 3d 6b 94 26 bd 5f 33 60 bc
       0.041927412 0.04817381 -0.040668886 -0.013684123
000130 59 50 90 bd 2a 4e cb bd 77 b5 d1 3d 71 e7 f6 bd
       -0.07046575 -0.09927018 0.1023969 -0.12055863
000140 b3 0f ee 3b 4d 7e 8c 3d ff bd 4b 3c 04 c0 c4 bd
       0.007265055 0.068600275 0.012435435 -0.096069366
000150 cc e3 95 bb 9a dd be 3d ad b9 48 3d 34 06 cb 3c
       -0.0045742746 0.09319611 0.0490052 0.024783231
000160 a5 80 0b be 0c 66 a7 3d 7c 2a 8b bd 16 30 f6 bd
       -0.13623293 0.08173761 -0.067952126 -0.120208904
000170 fb 73 2b be 86 ac 13 3c 7e ec b4 b9 ec da f0 bd
       -0.16743462 0.009013301 -0.00034508476 -0.11760506
000180 62 83 79 bc 76 74 a5 3b 26 02 cc bc dc bd da ba
       -0.015229078 0.0050492836 -0.024903368 -0.0016688663
000190 5e 5a 26 3e a7 78 fe bb 8c d2 91 3d 66 d0 52 3e
       0.1624541 -0.0077658477 0.07120237 0.2058731
0001a0 32 8b 25 bd bb e7 11 3e 2c e5 50 bd 54 6e 32 be
       -0.04041595 0.14248554 -0.050999805 -0.174249
0001b0 a0 43 43 bd 07 a8 1c 3c a6 ec 3f be dd 51 a9 bd
       -0.047671914 0.009561545 -0.18742618 -0.08267567
0001c0 3a 5e c2 bd 5f 15 36 be 0c 1c 4a bc 50 86 9a bb
       -0.094906285 -0.1778159 -0.012335788 -0.0047157183
0001d0 4a 4c c6 3b b4 26 ae bc a7 54 28 3d e8 8f 92 3d
       0.006051575 -0.02125869 0.041096356 0.07156354
0001e0 c8 d9 32 3d 98 bd dd bb 64 d4 c1 bc ce 0e 93 bc
       0.043664724 -0.006766986 -0.023660846 -0.017951395
0001f0 45 74 ba bb 99 77 29 ba d4 00 01 3d 12 8e 85 3c
       -0.00569013 -0.000646466 0.03149493 0.016303096
000200 5b 1f 0d 3d 07 c0 55 bd 09 69 33 3e 26 09 93 3d
       0.03445373 -0.052185085 0.17520536 0.07179479
000210 0d ce d3 3d 20 ad 90 bc fd b4 ed 3d 05 32 3f 3d
       0.103420354 -0.017660677 0.116067864 0.04667856
000220 e7 e0 06 3d 3d 99 28 be 50 64 27 bd 3b 71 40 bc
       0.032929327 -0.16464706 -0.04086715 -0.011745746
000230 2e ba f6 3c 65 10 67 bd e4 8b ed bd e7 01 da bd
       0.030118074 -0.05641212 -0.11598948 -0.10644894
000240 4b 7a 4c 3e 41 6d d5 3d eb de 14 3e 0d 34 9c 3c
       0.19968526 0.10421229 0.14538161 0.019067788
000250 21 68 c0 3c 8a af 44 3d bb f1 d3 3c 90 2e f8 3d
       0.023487153 0.04801897 0.025872102 0.12118256
000260 76 fe 23 3e 0e 50 96 bd 98 32 2e 3d 6f 86 94 3b
       0.16015038 -0.07339488 0.04252872 0.0045326273
000270 2b c7 61 bd b8 40 2d be df 9b a3 bb 48 82 90 bd
       -0.055121582 -0.1691922 -0.0049929465 -0.07056099
000280 af 4a 8e 3c ae 35 02 be e0 ce b6 3d 45 7f a3 3d
       0.017369596 -0.1271579 0.08926177 0.07983259
000290 78 89 95 bd 9f 1a 16 3b ae 72 98 3c d5 2e a6 3b
       -0.07301611 0.002290405 0.018609371 0.005071501
0002a0 5a 1c 48 3d 4a 6e c4 3d b5 33 63 bd 5a 56 64 3d
       0.048855163 0.095913485 -0.055469234 0.055746414
0002b0 7c a8 d2 bd 42 75 6a 3d 61 0d b4 3c 87 0f d3 3c
       -0.10286042 0.057240732 0.021979036 0.02576424
0002c0 e3 77 0d 3d fd 4a ac 3d 95 0f ff bc 26 cc f2 bb
       0.03453816 0.084127404 -0.03113536 -0.0074095903
0002d0 97 30 b9 bd a0 ed e3 3c b2 9b 91 3d 68 b3 0c bc
       -0.09042471 0.02782327 0.07109775 -0.008587696
0002e0 0f eb 35 3d 4f 24 c6 bc b8 dc 9b bd ea 8d b4 bd
       0.044413622 -0.024187235 -0.07610458 -0.088161305
0002f0 62 1e 0e 3d 64 e8 c7 3d 1c 94 ea 3d d2 d2 8c bd
       0.034696944 0.09761122 0.11454031 -0.06876148
000300 d0 d5 cd 3d 71 aa e1 3c 55 f5 b2 3d a3 a5 d0 bc
       0.10050547 0.027547093 0.087381996 -0.025469607
000310 3f e7 0e be fc f0 3e be b8 cd 2f bd 32 1d 85 3d
       -0.13955401 -0.18646616 -0.042920798 0.06499709
000320 f8 36 18 bc d8 ce f8 bc e3 6a 4a 3e 2f af 6a 3d
       -0.009290449 -0.030372068 0.19767337 0.057295974
000330 a2 b5 e5 bd 26 de f6 bd 82 4a 81 bc 1e 92 39 3d
       -0.11216284 -0.1205409 -0.015782598 0.045305364
000340 a6 3e b2 bd 14 92 fc 3d 4e 9e 03 3e 4b 07 20 3d
       -0.087033555 0.1233255 0.12853357 0.039069455
000350 6d 2b ae bc 8e d6 94 bd 54 f0 12 be 50 2e d9 bc
       -0.021260941 -0.072674856 -0.1434949 -0.026511341
000360 d3 71 d6 3d d4 9c fd bb 7b 93 3d 3d 3e f4 14 3c
       0.10470929 -0.0077396426 0.046283226 0.009091435
000370 9c e4 90 ba 5a a0 cd 3c 19 d7 fb 3d e1 aa 0a 3e
       -0.0011054459 0.025100876 0.12296886 0.13541748
000380 f4 db 62 3d b1 f9 bf bd f2 27 ff 3c e4 08 8d bd
       0.055385545 -0.09373797 0.031146977 -0.068864614
000390 84 5d 55 39 4e fd 11 be 61 45 2a be 01 e7 91 bd
       0.000203481 -0.14256784 -0.16628028 -0.071241386
0003a0 52 7b 55 be ae 75 43 be 8f 56 e5 bc 0e dd cb bc
       -0.20847824 -0.1908786 -0.027995376 -0.02488568
0003b0 cc 09 2e 3c 53 7d ca bb e6 95 0d 3e 65 06 1a 3e
       0.010622453 -0.0061794906 0.13826713 0.15041502
0003c0 bf 38 84 bd c8 05 93 3d f8 49 0e 3e 3c 27 79 bd
       -0.06456136 0.07178837 0.13895404 -0.060828432
0003d0 ad 0a 0a 3c 26 d0 59 bc 8c e6 53 3d f8 39 9f bc
       0.008425397 -0.013294255 0.05173354 -0.019436821
0003e0 62 25 07 3d d2 27 39 3e a8 dc e3 bc 4f 60 36 be
       0.032994635 0.18081596 -0.027815178 -0.17810176
0003f0 c6 9b a7 bd 35 b5 05 3d 66 50 02 3d c0 1c 25 bc
       -0.08184008 0.032643516 0.031814955 -0.010077655

conv_net.0.0.bias f4 [32]
000000 6e 35 9f 3b 42 25 3c 3d 95 84 c6 bb ba 94 b2 3d
       0.0048586642 0.04593397 -0.0060582855 0.087197736
000010 24 42 55 3c b0 c3 05 bd 79 2d 0c bd 22 82 9b bc
       0.013016257 -0.032657325 -0.034223054 -0.01898295
000020 ea cf 65 bc 62 b2 f6 bc 28 04 0d bd 93 78 28 3b
       -0.014026621 -0.030114356 -0.03442779 0.0025706633
000030 54 ee 19 be 56 73 37 3c cc 16 6f bd 08 53 38 bc
       -0.15032321 0.011196932 -0.05837135 -0.011250265
000040 44 f0 78 3d 18 5b 8e bc 52 16 7c 3d 96 b0 09 3d
       0.06077601 -0.017377421 0.061544724 0.03361567
000050 b6 57 14 3d 5a 1d 63 3d a4 97 30 bd 10 4a 8a 3d
       0.03621646 0.055447914 -0.043113366 0.067524076
000060 c0 9f e5 bb 6b a7 a9 bd 64 60 0a 3d e9 f7 a4 3d
       -0.007007569 -0.082838856 0.03378333 0.080550976
000070 2f 45 0f bd 1a 58 9e 3d 90 33 b3 bd a2 41 1e bc
       -0.034978088 0.07731648 -0.08750069 -0.009659203

conv_net.0.1.weight f4 [32]
000000 39 9e 79 3f 0b d8 79 3f 7a 99 7d 3f f5 97 82 3f
       0.97507054 0.9759528 0.9906231 1.0202624
000010 d1 48 83 3f 76 f7 80 3f c6 d3 73 3f bf 41 83 3f
       1.0256597 1.0075519 0.95245016 1.0254439
000020 82 68 7f 3f 80 be 86 3f 54 85 7a 3f 76 d5 81 3f
       0.9976884 1.0526886 0.9785969 1.0143268
000030 c9 54 7a 3f 86 4b 82 3f 93 38 7e 3f f6 3e 80 3f
       0.9778562 1.0179298 0.99305075 1.0019214
000040 80 60 83 3f d3 60 84 3f 86 90 78 3f 6f 44 83 3f
       1.0263824 1.0342048 0.97095525 1.0255259
000050 0a 3a 7b 3f 1a e5 7c 3f 41 04 7d 3f 79 84 85 3f
       0.98135436 0.9878708 0.98834616 1.0431052
000060 c9 c7 81 3f 18 97 79 3f 20 f3 79 3f 96 f6 78 3f
       1.0139095 0.97496176 0.97636604 0.9725126
000070 80 16 7d 3f f6 d1 70 3f 1d 11 85 3f 1a f6 7f 3f
       0.9886246 0.94070375 1.0395848 0.99984896

conv_net.0.1.bias f4 [32]
000000 78 c9 09 bd e2 28 3d bd 6a 81 37 bd 7c a5 3b bc
       -0.0336394 -0.046181567 -0.044801153 -0.011453029
000010 bc 41 6c 3b 17 07 a1 bc 58 c2 34 bd 73 78 93 bc
       0.0036049923 -0.019656701 -0.044130653 -0.01800177
000020 36 07 8e bd 5a d0 48 3a 92 b0 14 bd 57 ac a2 bb
       -0.06934969 0.00076604413 -0.036301203 -0.004964392
000030 c6 19 0a bc e0 6f 6e 3b 72 dd ab bb 94 00 20 bc
       -0.008428996 0.00363826 -0.005244904 -0.009765763
000040 0a 2b ca bc f5 67 66 bc 10 db 8c bd 6e ca ff bb
       -0.024678726 -0.014062871 -0.0687772 -0.007806114
000050 a7 27 35 bd cd 77 2b bd 03 cc fb bc 14 4c 0d 3d
       -0.04422727 -0.041862298 -0.030736929 0.034496382
000060 08 eb d4 bb f0 dd 4b bd 52 91 9a bc bf 56 54 bd
       -0.0064977445 -0.049772203 -0.018868122 -0.05184054
000070 b7 ba 09 bd 24 1d 1d bd e9 15 4e 3b 61 09 1d bd
       -0.03362533 -0.03835787 0.0031446165 -0.038339023

conv_net.1.0.weight f4 [32, 32, 3, 3]
000000 ea c3 75 3c 1e 26 df bc 26 5e 07 bd 9c f9 8c bc
       0.015000323 -0.027239855 -0.03304877 -0.017208867
000010 85 86 b3 3b ef d6 b0 3c 6f cc ca bc 27 db 0d bd
       0.0054786825 0.021586863 -0.024755685 -0.034632828
000020 6b 19 1d bc a7 4c 81 3b 09 f7 b3 3b f4 8c c5 bc
       -0.00958858 0.0039459052 0.0054920954 -0.024115063
000030 02 d0 c5 3c 02 ef b1 3c 95 84 77 3c 71 6d 1c 3c
       0.024147037 0.021720413 0.015107294 0.009547577
000040 60 2a 4a bd d9 21 e0 bc 68 da 9d 3c 2d 88 37 3b
       -0.04935682 -0.02735989 0.019269183 0.002800475
000050 a4 4e 9c 3c b9 4e d4 3c 3c f9 b3 3c 30 18 84 bc
       0.019080468 0.025916444 0.02196943 -0.016124815
000060 c4 a3 ac 3c b1 fe 2c bd f1 55 c5 3c 8c 3c c5 bb
       0.021074183 -0.04223508 0.024088832 -0.0060191806
000070 3f 41 a6 bc 20 64 bc bc da d3 07 3d 7a 7b 51 3d
       -0.020294784 -0.022996962 0.03316102 0.051143147
000080 0a 76 e6 bb 92 fc cc 3c 7a ee e2 3c ad 1f 38 3c
       -0.0070331143 0.025022779 0.027701605 0.011238021
000090 f1 b3 42 3c b5 93 2b bd ac b3 94 bb 9a c6 10 bd
       0.011883722 -0.04188891 -0.00453802 -0.03534565
0000a0 1f ed b0 3c e6 3f 74 bc 59 86 fb 3c a3 9b 56 bc
       0.021597443 -0.014907813 0.03070371 -0.01309863
0000b0 cb 99 8c bc 45 50 0e 3c 0b c1 d2 3c 77 00 10 3c
       -0.017163178 0.00868613 0.025726816 0.008789173
0000c0 9c b5 89 bb dd c0 67 bb 23 cd 08 bc a2 37 45 3d
       -0.0042025577 -0.0035362758 -0.00834969 0.04814876
0000d0 ad 04 45 bc 61 0a 55 bc 40 3a d3 3b 9c db 37 3c
       -0.012025041 -0.013002963 0.006446153 0.011221793
0000e0 c9 a3 42 bb b4 11 49 bb 37 54 ab bb fe 6f 65 3d
       -0.0029699674 -0.0030680718 -0.005228545 0.056015007
0000f0 2b ed ba 3c 58 91 57 3b 3f 13 6c 3d ca 51 c2 3c
       0.022818169 0.0032893028 0.057635542 0.02372064
000100 7b 7f b7 bc 34 e5 00 3c d9 4a 83 3b 90 41 6f bc
       -0.022399655 0.007867146 0.0040067253 -0.014603034
000110 ef 38 78 bd fc 29 2a bd ea 23 57 3c 7b f0 03 bd
       -0.06060117 -0.041543946 0.013131121 -0.032211762
000120 55 7e 76 bc 9e c4 9b 3c 4a c3 50 bc 3b 2c 01 bc
       -0.015044768 0.019014653 -0.012741873 -0.0078840805
000130 fe ce fe bb 02 47 fb 3c 15 6b 44 3c 7f f8 5c 3c
       -0.0077761402 0.030673508 0.011988421 0.01348698
000140 10 1f a3 bc 05 2b 12 bc 18 42 e9 3a 0c a8 27 bd
       -0.019912273 -0.0089213895 0.0017796187 -0.040931746
000150 37 a6 8a 3b 2a e9 75 bc bb da 80 bc e9 3b 5b 3d
       0.00423124 -0.015009204 -0.015729299 0.05352393
000160 5c 09 40 3d 74 de 2b bc 8d 74 d0 bc 09 59 e9 bc
       0.046883926 -0.010490049 -0.0254462 -0.028484838
000170 d4 48 e2 3b c9 b6 8a 3c 41 59 01 3a bb 5c 08 bb
       0.0069056544 0.016932862 0.00049342593 -0.0020807225
000180 f6 c3 11 3d 77 ec 8d 3c 2e 83 70 3c 49 84 c6 bb
       0.035587274 0.01732467 0.014679713 -0.00605825
000190 a4 25 8c 3b 70 fa ae ba c0 fc b3 ba 96 11 0e bc
       0.004276948 -0.0013349783 -0.0013731942 -0.008671185
0001a0 22 af f9 bc 0a c3 7c bc a9 41 9e bb e4 aa f1 bc
       -0.030479018 -0.01542736 -0.0048296046 -0.029500432
0001b0 4e f5 de bc 9f 00 68 3b 0e 60 a7 3c 51 56 10 3c
       -0.02721658 0.003540076 0.020431545 0.008809642
0001c0 d5 49 61 bc 4e a9 7e 3a f9 79 1f bc 0c 6b fd bb
       -0.013750513 0.00097145594 -0.00973367 -0.0077337082
0001d0 cd 8b 0c bd b3 04 db bc ce ea 23 3c d8 18 33 bd
       -0.034313012 -0.02673564 0.010004712 -0.043724865
0001e0 92 c3 34 bd 1c 6a b7 bc d9 fd 3a 3c f5 cb 9b bc
       -0.044131823 -0.022389464 0.011413061 -0.019018153
0001f0 37 6a 0a 3c 0e 62 0f bc e9 7e 7f ba 9e 0a b9 ba
       0.008448175 -0.008751405 -0.0009746389 -0.0014117544
000200 3e 4a c1 bb 1c f2 f1 3c ce 10 8d bc ed 36 83 bb
       -0.005898743 0.029534392 -0.017219927 -0.0040043504
000210 02 c0 e7 bb 1f 96 96 3b fb cd be 3c 30 68 95 3c
       -0.0070724497 0.0045955325 0.023291579 0.018238157
000220 4d 70 00 3d f5 db 37 bc 0d 27 f6 bc fa b7 ae 3b
       0.0313571 -0.011221875 -0.030047918 0.0053319903
000230 84 d8 a9 3b d3 ba 54 3b e3 5c 51 3a a0 8e d3 bc
       0.0051832814 0.0032459989 0.00079865585 -0.025824845
000240 fe 33 18 bd c3 4b 22 3c 30 08 ec 3c 98 12 82 bc
       -0.03715896 0.009905758 0.028812498 -0.015878007
000250 15 26 29 3b da ea a3 bb 04 77 3c bd d6 4b eb 3c
       0.0025810052 -0.0050023617 -0.04601194 0.028722685
000260 38 55 f2 3b 3d f7 e8 bc fe 5e 25 bc 04 24 0e bc
       0.007395413 -0.028438205 -0.010093449 -0.008675579
000270 86 65 d8 bb 07 11 85 3c 70 fb 15 bd d3 7f da bc
       -0.0066038994 0.01624347 -0.036616743 -0.02667228
000280 c2 28 ec 3c f0 cc d9 b7 2c 2a 8c 3c bd e4 df bb
       0.028828029 -2.5963847e-05 0.017109953 -0.0068326876
000290 8e 3e 9d 3c 04 99 96 bc 01 9b 39 bb 54 61 16 3c
       0.019194867 -0.01838351 -0.002832115 0.009178478
0002a0 3b b4 89 3c 27 96 04 bc b7 c0 02 3b e0 cc 0a bd
       0.016809573 -0.00809244 0.0019951293 -0.03388679
0002b0 a4 eb de 3a b0 3b 8c bb c3 87 03 bd 5e 5a b6 bc
       0.0017007482 -0.0042795762 -0.032111894 -0.022259887
0002c0 2b d4 03 3b cb 27 83 3c 49 a2 66 bc c9 41 9f bb
       0.0020115476 0.016010186 -0.014076778 -0.004860137
0002d0 2a 36 83 bc 7e 8e 43 bb a7 12 15 3c 79 3a 5f 3d
       -0.016017038 -0.002983957 0.009098685 0.054499123
0002e0 0b 41 f5 bc fd 69 0f bd 50 a1 c8 ba e7 30 1d bb
       -0.029938241 -0.035013188 -0.0015306864 -0.0023985447
0002f0 e9 86 29 bc 0e 51 e3 3c 4d 27 9e 3b a8 ac 78 3a
       -0.0103471065 0.02774861 0.0048264624 0.0009486177
000300 25 19 99 bb 36 6e 00 bc 86 76 e3 bc 3c 2a ce bc
       -0.004672187 -0.007838776 -0.027766477 -0.025166623
000310 2f 16 e1 3c f0 d2 10 bc 85 21 a8 3b 84 b2 18 bc
       0.027476398 -0.008839354 0.005130949 -0.009319905
000320 fc ab cc bc 1c b5 a9 bc ce 74 9d bc 44 62 d1 3c
       -0.024984352 -0.020716242 -0.019220736 0.025559552
000330 ed f1 bb bc 86 1a 4d 3c d0 98 94 bb 7e d1 a2 bc
       -0.022942508 0.012518531 -0.004534818 -0.019875284
000340 74 5d 4a 3c c2 c1 82 bd c8 94 c6 3c 16 d1 9d bc
       0.0123513825 -0.063846126 0.024240866 -0.019264739
000350 d4 f5 23 bd 14 15 cb 3c a7 61 23 bc d7 f4 c4 3b
       -0.04002936 0.024790324 -0.009972013 0.0060106325
000360 a3 fd 85 3b b4 6a 45 bb dd 86 d0 bb ce 7a 0c bd
       0.0040890737 -0.0030123414 -0.006363733 -0.034296803
000370 45 88 41 bc 78 ba ce bc 7d 46 25 3b e4 e5 44 3c
       -0.011812274 -0.0252354 0.0025219016 0.012017701
000380 8a 4c 42 3c ba e6 51 3b ae 10 e9 3b ba bb c8 bc
       0.011859069 0.0032028393 0.007112584 -0.024503578
000390 e5 01 2f 3c cd a3 f2 3c cf d3 f9 3c a6 87 3c 3c
       0.010681604 0.029619122 0.030496506 0.0115069505
0003a0 91 97 2a 3c 86 a1 82 bc bf 3c 95 3c 82 6f 92 bc
       0.010412113 -0.015946161 0.018217443 -0.017875437
0003b0 59 16 59 3b 24 8a bf 39 29 27 6f bc b5 f5 21 bc
       0.0033124893 0.00036533282 -0.014596739 -0.009885241
0003c0 97 63 7c 3b cc fe b1 bb a5 1b 90 3c b7 8f f9 bb
       0.0038511509 -0.0054319855 0.017591307 -0.007616009
0003d0 f9 08 1a 3d 6e 3d 57 3c 70 ca 58 3d 94 2e 9f 3b
       0.037606213 0.013137205 0.052927434 0.0048578475
0003e0 47 59 81 3c 96 46 72 3c 4b f2 39 3c 0a 0d ac bb
       0.015789641 0.014787337 0.011349271 -0.005250578
0003f0 79 d8 13 bc 9c 86 04 3d 1e cb dc bc 32 6a 8a bc
       -0.009023779 0.032354936 -0.026952323 -0.016896341

conv_net.1.0.bias f4 [32]
000000 7c 7b a0 3c 6f c7 a5 3b 08 87 65 bc c8 4b c9 3c
       0.019590132 0.0050591747 -0.014009245 0.024572268
000010 aa 60 1d bd 93 c2 1f 3d 5c 4f 8b bb 3a c7 8b 3c
       -0.038422264 0.03900392 -0.0042514037 0.017062772
000020 ee e2 92 ba 0c c2 a9 bc e6 4b bf bb bb 6b e6 bc
       -0.0011206546 -0.020722412 -0.005837905 -0.028127542
000030 ad ba 9c 3b 96 81 d2 3a ed c3 20 bc 96 e2 03 3b
       0.0047829957 0.0016060348 -0.009812337 0.002012407
000040 b5 ee 96 bc 84 78 1c bc 53 78 a8 bc 58 a5 8a bc
       -0.018424371 -0.009550218 -0.020565188 -0.016924545
000050 9e 33 5f 3b 29 8c a4 3c 32 db d9 bb 2d 9b 8e 3b
       0.0034057866 0.020086365 -0.0066484446 0.0043519945
000060 6a e0 28 bc e3 ed 23 3d c2 51 d3 bc e1 ee 08 3d
       -0.010307411 0.04002179 -0.025795821 0.033430938
000070 12 fb fc bb 5a 96 8b bb 64 91 9c 3b c6 a4 08 bd
       -0.0077203596 -0.0042598667 0.004778074 -0.033360265

conv_net.1.1.weight f4 [32]
000000 de ec 78 3f 9f 7c 83 3f 2e cc 80 3f d8 6d 7b 3f
       0.9723643 1.0272406 1.0062311 0.98214483
000010 8f c8 7d 3f 70 6c 77 3f 89 45 80 3f 2e 0b 7f 3f
       0.99134153 0.9664984 1.002122 0.99626434
000020 aa 80 80 3f cf da 7d 3f b3 9c 76 3f 71 de 7e 3f
       1.0039265 0.99162 0.96332854 0.9955817
000030 7e 57 80 3f 5a a4 79 3f 8d a6 80 3f 56 cf 7f 3f
       1.00267 0.97516406 1.0050827 0.99925745
000040 2e af 7d 3f 91 cf 7f 3f f4 c6 86 3f 3f 7b 82 3f
       0.9909543 0.99926096 1.0529466 1.0193862
000050 7d 5b 79 3f eb 24 7e 3f 0e a7 7b 3f fa d5 79 3f
       0.97405225 0.9927508 0.9830178 0.9759213
000060 94 04 80 3f 69 95 85 3f e2 9e 80 3f ed db 81 3f
       1.0001397 1.0436221 1.0048487 1.0145241
000070 78 bc 85 3f 13 4c 81 3f 4d 42 7d 3f 98 65 80 3f
       1.0448141 1.0101341 0.9892929 1.0031004

conv_net.1.1.bias f4 [32]
000000 5c fb 35 bd 2c 69 a0 bb 5c 17 e6 bc da 1f 24 bd
       -0.044429168 -0.00489535 -0.02808731 -0.04006944
000010 24 e9 f3 bc 51 72 bf bc a0 f1 ff bb 36 4b 02 bd
       -0.029774256 -0.02336994 -0.0078107864 -0.031810008
000020 96 c6 0d bc 63 87 f8 bc 8e 7c 43 bd 12 41 f8 bc
       -0.008653304 -0.030337995 -0.047726206 -0.030304465
000030 91 04 92 bc fa 66 35 bd 20 08 d1 bc 56 dd 4e bc
       -0.017824443 -0.04428766 -0.02551657 -0.012626013
000040 83 0e f0 bc 15 7f 9c bb 02 27 65 bc ec b6 76 ba
       -0.029303795 -0.0047758915 -0.013986351 -0.0009411413
000050 9c 7e 19 bd 1f a5 e6 bc fc 33 75 bd 68 65 2b bd
       -0.03747426 -0.028154908 -0.05986403 -0.041844755
000060 ac c7 60 bc 19 9b cf 3b d9 f4 ed bc f4 09 65 bc
       -0.0137194805 0.0063356278 -0.029047417 -0.013979424
000070 b2 98 1d bc 71 5d e3 bc 58 20 18 bd da ef e7 bc
       -0.009618925 -0.027754517 -0.03714022 -0.028312612

conv_net.2.0.weight f4 [32, 32, 3, 3]
000000 43 52 ab 3c 62 2c c1 bc 24 cc b4 bb 82 51 49 3c
       0.020913249 -0.023580734 -0.0055174995 0.012287499
000010 2c 13 40 bc 87 e5 89 bc 30 15 0f 3c a4 50 11 3b
       -0.011723321 -0.01683308 0.008733079 0.002217331
000020 9f 52 7e 3c 01 1b fa bb df d0 4e bb 00 e9 41 3c
       0.015522628 -0.0076326136 -0.0031557602 0.011835337
000030 6b 44 9a 3c 40 11 eb 3b 63 8b 4b bc 09 45 9f bb
       0.018831452 0.007173687 -0.012423369 -0.0048605246
000040 87 71 1d bc b7 22 81 3b 93 f1 0a bb 33 23 43 3c
       -0.009609587 0.003940906 -0.0021201118 0.011910248
000050 9a e1 3d 3b 4c 61 8d 3c ea 2a 1c bc 9c 69 a6 bc
       0.002897358 0.017258309 -0.009531716 -0.02031403
000060 04 72 3b bc 84 84 94 3c 32 21 f7 b8 e0 33 5d bc
       -0.011440758 0.018129595 -0.00011784061 -0.0135011375
000070 9f df 8c bc f8 77 0c bc bb 4a d6 bc 91 e7 00 3d
       -0.017196475 -0.008573525 -0.026158681 0.03147084
000080 a0 6d a2 bc e8 f0 5a 3c e3 33 d1 bb 42 ff 56 bc
       -0.019827664 0.013363101 -0.006384359 -0.013122382
000090 7c cd c0 3c 5e 28 d7 bb 36 d6 ce 3c d5 53 2b bb
       0.023535483 -0.0065660914 0.025248628 -0.0026142497
0000a0 b3 97 fc 3b 95 fc e8 3b 1e 01 38 3c 2b 46 c1 bc
       0.0077085136 0.0071101882 0.011230735 -0.023593029
0000b0 dc 7d 67 bc 49 0a 9a ba 52 a6 8f 3c 7e 98 d4 3b
       -0.014129128 -0.0011752333 0.017535362 0.006487905
0000c0 eb b2 3a 3c f3 5b 81 3b 35 49 a1 bc 50 4a 32 3c
       0.011395196 0.003947729 -0.019688228 0.010881975
0000d0 0b 34 a4 3c 7b 16 79 3c cb b4 2a ba f8 e3 62 3c
       0.020044347 0.015203114 -0.00065119256 0.013848297
0000e0 35 63 c2 3b 17 46 39 3c 05 a4 4d bb 3a f4 56 ba
       0.0059322366 0.011308215 -0.003137828 -0.0008199845
0000f0 ac f8 01 bc f8 eb 5c 3c 12 6f d2 bb 22 1d 10 bb
       -0.007932823 0.013483994 -0.006421932 -0.002199002
000100 b8 ec 7a 3c 5d 8c e1 bc 75 97 a4 bc e0 97 13 bc
       0.015315227 -0.02753275 -0.020091752 -0.009008378
000110 ef 99 5b bb 46 8f 00 3c 80 65 ca bb 65 bb e8 bc
       -0.00335085 0.007846659 -0.0061766505 -0.02840967
000120 92 b3 da 3b 25 6f aa 3c be f9 92 bc a9 44 8b bb
       0.0066742385 0.020804951 -0.017941352 -0.0042501283
000130 89 f2 5b 3c 65 c6 9f bb 0f 23 b7 3c ca ef 95 bb
       0.013424524 -0.0048759454 0.022355584 -0.004575704
000140 0f f4 a0 3b d3 81 fa 3b b2 79 0e bc ca 8b e2 3b
       0.0049119066 0.007644871 -0.008696007 0.006913637
000150 90 3f d3 ba 3d 3a af ba 65 a9 af bb f7 3c b4 bc
       -0.0016116966 -0.0013368797 -0.0053607696 -0.022001727
000160 81 4b d5 3b 18 44 55 bb 8e 61 17 3d ed fc 1c bd
       0.006509245 -0.0032541808 0.03695827 -0.038327146
000170 a1 dd 23 bc c3 03 39 b9 ca e9 51 3a 96 84 f2 3b
       -0.010001571 -0.00017644376 0.00080075546 0.0074010594
000180 a9 34 4e bc 81 8c 9d bc 3c aa aa 3b b0 ea 3a 3c
       -0.012585797 -0.019232037 0.005208282 0.011408493
000190 f0 18 3a 3b 7f e4 08 3c 48 1d 83 bc 69 ce 23 bc
       0.0028396212 0.008355259 -0.016005173 -0.0099979425
0001a0 70 1b 13 bb 76 bc fd 3b d8 19 86 bc aa 4f 22 3a
       -0.0022446774 0.0077434136 -0.016369745 0.00061916804
0001b0 1e 9b 94 bb ac 71 b1 bc 7c 81 d7 3c 73 94 48 bc
       -0.004535093 -0.021660648 0.02630686 -0.012242424
0001c0 40 ea a2 3a 98 83 a5 3c b6 a4 d6 bb 76 75 64 3c
       0.0012429431 0.02020435 -0.006550397 0.0139440205
0001d0 f4 8f 4a bc 1c 65 57 3b 88 53 6d 3c 0a 52 8e bc
       -0.012363423 0.0032866662 0.014485247 -0.017373104
0001e0 c2 31 04 3c ee 65 6f bc 83 e7 3e bb 36 84 4c 3c
       0.008068504 -0.014611704 -0.002912969 0.012482693
0001f0 11 3b 88 3c e8 a5 21 3b 09 db b7 3c c1 23 66 bc
       0.016629728 0.0024665538 0.022443311 -0.01404661
000200 e1 dc cf bc 51 19 2d 3c e4 58 87 bc ee 69 ad 3c
       -0.025373878 0.010565118 -0.016521879 0.021168675
000210 56 4a 0c bb 07 36 ce 3b e4 70 60 bc 63 61 32 bb
       -0.0021406612 0.0062930617 -0.01369879 -0.0027218692
000220 ed 60 83 3c 82 41 7c 3a 41 8c 3a bc 4e 3e 71 b9
       0.016037429 0.00096227985 -0.011385978 -0.00023006761
000230 a9 ff 2c 3c 90 3a 96 3c c0 36 8c ba 89 2b f9 bb
       0.010559001 0.018338472 -0.0010697469 -0.0076040667
000240 3a 83 d1 3c 71 ae 7d bc c3 17 0b bc 3e b2 3d bc
       0.025575269 -0.015483485 -0.008489552 -0.011578141
000250 72 8e 36 3c 51 28 8e bb 9b 7b fa 3b 13 29 5f 3c
       0.01114236 -0.004338302 0.0076441295 0.013620633
000260 31 56 34 bc 34 0b 8d bc 4e 2c 74 ba 48 3b 20 bd
       -0.011006878 -0.017217256 -0.0009314463 -0.039119035
000270 5c bd b6 3c a7 ff 81 bc b8 02 9e 3c 75 2f 66 bc
       0.02230709 -0.015868975 0.019288406 -0.014049401
000280 2a c8 2f bc a6 98 ea 3b 6c e0 ae b8 9c 77 79 3a
       -0.010728875 0.0071593104 -8.3387684e-05 0.00095164194
000290 09 98 1d 3b a1 5b d7 3c 23 39 94 bb 66 37 bc bb
       0.002404692 0.02628881 -0.004523413 -0.0057439087
0002a0 36 d0 9f bc 7a 3d 4c 38 27 d0 59 bc 6a 50 ac 3c
       -0.019508462 4.8694645e-05 -0.013294256 0.021034438
0002b0 59 6b 80 bc 36 53 a7 bb 59 e4 4c bc da ac 32 3b
       -0.015676187 -0.005106355 -0.012505614 0.0027263672
0002c0 bc ef 8a 3b b4 f5 0b 3b 9e 65 3a bb 15 fc 30 3c
       0.0042400043 0.0021356167 -0.0028441916 0.010802289
0002d0 b0 e4 94 bc fe 08 56 bc a0 b3 b8 bb 7d 73 06 bc
       -0.018175453 -0.013063667 -0.0056366473 -0.0082062455
0002e0 d1 27 09 3c 0a aa 34 bc af ac db bc 04 7b 3d bc
       0.008371309 -0.011026869 -0.02681574 -0.011564974
0002f0 b2 86 db b9 52 aa 23 bb 9b e1 87 3c 2a 71 cf 3a
       -0.0004187129 -0.0024973345 0.01658707 0.0015826572
000300 30 54 92 3b df 3d da bb 8a 01 03 bc 62 c6 81 3b
       0.0044656023 -0.0066602076 -0.007995972 0.0039604167
000310 ad f3 e6 bb b2 1e 9f bc da 8f 52 3b c2 c6 e5 bb
       -0.0070480914 -0.019423816 0.00321292 -0.007012219
000320 fc d0 8b bb fc 4e 4a 3c af 59 c1 3c f9 1d 05 3c
       -0.0042668562 0.012347933 0.023602335 0.008124822
000330 2c c4 4e bc a4 1a 03 3c 93 01 7a bc 64 4f 3c bc
       -0.012620013 0.008001957 -0.015259164 -0.011493538
000340 07 ce b1 bc aa 3f b0 3c 98 c1 96 3b 56 2a f9 bb
       -0.021704687 0.021514732 0.004600715 -0.007603924
000350 f2 a4 08 3b 36 a1 92 3c a6 5e a2 bc a1 b2 87 3c
       0.0020850268 0.017899137 -0.019820523 0.01656467
000360 5e 41 27 bb 01 6c 24 3c 13 30 c8 3b b7 17 52 3c
       -0.002552114 0.010035516 0.0061092465 0.012823037
000370 68 5c 04 bc 9f 91 e5 bb 4b 19 01 bc 77 63 c5 3b
       -0.008078672 -0.007005885 -0.0078795655 0.00602382
000380 b8 1d a4 bb 95 73 71 3c 6e c3 53 bc cb 16 d9 3a
       -0.0050084256 0.01473703 -0.012925012 0.0016562579
000390 95 cc d6 3b 2f a2 47 3b 84 19 e7 bb 40 19 a1 bc
       0.00655515 0.003046166 -0.0070526022 -0.01966536
0003a0 7f 44 72 3a 88 1c 97 bc 10 0c f7 bb 5c f2 d9 bb
       0.0009241774 -0.018446222 -0.0075392798 -0.006651206
0003b0 fa 1d fd ba e7 eb 1b 3b c7 ba ea bb d6 86 b0 3c
       -0.0019311302 0.0023791732 -0.007163379 0.02154867
0003c0 70 88 dd 3b e2 84 5b bc cd 0a b4 3b 06 d2 4d 3b
       0.0067606494 -0.013398381 0.0054944516 0.0031405701
0003d0 33 af 1c bc 49 53 9c 3c 42 47 b7 ba e4 b7 a1 3c
       -0.009563255 0.019082682 -0.0013983028 0.019741006
0003e0 ac 45 16 bc 9d e0 a3 bc 8b ed db 3a 15 c3 ec 3c
       -0.0091718845 -0.020004565 0.0016779167 0.028901616
0003f0 f4 30 20 ba d9 19 84 bc f5 81 be 3c 08 63 a8 bc
       -0.000611081 -0.016125606 0.023255328 -0.020555034

conv_net.2.0.bias f4 [32]
000000 85 db 95 3c 9f 3e 2e bd 36 09 43 3c 12 71 12 3b
       0.018293152 -0.04254019 0.0119040515 0.0022345227
000010 d6 f4 f6 3b 25 d5 52 bb d4 4e 68 bc fb 12 60 3c
       0.007536511 -0.00321705 -0.01417895 0.0136764
000020 bc 32 87 3c 52 65 0a 3d cd 52 d7 3c db e3 ee 3c
       0.016503684 0.033788033 0.0262846 0.029161384
000030 e3 1b 1e bd 27 ed 85 3c ec e1 62 bc 3a e6 a1 3b
       -0.038600814 0.016348435 -0.013847809 0.004940775
000040 84 a3 04 bc 70 99 d4 3c b9 cf cf bc a5 3d 8d bc
       -0.008095626 0.025952071 -0.025367605 -0.017241308
000050 b4 9f 68 bb aa 90 77 bc 76 57 cf 3b d2 c4 08 bb
       -0.003549558 -0.015110174 0.006327565 -0.0020869267
000060 81 5b d9 bc 5c bd b3 bc 20 23 36 bc 94 0c 05 3c
       -0.02653289 -0.02194088 -0.011116773 0.008120675
000070 a1 a4 92 bc d9 43 e9 3c 34 93 36 3b f2 80 09 3c
       -0.017900767 0.028474735 0.0027858736 0.008392559

conv_net.2.1.weight f4 [32]
000000 74 f2 81 3f b7 50 79 3f 9e 9e 81 3f 51 88 80 3f
       1.0152116 0.97388786 1.0126531 1.00416
000010 0e 4c 7e 3f f8 ae 7d 3f e6 9a 80 3f a4 1b 7e 3f
       0.993348 0.99095106 1.0047271 0.99260926
000020 0a 8a 7c 3f 22 a1 80 3f 46 9c 7f 3f c2 70 81 3f
       0.9864813 1.0049174 0.9984783 1.0112536
000030 b0 24 81 3f e4 be 7e 3f 88 83 7d 3f 06 b6 7f 3f
       1.0089321 0.99510026 0.99028826 0.9988712
000040 ac 8b 81 3f 65 e2 7e 3f b7 65 7b 3f c7 e6 7d 3f
       1.012075 0.995642 0.9820208 0.99180263
000050 6b 67 81 3f 5f 0b 7e 3f b1 1e 7e 3f d5 bb 7b 3f
       1.0109686 0.992361 0.9926558 0.98333484
000060 e2 a6 82 3f 2b 54 81 3f 3b 54 81 3f 4f 59 7f 3f
       1.0207179 1.0103811 1.010383 0.9974565
000070 6c 72 7c 3f 51 66 80 3f 13 68 81 3f a5 19 7a 3f
       0.98612094 1.0031224 1.0109886 0.9769538

conv_net.2.1.bias f4 [32]
000000 20 5b 9b bc 94 f0 2b bd 31 aa 43 bc 97 8d 80 bd
       -0.01896435 -0.04197748 -0.011942432 -0.06277006
000010 5e be 20 bd 81 03 36 bd 83 e0 36 bd ae ad 97 bd
       -0.03924405 -0.044436935 -0.044647705 -0.07406174
000020 bd 53 7e bd ed 44 02 bd 9b 88 d4 bc 28 6b c8 bc
       -0.062091578 -0.031804014 -0.025944045 -0.024465159
000030 78 da 9e bc cf 73 8d bd ab e6 ab bd 76 3f 11 bd
       -0.019391283 -0.06906854 -0.08393606 -0.03546091
000040 50 41 ab bc cb 2f 98 bd da 27 b0 bd fa 08 2c bd
       -0.020905167 -0.07430991 -0.08601351 -0.04200075
000050 78 21 91 bc 40 30 ab bd b7 a0 76 bd c7 37 88 bd
       -0.017716154 -0.08358812 -0.060211863 -0.06651264
000060 12 30 b2 bb 46 2d 41 bc 3c 60 c1 bc 52 02 5a bd
       -0.0054378593 -0.011790579 -0.023605458 -0.05322487
000070 38 4e d2 bd 9a db 03 bd b8 94 af bc 5a a6 70 bd
       -0.10268825 -0.03219185 -0.02143322 -0.058752395

conv_net.3.0.weight f4 [32, 32, 3, 3]
000000 86 fa 0f 3b 08 2e 90 bb 47 bd 4b 3c d8 b4 43 bc
       0.0021969392 -0.0044000186 0.012435264 -0.011944972
000010 cf c5 db 3b 4c 72 dd ba e9 b5 4a bb d1 46 bc 3c
       0.00670693 -0.0016895025 -0.003093118 0.022982987
000020 3b 46 08 bc 5f 2a 3f bc 80 08 d9 bc dd 46 a9 3c
       -0.0083175255 -0.011667817 -0.02649331 0.020663673
000030 66 7a 49 3b 71 22 fa 3c 5d 26 aa 3c 28 db 41 3c
       0.0030743121 0.030534001 0.020770246 0.011832036
000040 c3 76 9f bb d4 a3 d1 3b e2 55 d3 3b f5 45 44 3b
       -0.0048664524 0.0063977037 0.006449447 0.0029948924
000050 ee ce ee bb f0 f9 e7 b6 4e 63 50 bc 15 ee 99 3c
       -0.0072878515 -6.913433e-06 -0.012718989 0.018790284
000060 4a 76 58 bc 91 df 91 3b ca ed 27 bc d3 32 fb 3c
       -0.013211796 0.0044517 -0.010249564 0.030663883
000070 eb 66 01 bd cf 47 25 bd 91 db ba bc 68 31 9c 3b
       -0.03159229 -0.040351685 -0.022809776 0.004766632
000080 03 a3 d5 3c fb ed 92 3c ec fc d2 3c 34 7e c9 bc
       0.026078707 0.017935744 0.025755368 -0.024596311
000090 7b 58 ab bc a0 41 f2 3b 84 05 66 bc 20 ce 23 3d
       -0.020916214 0.007393077 -0.014039401 0.039991498
0000a0 90 e8 9b bc 58 a7 df 3c b9 7a 2e 3c 30 98 25 3c
       -0.019031793 0.027301475 0.010649377 0.010107085
0000b0 42 7e 05 bc 64 a5 1d 3d 49 93 b2 ba 97 35 2a bc
       -0.008147778 0.038487807 -0.0013624217 -0.010388753
0000c0 ae c4 a6 3c 14 c5 41 3c bf e4 42 bd 92 35 4c bc
       0.020357456 0.011826772 -0.04758143 -0.012463944
0000d0 03 40 6b bc 36 36 69 3c 75 1b e5 3b c9 66 49 bc
       -0.014358523 0.014234116 0.0069917985 -0.012292572
0000e0 80 36 8f 3c 8e c9 f0 ba 3f f1 f2 bc 0c b8 05 3c
       0.017482042 -0.0018370615 -0.02965605 0.008161556
0000f0 1b 84 3a bc cc 36 f4 3b 0c 7b d5 3b 33 a4 48 3b
       -0.011384035 0.0074528214 0.0065149125 0.0030615448
000100 44 2b f7 bb 41 23 73 bc ba 66 04 3c b6 15 3b 3b
       -0.0075429995 -0.014839948 0.008081133 0.0028546876
000110 7c d1 0f bc f7 06 36 3d a2 41 64 bc 78 71 8d ba
       -0.008777972 0.044440236 -0.013931664 -0.0010791263
000120 c1 f2 ea bc 7d 95 b3 3c fd 76 8b bc 6f 06 fb ba
       -0.028680207 0.021921868 -0.017024511 -0.0019151698
000130 25 50 fe 3a 4a 00 3b 3b 8e 6f 0b 3c e3 37 d7 bb
       0.0019402547 0.0028534108 0.008510483 -0.0065679415
000140 c6 95 04 bc 81 33 8e bc 66 4c 9b 3c e7 eb 0f bd
       -0.008092349 -0.017358543 0.018957328 -0.035137083
000150 60 63 c6 bc d8 71 0e bc 88 c8 14 3d d4 3b 9d 3c
       -0.024217308 -0.008694135 0.036324054 0.019193567
000160 08 d6 14 3c c6 29 27 bc 5a 76 a1 3c 42 5b 7c 3b
       0.009084232 -0.010202831 0.019709755 0.0038506542
000170 7b 9a 0a bc af 5f 6a bc 9a d9 23 3c 59 66 1c 3d
       -0.008459683 -0.014305039 0.010000611 0.038183544
000180 d4 f3 d1 3a f9 29 43 3c 62 e6 73 bc d0 aa 01 bc
       0.0016018101 0.0119118625 -0.0148864705 -0.00791426
000190 21 f3 94 3c 1e 42 14 bc ae aa 6b 3c 2a 30 04 3d
       0.01818234 -0.009048967 0.014383955 0.032272495
0001a0 56 e9 27 bd 60 80 fa 3a e7 a7 02 3a 9d 7d 26 3c
       -0.04099401 0.0019111745 0.0004984126 0.0101617845
0001b0 79 ca 3e bc e7 cc d2 3b 68 a2 59 bc 14 34 07 3c
       -0.011644953 0.0064331177 -0.01328335 0.0082521625
0001c0 d8 c3 c7 3a 0d bd 42 bb 75 aa b0 3c 16 fa 3a bc
       0.0015240861 -0.0029714734 0.021565655 -0.011412164
0001d0 ce 30 13 ba bf 07 99 bc 2f 49 85 bc 0e a5 af 3b
       -0.00056148774 -0.018680451 -0.016270248 0.005360252
0001e0 bf 39 b5 3c ca 3b 0b bd cf 72 d7 bb 48 a9 25 bc
       0.022122262 -0.033992566 -0.0065749655 -0.010111161
0001f0 92 8c e4 3c 2f 9d 30 3c b4 ce 3c bc 2b 9a 0d bc
       0.02789906 0.010779663 -0.011523891 -0.008642714
000200 e1 18 10 bc 2e 7e c1 3c 69 6b d3 3b 08 36 0b 3d
       -0.008794994 0.023619737 0.0064520133 0.033987075
000210 ff f0 10 3d 33 cf 08 3d 64 43 c1 3b a6 b8 f3 3c
       0.03538608 0.033400726 0.005897926 0.029751133
000220 47 9a 5d 3c 51 27 cc 3a 83 ad 94 bc da 21 18 3d
       0.013525552 0.0015575682 -0.018149143 0.03714166
000230 5e dd 44 bb cb d6 aa bb 93 8d 0a 3a cd 43 9f bb
       -0.0030039172 -0.0052135936 0.00052853784 -0.0048603774
000240 ba 7b 9f 3c 87 68 b3 3b e8 f5 de 3b fe cd af 3b
       0.019468177 0.005475107 0.0068042167 0.0053651324
000250 47 73 1b 3b cc 5b 0e bc 83 df f6 3c 86 77 27 3b
       0.0023719834 -0.008688878 0.030135876 0.002555342
000260 fc 7f 0e 3c 20 a0 c1 3b de 17 d2 bb e6 cf 88 3c
       0.008697506 0.005908981 -0.0064115366 0.016700696
000270 f3 f6 69 bc b1 ab 85 bc c3 79 44 3c 0f 33 c8 3c
       -0.014280069 -0.01631722 0.011991921 0.02443841
000280 7b c3 04 bc aa 4f 0a bd ed 41 f4 3c f8 9f e9 3a
       -0.008103247 -0.03376738 0.029816592 0.0017824164
000290 91 75 8a 3b 32 39 f2 ba 4c 9f 6c bb 50 be 5d bc
       0.004225441 -0.001848018 -0.003610569 -0.013534144
0002a0 ea c6 9d bc a3 33 2f 3b dc 4a 87 3b bb fd e4 3b
       -0.019259889 0.0026733659 0.004128797 0.006988255
0002b0 ae 86 85 3b a0 5e bb 3c 7b 64 60 3c f4 cc 9a bc
       0.004074893 0.02287227 0.013695831 -0.018896557
0002c0 52 df 6b bc b8 99 28 3c 85 13 2d bc c8 b3 24 ba
       -0.014396505 0.010290556 -0.010563736 -0.0006282893
0002d0 37 6d 3d bc d2 54 96 bb 99 88 49 3c 27 1b 08 bc
       -0.011561683 -0.004587748 0.012300634 -0.008307255
0002e0 31 90 9a 3c 45 3e 8c bc a0 88 c7 3c 6d 0b 98 bc
       0.018867584 -0.017119536 0.02435714 -0.018560136
0002f0 32 f4 40 3c 6a 4a 52 b9 2f e1 31 bc 8a 44 2b 3c
       0.011776971 -0.00020054882 -0.010856911 0.010453353
000300 01 11 c6 bc f0 86 97 3c 37 f6 14 bc c7 ea 7d bc
       -0.02417803 0.01849696 -0.009091905 -0.01549787
000310 92 64 11 bd 25 49 03 bd 8b dc 46 ba 20 bf b7 3a
       -0.035496302 -0.032052178 -0.0007585964 0.0014018752
000320 d3 12 8e bc f2 87 cf bb d6 04 9c 3c 88 e9 6a bc
       -0.01734296 -0.0063333446 0.019045275 -0.014337905
000330 fd ce d3 b9 16 91 74 ba 0d 6b 9a 3c d6 60 9b 3c
       -0.00040399274 -0.0009329481 0.018849874 0.018967073
000340 85 86 67 3c 93 6e ed 3c cb d6 07 bc 1a 81 d2 3b
       0.014131193 0.02898339 -0.008290957 0.0064240815
000350 ff db 9d 3c 5c f9 6d bc c0 37 ce ba 43 5a b7 bb
       0.019269941 -0.014524784 -0.0015733168 -0.005595477
000360 43 69 88 bc 35 80 fa bc 5b 88 81 3c 62 54 2b bc
       -0.016651755 -0.030578712 0.01581209 -0.01045713
000370 71 71 3f 3c 21 15 bd 3b 76 97 64 ba 1b 51 46 3b
       0.011684761 0.005770341 -0.0008720079 0.0030260745
000380 6b 15 4d 3b 84 7e 7d 3c 64 a1 a7 3c e9 c4 2b bc
       0.0031293284 0.015472058 0.0204627 -0.010483959
000390 9c ae 0f 3c 04 6b 1a bc 05 6b cc bc b5 60 61 bc
       0.008769657 -0.009424929 -0.024953375 -0.013755967
0003a0 3a b0 d1 3c f6 e8 64 3c 71 20 bd bc 02 0a a9 3b
       0.025596727 0.013971558 -0.023086758 0.0051586637
0003b0 28 60 91 3c ea 9c 9d 3c 1b dc 81 bc 0f 79 ed ba
       0.017746046 0.019239862 -0.015852025 -0.0018117743
0003c0 16 48 4c 3a bc 16 88 bc 91 54 3e 3c c0 80 43 bb
       0.0007792724 -0.016612403 0.011616842 -0.002983138
0003d0 c3 c0 1c bc 21 aa 87 3b 88 27 b9 3c 81 81 3d bc
       -0.009567442 0.004140154 0.022601858 -0.011566521
0003e0 fc b4 19 bc 28 3c 4b bd ef be 06 bc 57 c5 83 3c
       -0.009381529 -0.049617916 -0.008224233 0.01608531
0003f0 67 36 8b bc 1e be a1 3c 0f d7 1d bc a7 ae a7 bc
       -0.016993714 0.019743975 -0.0096337935 -0.020469023

conv_net.3.0.bias f4 [32]
000000 9b aa c3 3c 01 62 4e 3c 39 e2 c4 3c 6a b5 83 3c
       0.023885062 0.012596608 0.024033653 0.016077716
000010 db e1 37 3c 34 fc 44 bb 44 0a a5 bc 59 8e bf 3b
       0.011223282 -0.0030057551 -0.020146497 0.0058458266
000020 2d ec ca bc fe ff a3 ba a1 f8 19 3d ec 8c 92 3c
       -0.02477082 -0.0012512205 0.037590627 0.017889462
000030 33 ce f7 3b 69 83 ef bc f9 08 af 3a 1e 42 ac 3b
       0.0075624227 -0.029237466 0.0013354114 0.005256905
000040 24 d1 cc bb bb 4d 10 bd 82 94 0e 3b 8d 4a 0b bd
       -0.0062505174 -0.03523038 0.0021755998 -0.034006644
000050 25 55 12 bd cf db 76 bb 06 bf d1 3b 5a d0 a9 bc
       -0.03572573 -0.0037667637 0.0064009456 -0.020729233
000060 0d cc ef bb bb 81 46 bc 12 0b ba bc c8 ee 3e 3a
       -0.007318026 -0.012115891 -0.022710357 0.0007283506
000070 ba cf bc 3b fe b0 c2 bb 4c 67 59 ba 86 a7 85 3b
       0.0057620676 -0.0059415093 -0.00082932855 0.0040788082

conv_net.3.1.weight f4 [32]
000000 88 9b 86 3f f8 87 89 3f d9 d3 8b 3f 03 3f 8b 3f
       1.0516214 1.0744619 1.0924026 1.0878605
000010 0e 37 8f 3f 58 7b 84 3f 05 60 8b 3f 93 2d 8d 3f
       1.1188676 1.0350142 1.0888678 1.1029533
000020 4e e5 8d 3f f9 7a 84 3f 00 3c 86 3f 04 2a 91 3f
       1.1085603 1.0350028 1.048706 1.1340947
000030 7b 4e 8a 3f 4f 2c 8c 3f 50 c8 8b 3f df 83 8b 3f
       1.08052 1.0951022 1.0920506 1.0899619
000040 b3 44 8f 3f fc 3a 8e 3f 06 ca 8f 3f 0d 9b 86 3f
       1.119284 1.1111751 1.1233528 1.0516068
000050 56 28 88 3f 2a 45 8c 3f f4 52 8b 3f ca 51 8d 3f
       1.063731 1.0958607 1.088469 1.1040585
000060 dd f8 86 3f 00 86 8c 3f 42 3c 91 3f 18 ce 8b 3f
       1.0544697 1.0978394 1.1346514 1.092227
000070 ae 24 96 3f 48 a8 91 3f 94 e0 88 3f 0d 36 8e 3f
       1.1729944 1.137948 1.0693536 1.1110245

conv_net.3.1.bias f4 [32]
000000 08 69 f0 3a cd 3b 63 bb d7 dc 06 3b 36 c9 8f 3b
       0.0018341849 -0.0034673095 0.0020578408 0.004388
000010 76 09 60 bb a5 be f6 ba 14 b0 d3 3b 4c e6 aa 3b
       -0.0034185327 -0.0018825127 0.006460199 0.005215442
000020 5e cf 47 38 07 1f 1c 3a a8 25 92 3b be 9a 80 3b
       4.7638423e-05 0.0005955551 0.0044600554 0.0039246967
000030 2b ba d0 3b 82 1f b5 3a 8b 1b a7 3b 38 6a 3b bb
       0.006369849 0.0013818594 0.005099719 -0.0028597247
000040 71 6b 8b 3c 60 08 d5 ba 55 70 ee bb 98 fd 0f bb
       0.017019005 -0.0016253106 -0.0072765746 -0.0021971222
000050 54 ae 84 3b 77 d8 d0 bb fa 4d 83 3b fb 83 b0 ba
       0.004049102 -0.006373461 0.0040070983 -0.0013467068
000060 66 68 14 3b be 44 98 3b 47 83 54 bc 1e ab 69 bb
       0.0022645234 0.0046468666 -0.012970752 -0.0035654972
000070 0e 1e 50 b9 69 fe 9d ba a0 07 2a 3b 80 8f 18 ba
       -0.00019847622 -0.001205397 0.0025944486 -0.0005819723

fc_net.0.weight f4 [128, 800]
000000 14 7b 29 bc 03 4a 72 3c f7 6c a3 ba 34 e7 ef bc
       -0.0103442855 0.014788154 -0.0012468387 -0.02928505
000010 51 5d 56 3c 51 b3 29 bc 77 63 a5 3c 66 41 64 bc
       0.013083772 -0.010357694 0.02018903 -0.013931608
000020 6e 58 dd 3b 17 3f 7c 3c 0f e1 4d bc c5 f8 15 3c
       0.0067549264 0.015395901 -0.012565865 0.00915355
000030 4a 47 4e 3c 4f d3 88 3c f2 c3 0e 3c 47 1e 97 bc
       0.012590239 0.016702322 0.008713709 -0.018447055
000040 72 b8 ab bc 8b 6a 9d 3c 01 4b 0c 3b a1 78 62 3c
       -0.020961974 0.019215843 0.002140701 0.0138227055
000050 0a c4 6f bb 2f 68 9f bc 6b e5 e6 3b ff a3 c8 bb
       -0.0036585354 -0.019458858 0.0070463917 -0.0061230655
000060 7c 65 82 bc b6 26 71 bc bc e9 95 3c 31 d0 b0 bb
       -0.015917532 -0.014718702 0.01829993 -0.005395912
000070 05 6d f0 3c 2c aa 7d bb bd b4 43 bb 22 49 37 bc
       0.02934886 -0.0038706167 -0.0029862367 -0.01118687
000080 86 d0 e4 bb 0a cf f7 bc e8 e9 01 bc c1 d8 d0 3c
       -0.0069828657 -0.030250091 -0.007929303 0.025493981
000090 85 f3 19 bd 83 32 4c bc 96 dc e5 3a 0a 11 78 3b
       -0.037585754 -0.012463215 0.0017537053 0.0037851953
0000a0 55 70 5a bc 56 8b 8a 3a 4e cb ad 3b 4c 59 cb 3c
       -0.013332446 0.001057009 0.005303777 0.024822854
0000b0 4e 14 d3 3a f4 7e 8a 3c 91 02 60 38 dc e0 db 3b
       0.0016104074 0.01690624 5.3408152e-05 0.006710155
0000c0 13 cb 7d 3a ea d9 64 3b 14 be 03 3c 5a 55 63 bb
       0.00096814445 0.0034919926 0.008040924 -0.0034688325
0000d0 62 08 8e 3c 2a cd f0 3b 09 86 15 bc 01 e5 8a 3c
       0.017337982 0.007348676 -0.009126195 0.0169549
0000e0 08 54 b2 3c ac 39 89 3c 1a b7 cd 3c 0f c0 3f 3b
       0.021768585 0.016751133 0.025111724 0.0029258763
0000f0 38 e4 ad 3b b3 f6 8c 3c 48 ae 13 3d 4f 50 e1 3c
       0.005306747 0.01720748 0.03605488 0.027504114
000100 60 b2 04 3c 2c 29 84 3a be 72 dd 3b 8d e1 10 3c
       0.008099169 0.0010083071 0.006758063 0.008842838
000110 e1 f3 ce 3b d9 6f 9f 3b 59 0e 19 3c a5 18 90 bc
       0.0063156937 0.004865628 0.0093418 -0.017589876
000120 ed b1 d2 bb a9 32 f4 bb af 92 14 ba 1c 66 dd 3c
       -0.006429902 -0.007452328 -0.00056676095 0.027026229
000130 c3 f2 ca ba a6 be f4 3b a6 30 39 3c 1c 95 9d 3b
       -0.0015483726 0.007469016 0.011303103 0.004809035
000140 02 4e 13 3c 62 03 e4 3a c0 c4 82 3b fa d6 bb bc
       0.0089907665 0.0017396028 0.0039907396 -0.022929657
000150 88 a5 05 bc db 5f 9b 3b dc ea 81 bc f7 e6 fa ba
       -0.0081571415 0.0047416515 -0.01585906 -0.0019142319
000160 68 23 96 bc 3c fa d0 bc ce 13 cf 3a ba e0 29 ba
       -0.01832743 -0.025509946 0.0015798749 -0.0006480325
000170 17 c4 1d bc 02 af 5a bc 8d 69 db 3c 4f 9d 02 bc
       -0.009629271 -0.013347389 0.026783729 -0.007972076
000180 20 60 ef 3a 5c 58 c4 bc 5f b7 e1 bb 1e 03 89 3b
       0.00182629 -0.023967914 -0.0068883146 0.00418128
000190 92 36 1c bc 90 3a 29 3a 2a 3b e0 3c 29 a6 04 bc
       -0.009534495 0.0006455565 0.027371962 -0.008096256
0001a0 69 e5 4d 3c 2e 17 c2 3a 75 14 0f 39 b6 94 a5 3c
       0.012566903 0.0014807933 0.00013645164 0.020212512
0001b0 d5 27 d2 3c af 80 2f bc c2 9f 75 bc 4d 23 85 3c
       0.025653759 -0.010711833 -0.0149917025 0.016252184
0001c0 7c 1f 44 3d 25 48 ad 3c bb bc 60 3c 61 59 e1 3c
       0.04788159 0.021152565 0.013716872 0.02750844
0001d0 af 8c 4e 3c 26 7c 30 3d ea cb 1e bb d5 fa 32 bc
       0.012606784 0.043087147 -0.002423043 -0.010924061
0001e0 f5 02 3d bc 43 b7 6b 3c 51 b6 67 3c e1 ed bf 3a
       -0.01153635 0.014386955 0.014142589 0.0014643037
0001f0 6a ab 48 3c 65 f0 2f 3c dc b9 ce 3b 91 a9 d1 bc
       0.0122479 0.010738467 0.0063087773 -0.02559355
000200 0e 39 ad b7 e3 a8 ab 3a 30 81 00 3d b8 e5 1e bc
       -2.0649775e-05 0.0013096597 0.031373203 -0.009698324
000210 35 47 ec 3c df fa 91 3c b3 cb 35 bc 9a 46 30 3c
       0.028842548 0.01781982 -0.011095929 0.01075902
000220 57 79 1e bb 0e 68 45 3c 25 cd 88 3c 8d f1 4a 3b
       -0.002418121 0.012048734 0.016699383 0.003096673
000230 50 28 d6 3c 6b ff bf 39 28 41 ab 3c 37 28 73 bc
       0.02614227 0.0003662066 0.020905092 -0.014841131
000240 2b 64 a8 3b a0 9b f6 bc 0d fc cb 3a 27 b5 70 bc
       0.005138894 -0.030103505 0.0015562788 -0.014691628
000250 25 2f cd 3b 6a a8 96 3b 50 97 16 3c e8 da 08 bc
       0.0062617236 0.0045977132 0.009191349 -0.008352973
000260 55 61 8c 3c e1 46 a8 3b a3 ff 10 bb ac 83 fc 3c
       0.017136255 0.0051354025 -0.0022125028 0.030824505
000270 e9 b7 f5 3b ad 3e ed 3a 82 cc 06 3c e8 b0 09 3c
       0.0074987304 0.0018100344 0.008227469 0.008403994
000280 c2 cc 8f 3a 64 3d 18 bc 23 34 b3 bc 0d 3d 8a bc
       0.0010971057 -0.00929198 -0.021875447 -0.016874814
000290 44 1b 33 bc 90 ac 1b 3b fd 8f 21 bc 22 f3 7c bb
       -0.010931794 0.0023753978 -0.00986099 -0.0038597067
0002a0 a0 1a cc bc fa c5 3c bb 46 ce 18 bb 40 67 a2 bc
       -0.02491504 -0.0028804527 -0.0023316308 -0.019824624
0002b0 d1 34 0c bc d4 01 21 bc 07 88 6b bc 4e 20 cc b9
       -0.008557514 -0.009827096 -0.014375693 -0.0003893398
0002c0 1c 57 bf 3b a3 0a f6 3a bb 06 ad 3b 90 f5 26 bb
       0.0058392417 0.001877148 0.0052803434 -0.0025475956
0002d0 05 be 26 3a b5 b4 9a 3b 56 f4 64 3c 74 f9 75 3c
       0.00063607126 0.004721249 0.01397427 0.015013088
0002e0 ba 53 fb 3b 3b 91 bd 3b 8d 0a 84 3c af f3 d9 3b
       0.007669893 0.005785135 0.016118312 0.006651364
0002f0 5e ff b0 ba f7 88 98 39 7d 86 bb 39 c7 82 7a bb
       -0.001350384 0.00029093746 0.0003576762 -0.0038224922
000300 71 9a 02 3b 15 b6 94 3b 53 7f 05 bb ec f3 02 bc
       0.001992848 0.0045383074 -0.002037008 -0.007992726
000310 1a 28 61 3b eb 91 04 3d a6 5d 57 bc ee 37 e0 3b
       0.0034356178 0.03236572 -0.013144886 0.006842605
000320 03 57 e5 3c e2 84 a2 bc fe e1 a5 bc 6d c1 05 bc
       0.027995592 -0.019838754 -0.020249363 -0.008163792
000330 c3 45 63 3c da dd ae 3c ff a0 57 bc 4a 39 96 bc
       0.013871613 0.021346021 -0.013160943 -0.018337864
000340 26 2e 07 bd 3b 19 d7 3b 2e 40 35 bc c9 80 a9 bc
       -0.033002995 0.006564287 -0.011062665 -0.020691292
000350 b5 83 af bc 2b d0 eb bc 06 30 a9 bc a5 c9 19 ba
       -0.021425107 -0.028785786 -0.020652782 -0.0005866534
000360 5d 14 a0 bc 56 48 60 ba b7 4f 0d bb 84 7c 0f bb
       -0.01954096 -0.0008555701 -0.0021562406 -0.0021894285
000370 8b 14 52 3b 10 35 14 bc 2d 3d bd bb c5 c9 5e bc
       0.0032055702 -0.009045854 -0.005775115 -0.01359791
000380 5b ed 3b 3c 9d 40 57 bc fd 2a 7f 3a 78 95 40 3c
       0.011470164 -0.013137964 0.0009733884 0.011754386
000390 ad 2e a9 bc db 7d 12 bc cf 4a 85 3b 7b fe 8d 3c
       -0.02065214 -0.008941139 0.004067756 0.01733326
0003a0 a1 ba 2f 3b 62 fc 90 bc 62 8a ba bb 94 f6 c6 b9
       0.002681412 -0.01769847 -0.005692766 -0.00037949218
0003b0 31 a7 63 bc 6f 7b 16 bc f5 75 05 bd 74 87 5e bc
       -0.013894842 -0.009184702 -0.032583196 -0.013582099
0003c0 d7 34 5f 3a 0a 9a df 3b 14 70 ab bc d4 77 6e bb
       0.00085146487 0.006823783 -0.020927466 -0.003638734
0003d0 80 45 87 3a 6f 6e a3 bc e5 7e b7 bc a8 bd 91 bb
       0.0010320395 -0.01995012 -0.022399375 -0.0044476576
0003e0 47 29 5b 3c 3d 4a 94 3b 9f 5c e5 bb 13 5a fa 3c
       0.0133765405 0.0045254515 -0.0069995667 0.030560529
0003f0 68 d5 da 3c 3d 51 c2 3c a6 ee 9a 3b 92 1b 33 3c
       0.026713088 0.023720378 0.004728156 0.010931866

fc_net.0.bias f4 [128]
000000 53 01 9b 3c ac 16 60 3c a9 6c 19 3c b3 7e 18 3c
       0.01892153 0.01367728 0.0093642855 0.009307551
000010 e2 3d a6 3b cd 24 be ba d4 ad b2 bb af ff 10 3c
       0.005073295 -0.0014506817 -0.005452851 0.008850022
000020 ce 53 35 bb a4 fb df bb d3 90 cc 3b 13 d1 8a 3c
       -0.002766836 -0.006835418 0.0062428503 0.016945397
000030 42 05 69 3c 5f 14 58 3b cd 5d 5c bc 16 3b 1c bc
       0.014222445 0.0032971126 -0.013450098 -0.009535572
000040 78 d7 80 bc a0 f5 2e bc 2c cc 49 3c 4f fc 97 bb
       -0.015727744 -0.010678679 0.012316745 -0.004638232
000050 30 a7 c8 3c 21 e0 9d 3b d7 be 33 3c 2c e9 2c 3c
       0.024493784 0.004817978 0.010970793 0.010553639
000060 f7 85 97 3c c2 11 00 3a 21 3b cb ba d1 8f 30 3b
       0.018496497 0.00048854586 -0.0015505293 0.002694119
000070 0e ab d9 ba a6 8b 90 bb e4 07 64 3b 97 53 e4 3b
       -0.0016606764 -0.0044111786 0.0034794742 0.0069679725
000080 6b 81 c3 bb d0 b8 0d bc bd 31 a2 3c b4 b2 8e bb
       -0.0059663556 -0.00865002 0.019799108 -0.004354799
000090 c7 48 89 bc 9d 83 b5 3a 78 97 fb 3b a7 ba 68 3b
       -0.016758336 0.0013848428 0.0076779686 0.0035511644
0000a0 61 ae 4c bc 79 53 a7 3b b5 88 1d bc 1e 9c 92 3c
       -0.012492747 0.0051063863 -0.009615113 0.017896708
0000b0 d0 54 b5 3c f9 73 ed 3b b2 6d d6 bc 8a a8 50 3c
       0.022135168 0.007246491 -0.026175354 0.012735495
0000c0 5b ba 33 ba 04 5f 4e bb 96 95 2b 39 a3 a4 2e bb
       -0.0006856077 -0.003148974 0.00016363556 -0.0026648424
0000d0 77 6c f1 bb e3 45 a5 3c c7 eb 77 3b 6e 93 31 bb
       -0.0073676663 0.020174926 0.0037829743 -0.0027095932
0000e0 d5 0c 26 bc 0a ed 6e ba b7 cb e7 3b 6e df 29 bc
       -0.010134895 -0.0009114301 0.0070738452 -0.010368211
0000f0 03 75 68 3b 01 32 66 3c 2c 06 e5 bb 28 f3 84 bc
       0.0035470135 0.014050008 -0.006989261 -0.016229227
000100 7d 13 a5 3c 15 2e 05 3b ee 09 94 bc 8a f9 9d bb
       0.020150894 0.0020321656 -0.018071141 -0.004821007
000110 80 01 2f bb f9 9e bd 3c 4f 8e a3 3c 8a 68 c7 ba
       -0.0026703775 0.023147093 0.019965319 -0.001521365
000120 a8 71 ed 3c ee e9 d9 3b f7 cf ac bb fa 64 f4 bb
       0.02898486 0.006650201 -0.005273815 -0.0074583264
000130 6b fa 03 bc b5 ab a1 3c 85 f4 08 bc f1 67 f8 bb
       -0.00805531 0.019735197 -0.008359079 -0.00758075
000140 25 5b 54 bb 2e fd 71 3b c2 67 a7 bb 58 4d 18 3b
       -0.003240296 0.0036924588 -0.0051088044 0.002323946
000150 eb 99 d5 3c 1d a3 2a 3c da 24 42 bc 02 47 7d 3c
       0.02607437 0.010414866 -0.011849606 0.015458824
000160 d6 1f b9 3a 70 fc 15 ba 50 cd 5a b9 8a a2 c4 3c
       0.0014123868 -0.0005721515 -0.00020866585 0.024003286
000170 d0 68 b3 3b e2 29 e2 3b ee c5 26 bb 24 e7 2d bc
       0.005475141 0.0069019655 -0.0025447565 -0.01061419
000180 2d 96 1f bc c7 51 0d bc 72 dd 0b bc 65 f9 3a bc
       -0.009740395 -0.008625454 -0.008536683 -0.011411999
000190 f4 e6 12 3c 13 bb 2b 3c d8 11 85 bb 56 ef db 3b
       0.008966196 0.010481614 -0.004060965 0.0067118807
0001a0 b0 de 6b 3c 6e 37 61 3c fb 38 64 bc b9 ea 8e 3b
       0.014396355 0.013746126 -0.013929601 0.004361477
0001b0 c1 0e 4e 3b 1c 7e 57 3b 98 67 76 3b b1 d5 bd 3a
       0.00314419 0.0032881564 0.0037598368 0.0014483241
0001c0 6f 41 80 bb af 2c 85 bb 83 75 8b 3b e3 e1 27 3c
       -0.0039140503 -0.0040641646 0.004255952 0.010246727
0001d0 a8 98 5d bc 69 c3 5f 3c a2 92 6b bb c1 9b 96 b9
       -0.013525166 0.013657429 -0.0035945554 -0.00028726275
0001e0 5f 02 96 3c 44 58 d0 3a cd 60 e3 bb 45 2e 7c 3c
       0.018311678 0.0015895446 -0.00693903 0.015391891
0001f0 98 eb 19 bc 0d 91 43 3c 42 57 2a 3c 2c 9a 03 3c
       -0.009394549 0.011936438 0.01039678 0.008032363
