Results_paper/classification_aircraft_fungi_bird/it3/reptile/5models_1.pt (torch, 534505 bytes, 20 tensors)

conv_net.0.0.weight f4 [32, 3, 3, 3]
00000000: 914c 043d e944 5d3d ad3f 6c3c f4c6 e8bd
00000010: 0e74 9c3d 822f c63d 0b69 47bd 762a d1bd
00000020: e797 513d 83fd 283c 5aba 01be 2eef dd3d
00000030: db4f 03bd 5eeb b43c 4b57 a43c 12d4 99bc
00000040: 2eae 4dbe 3502 303d 069b 54bc ac61 adbb
00000050: c991 bf3c 9450 7cbc 667a ca3c 0ccb f73c
00000060: a1c5 f63c 720e a8bd c084 003e 63f5 983d
00000070: 7f72 8b3d 7dc5 8bbc 1016 70bc 0513 08be
00000080: 5eec a43c deba 3539 edb1 fd3c b7b6 e3bd
00000090: 58c2 303d 8302 c03d c993 ec3c 757e e03d
000000a0: 8e7a dabd 419b 31be 8a72 503d 0aa3 ab3d
000000b0: 203d 543d 8f27 ee3c ea62 103d 1638 b0bc
000000c0: e4c7 3d3d 822b 7dbd df97 0bbe f5b3 86bd
000000d0: 9b15 5bbd 5414 d13d 2659 0cbd 4779 aebd
000000e0: 738c 90bd f7a2 dcbd 4e45 d5bb 0551 debd
000000f0: 36c0 103b 1c15 a2bd dcbe 7e3c 28a5 05bd
00000100: 4725 07bc 2112 85bd 7863 1d3d 0653 063b
00000110: 150f 0a3d 64e8 f9bb 041b 513d e6ce 85bd
00000120: a03d 3a3d 348b 873d bb3c 723c 4ce8 353d
00000130: 0233 8e3d 2c2d a93c 9eb8 f0bb b928 293d
00000140: be25 b4bc 32bb 773d 9e61 023e 646c da3d
00000150: e3aa 8b3d 763a 063e 0b50 ef3d 180d 493c
00000160: 65ed c9bb 1830 a6ba 4833 c93c c75c 553c
00000170: e02c 68bd bc72 e83c 663f 7a3c 9ab0 d1bd
00000180: f97d 4f3d 9a8f 9bbc de81 d3ba 70cd 0ebd
00000190: 30b9 eebd 9fb2 2cbd aa42 8cbd 814f 0ebe
000001a0: 3d28 87bc 4a4a aebc f6c6 133d 7eb7 993c
000001b0: 7233 46bd 81b2 353c cb53 26bc fb1c f9bc
000001c0: 3f9b 06be b37a 26bd 114a 373e 847a 9a3c
000001d0: 83da b13c 3190 8f3d 8f62 a6bd 03c9 d03d
000001e0: 93b6 a83c 9c33 2cbe 21d2 c43c 54ae c23d
000001f0: 336c fabc 3be2 573c 698b ea3c de08 11bb
00000200: db91 9f3c c32c bf3d 069c 1ebe 985d 43bd
00000210: 047a cc3d 3c75 74ba 87e8 9cbd 9f52 c7bd
00000220: f995 573c a25b 203c 7cb2 05be 31ce 59be
00000230: e2d7 93bd a159 43bd dd85 833d b622 7bbc
00000240: 85e1 d83d 9342 e9ba 28da 11ba 597d dd3b
00000250: 2dd6 dcbd 8c97 babc 5b8a 143d b6cc 323e
00000260: 11f9 b63d 266a 933d 3365 413d 0aec df3c
00000270: 48a3 e73c 9dd9 14be 0c8a 99bc afef 39bd
00000280: 0460 ba3d 50c0 a53d 97aa 883d 5f96 aa3d
00000290: 7b1b 463d 9cd0 a1bb a6a5 da3c 0a4e c13d
000002a0: 5678 6a3d ef03 2f3d 91d5 8e3d 169a 3b3b
000002b0: 4f9e edbd 5d5f a1bd a7bb 28bc 8488 a9bd
000002c0: d638 a0bd bdba f4bd 941c aebd aea1 f9bd
000002d0: 7128 27bd 93f1 923d c54f 593d b45f 903d
000002e0: 9777 af3d 9d79 d13c 3ddf 603d d59e 523d
000002f0: 6c6d 6b3c 7397 003d 7870 733d 9d0b 9abb
00000300: ae25 a13d c7cf 92bd 7122 4ebc c89e 403d
00000310: 2801 29be e533 ad3c 0773 833d be43 3b3c
00000320: 2877 4ebd 9164 903d 5641 57bd 6c99 daba
00000330: 0a52 4d3d 304e 803c 308a 48bd 1693 033e
00000340: 7188 1b3d d0af a93c 9481 65bb 09dc 5bbd
00000350: 98f9 6dbd 3acd 223d 47a0 d5bb e130 28be
00000360: 5d88 483d ae43 083e a3e1 b9bd 9fe1 aabc
00000370: 2108 973d b33f 3abc 8eea fa3d d0d2 f4bc
00000380: 9af4 0ebe a824 bcbd 13a0 093e 78f5 5dbc
00000390: eb7b 203c 04bf 26bc 0559 2a3d 52dd afbc
000003a0: 6a64 bfbd 9816 42bd adc6 ab3b 3285 b43c
000003b0: 485c 13bc 5e94 583d 2604 c83d 5b70 c6bd
000003c0: ba7e 133d 8c36 3f3c 5d10 dfbd 9e9a b43c
000003d0: 6ef9 af3d eebc 96bb eaaf 0abd e915 11bd
000003e0: 125b ce3d 7102 60bc 0224 8cbd 3f4b 773d
000003f0: 4621 c5bc cb6c 893d b020 8bbd 8fe9 27be
0.032299582 0.054020796 0.014419478 -0.11366072 0.07639323 0.0967703 -0.04868416 -0.10213177
0.051170256 0.010314348 -0.12668744 0.108366355 -0.032058578 0.022084888 0.020061156 -0.01877788
-0.20085976 0.042970855 -0.012976414 -0.0052911844 0.023384945 -0.015400071 0.024716567 0.030248187
0.030123534 -0.0820588 0.1255064 0.07468679 0.06808948 -0.017061943 -0.014653698 -0.13288505
0.02013224 0.00017331119 0.03096863 -0.111188345 0.04315409 0.09375479 0.028879063 0.1096162
-0.10667907 -0.17344381 0.050890483 0.083807066 0.051816106 0.029071597 0.03525058 -0.021511119
0.04633321 -0.06180907 -0.13632153 -0.06577293 -0.0534874 0.102089554 -0.034264706 -0.085192256
-0.070580386 -0.107732706 -0.006508506 -0.10855297 0.0022087223 -0.079141825 0.015548434 -0.03262821
-0.008248634 -0.064975984 0.03842494 0.0020496263 0.03370579 -0.00762658 0.051051155 -0.06533603
0.045468926 0.06618348 0.014784987 0.04441099 0.06943323 0.020651422 -0.007346227 0.0412986
-0.021990653 0.060481258 0.1273255 0.10665205 0.068197034 0.13108239 0.11685189 0.012271188
-0.006162333 -0.0012679128 0.024560586 0.013022608 -0.05668342 0.028375022 0.015273904 -0.10238762
0.050657246 -0.018989373 -0.0016136726 -0.03486389 -0.116564155 -0.042162534 -0.06848653 -0.13897516
-0.01649868 -0.021275658 0.036078416 0.018764254 -0.048388906 0.011089922 -0.010151814 -0.030409327
-0.13145159 -0.04064436 0.17899348 0.018857248 0.02171064 0.07009924 -0.08124267 0.1019459
0.02059487 -0.16816562 0.024025979 0.09505907 -0.030569172 0.013176496 0.028630929 -0.002213053
0.019478729 0.093347095 -0.15489206 -0.04769668 0.0998421 -0.00093253306 -0.076615386 -0.097325556
0.013158315 0.009787472 -0.13056368 -0.21270062 -0.07218911 -0.0476929 0.06422017 -0.0153281
0.105898894 -0.001779633 -0.0005563819 0.0067593274 -0.10783038 -0.022777341 0.03626476 0.17460904
0.089342244 0.071979806 0.04721565 0.027334232 0.0282761 -0.14536138 -0.018742584 -0.045394596
0.09100345 0.08093321 0.066731624 0.08329462 0.04836605 -0.0049381983 0.026690315 0.09438713
0.057243668 0.04272836 0.06974328 0.0028625778 -0.116024606 -0.07879517 -0.010298646 -0.082779914
-0.078233406 -0.1194968 -0.085015446 -0.12189041 -0.040810052 0.07174983 0.05305459 0.07049504
0.08567732 0.025570685 0.054900397 0.051421005 0.01436935 0.031394433 0.05943343 -0.0047010914
0.07868515 -0.07168537 -0.012581454 0.047026426 -0.16504347 0.02114291 0.06418424 0.011429725
-0.050406605 0.070504315 -0.052552544 -0.0016677803 0.050127067 0.015662283 -0.04895991 0.12849078
0.037971918 0.020713717 -0.0035019862 -0.05367664 -0.05809936 0.0397465 -0.0065193507 -0.16424896
0.04895817 0.13307068 -0.0907624 -0.020859538 0.07374597 -0.011367726 0.12251769 -0.02988568
-0.13960496 -0.09186679 0.1343997 -0.013547294 0.009795169 -0.010177378 0.041588802 -0.021467838
-0.09345324 -0.04738483 0.00524219 0.022036169 -0.0089941695 0.05287587 0.09766416 -0.09689399
0.036009528 0.01167072 -0.10891793 0.022046383 0.08592497 -0.004600159 -0.03385917 -0.035421286
0.10075964 -0.013672457 -0.068428054 0.060374495 -0.024063718 0.06710204 -0.06793344 -0.1639769

conv_net.0.0.bias f4 [32]
00000000: 5fc7 81bd 0209 613d ef3a 07bc afba d83d
00000010: fa4b 313c 20ac 17bd d6ab f9bd b9c0 aabb
00000020: a8b1 9d3d d0ab a93d d3fb 1fbd fad8 30bc
00000030: ea15 cfbc cafa 963d 319c a4bd 19fb c6bb
00000040: 6053 6d3c 1d3b 223c ce69 bf3d 2107 35bd
00000050: a85a 9539 5b6c abbc dd03 463d a195 10be
00000060: b632 e23c b0e8 c23d 529b 0bbd 114d a7bb
00000070: beb7 8c3c eaae 39bd 628c 90bc f217 5cbb
-0.06336855 0.05494023 -0.008253797 0.10582482 0.010821337 -0.037029386 -0.12190978 -0.0052109626
0.07699901 0.08284724 -0.039058518 -0.010793919 -0.025279004 0.07372053 -0.08037604 -0.0060724136
0.01448521 0.009901789 0.093463525 -0.04419625 0.0002848704 -0.020925691 0.048343528 -0.14119579
0.027612071 0.09517038 -0.034083672 -0.0051056226 0.017177459 -0.045332827 -0.017645065 -0.0033583608

conv_net.0.1.weight f4 [32]
00000000: dd98 803f 73f5 7d3f d033 7d3f 99f0 6a3f
00000010: fae5 813f cea4 813f a491 7e3f 1959 7f3f
00000020: fd2b 823f cd02 803f d90f 833f 3866 833f
00000030: 58ea 803f f2a4 793f ed59 803f bdf4 7f3f
00000040: 128a 873f ab36 843f a617 823f 6311 853f
00000050: 23d7 7e3f fb17 793f aee4 813f a9b9 753f
00000060: 3f5f 793f e02f 7c3f 3477 753f 14c2 733f
00000070: f581 823f 1abd 803f d8e1 7f3f ec70 813f
1.004665 0.9920265 0.98907185 0.9177337 1.0148308 1.0128419 0.9944098 0.9974533
1.0169674 1.0000855 1.0239211 1.026557 1.0071516 0.9751731 1.0027443 0.99982816
1.0589011 1.0329183 1.0163467 1.0395931 0.9954702 0.97302216 1.0147913 0.9598642
0.9741096 0.9851055 0.95885015 0.95218015 1.019591 1.0057709 0.99953985 1.0112586

conv_net.0.1.bias f4 [32]
00000000: ad9f 603c 5423 05bc 55d7 62bd 5bdd 5fbd
00000010: 769d 9d3c df63 f3bb 0165 0ebd a3ca b83b
00000020: 2891 743b 6220 953b 6b4d c53c 94fc d2bb
00000030: 2c82 33bd 2305 30bd 1207 87ba 98e2 3cbd
00000040: a775 34ba 559f 893b 7baf 15bc 8c6f 263c
00000050: 1692 1fbc a891 27bd 1cda 8e3c be21 84bd
00000060: c5cd 35bd 59a0 32bd dd1e 3abd e006 56bd
00000070: 0389 5cbb 0bf3 2abd cbda 16bc 823c 10bc
0.013709945 -0.008126099 -0.055381138 -0.05465446 0.019240122 -0.007427677 -0.034764294 0.0056393906
0.0037317965 0.0045509795 0.024084767 -0.006438801 -0.043825313 -0.04297365 -0.001030179 -0.046114534
-0.00068839866 0.004199902 -0.009136076 0.010158431 -0.009739419 -0.040910393 0.017437987 -0.06451748
-0.04438569 -0.04360995 -0.04543959 -0.05225265 -0.0033651001 -0.04173569 -0.009207438 -0.008803489

conv_net.1.0.weight f4 [32, 32, 3, 3]
00000000: 9d92 aeba c094 b5bc ee3f a4bc 2d16 55bb
00000010: b6c9 523b f0c0 153d 5d19 1dbc 1c66 993c
00000020: dbd1 e9bb 8bd5 c33c ce0f 28ba 67f7 343c
00000030: bf99 94bc f633 363c 445a 23bd 2d26 30bc
00000040: b21e babb c600 09bc a979 dabc 1171 023d
00000050: f0b5 16bc 1a36 26bd 6085 a83c f40c 21bc
00000060: 29f8 18bd 0a9f f93c ac89 aabc 59a5 373d
00000070: 7b8e 4abc 2d96 a1bb 764a 113c dab0 49bb
00000080: d63c 1cbd e401 d9ba c5ab 22bc 03a4 73bc
00000090: 3f9e 113d dd49 b7bc 5a09 8abc 6cfd a03b
000000a0: 3617 0e3c d04a b53a 47d2 333c 5542 8cbb
000000b0: ff23 8cbc d5d2 37bd 4355 90bc 1ef7 6ebd
000000c0: 7a34 32bc b36c e2bb 28c7 fbbc 8525 b5bc
000000d0: 06a0 78bc 499f 2ebd b037 473c c290 1e3b
000000e0: c3cb fdbc 41b5 cf3b bfe4 6eb9 8752 1abd
000000f0: 806b 093c 20b4 58bd 2871 3fbb 0a91 a33c
00000100: a1c0 c03b 9260 49bc a8ee a8bb 9fa0 6d3c
00000110: 52d2 f4bc c8e0 9f3c 8c79 abbc 5221 8dbc
00000120: dfcb d2bc 439e a83c dbef aebc 3d15 1a3c
00000130: 4dfe 1f3d 3aca 043d 96ca 2bbd 9bf5 823c
00000140: 37b8 223c 138d 2fbd 9044 e7bc 53e3 e238
00000150: b5d1 9f39 0ab7 243c c0e4 a4bc efc7 5ebc
00000160: 53a7 cf3c 6863 61bc 9d22 863b e7bf adbc
00000170: 5c86 533b 130f 11bc 9629 79bb b2ed b6bb
00000180: 9682 44bc e783 16bb 7355 ae3c 5aec b6bc
00000190: 79ca 713d ae01 c3bc 769b 02bb 267a e23c
000001a0: 6b3e 96bc e8a8 70bc aad2 813d 1f4c 583b
000001b0: a50d a9bc 2902 3cbc d0bc 503b 407b 42bd
000001c0: 5c22 713c bbfe 4d3d ba11 37bd 6d86 b3bc
000001d0: 1778 643c 8342 b5bc 3cc8 b4bb 1404 8fbc
000001e0: 6833 65bc 01a2 a43c 049c 0ebd bc0a ffbc
000001f0: 952a 2dbb 6ae4 c7bc 0224 8bbc 84f1 213d
00000200: 2fb4 433c b066 273b 434b 223c 52e6 bc3c
00000210: 18bf d2bc 2e42 943c c9e0 e6bb 7cd4 81bd
00000220: 76dc fc39 63c1 1fbc 9644 54bc c349 383d
00000230: 7640 703d 6ed2 4abd 1d70 773b c114 38bc
00000240: 8e23 183c e831 0cbc ed66 473a 774a 33bc
00000250: b330 bdbc a6f5 bfbc 74e1 173b 5c07 75bc
00000260: f48c e7bc 448a 8f3c 461d 20bc 6c3a b1b8
00000270: c83f 7c3b 2d9d a33a be7d fc3c 70f1 26bd
00000280: 64c6 65bc f93d d8bb f872 623c 4531 f13c
00000290: a5c4 cfbb e9ff b13c 57f8 0d3d 00c1 823b
000002a0: 3eff 0bbd b2cc 313d ea9c 903c 4af0 e83b
000002b0: 6d2c a0bb e4f0 aeba 1cc6 d3bc 2d5b 6bbc
000002c0: 083b 45bc 94f3 f4bc ba8e 37bc b1d0 34ba
000002d0: f8a0 023d 6dcb e43b 9c9c c83b cc58 893c
000002e0: 3a07 bc3a 8a56 a33c 51ad d7bc dbfc 5abb
000002f0: 9bd2 0c3c 77e6 d9bb e65f 7cbc fac3 ce3c
00000300: 660f edbc 986c a43c 8142 943c 73f0 2abd
00000310: d2b1 9ebc e0d0 113c 7e55 29bc 290c de3b
00000320: 83e9 a1bc f1ba 4abc 203b 8a3b cfff 933a
00000330: c58b bcbc 84d4 d1bc b5b5 733b b60e c23c
00000340: c090 483d 5834 603c 0a88 433c 400a 0b3a
00000350: 06e5 c73b ba47 87bc aa99 bebb dc5d 07bc
00000360: 3255 56bd d8ff 033d ac17 c8bb abee 12bb
00000370: 103b 703d 8884 073d 78dc 89bd d3b6 1f3c
00000380: d8b7 b43b 228e bbbc a4ce f5bc 9628 81bc
00000390: c9b7 173d 727b 223d fb05 d0bb 3ee6 6a3c
000003a0: 507f 7cbb 0cd9 eebc feb2 7a3d 3e66 4cbb
000003b0: 8188 81bb 61d3 263c 1656 643b aac9 803c
000003c0: da40 4d3c 1701 e2bc f7d0 e9bc ce36 0bbd
000003d0: 243f 6ebc 01ea 03bd 3bf9 73bd d9ab 36bb
000003e0: bf44 74bc 57fe 033c 9c33 61bc a2bd bdbc
000003f0: 4e67 413a e561 913c 70db ccbc ada2 c93c
-0.0013318841 -0.022165656 -0.020050015 -0.0032514438 0.0032163686 0.036560953 -0.009588567 0.018725447
-0.0071356124 0.023905536 -0.00064110465 0.011045313 -0.018139718 0.011120787 -0.039881006 -0.010751289
-0.0056799287 -0.008362001 -0.02666934 0.03184611 -0.009198651 -0.04057894 0.02057141 -0.009829748
-0.03734604 0.030471344 -0.0208176 0.044835422 -0.012363072 -0.0049312324 0.0088678505 -0.0030775578
-0.038143955 -0.001655635 -0.009928648 -0.014870646 0.035551306 -0.022374088 -0.016850162 0.0049130227
0.008672526 0.00138315 0.010975427 -0.0042803683 -0.017107008 -0.0448788 -0.017618781 -0.058341138
-0.010876769 -0.0069099306 -0.030734614 -0.022112617 -0.015174871 -0.042632375 0.012159273 0.002419517
-0.03098095 0.006338746 -0.00022782663 -0.03767636 0.008387446 -0.052906156 -0.0029211733 0.019966621
0.005882338 -0.012291091 -0.005155403 0.014503627 -0.029885445 0.019516364 -0.020931982 -0.017227802
-0.025731979 0.020583278 -0.021354606 0.009404478 0.03906088 0.03241942 -0.041941248 0.015986254
0.009931616 -0.04285915 -0.028230935 0.00010818862 0.00030483087 0.010053406 -0.020128608 -0.013597473
0.025348341 -0.01375661 0.0040934817 -0.02120967 0.003227613 -0.008853692 -0.0038019172 -0.0055825347
-0.011994025 -0.0022966804 0.02128098 -0.022329498 0.059030984 -0.023804512 -0.0019929088 0.027646136
-0.01834031 -0.014688708 0.06339009 0.0033004356 -0.020636389 -0.011475124 0.0031850822 -0.04748082
0.014717665 0.050291758 -0.04469464 -0.021914685 0.013944647 -0.022126442 -0.005517034 -0.017458
-0.013989307 0.02009678 -0.034816757 -0.031133048 -0.0026423086 -0.024400908 -0.016984943 0.039536968
0.011944815 0.0025543384 0.009905639 0.023059044 -0.025725886 0.018097963 -0.0070458394 -0.06339356
0.00048229442 -0.009750697 -0.012955805 0.04499222 0.058655225 -0.049517088 0.0037756034 -0.011235417
0.009285821 -0.00855682 0.00076065847 -0.010943047 -0.02309451 -0.023432564 0.0023175152 -0.014955368
-0.028265454 0.017521985 -0.009772604 -8.4508996e-05 0.0038490165 0.0012482755 0.030821677 -0.040757596
-0.014024351 -0.0065991846 0.013821356 0.029442439 -0.0063405805 0.021728473 0.034660663 0.0039902925
-0.034178965 0.043408103 0.017652947 0.007108723 -0.0048881085 -0.0013346937 -0.025851302 -0.014365
-0.012038 -0.029901303 -0.011203462 -0.00068975525 0.031891793 0.006982258 0.006122185 0.016765974
0.0014345415 0.019938726 -0.02632776 -0.0033414874 0.008595134 -0.006649788 -0.015403723 0.025239933
-0.028938007 0.020071313 0.018098118 -0.041733216 -0.0193719 0.008899897 -0.010335324 0.006776352
-0.019764667 -0.012373672 0.004218474 0.0011291447 -0.023015866 -0.02561403 0.0037187163 0.023688655
0.04896617 0.013684355 0.01193429 0.00053039566 0.0061003 -0.016513694 -0.005816658 -0.008262124
-0.052327342 0.032226413 -0.0061063375 -0.002242009 0.058650076 0.033085376 -0.06731504 0.0097481785
0.00551508 -0.022894923 -0.03000576 -0.015766423 0.037040506 0.039668508 -0.006348369 0.014337121
-0.0038528033 -0.02915623 0.061205857 -0.003118887 -0.00395304 0.010182233 0.003484135 0.01572116
0.012527669 -0.02758841 -0.028542025 -0.033987813 -0.014541421 -0.032205585 -0.059563857 -0.0027873425
-0.0149089685 0.008056245 -0.013745215 -0.023161713 0.00073777593 0.017746875 -0.02500698 0.024613703

conv_net.1.0.bias f4 [32]
00000000: 5789 543c 18e1 29bc f0a1 67bc 3219 94ba
00000010: 06ad 4abc 5b03 073d 6e2a 933c f928 aebc
00000020: 344e c7bb 274a 7c3b b4ee 22bc 40ef 623c
00000030: 36aa 90bb eefb fe3b fd4b 593b f4dd 903b
00000040: 1ed9 f53c bd76 85bc 105c a8b8 02f1 3e3c
00000050: dcb8 093c b5ce d4bb 8833 e63b e3ea 25bc
00000060: a0d5 53bc b1ff 2dbb 66a7 01bd a17e a2bc
00000070: f687 86bb 8fdd 61bb a69e 46bb cac9 743a
0.0129721975 -0.010368608 -0.01413773 -0.0011299013 -0.012370354 0.032962184 0.017964568 -0.021259772
-0.0060823206 0.0038496347 -0.009944607 0.013850987 -0.004414822 0.007781497 0.0033156865 0.00442099
0.030010756 -0.01629197 -8.028012e-05 0.01165414 0.00840589 -0.006494368 0.007025186 -0.010126802
-0.01292935 -0.002655011 -0.031653784 -0.019835772 -0.0041055633 -0.0034464335 -0.0030306964 0.000933793

conv_net.1.1.weight f4 [32]
00000000: 053d 7d3f 2c24 833f ec5a 7e3f a2e1 803f
00000010: 0cbc 7a3f 2f13 833f 4894 7b3f 5441 843f
00000020: b0e0 833f a130 833f 4ad8 833f 1c45 7d3f
00000030: d5d6 773f 5612 7e3f dcda 803f 77f8 833f
00000040: 6a5b 803f 0c17 713f 239d 823f e56f 843f
00000050: 6085 7f3f 46d5 7f3f 2c52 803f b1fa 693f
00000060: 68cc 7e3f 7055 833f 3169 5a3f 0945 813f
00000070: 982a 823f d85e 833f f6c5 783f 70ce 823f
0.98921233 1.0245414 0.99357486 1.0068858 0.97943187 1.0240229 0.98273134 1.0332437
1.0302944 1.0249215 1.0300381 0.9893358 0.9681218 0.9924673 1.006679 1.03102
1.0027897 0.9417579 1.0204204 1.0346648 0.9981289 0.99934804 1.0025077 0.9139815
0.9953065 1.0260448 0.8531676 1.0099193 1.0169249 1.0263319 0.97177064 1.021925

conv_net.1.1.bias f4 [32]
00000000: 73cc a1bd daa8 5dbc 2a5a 07bd 0e64 bbbc
00000010: 94d6 1ebd 8dbd 02bc 724c ffbc 2c86 95bc
00000020: 42af 42bc 0a7f e8bb b47c ffbc b888 23bd
00000030: 5e3b 20bd 9d24 0cbd ea7d b1bc eb9f 97bc
00000040: cb68 fbbc 4a04 b2bd 71b0 8fbc c239 9ebb
00000050: 471d e9bc e6fa f7bc 6ef6 93bc 037a 11be
00000060: be9c adbc 48ea 34bc d6e1 14be e989 a2bc
00000070: f373 63bc eb29 33bc 614c 3fbd 16ac 97bc
-0.07900324 -0.013529027 -0.03304497 -0.022874858 -0.038778856 -0.007979763 -0.031164382 -0.018252455
-0.011882605 -0.0070952224 -0.031187393 -0.039925307 -0.039119117 -0.034214605 -0.021666486 -0.018508872
-0.030689618 -0.08692224 -0.017540189 -0.0048286626 -0.028456343 -0.030271005 -0.018061843 -0.142067
-0.021192905 -0.011042185 -0.14539275 -0.019841151 -0.013882625 -0.010935287 -0.0467037 -0.018514674

conv_net.2.0.weight f4 [32, 32, 3, 3]
00000000: b255 bc3a 8264 103d 79db c7bb 092a 233d
00000010: efcb 643d a0b0 f53c 4cd8 bb3c 2d47 7a3c
00000020: dbad 6a3c 9968 28bc 885f 8d3b a0bd d03a
00000030: 289d 86bb a2a9 203c 1ec6 723c dff3 853c
00000040: 7025 23bc 8417 36bc 7632 a93b 7483 9d3c
00000050: 9d0f c2bb 0834 c0bb 08c1 26bc 4878 5d3a
00000060: 44d1 bfbc 564f 21bc 57d5 11bc c27f 743c
00000070: 88b2 5dba 776c 1ebc f5bb 133b b096 2b3c
00000080: 7d75 68bc a01c bd3b 4681 5abc 6999 c4bc
00000090: 1eca af3b ecfd cb3c beef 1bbb ec39 87bc
000000a0: 8e2d 143b d244 7cbc 78d5 e2bc ae67 0abc
000000b0: 7e7e b8bc 58e9 f2bb 7465 d23a 5f6e afbc
000000c0: 6083 7b3a e899 9f3c 5893 84bb 6d67 0ebc
000000d0: 96b1 933c 5171 39bc f8dc 89bc fe5a 07bc
000000e0: 7d49 1fba e694 5fbb 09e1 603c 4817 05ba
000000f0: 23b5 143b 2659 303c 47c3 5bbc 9769 523c
00000100: 6809 903b 2adf 023c 7ed4 833b 5006 293c
00000110: 72fb 78bb 3a03 30bc 4f97 8fbc a871 4eba
00000120: 5f4f 8c3b 12e5 01bb 87d0 87bc 4a51 9e3b
00000130: ed25 063c 5284 3cb9 5546 ddbb 0981 7e39
00000140: 60eb 813a f2be e3b9 4c0c 57bc a7f6 85bb
00000150: fba7 a03b 2c58 ad3c 50ff e33b e22e b13a
00000160: ac8f 17bc 3be6 84bc 067c 843c ac67 8abb
00000170: e5f6 6a3b 9871 8e3c 08c3 43bb 80e9 aebb
00000180: 865e 13bb 06d4 fcbb 60e1 e1b9 e69e 4f3c
00000190: 2d69 c23c dea6 d0bb 240a 1e3c c906 233d
000001a0: eb13 26bc 78d7 0a3c 124d 393d 851d e4bb
000001b0: fb82 0cbd 7a95 9cbb d88e 29bc 871b 8f3b
000001c0: 1f7b cbba 7bcb 73bc cc79 cbbb 5192 43bc
000001d0: cfba 20bc bd54 b2bb 1cff febb 6161 86bc
000001e0: d00a c03b 9991 dd3c ebf2 ae3b 52f1 6d3b
000001f0: 498a b13c 617e 513b db15 8c39 f5a4 af3c
00000200: 6290 17bc 88a7 6d3c 21ca c23c 724d 3fbc
00000210: 87f5 20bd ce75 4aba f358 68bc fb2b 3a3c
00000220: 2eec 9c3b ac40 7b3c 27d1 01bb 6bd7 073d
00000230: 041a c93a 8c7b b73b e8a9 b3ba 22ba a2bc
00000240: 8feb 203d 92a5 393c 79cc 0c3c 220d 4aba
00000250: 0e28 dcba c195 01bc dae2 e73a e955 1bbc
00000260: 10a6 04bd 80c3 e23c a8f1 c13b 0774 90bb
00000270: 72cb a43c c969 11bc 6f89 e93a b6bc 6abc
00000280: 86ac d3bc 72a0 4abc 26e6 25bc dc64 573c
00000290: db56 47bc 5f10 99bb f056 9c3c 80eb 493b
000002a0: 8977 f8bb 518d 713b cd66 38bc b922 213b
000002b0: d2b6 533c b6ed d83b cecd 673b 9af9 b93c
000002c0: 557c 15bc f418 32bc 4438 00bc 2a07 bbbc
000002d0: 51cb 143c c3d8 00bc 8bf4 cfbc ca6b c03c
000002e0: d684 963b 644d 263b ef26 4d3b 93f1 793b
000002f0: 26a1 dfbc 9a0d 65bc 382a b0bc d2b2 5dbb
00000300: d54c edbb a884 14bc 2780 473b 4a45 86bc
00000310: d5e0 11bc 92af 393b 35e4 11bc 29d9 ed3b
00000320: b48b 7cbc 291e 923c 6cc9 1e3d d82c 453c
00000330: a92c 6d3b 74c3 33ba ee16 e4bc b974 23bc
00000340: c19b 5f3c fa45 c7bc b0d9 903c 8d9f 053c
00000350: de48 fdbb dd56 03bc c79f 46bc 2b0d e7bc
00000360: a036 e23a 3492 eb3c ef89 bb3c 925e d6bc
00000370: 5daa 0e3c 1807 313c 2a43 07bc 1305 b83c
00000380: a1a0 aebc 9af5 d2b9 e20d 0f3d 54b8 9bbb
00000390: 2727 613c b34c 443c f135 4abb 44e4 46bc
000003a0: 2f62 b9bb 50d0 abbc 332f a3bb 74c3 2a39
000003b0: 2d70 75bc d546 ff3a a750 8bbc c4fd 5b3c
000003c0: 3628 d1b8 0a51 5bbc 8147 44bc 4766 963b
000003d0: aed5 a33b b018 6fbb 4591 173b 45a6 053c
000003e0: c37a 143c b422 59bc 85e9 7abc 67c2 03bc
000003f0: 51cc 3f3c 4866 d7bb 015f 12bd db95 9ebb
0.0014368801 0.0352521 -0.006099161 0.03983501 0.05585855 0.029991448 0.022930287 0.015275759
0.014323677 -0.010278844 0.0043143667 0.0015925653 -0.00410809 0.009806069 0.014817743 0.016351638
-0.009957656 -0.011114005 0.005163486 0.01922772 -0.0059222714 -0.0058655776 -0.010177858 0.0008448404
-0.023415215 -0.009845575 -0.008900962 0.014923038 -0.0008457084 -0.009669415 0.002254245 0.010472938
-0.014188168 0.0057712346 -0.013336485 -0.023998933 0.0053646704 0.024901353 -0.002379402 -0.016507111
0.002261016 -0.015397267 -0.02768968 -0.008447571 -0.022521254 -0.0074130706 0.0016051964 -0.021414934
0.00095944665 0.019482568 -0.004045885 -0.008691651 0.018029016 -0.011318521 -0.016828999 -0.00826144
-0.0006076319 -0.003411585 0.013725528 -0.00050770165 0.0022690974 0.010763442 -0.013413257 0.012842557
0.0043956526 0.007987777 0.004023134 0.010316446 -0.003799167 -0.010742957 -0.017528204 -0.00078752125
0.0042819227 -0.0019820374 -0.016578926 0.0048314678 0.008187753 -0.0001797837 -0.006752769 0.00024271397
0.0009912066 -0.0004343908 -0.01312549 -0.004088241 0.0049028373 0.021160208 0.006957926 0.0013518
-0.009250563 -0.016223064 0.01617242 -0.0042237844 0.0035852727 0.01738815 -0.0029870886 -0.005337894
-0.002248676 -0.007715705 -0.00043083262 0.012672162 0.023731792 -0.0063675484 0.009645972 0.039801393
-0.010136585 0.008474223 0.045239516 -0.006961527 -0.0343046 -0.004778561 -0.010348998 0.004367295
-0.0015524364 -0.0148800565 -0.0062095877 -0.01193674 -0.009810164 -0.0054422305 -0.0077818763 -0.016403856
0.005860664 0.027046965 0.0053390167 0.0036307168 0.021672385 0.0031966197 0.00026719164 0.021440962
-0.009250732 0.014505275 0.023778023 -0.011676179 -0.039296653 -0.0007723243 -0.014181363 0.011363025
0.004788897 0.015335243 -0.0019808502 0.033164423 0.0015342836 0.0055994447 -0.0013707252 -0.019864146
0.039287146 0.011330979 0.008593672 -0.00077076454 -0.0016796605 -0.007909239 0.0017691508 -0.009480932
-0.032384932 0.027681112 0.0059187002 -0.004408363 0.020116542 -0.008875319 0.0017817448 -0.014327219
-0.025839102 -0.012367355 -0.010125672 0.013146605 -0.012166704 -0.004671141 0.019084424 0.0030810535
-0.007582609 0.0036857913 -0.011254978 0.0024587347 0.012922006 0.006620134 0.0035370472 0.022702027
-0.009123881 -0.010870207 -0.007825915 -0.022830565 0.0090816775 -0.00786418 -0.025385162 0.023488898
0.004593472 0.0025375718 0.0031303724 0.0038138374 -0.027298521 -0.013980294 -0.021504506 -0.003382851
-0.007241825 -0.009064831 0.0030441375 -0.016390461 -0.008903702 0.0028333408 -0.008904506 0.0072585535
-0.015414167 0.017836647 0.03876631 0.012034617 0.003618995 -0.0006857433 -0.027842965 -0.009976559
0.0136479745 -0.02432536 0.017681926 0.008155716 -0.0077296337 -0.008016315 -0.012123055 -0.028204521
0.0017258711 0.028756239 0.02289292 -0.026168142 0.00870761 0.010804914 -0.008255759 0.022463357
-0.021316828 -0.0004023731 0.03492535 -0.0047521982 0.013742245 0.011981177 -0.0030854905 -0.012139384
-0.0056574563 -0.020973355 -0.004979992 0.00016285275 -0.014980358 0.0019476066 -0.017006231 0.013427202
-9.9733865e-05 -0.01338602 -0.0119799385 0.004589829 0.004999838 -0.003648322 0.002312736 0.0081573175
0.009062472 -0.013252903 -0.015314464 -0.008041955 0.011706428 -0.006573472 -0.035735134 -0.0048396415

conv_net.2.0.bias f4 [32]
00000000: 47a7 00bc 885e 18ba 3dd8 93bc af96 273c
00000010: 7463 62bc dc82 e53b 3c56 093b 7c58 ed3b
00000020: 9adb 1abc 764f 6cbc 0ae4 f93c 8298 f73b
00000030: ce2b cbbc d8be 9c3b 09af 53bc 3387 d63c
00000040: a05f f43a 18f1 d93c f3de a7bc 3d65 073b
00000050: 0a10 d83a edd6 0b3d 2969 7bbb 3668 e93c
00000060: 8b42 103d d689 d9bc aa47 16bc cc8e 8abc
00000070: 0108 10bd 28d8 b5bc 439d ac3c 13ce dc3c
-0.007852382 -0.0005812426 -0.018047446 0.010228797 -0.013817657 0.007004125 0.002095594 0.007243214
-0.009451771 -0.014423242 0.030504245 0.007556022 -0.024801161 0.0047834925 -0.01292015 0.026187515
0.0018644221 0.02660422 -0.020492053 0.0020659708 0.0016484272 0.034140516 -0.003836224 0.028492074
0.03521971 -0.026554983 -0.0091723595 -0.016913794 -0.035163883 -0.022197798 0.021071082 0.026953733

conv_net.2.1.weight f4 [32]
00000000: e543 7c3f e3fa 813f d68c 7a3f c84b 7a3f
00000010: 8aa9 813f 4061 7a3f 9548 7e3f b61f 7f3f
00000020: 7c05 7b3f b81d 823f 2c4f 813f cb76 7c3f
00000030: 86c0 813f a5ba 7b3f 399b 793f e1c9 803f
00000040: a393 7e3f 50ac 823f 7522 803f 8608 7f3f
00000050: 704b 813f 3f00 7b3f ece2 813f d952 7c3f
00000060: d74b 7f3f 77a9 7e3f fe9e 803f 6679 823f
00000070: 868b 7e3f ac97 7f3f 60c8 823f 0436 823f
0.985411 1.015469 0.9787115 0.97771883 1.0129864 0.9780464 0.993295 0.9965776
0.98055243 1.016532 1.0102286 0.98618764 1.0136878 0.9833167 0.97502476 1.0061609
0.99444026 1.0208836 1.0010515 0.9962238 1.0101147 0.9804725 1.0147376 0.98563915
0.997251 0.9947733 1.004852 1.0193298 0.99431646 0.9984081 1.02174 1.0172734

conv_net.2.1.bias f4 [32]
00000000: d816 c1bd efc2 81bc ad20 aebd 1c8b a5bd
00000010: 821b c6bc ec12 adbd 1bad d8bc 9d19 e9bc
00000020: 8e4a c1bd 5843 94bc d69d 6fbc 3cf2 a6bd
00000030: b555 eebc 0586 99bd 3cc8 94bd 6758 acbc
00000040: 26f3 15bd 5e13 adbc d625 cebc 1ecc 14bd
00000050: 073d acbc 66fb abbd b496 b0bc 9e12 a8bd
00000060: 5cac edbc f15a ecbc 793a 87bc 808e 23bc
00000070: 3ddf 07bd 6f85 0fbd 2155 87bc 4a8f adbc
-0.09428185 -0.015840022 -0.08502326 -0.08083174 -0.024183039 -0.08450875 -0.02644973 -0.028454596
-0.09438048 -0.018098518 -0.014625033 -0.08151671 -0.029093603 -0.07496265 -0.07264754 -0.021038247
-0.036608838 -0.021127399 -0.025164526 -0.036327474 -0.021025194 -0.0839756 -0.021556236 -0.08206676
-0.029012851 -0.028851958 -0.016507374 -0.009982705 -0.03317188 -0.03503936 -0.016520085 -0.02118649

conv_net.3.0.weight f4 [32, 32, 3, 3]
00000000: fbab 153b 2507 59bb ff4a aa3a e668 803c
00000010: d3b4 a8b9 37dc 61bc ba52 393c f9fa 6b3b
00000020: e883 413d 5c25 8e3b a519 3abd 5e28 2c3d
00000030: 4ef3 2c3d 2a08 f3bc 8319 d53c 3a99 543b
00000040: 4792 3a3c c450 4bbc 4bf3 8c3c 7407 1eba
00000050: 85dd 873c 4f0d 1cbc 862c 113c f946 b0bb
00000060: 3986 013c 0797 b1bb fd7e ca3c c588 83bc
00000070: 6dc0 b2bc d2fc 563b 78af 663c c3f8 a13c
00000080: 20b4 c0bc 958b 0e3d 7445 cf3c b88a 323d
00000090: 2eaa c9bc 9494 fe3b 0a01 6bbc 56d7 abbc
000000a0: 89ad edbb 6c2b bebb 084d bb3c 0c04 683c
000000b0: 3d12 8dbb dfc8 d7bc 3634 26bd 3665 1abc
000000c0: 34fd e2bc f5d3 b73b 6e80 7b3a d07e 64ba
000000d0: 5820 31bc 0cb3 49bc deba 1b3c e96c 85bc
000000e0: 99ab e5bb 9228 f43b ef72 a5bc 1853 cf3c
000000f0: 9fa6 373b fedf 553c 4b8e 62bc 7b19 1f3d
00000100: 1433 d4bc c4f5 893b 8b8d b2bc d26e 5a3c
00000110: 6bac e03c 255d 9c3c ba5e b23c 7faf 6c3c
00000120: cc36 babc 72ad 4038 8f52 bbbc 4fe4 dbbc
00000130: d74d 41bc 5257 8cbb 4597 04bd e8e8 78bb
00000140: 47a2 9bba db78 1cbc 7d1e 4ebd 4871 1238
00000150: 057e f1bb 5520 7d3d c3b7 d4bb 6e6a 2cbc
00000160: 7fe5 a8ba f714 cfbc f4d0 513b fe9d eb3c
00000170: 2010 c23c 04dc 073c e98a abba f549 41bc
00000180: 9165 84b9 8d44 893c 0370 0a3b 3aed a9bc
00000190: 91d2 04bd ad20 26bd 2825 4d3c d72d 47bc
000001a0: 281a 83bc 9255 f3bb 69f8 923b 3717 a1bc
000001b0: 7f46 ce3c 5017 c9bc f717 013c bf2a d7bb
000001c0: a45b 5c3b 9144 f43a c2fe 773c 7903 413c
000001d0: f395 843a 0899 19bb 11eb 933c 9aa6 aaba
000001e0: 7fdf 69bc 886a b03c 78b2 6dbc ba99 05bc
000001f0: 9eac 9ebc 2ad9 99bc d1fe 943b 8431 033c
00000200: 2e56 c43c af10 5e3c 0ae3 763c d324 b33b
00000210: 478b f03c 1573 6a3b 4111 12bc 06ad 90bc
00000220: de5c 013d c3ac 48bc 6c9a 283d 9a9b 1d3c
00000230: bb29 0dbd 3a71 adbc 7ef2 293c ed00 0e3c
00000240: 6a13 c63c a93d e53c 24a1 57bc 1a2a 363d
00000250: 8109 ecbb d4ee 0c3d f330 85bc 0c90 e9bc
00000260: eab5 93bb 67d5 07bd b019 d23c 9cec ee3b
00000270: bac7 483c 8f58 113c f9d9 52bc dccf d63b
00000280: 04de 9cbc 244c 803c 2ddb 1c3a 16d4 2d3c
00000290: 1c6c 44bc 0151 f33b 0f99 cb3c e3e1 e5bc
000002a0: d384 c3bb 53a5 77bb 9a90 163d 48ae dfbc
000002b0: 61f2 cbbc 0d07 51bb fa78 703c 42d2 063c
000002c0: 0f20 5ebb d84c 0a3c de0b d33c c7d8 23bd
000002d0: 2ea0 eb3a f1c8 0a3c 8f7b 0bbd a262 77bc
000002e0: f2e6 8b3a 504f 28bb 362d 01bc 04af ec3b
000002f0: 44ff d93c aad7 22bc 163f af3b ddae 85bc
00000300: f46e 62bc bb6a 09bd 0350 6b3c 88c7 4bbd
00000310: 4c68 31bc ae4a 6bbc c20e b93c 4204 78bc
00000320: 44d8 2636 ac9d 83bb e012 103b bf68 163c
00000330: 9de0 bbbc 97ec 2f3c 81e4 333c 651c 823c
00000340: 085a 613b 523a b5bb efef 25bc 292f 9cbc
00000350: 92f9 753c 14d1 b5bb 38b2 7b3c da39 e1bb
00000360: 1a53 1fbc e68d 3d3c 5ecc d83c be22 33bb
00000370: 75f9 453c d9dc 0cbd 7d6f 063d 64e3 93bc
00000380: bdb3 563b ddce 9a3c 734b 383a d695 16bc
00000390: a760 0bbb 13db 6f3c ce7b 903c ef11 b5bc
000003a0: d318 87bb e7bb e0bc 6580 743c 2819 8e3b
000003b0: 9481 533c a6b0 a7bc a162 373c ed1f ec3c
000003c0: 964a c53c 76d4 84bc 2305 433b 7091 c73c
000003d0: 4090 06bd 9dff b43c cd9a b43a cae0 74bb
000003e0: d58b d5bc 883c 3f3c ba3f de3c 6c63 02bb
000003f0: c127 653c f6a6 353d 197e 48bc 0b6f afbc
0.0022838104 -0.003311583 0.0012992321 0.01567502 -0.00032178182 -0.0137854135 0.011311227 0.0036007746
0.047244936 0.0043379497 -0.045434613 0.042030685 0.04222422 -0.029666979 0.026013141 0.0032439963
0.011387414 -0.012409393 0.017205855 -0.0006028332 0.01658512 -0.009524657 0.008860713 -0.0053795543
0.007905536 -0.005419615 0.024718756 -0.016056428 -0.021820271 0.0032804501 0.014079921 0.01977194
-0.02352339 0.034801085 0.025301673 0.043589324 -0.02461728 0.0077691767 -0.014343509 -0.020976704
-0.007253353 -0.005803516 0.02286388 0.014161121 -0.0043051527 -0.0263409 -0.040577136 -0.009423545
-0.027708627 0.005609984 0.00095940277 -0.00087164063 -0.010810934 -0.0123107545 0.009505002 -0.016287284
-0.0070089814 0.0074511254 -0.020196406 0.025308177 0.0028022898 0.013053892 -0.013827871 0.03884266
-0.025903262 0.0042102057 -0.021796009 0.013332086 0.027425965 0.019087384 0.021773685 0.014446138
-0.022731207 4.59379e-05 -0.022866515 -0.026842264 -0.011798344 -0.0042828703 -0.032370824 -0.003798062
-0.0011873924 -0.009550299 -0.050322045 3.4914614e-05 -0.007369759 0.061798412 -0.0064916327 -0.010523422
-0.0012885778 -0.025278552 0.0032015415 0.02876186 0.02368933 0.008292202 -0.0013087663 -0.011797418
-0.00025252675 0.01675632 0.0021123893 -0.020743001 -0.032427374 -0.040558506 0.012521066 -0.012156925
-0.016003683 -0.0074259723 0.004485179 -0.01966439 0.0251801 -0.02454725 0.007879249 -0.006566375
0.0033623958 0.0018636157 0.015136423 0.011780613 0.0010115489 -0.002343716 0.018056424 -0.0013019622
-0.014274477 0.021535173 -0.014507882 -0.008154327 -0.01936942 -0.01878031 0.004546978 0.008007411
0.023966875 0.013553782 0.015068779 0.0054670363 0.029363288 0.003577416 -0.008915246 -0.017660629
0.031582706 -0.012248221 0.041162893 0.009619618 -0.034463625 -0.021172155 0.010372756 0.008667213
0.02417918 0.027983503 -0.0131609775 0.044473745 -0.0072032814 0.03440745 -0.016258692 -0.02851107
-0.00450777 -0.0331625 0.025647014 0.0072913896 0.01225465 0.008871212 -0.012869352 0.0065555405
-0.019148834 0.015661307 0.00059835875 0.010609647 -0.011988666 0.007425428 0.024853257 -0.028061813
-0.0059667616 -0.003778775 0.036758997 -0.027304783 -0.024895849 -0.0031895072 0.014677281 0.00822884
-0.003389362 0.008441173 0.025762495 -0.040001657 0.0017976814 0.00847076 -0.03405338 -0.0150991995
0.0010673685 -0.002568204 -0.007884314 0.007223012 0.026610978 -0.009939114 0.0053480966 -0.016318733
-0.013820399 -0.03354905 0.014362338 -0.049750835 -0.010828089 -0.014361067 0.022590045 -0.015137734
2.486181e-06 -0.0040165987 0.0021983907 0.009180247 -0.022934252 0.01073756 0.010979773 0.01588268
0.0034385938 -0.005530634 -0.010128005 -0.019065456 0.0150131155 -0.0055486057 0.015362315 -0.0068733515
-0.009724403 0.011569476 0.026464637 -0.002733394 0.012083401 -0.034390304 0.032821167 -0.018052764
0.003276094 0.018897468 0.0007030286 -0.009190997 -0.0021267326 0.014639634 0.01763716 -0.022103278
-0.0041228323 -0.027433349 0.01492319 0.004336495 0.012909312 -0.020469975 0.011192949 0.028823817
0.024083417 -0.01621459 0.00297577 0.024361342 -0.03285241 0.022094542 0.0013779044 -0.003736543
-0.026067654 0.011672147 0.027129997 -0.0019895686 0.013986529 0.04434868 -0.012237095 -0.021415254

conv_net.3.0.bias f4 [32]
00000000: 322b 3ebc 016a e03c ceec b3bc 3c7e 163c
00000010: b733 b6bc 8740 683c 340f adbc 1ddd e5bb
00000020: e8c2 3bbc 737c a4ba 100c a1bb 870a 0e3c
00000030: 08e1 0a3c d85e f23c 58d8 683b 4565 97bc
00000040: 1ac0 2a3c ee02 dc3c c95f 02bb d987 743c
00000050: b63b 173d 5d4f 4e3c b610 f4bb be8e ffbc
00000060: 2de6 b8bc 6fca abbc cba0 a33c 669a 8f3b
00000070: e3ff 18bd 4ac4 02bb 7817 5bbb 5800 223c
-0.011606978 0.027394297 -0.021963503 0.00918537 -0.022241456 0.014175541 -0.021125413 -0.007014884
-0.0114600435 -0.0012549296 -0.004914768 0.008669502 0.008476503 0.02958624 0.0035529342 -0.018480906
0.010421777 0.026856866 -0.0019893518 0.014924967 0.03692218 0.012592164 -0.007448281 -0.031195994
-0.022570694 -0.020970551 0.019974133 0.0043824194 -0.037353408 -0.0019953423 -0.0033430737 0.009887777

conv_net.3.1.weight f4 [32]
00000000: 035c 8d3f d3a3 8e3f 0143 8d3f 44ec 903f
00000010: 0a98 863f 6800 8d3f 4960 8f3f 7898 8d3f
00000020: beca 8c3f ec3d 8c3f 767d 8a3f 5036 8b3f
00000030: 8ec9 893f e2da 873f 56d6 893f 310f 8c3f
00000040: 761b 883f ebb7 903f e6e1 903f 0268 8c3f
00000050: 4073 8d3f 341d 8f3f 6e51 8d3f abde 8f3f
00000060: 9454 8c3f 352e 883f c399 8e3f b2fe 8d3f
00000070: 4c34 873f c8cf 903f 079e 873f 4167 893f
1.1043705 1.1143745 1.1036073 1.1322103 1.0515149 1.1015749 1.1201259 1.1062155
1.0999372 1.0956397 1.0819538 1.087595 1.0764635 1.0613673 1.0768535 1.0942136
1.063338 1.1306127 1.1318939 1.0969241 1.1050797 1.1180787 1.1040475 1.1239828
1.0963311 1.0639101 1.1140674 1.1093352 1.0562835 1.131341 1.0595101 1.0734636

conv_net.3.1.bias f4 [32]
00000000: bbd7 383b 1068 cbbb 5a43 d73b 3a58 f63b
00000010: e07f b93b c86d 043b c07a 99bb 51b9 213b
00000020: dd2f 473b 765e c13a acd6 a2ba 4311 063c
00000030: 743c 703c ea8e 46bb df88 96ba 4cdc 023c
00000040: c0c7 5f3b f76a 49bc b092 f838 180b 8dba
00000050: cccf 673b 8d54 21bb febf ee3a 0537 cdba
00000060: 10c3 af3a 8d0d ceba 0f95 0c3c 7250 29ba
00000070: ffdb 383b 3e60 823b 5165 503c cfc7 ddbb
0.0028204757 -0.0062074736 0.006569308 0.0075178416 0.005660996 0.0020207036 -0.0046838224 0.0024677108
0.003039352 0.0014752883 -0.0012423596 0.008182826 0.014662851 -0.0030297586 -0.0011484883 0.007987093
0.003414616 -0.012293569 0.00011852884 -0.0010760752 0.003537166 -0.0024617047 0.0018215177 -0.0015656656
0.0013409574 -0.0015720591 0.00858046 -0.00064588257 0.00282073 0.003978758 0.012719468 -0.006768204

fc_net.0.weight f4 [128, 800]
00000000: 4ad4 20bc a25f 5bba 0d6f 9ebb c594 d9bb
00000010: 76a8 8ebc 5a0e 523c 667e dcba d053 123c
00000020: 0979 33bc 4e71 f4ba 8575 433c f277 e63b
00000030: 382b a63c 1d90 803c 41ec 07bc 3c80 1f3b
00000040: a6b7 7bba 5921 593c 93e4 253c dd2a dabb
00000050: 11f3 bb3b 6bea 643c cee2 c1bb 839d 3bbb
00000060: fb39 ca3a ce01 2f3a c5ed 22ba 0d01 7cbc
00000070: 5edf 92bc faff 503b 4732 9ebb 060b bc3b
00000080: a388 3d3c ca92 afbb 54d9 233c f311 683c
00000090: 30e1 3d3c 2451 c63c 1306 bb3c d075 d33c
000000a0: eff7 873c fd48 ae3c 2c73 d53b 689b 943b
000000b0: e6b3 f1b9 80a2 803c 56b4 0d3c ef06 173c
000000c0: 9464 1aba 5d51 f23b bf9d 70bc d8cc 06bb
000000d0: c759 73bb 5a3b 16bc 6ec1 923c 297e b6ba
000000e0: 36dc b6ba d063 2c3c 1cd6 73bb c4f3 a43b
000000f0: 44f5 c73b 129f b83c a427 ad3c 1f3d ee3c
00000100: d63a 86bb 6ade 88bc 4d18 293c a271 e1ba
00000110: 15f4 be3b 7c68 1f3b e410 223c 94fd 0abc
00000120: 6769 c63b 1500 85bc 16de 1dbc 33a0 113c
00000130: 7169 0d3b 83ca 9b3b 57e2 cbbb 5640 4d3c
00000140: 503b 89bb 9294 b2bb 8b31 b2bc 9c02 0abc
00000150: 8564 983c a4cb 76bc 8b5f 51bc b121 b2bc
00000160: ee23 97bc 6514 723c e32a 3fbc 78a4 e8bb
00000170: c47f 663c 2683 e8bb 6773 2a3c 3012 d5bb
00000180: a029 7cbb 7288 033b 08ea 48ba 2db7 993c
00000190: c0ec 173c 1b81 9bbb aa69 683b 0729 f4bb
000001a0: 18ac 423b c056 833a 20f7 eebb f4de 303c
000001b0: d984 883c da06 103c 842e 2fbc 1f1a 60bb
000001c0: e470 6f3c 204b 423c fa24 7f3c 06fd 6d3b
000001d0: 868c 973b 63ae da3c 92a6 993c 66aa f63b
000001e0: 54cc f5bb 55ea fe3a 7778 44bb 6ab7 923b
000001f0: f5e2 19bc 4a84 8939 0f0a 063c a8e7 25bc
00000200: 7007 3dbb 8a7a a63a a846 a2bc aa4d c4bb
00000210: 4608 a33c 8f83 e53b 542e b53c f9a1 8f3c
00000220: 6d78 f73b 5442 b43c d43d 933c 7557 89bc
00000230: 82ad 5b3c 1135 2c3c 4678 863c c043 383c
00000240: ec5c b8bb bf1c 173c 54a1 bb3b 9c11 49bb
00000250: a21b 9c3c 2207 2c3c f686 7bbc 2c7f afbb
00000260: 5a95 213c d3df c7bc 91cb b9bb 07a2 c33b
00000270: 63c7 77bc e633 a4bb ea08 89bb ec28 e0bb
00000280: 14fa b3bb f9ef e6bc 8ff3 f1ba 883a 17bc
00000290: dc42 0a3c 5927 f0ba a710 f1b9 a080 dbbb
000002a0: d8fd e83a e6a1 4dba 2365 a9bb 8283 2cbc
000002b0: ad4a 8c3b e0d9 d2bb e421 28bc cfa3 7dbc
000002c0: a951 063c 5d15 80bc ec4a 13bb 517a 183c
000002d0: 7dc9 813b f074 ba3a d94c 893c 86f1 2c3c
000002e0: f822 803b 5624 f13b 61ff 533c ddcf f13c
000002f0: b011 f43c dbf8 ab3c 1025 b43b 2181 263b
00000300: cc3d 3c3c 8b89 b83c 345c cfbb 3a02 d73c
00000310: d419 243c 8e24 03bb 550a 3e3c 83a2 8dba
00000320: a11f adbb e64c fa3b c25f 1e3c 626c ecbb
00000330: 5264 023d 06ee 5b3c fb91 063c 9127 91b9
00000340: 32fb 003b f38a ad3b 2ab8 b039 a15b d03b
00000350: 91ac 3fbc 74f3 06bc 58aa 49ba cfdb 9c3b
00000360: 7616 41bc 0010 e3bb ba38 debc 4413 96bb
00000370: bc1e ccba 8897 22bc fad6 56bc 335a 7fbc
00000380: fc93 f4ba 266e dc3a 7c35 0dbc a741 20bb
00000390: 8915 c63b 4511 a5bc 102c 46bc 3c12 70bb
000003a0: 54a2 26bb 44c5 08bc bd72 6cbb 9ae0 f1bb
000003b0: a905 7d3c dcd3 d5bc fcc3 1ebb d68d ddbb
000003c0: 0059 433c dfb3 0abb 137e 0a3b 8c97 babb
000003d0: 7ca2 26ba ca97 0739 ce98 933c 17ed 233c
000003e0: bc00 38bc 331f 2b3b 0374 8b3b bf69 a6bb
000003f0: 9ae3 a8bb f54f 32bc 606e 6bbc 8b25 943c
-0.009816239 -0.00083684374 -0.0048350156 -0.006640049 -0.017414313 0.0128208045 -0.0016822338 0.008931115
-0.01095415 -0.001864949 0.011929874 0.0070333416 0.02028428 0.015693719 -0.008296073 0.0024337908
-0.0009602256 0.01325258 0.010125297 -0.0066579417 0.005735763 0.013971905 -0.00591693 -0.002862782
0.0015428656 0.0006675989 -0.000621524 -0.01538111 -0.017928775 0.0031890855 -0.004827771 0.005738619
0.011568221 -0.005358075 0.0100005455 0.014164436 0.011589333 0.024208613 0.022830045 0.025813013
0.016597716 0.021275038 0.0065139737 0.0045351274 -0.00046101137 0.015702486 0.0086489525 0.009217962
-0.0005889621 0.007394953 -0.014686047 -0.0020568874 -0.003713237 -0.009169424 0.0179145 -0.0013923097
-0.0013951126 0.010521844 -0.0037206477 0.005033942 0.006102236 0.022536788 0.021137066 0.02908188
-0.0040963693 -0.016707618 0.010320735 -0.0017200003 0.0058274367 0.0024323752 0.009891722 -0.008483309
0.0060550454 -0.01623539 -0.009635469 0.008888292 0.002157774 0.004754366 -0.00622205 0.012527546
-0.004187979 -0.00544984 -0.02175214 -0.008423474 0.018602619 -0.0150632 -0.012779127 -0.021744581
-0.01844975 0.01477537 -0.01166794 -0.0070996843 0.014068548 -0.0070957122 0.010403491 -0.0065024123
-0.003847696 0.0020070341 -0.0007664268 0.018764103 0.009272754 -0.004745615 0.0035463371 -0.00745118
0.0029704627 0.001002036 -0.007292643 0.010795344 0.01666491 0.008790696 -0.0106922425 -0.0034195257
0.014614318 0.0118587315 0.015572781 0.0036314144 0.004624906 0.026694482 0.018756185 0.0075276373
-0.0075011645 0.0019448498 -0.002997903 0.004477431 -0.00939249 0.0002622924 0.008181109 -0.010126032
-0.0028843544 0.0012701314 -0.019809082 -0.0059907036 0.019901406 0.0070042084 0.022116818 0.01753329
0.0075521977 0.022004284 0.017973818 -0.016765336 0.013408067 0.010510699 0.016414773 0.011246622
-0.0056263115 0.009223162 0.005726019 -0.0030680662 0.019056145 0.0104997475 -0.015352001 -0.0053557362
0.009862268 -0.02439872 -0.005670019 0.005970243 -0.015123221 -0.0050110696 -0.004181971 -0.006840816
-0.005492458 -0.0281906 -0.0018459427 -0.0092302635 0.008438792 -0.0018322273 -0.0004597951 -0.006698683
0.0017775847 -0.0007844254 -0.005169527 -0.010529401 0.004281363 -0.006434664 -0.010261986 -0.01548095
0.00819818 -0.015635187 -0.0022475077 0.009306506 0.003960787 0.0014225524 0.016760277 0.010555631
0.0039104186 0.007359068 0.012939305 0.029518062 0.02979359 0.020992687 0.0054975823 0.0025406557
0.011489343 0.022526523 -0.00632813 0.026246179 0.0100159235 -0.0020010802 0.011599143 -0.0010805879
-0.0052833115 0.0076385615 0.009666385 -0.0072150687 0.031833954 0.013423448 0.008213515 -0.00027686034
0.0019680974 0.005296105 0.0003370655 0.0063585793 -0.011698858 -0.008236755 -0.00076929247 0.0047869454
-0.01178514 -0.0069293976 -0.027126659 -0.0045799334 -0.0015573124 -0.009923823 -0.013112778 -0.01558547
-0.0018659825 0.0016817495 -0.008618709 -0.0024453194 0.0060450477 -0.020149836 -0.012095466 -0.0036631962
-0.0025426345 -0.008347813 -0.0036079132 -0.007381511 0.015443244 -0.026101999 -0.0024225703 -0.006761293
0.011923075 -0.002116434 0.0021132275 -0.0056943353 -0.00063566095 0.00012931149 0.018017199 0.010005257
-0.011230644 0.0026111125 0.004255773 -0.005078524 -0.0051540853 -0.010883321 -0.014369577 0.018084308

fc_net.0.bias f4 [128]
00000000: 817b a7ba ae9d a43c 917d 483c 325e 6b3b
00000010: 3b01 493c ef06 bbbc 70a2 dabb 1766 293c
00000020: b6d8 193c 825d 89bc ea54 8d3c 8a05 993c
00000030: eb66 07bc 10e0 2a3a 93f6 8cbb 2613 5ebb
00000040: bcc3 5bbc 480e 05bc 482d 363c 2e44 343c
00000050: 697d 4fbb b540 4f3c 7a7f df3c 3792 613c
00000060: 22d9 363c 4964 843a b9e8 c73c 6170 873c
00000070: f5e4 59bb c0b1 adbb 1371 a0bc 31dd f3bb
00000080: 895f 02bc 111b 63bc 0a73 5e3c 358a 87ba
00000090: f62c 333b b983 b9bb 6ba5 1dbc 70e0 92ba
000000a0: a5bd 38bb 1061 a33a 48ec 3539 859e 43bc
000000b0: 745c ba3c 5fcf 28bb ec90 603b c777 bc3c
000000c0: 86c6 fa3b ae0f 12bc 3a66 a2bc 68bf 67bc
000000d0: c55d 3dbc fb76 78ba 739a 8cbb a34e e03b
000000e0: 4557 babc bd53 28bc ca90 c9bb a5bb 39bb
000000f0: d3a5 17bc 8758 5fbc 4f7c 8c3b ef05 cd3b
00000100: 33f3 8c3c 6f48 e03a 3465 b73c a084 573b
00000110: 3741 3e3c 965f 0f3c cebc ff3a 77d8 ecbb
00000120: 2358 e03c 4e2f 84bb 8473 ed3b 3613 5cba
00000130: 445f 8bbb 24d4 c13c 707d a53c 4409 123c
00000140: 6b06 4dbb 67f6 463a 4cd2 7ebc 50eb c6ba
00000150: 1328 893c a14c 933b 3410 9cbb 35e0 0b3c
00000160: 747f 953c 07f4 dd3b 739c d03b de0f 9a3b
00000170: e2c3 b53b 2d8b 8f3c 5754 40bb a296 333c
00000180: d8ac eb3c b2ce 3e3c f619 c53a f442 e13b
00000190: 6982 f6bb 2b41 a33b 31f3 37bc e36d ecbb
000001a0: 8c27 223c e64c e23b a7e0 7b3c c689 273b
000001b0: f34b c4bb 3e17 9cbb f660 1e3a 4315 ca3a
000001c0: a7c5 5a3b 357b c03c 7a02 f7ba 856d 21bb
000001d0: d790 27bc 05e4 cdbb a0fa e9bb 9c6d 4b3b
000001e0: 0338 e6bb ae24 0e3c ed9a 283b 77e1 6c39
000001f0: b499 4dbc 111b 2b3c c957 c63c 716d 133a
-0.0012777896 0.020094719 0.012236969 0.00359143 0.01226836 -0.022830455 -0.006672196 0.0103392815
0.009390047 -0.01676822 0.017252404 0.018679399 -0.008264284 0.0006518373 -0.004301855 -0.0033885925
-0.013413366 -0.008121081 0.011119194 0.011002583 -0.0031660444 0.012649705 0.027282465 0.0137677705
0.011160167 0.0010100688 0.024402963 0.016533079 -0.0033248041 -0.0053007305 -0.019585168 -0.0074421396
-0.007957348 -0.013861434 0.013577232 -0.0010340872 0.0027340031 -0.0056614545 -0.009621958 -0.0011205804
-0.0028189209 0.001246484 0.00017349527 -0.0119396495 0.022749163 -0.0025758368 0.0034266068 0.023006333
0.0076530604 -0.008914871 -0.019824136 -0.014144756 -0.011558001 -0.00094781787 -0.0042908727 0.0068453117
-0.022746691 -0.010273871 -0.0061512934 -0.0028340605 -0.009255844 -0.013631946 0.0042872797 0.006256811
0.01720581 0.0017111431 0.022387125 0.0032885447 0.011612228 0.008750817 0.0019511224 -0.007227953
0.027385777 -0.0040339595 0.0072464366 -0.00083951966 -0.0042533 0.023660727 0.020201415 0.008913342
-0.0031284343 0.00075898174 -0.015553068 -0.001517633 0.016742742 0.004495219 -0.0047626738 0.008537342
0.018249251 0.006773475 0.0063663065 0.0047015985 0.0055470327 0.017522419 -0.0029347145 0.010961207
0.028768942 0.01164596 0.0015037644 0.0068744365 -0.0075228703 0.004982134 -0.011227415 -0.007215248
0.009897124 0.0069061397 0.0153733855 0.0025564297 -0.005990499 -0.004763513 0.000604167 0.0015417713
0.003338197 0.02349625 -0.0018845343 -0.002463193 -0.010227404 -0.0062832856 -0.0071404725 0.0031040674
-0.00702572 0.008675737 0.0025727109 0.00022590706 -0.012548853 0.010443465 0.024211781 0.0005623913
