Results/regression/10-shot/3_modes/hard/it3/reptile/5models_4.pt (torch, 10759 bytes, 9 tensors)

net.0.weight f4 [40, 1]
0	0x3f6c3a8c	0.92276835
1	0x3ea1055a	0.31449395
2	0xbd786c8b	-0.06065039
3	0x3e851e66	0.25999755
4	0xbe9417ab	-0.28924307
5	0x3f3d43ec	0.73931766
6	0x3f33707d	0.7009352
7	0xbf2a0a48	-0.6642194
8	0x3f6c3726	0.9227165
9	0xbe0d187c	-0.13778871
10	0x3ef3c111	0.47608235
11	0x3e4fe096	0.20300516
12	0xbcafa059	-0.021438764
13	0x3efe23a2	0.4963656
14	0xbd8469ad	-0.064654686
15	0x3f27a7dc	0.6549051
16	0x3f463631	0.7742644
17	0x3eebd4b6	0.46060723
18	0x3ee41d56	0.44553632
19	0xbf36618d	-0.712426
20	0xbf68e749	-0.90977913
21	0x3eb2216d	0.34791127
22	0xbf0c77a3	-0.5487005
23	0xbf398a8c	-0.7247703
24	0x3e67b9b2	0.22629431
25	0x3c953c45	0.018217215
26	0x3f6f6df3	0.93527144
27	0xbf0e63fd	-0.5562132
28	0x3e287a51	0.1645291
29	0x3f52877e	0.82237995
30	0x3f20e8dc	0.62855315
31	0xbee44ec9	-0.44591358
32	0x3f2a81e3	0.6660444
33	0x3ec4abe4	0.38412392
34	0xbf55ec2e	-0.83563507
35	0xbee2ba37	-0.44282696
36	0xbec13ee5	-0.37743297
37	0xbe694d4f	-0.22783397
38	0xbf2589a3	-0.6466314
39	0x3e94ca6a	0.2906068

net.0.bias f4 [40]
0	0xbde991e0	-0.114047766
1	0xbe5cc358	-0.21558893
2	0xbf397b82	-0.7245408
3	0x3f36e284	0.71439385
4	0xbf7b3598	-0.9812865
5	0x3d4a1b80	0.049342632
6	0xbdde88e0	-0.108659506
7	0x3f62ef6a	0.88646567
8	0x3c67ce80	0.0141483545
9	0x3e875e14	0.26438963
10	0xbf0a46a0	-0.54014015
11	0x3e9dc67c	0.30815494
12	0x3d7c2be4	0.061565295
13	0x3f5e2cb0	0.8678694
14	0xbec3cba8	-0.38241315
15	0x3ea13da8	0.31492352
16	0xbf5ce720	-0.8629017
17	0x3f35370c	0.7078712
18	0xbf0aeb4e	-0.54265296
19	0x3f6e7958	0.93153906
20	0xbecb5f6c	-0.3972124
21	0xbf3a54ee	-0.7278584
22	0xbf6be6da	-0.92149127
23	0xbeb9b35c	-0.36269653
24	0xbead8a08	-0.33894372
25	0xbf310ec6	-0.6916317
26	0x3e847368	0.25869298
27	0xbf25efc2	-0.64818966
28	0x3ddbace0	0.10726333
29	0xbefb4a1c	-0.49079978
30	0x3edc2ae8	0.43001485
31	0x3f4918de	0.7855357
32	0xbf1075f6	-0.56429994
33	0x3f657af2	0.89640725
34	0xbf15761a	-0.58383334
35	0x3d4c28c0	0.04984355
36	0x3e050510	0.12990212
37	0x3f79283a	0.97327006
38	0xbe6a9ad0	-0.22910619
39	0x3f74a276	0.95560396

net.1.weight f4 [40]
0	0x3f7708dd	0.964979
1	0x3f74d591	0.95638376
2	0x3f82f66d	1.0231453
3	0x3f7aaa39	0.9791599
4	0x3f80b279	1.0054466
5	0x3f77d6fe	0.9681243
6	0x3f74a855	0.95569354
7	0x3f8156a0	1.0104561
8	0x3f781ba0	0.9691715
9	0x3f823074	1.0171037
10	0x3f7adbea	0.9799181
11	0x3f769081	0.96314245
12	0x3f837fb1	1.0273343
13	0x3f727165	0.94704276
14	0x3f81f64d	1.015329
15	0x3f75bdbb	0.9599263
16	0x3f75dfe3	0.9604475
17	0x3f762238	0.96145964
18	0x3f780ae7	0.96891636
19	0x3f845275	1.0337664
20	0x3f819b93	1.0125602
21	0x3f77bf6a	0.9677645
22	0x3f850016	1.0390651
23	0x3f8082f6	1.0039966
24	0x3f7a0b5e	0.97673595
25	0x3f7a6e0c	0.9782417
26	0x3f754d5a	0.95821154
27	0x3f801dd6	1.0009105
28	0x3f754681	0.95810705
29	0x3f76536d	0.9622105
30	0x3f762a1e	0.96158016
31	0x3f7cf06a	0.9880434
32	0x3f7b86a2	0.9825231
33	0x3f76a16f	0.9634008
34	0x3f831d01	1.0243226
35	0x3f808930	1.0041866
36	0x3f81c9b6	1.0139682
37	0x3f82e5aa	1.0226338
38	0x3f7aa155	0.97902423
39	0x3f7bbc3d	0.98334104

net.1.bias f4 [40]
0	0xbd38140a	-0.044940986
1	0x3e9d8d01	0.3077164
2	0x3d29e380	0.041476727
3	0xbb992514	-0.0046736095
4	0x3d5d9198	0.054093927
5	0xbd3a4fec	-0.045486376
6	0xbd07feb0	-0.033201873
7	0x3d9d74d8	0.07688302
8	0xbbae9433	-0.0053277253
9	0x3e07e974	0.13272649
10	0xbbbfa3b7	-0.0058483738
11	0x3c1e507f	0.009662746
12	0xbc24829f	-0.010040908
13	0x3e21f697	0.15816723
14	0xbe89ed9f	-0.26939103
15	0xbd0636d7	-0.032767143
16	0xbe01f1e6	-0.12689933
17	0xbd9e6fb2	-0.07736148
18	0xbd793085	-0.060837287
19	0x3d56ebe4	0.052471057
20	0x3daea9f8	0.08528513
21	0x3b417db6	0.0029524392
22	0x3d1f3b50	0.038874924
23	0x3d926e5f	0.07149958
24	0xbd708e1a	-0.05872927
25	0xbd282114	-0.04104717
26	0xbd13fb36	-0.036128245
27	0x3d767058	0.060165733
28	0xbe81b3cf	-0.25332496
29	0x3d56f618	0.052480787
30	0xbe15f54e	-0.14644358
31	0x3e97b72e	0.29631943
32	0xbd73cd55	-0.05952199
33	0xbe070232	-0.13184431
34	0x3bc29fe2	0.0059394697
35	0xbdce1bae	-0.10063873
36	0xbdfdd25b	-0.12393638
37	0xbe6ebb99	-0.2331375
38	0x3f06dd7e	0.5268172
39	0xbec52bec	-0.38510072

net.3.weight f4 [40, 40]
0	0xbe13fe68	-0.14452517
1	0xbe14af8b	-0.1452009
2	0xbba32893	-0.004979202
3	0x3ddacd41	0.1068368
4	0xbd557e55	-0.052122433
5	0x3de1cd98	0.11025542
6	0xbd49f180	-0.049302578
7	0x3d1a1d5d	0.03762566
8	0x3d019de3	0.031644713
9	0xbdf356cd	-0.1188179
10	0x3e124209	0.14283003
11	0xbe16121b	-0.14655344
12	0xbe0fe371	-0.14051606
13	0x3df16888	0.11787516
14	0x3d006204	0.031343475
15	0x3e083a27	0.13303433
16	0x3dccd5fa	0.1000175
17	0xbc02d44d	-0.007985187
18	0xbe13cabd	-0.14432807
19	0xbde3a1d1	-0.111148484
20	0x3db78af2	0.089620486
21	0x3e1cd4db	0.15315573
22	0xbd4dd817	-0.050254907
23	0xbdb9ae40	-0.09066439
24	0x3de38e32	0.11111106
25	0xbc478312	-0.012177246
26	0x3e10ed48	0.14153016
27	0x3c6db968	0.014509536
28	0x3d94c5b6	0.07264273
29	0x3e13fcbe	0.14451882
30	0xbe1f8718	-0.15578878
31	0xbbb5eb3f	-0.005551725
32	0xbdc95003	-0.09829714
33	0xbcce5f7b	-0.025192013
34	0x3dc73bbd	0.09728191
35	0xbdec201c	-0.11529562
36	0x3dcbd5a4	0.09952858
37	0xbdbbface	-0.091786966
38	0xbe075b25	-0.13218363
39	0xbc572ef3	-0.013133752
40	0xbdd25264	-0.10269621
41	0xbdaf5090	-0.08560288
42	0xbe0e8bf6	-0.13920578
43	0x3e1859cb	0.14878003
44	0x3d5e973b	0.054343443
45	0x3d8c0b89	0.06838138
46	0x3dc1615a	0.094423965
47	0x3e046d38	0.12932289
48	0xbe0d665e	-0.13808581
49	0x3dae6319	0.08514995
50	0x3d9cafca	0.076507166
51	0xbd48df02	-0.0490408
52	0xbe31c43b	-0.17360012
53	0x3d87a723	0.06623676
54	0xbe20b90c	-0.1569559
55	0xbd0ecde6	-0.03486433
56	0xbc95b1fb	-0.018273344
57	0x3d82a54f	0.06379186
58	0xbd298557	-0.04138693
59	0x3d535319	0.05159292
60	0xbd8907ff	-0.06690978
61	0xbdf9279a	-0.121657565
62	0xbd09acf6	-0.033612214
63	0xbdb9a4c9	-0.090646334
64	0x3be4cbbe	0.006982296
65	0x3dc58996	0.09645383
66	0x3df0eb66	0.11763649
67	0x3d1f11d0	0.038835347
68	0xba6f4d7e	-0.00091286737
69	0x3d1eb562	0.0387472
70	0x3db708e1	0.089372404
71	0x3dee1492	0.11625017
72	0xbd5ca4ca	-0.053868093
73	0x3e11ab00	0.14225388
74	0xbe07225d	-0.13196702
75	0xbd42c45d	-0.047550548
76	0x3d4c028b	0.049807113
77	0xbe05aec0	-0.13054943
78	0x3e47147c	0.19441408
79	0x3df2a33e	0.11847542
80	0xbdd14360	-0.10217929
81	0xbe2b3716	-0.16720232
82	0x3b8e173b	0.0043362654
83	0x3d48da61	0.049036387
84	0x3dd2127f	0.10257434
85	0x3e0e5b41	0.13901998
86	0xbde2d143	-0.1107507
87	0xbc90d937	-0.017681701
88	0x3a683798	0.0008858382
89	0x3e147203	0.14496617
90	0x3d5afa32	0.05346126
91	0x3df888f1	0.121354945
92	0x3dc0b70f	0.09409916
93	0xbdba6bb0	-0.09102571
94	0xbde8c3d6	-0.11365478
95	0x3e142959	0.14468898
96	0x3d66ae58	0.05631861
97	0xbdc659dc	-0.09685108
98	0x3dc927e1	0.098220594
99	0x3ddf58ff	0.109056465
100	0x3db38eba	0.08767457
101	0xbe0f4aae	-0.13993332
102	0x3d1dda8c	0.0385385
103	0xbe06717c	-0.13129228
104	0x3dd3fa25	0.10350446
105	0x3ce1cec3	0.027564412
106	0xbc99ecfd	-0.018789763
107	0x3db31786	0.08744721
108	0xbd43afba	-0.047775008
109	0xb98b4c2c	-0.00026568898
110	0x3d48f4be	0.04906153
111	0xbe05b6d7	-0.13058029
112	0x3e0c4e34	0.13701707
113	0x3df2d01a	0.118560985
114	0x3c1e1b3a	0.009650046
115	0x3b8ddbd1	0.0043291827
116	0xbdcf6e68	-0.1012848
117	0xbdff8e52	-0.12478317
118	0xbded8f8a	-0.115996435
119	0xbe1eb3cc	-0.15498275
120	0xbb3d2a07	-0.0028864162
121	0x3c15d0e9	0.009144046
122	0x3c571c1a	0.0131292585
123	0x3e36075f	0.1777625
124	0x3c328491	0.010895864
125	0xbcd5ec83	-0.026113754
126	0xbdd8a4a9	-0.105782814
127	0x3dcef0ae	0.101045
128	0xbd8500b1	-0.064942725
129	0xbd174634	-0.036932185
130	0x3e197c30	0.1498878
131	0xbda54b31	-0.08070982
132	0x3cd26f32	0.025687788
133	0xbd899df9	-0.06719584
134	0xbc7719ff	-0.015081882
135	0x3c07b009	0.008281716
136	0xbe05ccb7	-0.13066374
137	0xbe044cca	-0.12919918
138	0x3c4aab7c	0.012369987
139	0xbd9b46cb	-0.07581862
140	0x3db9bba4	0.09068993
141	0xbd799473	-0.060932588
142	0x3e092b31	0.13395382
143	0x3e0210b5	0.12701686
144	0xbc343517	-0.010998986
145	0x3d6ce030	0.05783099
146	0xbdacc835	-0.08436624
147	0x3e0bdd49	0.13658632
148	0x3d11fe3c	0.035642847
149	0x3cf2b232	0.029625986
150	0x3cb13331	0.021630855
151	0xbd81f6af	-0.06345879
152	0x3aed275d	0.0018093396
153	0x3e055932	0.13022307
154	0x3d3b109a	0.04567013
155	0xbe0f71c5	-0.14008243
156	0xbd911fb2	-0.070861235
157	0x3d748eb1	0.059706394
158	0xbe2ebb21	-0.17063572
159	0xbc7872c3	-0.01516408
160	0x3c367e3e	0.011138497
161	0xbcc8aeb0	-0.02449736
162	0x3e170bd1	0.14750601
163	0x3d6bd133	0.057572555
164	0xbd5153ae	-0.051105194
165	0x3e14e1e3	0.14539294
166	0xbd090579	-0.033452485
167	0x3cb4d095	0.022072116
168	0x3e1cacd4	0.15300304
169	0x3c2d0a7b	0.010561581
170	0xbd5888fc	-0.052865013
171	0x3c54e9cb	0.012995194
172	0x3bbf1c76	0.00583225
173	0xbd9d62eb	-0.07684883
174	0xbd49ee54	-0.049299553
175	0x3d4ddaf7	0.05025765
176	0xbdab9983	-0.083788894
177	0xbd30d59c	-0.043172464
178	0x3dfae127	0.12249976
179	0x3dfbbfe7	0.12292462
180	0xbde66a47	-0.112507395
181	0x3e12f886	0.14352617
182	0x3e1222ad	0.1427104
183	0xbd074f92	-0.03303487
184	0x3dcd993c	0.10038993
185	0xbd09185f	-0.033470508
186	0xbc41766c	-0.011808019
187	0x3d7e030d	0.06201463
188	0x3ca31c95	0.01991109
189	0xbd1d0e76	-0.03834387
190	0xbd295435	-0.04134007
191	0x3e2bbc85	0.16771133
192	0x3dfb5d1a	0.12273617
193	0xbc4d6cad	-0.012538117
194	0x3deaebfe	0.11470793
195	0xbd51546e	-0.05110591
196	0xbd9746ba	-0.07386537
197	0xbc076ce8	-0.008265711
198	0x3e128288	0.14307606
199	0x3da1d440	0.079018116
200	0xbc749877	-0.014928929
201	0x3d30bc6e	0.04314845
202	0xbe1b31f9	-0.15155782
203	0xbd2484dd	-0.04016577
204	0xbcbef27f	-0.02330899
205	0xbe02737b	-0.12739365
206	0xbc666809	-0.01406289
207	0x3e219a2a	0.15781465
208	0xbd4d8fda	-0.050186016
209	0xbd7e3fa3	-0.062072407
210	0xbdd5df32	-0.10442962
211	0xbd6f9574	-0.05849214
212	0xbdcce811	-0.10005201
213	0x3e23add9	0.15984286
214	0xbdad163a	-0.08451505
215	0xbdd5b0b1	-0.10434092
216	0x3e01f596	0.1269134
217	0x3b84d10b	0.00405324
218	0x3d33d4fa	0.043904282
219	0xbd850967	-0.06495934
220	0xbe0e21f9	-0.13880147
221	0xbc9a644f	-0.018846659
222	0x3d01b94d	0.031670857
223	0xbe0ddb92	-0.1385329
224	0x3d043b45	0.032283086
225	0xbd204f55	-0.039138157
226	0xbd4e40ef	-0.050354894
227	0x3cd36375	0.02580426
228	0xbda76fbd	-0.08175609
229	0xbcfe90e3	-0.031074947
230	0x3e20c2bd	0.15699287
231	0xbe1d09d1	-0.15335776
232	0x3d39ef25	0.04539408
233	0xbddf6ed6	-0.10909812
234	0x3dd6817c	0.10473916
235	0xbd9cf9a2	-0.07664801
236	0xbe1518cb	-0.14560239
237	0xbe0c0f7a	-0.13677779
238	0x3be0f7bf	0.006865471
239	0xbc6b6686	-0.014367705
240	0xbe0c65d6	-0.13710722
241	0x3e043b78	0.1291331
242	0xbdd85ab2	-0.10564174
243	0xbd17b009	-0.037033115
244	0x3e0fd1fa	0.14044943
245	0xbd137df2	-0.036008783
246	0x3db2d606	0.08732228
247	0x3d136587	0.035985496
248	0x3dbb12f0	0.091344714
249	0x3dda6fd7	0.10665863
250	0xbd0f5204	-0.034990326
251	0x3de4e683	0.11176779
252	0x3e254e94	0.16143256
253	0x3dae6250	0.08514845
254	0x3c83853c	0.016054742
255	0x3dcc2bb1	0.09969271

net.3.bias f4 [40]
0	0x3b390319	0.0028230606
1	0x3d97b548	0.074076235
2	0x3b9143b6	0.0044331206
3	0x3d16a344	0.036776796
4	0x3db42a48	0.08797127
5	0x3de51337	0.111853056
6	0xbd91a02c	-0.071106285
7	0x3d895bf3	0.06706991
8	0xbdc3db30	-0.09563291
9	0xbe0b64f7	-0.13612734
10	0x3bd652f1	0.006540649
11	0xbd38d09d	-0.045120824
12	0xbadbff64	-0.0016784486
13	0xbada108a	-0.0016637009
14	0xbdbb1d27	-0.0913642
15	0xbdf934d1	-0.12168277
16	0xbd30e50e	-0.043187194
17	0xbd74de49	-0.0597823
18	0x3d807af8	0.062734544
19	0x3dd5a108	0.10431105
20	0x3da7446e	0.08167349
21	0xbc146b9a	-0.009058857
22	0xbdc31ad2	-0.095266
23	0x3d54b9ca	0.051934995
24	0xbc528a2d	-0.0128503265
25	0xbd8234db	-0.06357738
26	0xbd862020	-0.06549096
27	0xbe15ee27	-0.14641629
28	0xbdfe0065	-0.12402419
29	0x3e1e5c65	0.15464933
30	0x3cb08a7b	0.021550408
31	0xbc102f6a	-0.008800367
32	0xbde66408	-0.11249548
33	0x3c8076a9	0.015681582
34	0x3e1bad6b	0.15202872
35	0x3d81d10a	0.06338699
36	0x3d2e88c4	0.0426109
37	0x3da108fc	0.07863042
38	0xbcc9a762	-0.024615947
39	0x3d41c8aa	0.04731051

net.4.weight f4 [40]
0	0x3f8f9653	1.121775
1	0x3faafb3b	1.335792
2	0x3f8fb9ae	1.122854
3	0x3f8ce2ee	1.1006753
4	0x3f972d85	1.1810766
5	0x3f89e577	1.0773152
6	0x3f9358d3	1.1511482
7	0x3f9aec7e	1.2103422
8	0x3f8e28dc	1.1106219
9	0x3f9dc51c	1.2325778
10	0x3f89b195	1.0757319
11	0x3f8f394e	1.1189363
12	0x3f8b2bc8	1.0872736
13	0x3f8fe9d8	1.1243238
14	0x3f98ae57	1.1928204
15	0x3f956555	1.1671549
16	0x3f956946	1.1672752
17	0x3f8be730	1.0929928
18	0x3f8e9778	1.1139975
19	0x3f89d5f9	1.0768424
20	0x3f8abc06	1.083863
21	0x3fa3c150	1.2793369
22	0x3f8bcb96	1.0921504
23	0x3f9ee81b	1.2414583
24	0x3f89cc65	1.0765501
25	0x3f88679a	1.0656617
26	0x3f908e3d	1.1293408
27	0x3f99b97d	1.2009732
28	0x3f8c3869	1.0954715
29	0x3f94c0e0	1.1621361
30	0x3f91fc9c	1.1405215
31	0x3f9839dc	1.1892657
32	0x3f98ca35	1.1936709
33	0x3f889379	1.0670005
34	0x3fa3be36	1.2792423
35	0x3f99656f	1.198408
36	0x3f9355fa	1.1510613
37	0x3f91dd31	1.1395627
38	0x3f9257f8	1.1433096
39	0x3f8a8706	1.0822456

net.4.bias f4 [40]
0	0x3ddfa577	0.10920232
1	0xbe8cc1fc	-0.27491748
2	0x3d5bcc55	0.053661663
3	0x3d75d32a	0.060015835
4	0x3e30d5a7	0.17269002
5	0x3dc4f06f	0.096161716
6	0x3c74abf0	0.014933571
7	0x3ec4d6e4	0.384452
8	0x3d98b0e1	0.07455612
9	0x3d962f17	0.073332004
10	0x3db6bb9d	0.08922503
11	0x3dfad938	0.122484624
12	0x3dba54e8	0.09098226
13	0x3d30b286	0.043139003
14	0xbe5885a0	-0.21144724
15	0x3d8e9aeb	0.06963142
16	0x3d809de5	0.06280116
17	0x3dc48702	0.09596063
18	0x3d109c1d	0.03530513
19	0x3daf8d17	0.085718326
20	0x3d9ab865	0.07554702
21	0x3e52478b	0.20535104
22	0x3d893e5a	0.06701346
23	0xbdb9a2a9	-0.09064228
24	0x3d954490	0.07288468
25	0x3dd44988	0.103655875
26	0x3c89bfb1	0.016815038
27	0x3d944836	0.07240336
28	0x3dd3c580	0.103404045
29	0xbe2a3d57	-0.16624962
30	0xbcce6cb0	-0.02519831
31	0x3e449637	0.19197927
32	0xbdabd0aa	-0.08389409
33	0x3e0a74f5	0.13521178
34	0xbe37bfad	-0.17944212
35	0x3cf2c242	0.029633645
36	0xbd029feb	-0.03189079
37	0x3dc391d8	0.09549302
38	0x3d5550de	0.052079074
39	0x3da2b5cd	0.07944832

net.6.weight f4 [1, 40]
0	0x3eb62ebb	0.35582528
1	0xbf5e9c30	-0.86957073
2	0x3ea92672	0.33037144
3	0x3e85dea8	0.26146436
4	0x3f070706	0.5274509
5	0xbe53004b	-0.2060558
6	0xbed85932	-0.4225555
7	0x3f312144	0.69191384
8	0x3e777462	0.2416549
9	0x3f1be116	0.6089033
10	0xbc9eacdf	-0.01936954
11	0xbebd47a1	-0.3696871
12	0x3d9b0d7d	0.07570932
13	0xbec3c191	-0.38233617
14	0xbf1d8982	-0.61537945
15	0x3ed6b0bd	0.41931716
16	0x3ef9876d	0.48736134
17	0x3e37329a	0.17890397
18	0x3e9d57f2	0.3073116
19	0x3d712c24	0.058879986
20	0x3ad27207	0.0016055711
21	0x3f318f16	0.69358957
22	0x3e7aab6c	0.24479455
23	0xbf2ed1f6	-0.68289125
24	0xbd59137e	-0.052997105
25	0xbd1b0bfa	-0.03785322
26	0x3eb881bc	0.3603648
27	0x3f11a795	0.56896335
28	0x3e4422b8	0.19153869
29	0x3f0cc920	0.5499439
30	0x3eac4d6b	0.33652815
31	0xbf174dbc	-0.5910299
32	0x3f19fca6	0.60151136
33	0x3e153f69	0.1457497
34	0xbf3e2b37	-0.7428469
35	0x3f167353	0.5876972
36	0x3ee0f30d	0.43935433
37	0x3ed79733	0.42107543
38	0x3ed09f56	0.40746564
39	0x3e04cb55	0.1296819
