Results_paper/regression/10-shot/5_modes/hard/it4/reptile/3te_model.pt (torch, 124707 bytes, 20 tensors)

te_net.0.weight f4 [32, 2]
0.43969 0.05290047 0.056398295 0.40355965 -0.47260216 0.56295717 -0.5930499 -0.7125381
0.017838107 -0.6756269 -0.33361608 -0.39959678 0.34903395 -0.29182315 0.48546827 -0.2893622
-0.13814938 -0.43545234 -0.34580567 0.27677995 0.5961874 -0.6650808 -0.27405494 -0.26367155
-0.19490469 -0.2962564 -0.3224199 -0.20076774 -0.12219799 0.19457577 -0.54833275 0.012788352
0.068179265 -0.6236685 0.4136489 0.23522182 -0.39843604 0.6625681 0.4510985 -0.54336196
0.56518215 -0.4349064 0.66543007 0.19196069 0.35936564 -0.049421564 0.37439424 -0.49479705
-0.6175644 0.5907824 -0.54375094 -0.50651705 0.498857 -0.16046023 0.2113423 -0.2915826
0.1565691 -0.47966424 0.6252572 -0.71157056 0.470299 -0.40472922 -0.6037156 -0.2025392
00000000: 0c1f e13e 2aae 583d e601 673d 5f9f ce3e
00000010: e9f8 f1be f61d 103f 1ed2 17bf e668 36bf
00000020: 3921 923c e2f5 2cbf bacf aabe f397 ccbe
00000030: 94b4 b23e d869 95be 4c8f f83e 4827 94be
00000040: 0877 0dbe 9cf3 debe 710d b1be 1ab6 8d3e
00000050: bd9f 183f bc42 2abf ee50 8cbe f5ff 86be
00000060: 1895 47be ebae 97be 3914 a5be 0f96 4dbe
00000070: f142 fabd df3e 473e 895f 0cbf 3c86 513c
00000080: 92a1 8b3d bda8 1fbf cac9 d33e fddd 703e
00000090: cfff cbbe 109e 293f 62f6 e63e c519 0bbf
000000a0: c7af 103f 0dac debe a059 2a3f 5891 443e
000000b0: c6fe b73e 446e 4abd 9ab0 bf3e 0a56 fdbe
000000c0: b318 1ebf 843d 173f 4333 0bbf 1aab 01bf
000000d0: 2f6a ff3e b04f 24be 1e6a 583e 514a 95be
000000e0: a653 203e 8d96 f5be db10 203f 7d29 36bf
000000f0: 08cb f03e ab38 cfbe 1b8d 1abf 7066 4fbe

te_net.0.bias f4 [32]
-0.20451546 0.433998 0.12936966 -0.057300534 0.5907314 0.53543437 0.33002773 0.10540574
-0.041493226 0.09269379 0.6975157 -0.41399765 0.054002736 0.24051245 -0.45445737 -0.4979418
-0.47880265 0.06672345 -0.17695811 0.30006504 -0.1691061 0.6939818 0.22971998 -0.37467358
-0.5181399 0.42810395 0.16475746 0.054934133 0.69344366 -0.61613387 -0.5933284 -0.4527419
00000000: 806c 51be fc34 de3e 7b79 043e f7b3 6abd
00000010: 2c3a 173f 3a12 093f 65f9 a83e f7de d73d
00000020: cdf4 29bd 3ed6 bd3d 6490 323f 80f7 d3be
00000030: f931 5d3d e548 763e a3ae e8be 3af2 febe
00000040: 9f25 f5be 4ea6 883d 8234 35be 20a2 993e
00000050: 262a 2dbe cba8 313f b73b 6b3e 37d5 bfbe
00000060: d1a4 04bf 7130 db3e 2eb6 283e 9d02 613d
00000070: 8685 313f f3ba 1dbf 5fe4 17bf c9cd e7be

te_net.2.weight f4 [32, 32]
-0.12044703 0.12404187 -0.13773985 0.11300343 -0.06796016 0.100358196 -0.005448369 0.10655099
-0.058341302 -0.07213943 0.15461706 -0.018030535 0.09185522 0.0659326 -0.1724734 0.03608012
-0.0146277305 -0.12611389 0.14355622 0.042412724 0.11107575 0.16358514 -0.11277518 0.070909
-0.16847457 -0.11586547 0.14161101 0.004201187 0.13606629 -0.06956975 0.14939412 0.15080695
0.070746645 -0.044893228 -0.06902683 0.13109815 -0.040944472 0.03000958 0.10173131 0.10091642
0.010128393 0.083707824 0.10330648 -0.0076938746 -0.12680958 0.1670912 -0.14628196 -0.079658486
-0.06509502 0.08546691 -0.09561907 -0.058106884 -0.083572246 -0.115467824 0.025454981 -0.08468803
-0.0019982278 -0.049476277 -0.14124696 0.048420858 -0.06709151 0.10167543 -0.0108518265 0.13271776
-0.16852424 -0.09381421 0.08751049 -0.14482549 -0.04631788 -0.07312435 -0.01884167 0.09495856
0.14923275 -0.01930022 0.15723866 0.057028253 -0.17022657 0.14249787 -0.12139135 -0.08523867
0.10881126 0.16556798 0.013857964 0.15099712 0.16864139 0.10994218 -0.031217298 0.09446972
-0.07735058 -0.12066585 0.011604806 -0.014274632 -0.041122064 -0.036991436 0.047199305 0.051188152
0.1293925 0.03527035 -0.09404689 0.17939788 0.12639302 0.09509736 -0.098887786 -0.07248788
0.034476865 0.033726424 0.041594256 0.09415902 -0.06408464 0.09767766 0.021223811 -0.120380916
-0.09143973 0.014419194 0.13767454 -0.13725977 -0.08867266 0.044171195 0.036278747 -0.018894559
0.093381524 -0.07370533 -0.054372773 0.15890145 -0.112418465 0.14184976 -0.10361363 -0.117979944
-0.074719876 -0.0994584 0.09388598 0.067496605 0.06557637 -0.05611924 -0.07943824 0.079044275
-0.16528879 0.16744964 0.045708355 -0.17059103 0.06586464 0.047295228 -0.1037027 -0.1105228
0.07343586 -0.026299585 -0.10714395 -0.055864725 0.119853064 -0.10363531 -0.06048159 -0.058993436
-0.11585226 -0.02102703 -0.12282386 0.15668419 0.034030974 0.08986259 0.082072794 -0.09982954
0.121067494 -0.050593913 -0.077830024 -0.1717568 -0.11864379 -0.040384877 -0.10503258 0.08152394
-0.14509267 0.041764468 -0.025994837 -0.08775279 0.0023711817 -0.15044901 -0.094437614 0.07808839
0.1432447 0.06557287 0.023677334 -0.173026 0.012131959 0.031281702 0.09636338 0.12744072
0.043089584 -0.079163566 0.05297847 0.13530229 -0.10557629 -0.061787076 -0.11539781 0.12941478
-0.06771706 0.0881189 -0.10864703 -0.08229128 0.19657144 0.15323624 0.03172201 -0.021384392
0.11256764 0.07556809 0.11248047 -0.16225167 0.059544183 0.16031387 -0.09271663 0.06880824
0.04567588 -0.034743622 0.058400728 0.14311683 -0.13572685 -0.12882844 -0.13336323 -0.051816512
-0.0016466188 -0.05246534 0.108873405 -0.1563325 -0.15276699 0.029337376 0.007291372 0.11821043
0.050539568 0.043731187 0.17135127 -0.07745337 0.056876864 0.054837983 0.102116875 0.14144047
-0.005137559 -0.10110041 -0.029114446 -0.14175783 -0.15603071 0.13049695 0.11083508 0.06160192
0.07593136 0.13962638 -0.13943906 0.0019444588 -0.083551325 -0.023403522 0.11148976 0.040722877
0.123070195 -0.14970165 -0.18316318 -0.059153743 0.10227071 0.048703868 0.07323379 -0.014147507
00000000: efac f6bd aa09 fe3d ad0b 0dbe 586e e73d
00000010: b22e 8bbd 9988 cd3d 3b88 b2bb 6837 da3d
00000020: 4af7 6ebd d6bd 93bd ef53 1e3e c6b4 93bc
00000030: 971e bc3d ac07 873d de9c 30be bfc8 133d
00000040: 26a9 6fbc 0024 01be 6700 133e f7b8 2d3d
00000050: af7b e33d dd82 273e acf6 e6bd bd38 913d
00000060: 9984 2cbe e04a edbd 7a02 113e 1caa 893b
00000070: f654 0b3e 967a 8ebd c6fa 183e 236d 1a3e
00000080: 9ee3 903d f6e1 37bd f05d 8dbd 983e 063e
00000090: 64b5 27bd a7d6 f53c 8158 d03d 45ad ce3d
000000a0: 8ff1 253c 026f ab3d 5992 d33d e61c fcbb
000000b0: 5fda 01be f519 2b3e f0ca 15be fd23 a3bd
000000c0: 8a50 85bd 4609 af3d eed3 c3bd 7c01 6ebd
000000d0: ed27 abbd 657a ecbd f786 d03c eb70 adbd
000000e0: b3f4 02bb a3a7 4abd 0ba3 10be f354 463d
000000f0: 4667 89bd 353b d03d dccb 31bc 2ae7 073e
00000100: 9e91 2cbe aa21 c0bd b338 b33d 224d 14be
00000110: d1b7 3dbd 38c2 95bd d959 9abc a279 c23d
00000120: 78d0 183e 7f1b 9ebc 2c03 213e 7596 693d
00000130: e04f 2ebe f6ea 113e 079c f8bd 9d91 aebd
00000140: 70d8 de3d a78a 293e 840c 633c fd9e 1a3e
00000150: 54b0 2c3e 5e29 e13d 6bbb ffbc 5779 c13d
00000160: fb69 9ebd a81f f7bd 1622 3e3c 25e0 69bc
00000170: 9c6f 28bd 5584 17bd 0f54 413d abaa 513d
00000180: 787f 043e a477 103d a89b c0bd 14b4 373e
00000190: 2c6d 013e 68c2 c23d ae85 cabd 8774 94bd
000001a0: 9d37 0d3d b824 0a3d bd5e 2a3d 72d6 c03d
000001b0: cf3e 83bd 3a0b c83d 8fdd ad3c 458a f6bd
000001c0: c144 bbbd 7c3e 6c3c 8efa 0c3e d38d 0cbe
000001d0: 039a b5bd dbec 343d 0699 143d c3c8 9abc
000001e0: d03e bf3d d2f2 96bd fcb5 5ebd 10b7 223e
000001f0: a73b e6bd 1041 113e 6233 d4bd 789f f1bd
00000200: bc06 99bd d8b0 cbbd 4b47 c03d a93b 8a3d
00000210: e74c 863d 4add 65bd 84b0 a2bd f7e1 a13d
00000220: 7741 29be eb77 2b3e af38 3b3d 6aaf 2ebe
00000230: 0ae4 863d a4b8 413d 1562 d4bd c759 e2bd
00000240: 8a65 963d 3a72 d7bc 4a6e dbbd 69d2 64bd
00000250: 8675 f53d c03e d4bd 8bbb 77bd 1aa3 71bd
00000260: f343 edbd e140 acbc 138b fbbd d271 203e
00000270: 1064 0b3d e109 b83d c815 a83d 6e73 ccbd
00000280: 3cf2 f73d 903b 4fbd 5965 9fbd 04e1 2fbe
00000290: 84fb f2bd 9d6a 25bd 521b d7bd 06f6 a63d
000002a0: 2c93 14be 3811 2b3d 20f3 d4bc bcb7 b3bd
000002b0: d465 1b3b 4e0f 1abe 8268 c1bd ceec 9f3d
000002c0: bdae 123e 124b 863d f8f6 c13c ba2d 31be
000002d0: 20c5 463c 3e21 003d 2a5a c53d d27f 023e
000002e0: b47e 303d 8220 a2bd f4ff 583d af8c 0a3e
000002f0: 6238 d8bd 7214 7dbd b055 ecbd 4f85 043e
00000300: 3eaf 8abd af77 b43d 5682 debd 5588 a8bd
00000310: 064a 493e f6e9 1c3e f0ee 013d 522e afbc
00000320: dd89 e63d 71c3 9a3d 295c e63d 4d25 26be
00000330: 9ae4 733d 5229 243e 37e2 bdbd 56eb 8c3d
00000340: a216 3b3d 544f 0ebd 9a35 6f3d 388d 123e
00000350: fbfb 0abe 9aeb 03be 5f90 08be 8d3d 54bd
00000360: 5cd3 d7ba e5e5 56bd 05f9 de3d a015 20be
00000370: f36e 1cbe f054 f03c 76ec ee3b 4f18 f23d
00000380: 9402 4f3d 791f 333d b576 2f3e df9f 9ebd
00000390: b7f7 683d cb9d 603d a722 d13d c5d5 103e
000003a0: f858 a8bb bb0d cfbd 6b81 eebc f728 11be
000003b0: 84c6 1fbe fea0 053e 81fd e23d 4b52 7c3d
000003c0: e781 9b3d 38fa 0e3e 1dc9 0ebe 36dd fe3a
000003d0: f51c abbd beb8 bfbc be54 e43d 08cd 263d
000003e0: 3a0c fc3d 644b 19be 218f 3bbe 324b 72bd
000003f0: 4e73 d13d b57d 473d 99fb 953d f2ca 67bc

te_net.2.bias f4 [32]
0.113273226 -0.053763527 0.114893846 0.08740772 -0.16364332 -0.13633262 -0.14225112 0.048155963
-0.12470279 -0.092776634 -0.11085849 0.017780147 -0.07534491 0.028087383 -0.017823994 0.00073056447
0.012544369 -0.06799404 0.16274132 -0.1629241 0.07491701 -0.07703213 -0.12658639 -0.060905423
-0.15891583 0.17855182 0.0020420407 -0.11409707 0.01169174 -0.049482733 0.16514736 -0.07708551
00000000: cbfb e73d 2537 5cbd 774d eb3d d202 b33d
00000010: 1d92 27be c79a 0bbe 47aa 11be 303f 453d
00000020: 2d64 ffbd ad01 bebd c709 e3bd aca7 913c
00000030: 6f4e 9abd 8317 e63c a003 92bc 5a83 3f3a
00000040: e686 4d3c 7640 8bbd a9a5 263e 93d5 26be
00000050: 176e 993d 05c3 9dbd dd9f 01be f777 79bd
00000060: d5ba 22be 4ad6 363e c2d3 053b baab e9bd
00000070: b68e 3f3c 68ae 4abd 641c 293e 02df 9dbd

te_net.4.weight f4 [64, 32]
-0.040085983 -0.16453643 0.026074378 0.14384331 -0.17549536 -0.15654518 0.04327952 0.008083897
0.11024157 -0.035184436 -0.031272262 -0.020538641 0.1378643 -0.029539702 -0.06536128 -0.15774995
-0.16796154 -0.0074673393 0.17781527 -0.16242766 -0.10128064 -0.06389374 -0.010031201 0.11688205
-0.015854554 0.09411616 0.13651696 0.094824426 -0.089756526 -0.103815295 -0.12927055 -0.1353432
0.004611032 -0.16763997 -0.13449529 0.14807533 0.18036927 0.11502733 -0.103395 -0.11606407
0.10529682 0.119459145 0.12502463 -0.13305455 -0.043510947 -0.012070531 -0.12640683 0.14302418
0.09393905 0.15829073 0.14794815 0.15776691 -0.14137635 0.12097989 -0.05315567 0.036987886
0.14029916 0.051406745 -0.016492074 0.053880196 -0.14033826 0.026675269 -0.0020812931 -0.04284209
-0.02992698 0.05874221 -0.028626475 -0.037876464 -0.16708903 -0.08469108 -0.09582004 -0.0784402
0.09818102 0.005287238 -0.0028590735 0.16181916 0.026957966 -0.13045102 0.11896365 -0.12607823
-0.046372954 -0.12398071 -0.07762194 0.031924047 -0.16103354 0.08486228 0.16510192 0.034369763
0.03741091 -0.16393448 -0.081054986 0.09072406 0.14075772 0.033587497 0.012175381 0.08363401
-0.05622997 -0.08584723 0.17468502 0.02955115 -0.0926001 0.10656491 0.12239744 0.10957892
0.045054663 0.1120911 -0.014915256 0.13621734 -0.09546413 -0.12979265 -0.08795708 0.16967733
-0.0962694 0.033355445 -0.13044696 0.09731575 0.03050666 0.011979293 -0.17209716 -0.13140799
0.07857393 -0.040713213 -0.046808023 0.079746984 0.047960162 -0.17111719 -0.15052415 0.09081226
-0.08964584 0.14833781 0.005697287 -0.016382348 0.09460855 0.082296215 0.10834914 0.10297023
-0.1704506 0.06663374 0.15407835 -0.13982527 0.07522663 -0.061300185 -0.008437353 -0.08580377
0.055817287 -0.012160388 0.114413925 -0.106133975 0.052884392 -0.14300086 -0.16493152 -0.06616341
-0.16669868 -0.025218168 0.03538407 -0.08775629 -0.1091219 0.12804827 0.066454686 -0.14356795
0.026873589 -0.13395378 0.0778132 0.011532677 -0.060602684 -0.13298829 -0.12931775 -0.092057176
-0.10551986 -0.08933442 0.09587458 -0.11240425 0.097509444 -0.08360189 -0.104889356 0.15480192
0.0045727063 0.15857375 -0.1698726 -0.07474542 -0.16612999 -0.10031877 -0.12769978 0.037760653
-0.10317268 0.14785147 0.072205596 0.13089341 0.098052554 0.05023329 -0.122835115 -0.18542393
0.1392271 -0.004290424 0.09199893 0.06913662 0.104742564 0.013343263 -0.02277929 -0.009157516
-0.0005022218 -0.005358194 -0.10147118 0.012884335 0.15198702 0.095463865 -0.011148628 -0.16718434
-0.039154384 -0.018392095 -0.15713848 -0.058230106 0.06765928 0.028924413 -0.11797885 -0.08756693
0.003086824 -0.15083228 -0.07432294 0.036527276 0.053836655 0.114812315 -0.068998404 0.03500205
0.15958343 0.12916037 -0.16567391 0.0015014515 -0.05994606 0.12742887 0.1426938 0.056954306
-0.0129675735 0.05339794 -0.01516722 0.059660356 -0.068757765 0.12971137 -0.003778071 -0.08479576
-0.17182453 0.09100108 0.09284167 0.14986512 0.10084641 0.14941673 -0.14775597 0.1554672
0.14015226 0.10127101 0.16882691 -0.041038234 -0.15106949 0.17216162 0.03981313 -0.16437852
00000000: 3331 24bd 3d7c 28be ef99 d53c a94b 133e
00000010: 0eb5 33be 614d 20be de45 313d 5272 043c
00000020: 55c6 e13d 8e1d 10bd 5817 00bd a740 a8bc
00000030: 4d2c 0d3e 3ffd f1bc 23dc 85bd 3489 21be
00000040: 1cfe 2bbe 95b0 f4bb 3515 363e 7053 26be
00000050: 396c cfbd b9da 82bd e859 24bc db5f ef3d
00000060: 69e1 81bc f9bf c03d 1acb 0b3e 4f33 c23d
00000070: 45d2 b7bd 1d9d d4bd 805f 04be 6897 0abe
00000080: 2418 973b d0a9 2bbe 22b9 09be 0fa1 173e
00000090: b9b2 383e 7393 eb3d c2c0 d3bd 00b3 edbd
000000a0: dca5 d73d ffa6 f43d 7506 003e 743f 08be
000000b0: 8938 32bd 7ac3 45bc cb70 01be ee74 123e
000000c0: 1e63 c03d f716 223e b87f 173e a68d 213e
000000d0: f6c4 10be 4ec4 f73d c3b9 59bd 9c80 173d
000000e0: 95aa 0f3e e18f 523d 631a 87bc 7bb1 5c3d
000000f0: d5b4 0fbe 1886 da3c 4e66 08bb 307b 2fbd
00000100: 6d29 f5bc ac9b 703d 1282 eabc 5a24 1bbd
00000110: 6319 2bbe 8472 adbd 4c3d c4bd 41a5 a0bd
00000120: 2113 c93d 9140 ad3b 4b5f 3bbb ecb3 253e
00000130: f4d6 dc3c f494 05be 37a3 f33d a71a 01be
00000140: 91f1 3dbd 99e9 fdbd 40f8 9ebd cac2 023d
00000150: fae5 24be 46cc ad3d 7a10 293e 4fc7 0c3d
00000160: 2f3c 193d 71de 27be 2800 a6bd 89cd b93d
00000170: cb22 103e 0b93 093d 407b 473c 4f48 ab3d
00000180: 6651 66bd acd0 afbd a1e0 323e 4115 f23c
00000190: 1fa5 bdbd b43e da3d 82ab fa3d ea6a e03d
000001a0: 3d8b 383d 0590 e53d 1e5f 74bc 8f7c 0b3e
000001b0: b382 c3bd 5de8 04be d722 b4bd e5bf 2d3e
000001c0: e428 c5bd b89f 083d e393 05be 7b4d c73d
000001d0: 1ae9 f93c cc44 443c 3d3a 30be d18f 06be
000001e0: 5eeb a03d e6c2 26bd c5b9 3fbd 6352 a33d
000001f0: e071 443d 5839 2fbe 0123 1abe c7fb b93d
00000200: 3d98 b7bd dee5 173e 4fb0 ba3b 4634 86bc
00000210: 21c2 c13d eb8a a83d 27e6 dd3d 0ee2 d23d
00000220: 9a8a 2ebe 4577 883d b7c6 1d3e 5b2e 0fbe
00000230: 6b10 9a3d e715 7bbd d33c 0abc e3b9 afbd
00000240: aba0 643d 5d3c 47bc d951 ea3d c55c d9bd
00000250: 4e9d 583d d16e 12be cfe3 28be af80 87bd
00000260: 0fb3 2abe 5596 cebc e3ee 103d 92b9 b3bd
00000270: 4d7b dfbd 161f 033e 6519 883d 7a03 13be
00000280: 0026 dc3c 2e2b 09be 875c 9f3d 8ef3 3c3c
00000290: 853a 78bd 152e 08be df6b 04be 7988 bcbd
000002a0: cc1a d8bd f7f4 b6bd e459 c43d 3334 e6bd
000002b0: 08b3 c73d 7837 abbd 3bd0 d6bd 6584 1e3e
000002c0: a4d6 953b 2861 223e 15f3 2dbe 2014 99bd
000002d0: fb1d 2abe ed73 cdbd bbc3 02be eaaa 1a3d
000002e0: 334c d3bd 6066 173e 87e0 933d ec08 063e
000002f0: c7cf c83d 6cc1 4d3d fa90 fbbd c5df 3dbe
00000300: 8d91 0e3e af96 8cbb ef69 bc3d 8097 8d3d
00000310: 4583 d63d b49d 5a3c a29b babc 6809 16bc
00000320: 89a7 03ba ca93 afbb 1fd0 cfbd d118 533c
00000330: 7ca2 1b3e 8f82 c33d bca8 36bc 5f32 2bbe
00000340: 5960 20bd 05ab 96bc e9e8 20be b182 6ebd
00000350: f390 8a3d e4f2 ec3c e59e f1bd 4a56 b3bd
00000360: 504c 4a3b c773 1abe a036 98bd a09d 153d
00000370: d383 5c3d b822 eb3d 094f 8dbd 4f5e 0f3d
00000380: d769 233e 9e42 043e 6ca6 29be 5acc c43a
00000390: 008a 75bd b77c 023e 531e 123e eb48 693d
000003a0: f275 54bc ccb7 5a3d ee7f 78bc 6b5e 743d
000003b0: dfd0 8cbd 0fd3 043e 8399 77bb 66a9 adbd
000003c0: c5f2 2fbe c65e ba3d c623 be3d 3e76 193e
000003d0: 9088 ce3d b300 193e 574d 17be cb32 1f3e
000003e0: 1384 0f3e 2d67 cf3d f6e0 2c3e b517 28bd
000003f0: f6b1 1abe 234b 303e 1813 233d d852 28be

te_net.4.bias f4 [64]
0.13821304 -0.122630715 -0.060432553 -0.15354648 -0.14338137 -0.16719617 -0.0029738632 -0.088242225
-0.059661366 -0.07760537 -0.010522656 -0.066929914 -0.094341606 -0.14019267 -0.1600767 0.17340206
0.10254966 0.013373672 0.13319594 0.14977708 0.065113135 -0.11718644 -0.16067073 0.15897125
-0.029355265 0.009964646 -0.0073354547 0.13748923 -0.08855291 -0.0705627 0.12421527 0.14483643
-0.010194037 0.10972007 -0.033144563 -0.022254026 0.05713941 0.11760542 -0.055232838 -0.15135987
0.11183363 -0.07231759 0.15019624 0.14475362 0.15591647 -0.08079652 0.15037087 0.13138334
-0.08928346 -0.053701736 -0.13619594 -0.018256905 0.12165291 0.06944956 0.02462097 0.05855351
0.049718093 -0.1652701 -0.056113265 0.041950155 0.08389663 -0.011285725 0.042566273 -0.15010378
00000000: b887 0d3e d025 fbbd 2088 77bd 4a3b 1dbe
00000010: 91d2 12be 7935 2bbe 25e5 42bb 57b8 b4bd
00000020: 7a5f 74bd 90ef 9ebd 3867 2cbc 8d12 89bd
00000030: 2c36 c1bd ab8e 0fbe 25eb 23be 4f90 313e
00000040: 8e05 d23d 3f1d 5b3c 8464 083e 2a5f 193e
00000050: 095a 853d 72ff efbd de86 24be 5cc9 223e
00000060: 747a f0bc c142 233c 415e f0bb fac9 0c3e
00000070: 3a5b b5bd 2d83 90bd 9364 fe3d 0050 143e
00000080: e404 27bc ebb4 e03d 98c2 07bd 134e b6bc
00000090: 040b 6a3d 1cdb f03d d43b 62bd 15fe 1abe
000000a0: 0809 e53d 3f1b 94bd 0bcd 193e 4b3a 143e
000000b0: 91a8 1f3e a578 a5bd d2fa 193e 5b89 063e
000000c0: 3fda b6bd 5af6 5bbd f376 0bbe 818f 95bc
000000d0: 2925 f93d 923b 8e3d ebb1 c93c ced5 6f3d
000000e0: 33a5 4b3d 913c 29be 06d7 65bd edd3 2b3d
000000f0: ffd1 ab3d c3e7 38bc f959 2e3d ceb4 19be

classifier.0.weight f4 [128, 64]
-0.04996133 0.022481825 0.06278093 0.07695632 0.09711839 -0.09148426 -0.10056114 -0.069312304
0.002808303 0.009830203 -0.02214551 -0.034139317 -0.027186744 0.13012537 -0.096989475 0.050957352
-0.0943436 0.1064852 0.0015505545 0.057435088 0.022235878 0.044150416 0.05371591 -0.11349866
-0.098761976 -0.08668763 0.03358496 0.04845414 -0.031921007 -0.056163613 -0.0621091 0.009396992
-0.07564069 -0.019080613 0.102892734 0.034173455 -0.0029921343 0.012138781 -0.06106393 -0.088090405
0.0906247 0.048031975 -0.0032835347 0.00022118258 0.03196047 0.022157833 0.008206161 -0.093286365
-0.106547244 0.062388588 0.06517391 -0.048361905 0.004040345 -0.06843694 0.02088934 -0.10700806
-0.09623307 0.074550435 -0.04514452 -0.096391894 0.08651491 -0.10928996 0.008877972 0.10409363
0.09493334 -0.0017846214 -0.009514958 -0.038422026 0.05313816 0.124601625 0.09354701 0.077186935
-0.024065848 -0.11200019 -0.028591603 0.11782528 0.096354365 -0.025357531 0.025114087 -0.12417903
-0.11574881 -0.009242039 0.0059114075 -0.022898752 -0.058465034 -0.122522466 -0.035396352 -0.017912269
0.039390035 -0.07389814 0.07759181 -0.10585895 0.119729325 0.096721 -0.0047076824 0.08485612
-0.11980766 0.058417495 0.120857105 -0.08614739 0.049995646 0.058444683 0.018659648 0.09369687
0.077900976 0.08987585 0.03263542 0.08744603 0.0037857033 -0.04611419 0.10633761 -0.0055499366
0.06785336 -0.043084305 -0.11894552 0.05451993 0.046165142 0.03607736 -0.0853053 -0.10847138
0.0074400143 -0.0061436375 -0.08362311 0.119567536 -0.071158126 -0.05501642 -0.05736536 0.08304783
-0.024346624 0.027485667 -0.03136888 0.10024098 -0.00014076073 0.04497566 -0.09499055 -0.044495493
-0.013484733 -0.055550348 0.020157754 0.114805125 0.03191541 0.107765816 0.0679743 0.054652475
-0.009846911 -0.028606096 -0.10679555 -0.050801 -0.08414128 0.07431863 -0.06790707 0.057852592
0.022657586 0.06769988 -0.030323401 0.035206717 -0.070541464 0.12265453 -0.07659384 0.067868866
0.071928084 0.10009777 0.012071986 0.074717276 -0.06879382 0.047005195 0.023916425 0.029124428
-0.029356949 -0.04063492 0.058312904 0.012586674 -0.057815395 0.018037453 -0.085357554 0.012057845
-0.04744551 -0.11696136 -0.05077757 0.006269273 -0.084230766 -0.05801107 0.068129115 -0.08797446
0.111830056 -0.008789231 0.020233266 0.033756886 -0.10289483 0.10216026 -0.05442649 0.07959769
-0.0703835 -0.1190095 0.015097603 -0.05010439 0.073148385 0.034048595 0.105557606 0.023364456
0.04155461 -0.09877832 0.059598565 -0.07750691 -0.07117627 -0.04288944 -0.09088659 0.117341585
-0.087896466 0.012870769 0.122089796 -0.016829662 0.003655584 -0.05645116 0.09050801 0.013557
0.10158015 -0.0942556 -0.106092736 0.09808566 0.0062982887 -0.03705397 -0.000104671686 0.06862115
-0.0017306432 0.08346003 -0.05064494 -0.08334422 -0.11514739 -0.07910898 -0.11716484 -0.04306429
-0.11289834 -0.0962301 0.09382292 -0.11171045 0.1257945 -0.10329804 0.08815526 0.012668674
0.029941114 -0.0752221 -0.11574529 0.120403536 0.08275229 0.016754324 0.036564667 -0.058327306
-0.07827799 0.019756705 0.01628742 0.12317699 -0.04903621 -0.027857691 -0.12592782 0.013660455
00000000: 40a4 4cbd ce2b b83c 4a93 803d 469b 9d3d
00000010: 02e6 c63d 1a5c bbbd 00f3 cdbd 9cf3 8dbd
00000020: 820b 383b dc0e 213c 806a b5bc abd5 0bbd
00000030: bcb6 debc 963f 053e 6ba2 c6bd a8b8 503d
00000040: 3837 c1bd ea14 da3d fa3b cb3a 0e41 6b3d
00000050: 0428 b63c 11d7 343d 3705 5c3d fc71 e8bd
00000060: b843 cabd 4989 b1bd 6290 093d d977 463d
00000070: 9abf 02bd d10b 66bd 1d66 7ebd d7f5 193c
00000080: 82e9 9abd f24e 9cbc 6db9 d23d 77f9 0b3d
00000090: af17 44bb bde1 463c 2c1e 7abd be68 b4bd
000000a0: 7199 b93d 2dbd 443d 9230 57bb 3fed 6739
000000b0: fbe8 023d 5884 b53c 2273 063c ec0c bfbd
000000c0: 7135 dabd 2d8b 7f3d e679 853d 2217 46bd
000000d0: df64 843b ab28 8cbd 1f20 ab3c 0b27 dbbd
000000e0: d815 c5bd e6ad 983d 76e9 38bd 1d69 c5bd
000000f0: bb2e b13d 6ad3 dfbd ea74 113c 0b2f d53d
00000100: 696c c23d f5e9 e9ba a0e4 1bbc 6a60 1dbd
00000110: 66a7 593d 232f ff3d 9395 bf3d 2f14 9e3d
00000120: be25 c5bc 5b60 e5bd f038 eabc 614e f13d
00000130: 7055 c53d 99ba cfbc 0fbc cd3c 9351 febd
00000140: b60d edbd ec6b 17bc 7bb4 c13b 2a96 bbbc
00000150: 0879 6fbd 0fed fabd c4fb 10bd c0bc 92bc
00000160: 7257 213d e857 97bd 74e8 9e3d 94cc d8bd
00000170: a634 f53d a915 c63d e742 9abb 0cc9 ad3d
00000180: b85d f5bd 2f47 6f3d ee83 f73d 0b6e b0bd
00000190: 3cc8 4c3d b163 6f3d 1edc 983c 25e4 bf3d
000001a0: 8c8a 9f3d d410 b83d b8ac 053d e716 b33d
000001b0: 9019 783b 3ce2 3cbd 88c7 d93d 3edc b5bb
000001c0: b4f6 8a3d 2b79 30bd b599 f3bd 4a50 5f3d
000001d0: a917 3d3d dbc5 133d 8cb4 aebd 3e26 debd
000001e0: 5dcb f33b 9150 c9bb 9842 abbd d3df f43d
000001f0: 5abb 91bd e658 61bd f1f7 6abd fb14 aa3d
00000200: 9272 c7bc 9f29 e13c a87c 00bd 254b cd3d
00000210: 2c99 13b9 6638 383d 688a c2bd e840 36bd
00000220: 12ef 5cbc c388 63bd e021 a53c f31e eb3d
00000230: bcb9 023d 53b4 dc3d 1c36 8b3d 46db 5f3d
00000240: f054 21bc 5557 eabc a0b7 dabd b614 50bd
00000250: 4352 acbd 5e34 983d dd12 8bbd d7f6 6c3d
00000260: 679c b93c 3ca6 8a3d c868 f8bc eb34 103d
00000270: 0b78 90bd 4c32 fb3d 3bdd 9cbd d5fe 8a3d
00000280: 084f 933d 0f00 cd3d 94c9 453c 5f05 993d
00000290: c6e3 8cbd 8588 403d 61ec c33c 5a96 ee3c
000002a0: fc7d f0bc cd70 26bd 83d9 6e3d 5638 4e3c
000002b0: d6cf 6cbd 48c3 933c f1cf aebd 448e 453c
000002c0: 3956 42bd 7089 efbd 24fc 4fbd 796e cd3b
000002d0: 2e81 acbd 049d 6dbd 4787 8b3d f42b b4bd
000002e0: 2807 e53d b500 10bc 3cc0 a53c a944 0a3d
000002f0: 86ba d2bd 6639 d13d 50ee 5ebd 1d04 a33d
00000300: 3925 90bd 41bb f3bd f05b 773c 433a 4dbd
00000310: d2ce 953d 8a76 0b3d 962e d83d d166 bf3c
00000320: 2b35 2a3d 4a4c cabd a01d 743d f1bb 9ebd
00000330: ddc4 91bd d6ac 2fbd c022 babd c950 f03d
00000340: 1003 b4bd ebdf 523c 370a fa3d 5cde 89bc
00000350: 8692 6f3b 5539 67bd 435c b93d 2e1e 5e3c
00000360: 4109 d03d 1409 c1bd 2647 d9bd 22e1 c83d
00000370: e061 ce3b e7c5 17bd 2f83 dbb8 3f89 8c3d
00000380: c0d6 e2ba 18ed aa3d 1271 4fbd 60b0 aabd
00000390: 65d2 ebbd e403 a2bd 1ff4 efbd 2e64 30bd
000003a0: 3f37 e7bd 4914 c5bd 3b26 c03d 73c8 e4bd
000003b0: 46d0 003e ec8d d3bd bf8a b43d 4590 4f3c
000003c0: 1147 f53c 0b0e 9abd de0b edbd 2196 f63d
000003d0: 087a a93d 5d40 893c d5c4 153d 9de8 6ebd
000003e0: 3650 a0bd d0d8 a13c 326d 853c 3844 fc3d
000003f0: 31da 48bd d035 e4bc 39f3 00be 1ad0 5f3c

classifier.0.bias f4 [128]
0.10557869 0.13778853 -0.015386744 -0.048726864 -0.08596762 -0.05875286 0.12454743 -0.09059262
0.059558548 0.027426852 0.09917364 0.074176945 0.041023664 0.04350048 -0.093600295 0.08992195
-0.030955613 -0.011757248 -0.06248595 0.09758428 -0.03491732 -0.102318205 0.023945507 -0.078747585
0.088078484 0.08766352 0.09512443 -0.012019367 0.013018131 -0.04717198 -0.05287644 0.13256998
0.0025741137 0.068746306 0.06281536 0.09214727 -0.06540602 0.0019901004 0.072138384 0.064456545
0.030708432 0.12137937 0.018804234 -0.05182498 0.06886279 -0.026261253 -0.09253085 0.031655442
0.0047400426 0.115687884 0.049329538 0.04998277 -0.0374923 0.10386905 0.023019304 -0.11907761
0.08893465 -0.10799567 -0.05005756 -0.10494132 0.04126872 0.11785194 -0.10233138 0.091843426
0.12478548 -0.05714198 -0.030388981 0.069223836 -0.095003285 -0.10090117 0.011745805 0.11551132
0.01240075 0.06485317 -0.005445009 -0.07576847 0.0038648387 0.052336723 -0.08507943 -0.004119852
0.13277052 0.091599375 0.021006214 -0.052817922 -0.0065296995 0.068603516 0.09825038 -0.020978736
-0.12563087 0.08828608 0.039182317 0.011131373 0.045489687 -0.051441528 -0.047535293 0.0019128217
-0.034369938 -0.077918805 -0.113445036 -0.027260585 -0.009992998 -0.031775974 0.08418172 0.04153349
-0.10676537 0.052410375 -0.058839407 0.08880969 -0.024535058 -0.047916476 0.035901185 -0.022872921
-0.008589672 0.09457174 -0.086215034 -0.0034268908 -0.011929982 -0.108609766 0.00544212 -0.12089906
0.0014907399 0.12473868 0.03220084 -0.059834 0.10466744 0.10354565 -0.11191365 -0.014280044
00000000: a439 d83d 7018 0d3e af18 7cbc d295 47bd
00000010: cb0f b0bd d7a6 70bd b912 ff3d a088 b9bd
00000020: aaf3 733d 47ae e03c 8d1b cb3d 15ea 973d
00000030: 6e08 283d 8f2d 323d 83b1 bfbd 0029 b83d
00000040: a096 fdbc 79a1 40bc 44f1 7fbd 44da c73d
00000050: 7705 0fbd 358c d1bd 5e29 c43c 6a46 a1bd
00000060: 7e62 b43d ee88 b33d 99d0 c23d e1ec 44bc
00000070: 004a 553c 6837 41bd f794 58bd 6dc0 073e
00000080: 76b2 283b ddca 8c3d 57a5 803d b5b7 bc3d
00000090: 97f3 85bd 586c 023b 4abd 933d cb01 843d
000000a0: 4090 fb3c bf95 f83d 560b 9a3c 6e46 54bd
000000b0: ef07 8d3d d721 d7bc d080 bdbd 23a9 013d
000000c0: 5c52 9b3b c5ed ec3d c50d 4a3d bcba 4c3d
000000d0: 8791 19bd 4cb9 d43d fb92 bc3c f6de f3bd
000000e0: 5f23 b63d d52c ddbd 2809 4dbd 7aeb d6bd
000000f0: 6409 293d 5c5c f13d 1d93 d1bd 6818 bc3d
00000100: 888f ff3d b50d 6abd 50f2 f8bc 3ac5 8d3d
00000110: 1591 c2bd 46a5 cebd 7a71 403c 3391 ec3d
00000120: 842c 4b3c bdd1 843d 0c6c b2bb 802c 9bbd
00000130: 3c49 7d3b 085f 563d 203e aebd d3ff 86bb
00000140: fff4 073e 7498 bb3d 3915 ac3c 9b57 58bd
00000150: 17f7 d5bb 0080 8c3d 7f37 c93d 99db abbc
00000160: 61a5 00be 55cf b43d a37d 203d 5d60 363c
00000170: 6553 3a3d 5ab4 52bd 5eb4 42bd a5b7 fa3a
00000180: 7ec7 0cbd e593 9fbd df55 e8bd 9751 dfbc
00000190: acb9 23bc 8627 02bd 7767 ac3d 051f 2a3d
000001a0: cda7 dabd 43ac 563d 9701 71bd dbe1 b53d
000001b0: bffd c8bc 1144 44bd 1f0d 133d fe5f bbbc
000001c0: b2bb 0cbc d4ae c13d 8291 b0bd b095 60bb
000001d0: f975 43bc cc6e debd d053 b23b ed99 f7bd
000001e0: ee64 c33a fe76 ff3d 07e5 033d 7f14 75bd
000001f0: e25b d63d be0f d43d fc32 e5bd d8f6 69bc

classifier.1.weight f4 [128]
0.9731298 1.0236869 0.9877809 1.0067182 0.97290283 0.9942172 1.0200105 1.0061936
1.0020319 1.0014191 0.9855523 0.9909144 0.9929821 0.97416806 0.9840215 0.99964267
0.99278134 1.0012687 0.9806914 1.0022914 0.99998975 0.98309654 0.9831185 0.98905855
1.0024263 0.9877653 0.98666996 0.9858331 1.0031068 1.0016367 0.9791611 1.0244681
1.0067178 0.99452233 1.0224271 0.99216455 1.0073148 1.0131685 1.0002955 1.0061026
0.99516004 0.98343027 1.012726 0.9728154 0.97896934 0.98088115 1.0048167 1.0118546
0.9984915 0.99048495 0.99467295 0.98585004 1.0191602 1.009147 1.022428 0.98225504
1.0228859 0.97343576 1.007781 0.98053783 1.0395046 0.9988193 0.99734163 0.99777734
1.0205208 0.994991 0.98559296 1.0031621 1.0054513 1.0127903 0.987768 0.99591786
0.9882719 1.0169089 0.9952307 0.9912139 0.999937 0.99829054 0.99635386 0.9816258
1.0174323 1.0258577 0.98416066 1.0160639 1.0033969 0.9688159 0.98811615 1.0183016
1.0185573 0.9683436 0.9779478 1.0082321 0.97316056 0.98714924 1.0007905 0.9905812
0.9959957 0.978557 0.9912566 0.98034763 1.0227698 0.9839822 0.99917954 0.97355646
1.0280203 0.9992044 0.98611504 0.99843806 0.9838031 0.98327357 0.9897623 1.0133615
0.99396676 0.99240685 0.983361 0.9870615 0.9868662 0.99376106 1.0238984 1.0010173
0.9908069 1.0064592 0.99892366 1.0318391 0.99415946 0.98929065 0.99908406 0.98264164
00000000: 091f 793f 2c08 833f 36df 7c3f 24dc 803f
00000010: 2910 793f 0585 7e3f b48f 823f f4ca 803f
00000020: 9542 803f 802e 803f 284d 7c3f 91ac 7d3f
00000030: 1334 7e3f 1463 793f d5e8 7b3f 95e8 7f3f
00000040: eb26 7e3f 9329 803f 970e 7b3f 164b 803f
00000050: 54ff 7f3f 37ac 7b3f a7ad 7b3f f132 7d3f
00000060: 814f 803f 30de 7c3f 6796 7c3f 8f5f 7c3f
00000070: ce65 803f a235 803f 4daa 7a3f c521 833f
00000080: 21dc 803f 0499 7e3f e4de 823f 7ffe 7d3f
00000090: b1ef 803f 81af 813f af09 803f f8c7 803f
000000a0: cfc2 7e3f 16c2 7b3f 01a1 813f 6e0a 793f
000000b0: bc9d 7a3f 071b 7b3f d59d 803f 7484 813f
000000c0: 249d 7f3f 6c90 7d3f e3a2 7e3f ab60 7c3f
000000d0: d773 823f bb2b 813f ecde 823f 1175 7b3f
000000e0: eded 823f 1633 793f f8fe 803f 8704 7b3f
000000f0: 7d0e 853f 9fb2 7f3f c851 7f3f 566e 7f3f
00000100: 6da0 823f bbb7 7e3f d24f 7c3f 9e67 803f
00000110: a1b2 803f 1da3 813f 5dde 7c3f 79f4 7e3f
00000120: 63ff 7c3f 122a 823f 70c7 7e3f 32c0 7d3f
00000130: dffb 7f3f f88f 7f3f 0c11 7f3f d44b 7b3f
00000140: 393b 823f 4e4f 833f f4f1 7b3f 620e 823f
00000150: 4f6f 803f 5204 783f 2ef5 7c3f b557 823f
00000160: 1660 823f 5ee5 773f c95a 7a3f c00d 813f
00000170: 0d21 793f d0b5 7c3f e719 803f bb96 7d3f
00000180: 93f9 7e3f b682 7a3f fec2 7d3f 10f8 7a3f
00000190: 1fea 823f 42e6 7b3f 3bca 7f3f ff3a 793f
000001a0: 2b96 833f dccb 7f3f 0972 7c3f a399 7f3f
000001b0: 85da 7b3f d1b7 7b3f 1061 7d3f d4b5 813f
000001c0: 9b74 7e3f 600e 7e3f 8cbd 7b3f 10b0 7c3f
000001d0: 43a3 7c3f 2067 7e3f 1a0f 833f 5621 803f
000001e0: 85a5 7d3f a8d3 803f 76b9 7f3f 4e13 843f
000001f0: 3c81 7e3f 2742 7d3f f9c3 7f3f 678e 7b3f

classifier.1.bias f4 [128]
-0.014001952 0.0109258145 0.022291144 -0.020333437 -0.024127165 0.0011513616 -0.035844203 0.0005883087
0.016460882 -0.00074093806 -0.0093705375 -0.0049021062 0.0034602808 -0.0065339054 -0.0047668135 -0.012075831
-0.027480049 0.0042111785 -0.0004052629 -0.017234985 -0.012645733 -0.026337173 0.014819451 0.0016495192
0.00021442519 0.019011337 -0.0008352566 -0.00438924 -0.009933192 -0.013036014 -0.0056162765 -0.01684155
0.008876151 -0.008668558 -0.022365205 0.005083873 0.0056239646 -0.0038603602 -0.02167759 -0.0036270602
0.00298463 -0.0017186936 -0.004743751 -0.008673017 -0.0029083404 -0.009960368 -0.014303174 -0.019223852
0.015158112 -0.0070222015 -0.018520247 -0.009683433 -0.007206519 -0.0036038642 0.0090448875 4.2142983e-05
0.025381414 -0.014136 -0.004085169 -0.00711487 -0.013629304 0.015107633 0.028375624 -0.010300796
-0.008445788 0.010117024 -0.029739892 -0.015358422 -0.010927592 0.012898766 -0.006211648 -0.0050380854
0.0066933185 -0.011377732 -0.011906233 0.007210712 0.0051328954 -0.00015474616 0.009862642 0.0051894635
-0.017613653 -0.0179183 -0.017502643 -0.029233545 0.010033028 -0.015286396 -0.0056473846 0.0052968035
-0.0168062 0.0068043275 -0.011628502 -0.012251089 -0.019602533 0.007876903 0.004359926 -0.0033070894
0.0064944997 -0.014858323 -0.004238412 -0.0027272871 -0.0154574085 0.0048673013 0.0015904516 -0.0057854126
-0.011427146 0.009612083 -0.007659605 0.011547803 -0.008637963 -0.0049654683 -0.015353158 0.0005921089
0.007849994 0.006681879 0.009108416 0.0060951044 0.010844815 0.001562736 0.014318159 -0.00015643987
0.005847556 -0.02169094 0.0111831585 -0.0043334 0.023350209 -0.032030866 0.018201457 -0.006204046
00000000: 7168 65bc 3002 333c eb9b b63c 4f92 a6bc
00000010: 55a6 c5bc 49e9 963a 5fd1 12bd bb38 1a3a
00000020: f9d8 863c 833b 42ba e286 19bc d9a1 a0bb
00000030: e1c5 623b 5f1a d6bb ee32 9cbb b5d9 45bc
00000040: d71d e1bc edfd 893b 7779 d4b9 6230 8dbc
00000050: 0c30 4fbc 0ec1 d7bc 48cd 723c ae34 d83a
00000060: 53d7 6039 aabd 9b3c 1ff5 5aba 9dd3 8fbb
00000070: d4be 22bc 0195 55bc be08 b8bb 4af7 89bc
00000080: 476d 113c 9106 0ebc 3c37 b7bc 9e96 a63b
00000090: 3c49 b83b 19fe 7cbb 3495 b1bc f9b3 6dbb
000000a0: c899 433b ca45 e1ba 7871 9bbb 4519 0ebc
000000b0: db99 3ebb d030 23bc dc57 6abc 577b 9dbc
000000c0: bb59 783c 7f1a e6bb c6b7 97bc 43a7 1ebc
000000d0: aa24 ecbb cf2e 6cbb 0231 143c afc2 3038
000000e0: afec cf3c ae9a 67bc e2dc 85bb db23 e9bb
000000f0: 724d 5fbc 0186 773c ff73 e83c abc4 28bc
00000100: 3460 0abc e0c1 253c 13a1 f3bc e4a1 7bbc
00000110: a509 33bc 5955 533c 158b cbbb 8616 a5bb
00000120: a053 db3b ab69 3abc 5c12 43bc d647 ec3b
00000130: d931 a83b 5b43 22b9 eb96 213c 600c aa3b
00000140: 824a 90bc 66c9 92bc b461 8fbc 307b efbc
00000150: 9261 243c cb73 7abc b20d b9bb cf90 ad3b
00000160: 28ad 89bc d6f6 de3b 7985 3ebc cbb8 48bc
00000170: 7e95 a0bc 200e 013c b6dd 8e3b c1bb 58bb
00000180: d0cf d43b 5370 73bc 60e2 8abb 49bc 32bb
00000190: 1241 7dbc e27d 9f3b b376 d03a 8f93 bdbb
000001a0: ed38 3bbc 007c 1d3c 6cfd fabb ff32 3d3c
000001b0: 3e86 0dbc 5eb5 a2bb d08b 7bbc c137 1b3a
000001c0: 439d 003c aaf3 da3b 773b 153c 71b9 c73b
000001d0: 73ae 313c b8d4 cc3a b696 6a3c 020a 24b9
000001e0: db9c bf3b 33b1 b1bc 9139 373c 32ff 8dbb
000001f0: f048 bf3c cc32 03bd 391b 953c 4f4b cbbb

classifier.1.running_mean f4 [128]
0.045814212 0.105760194 -0.03177256 -0.08591582 -0.036109533 -0.064465135 0.16676092 -0.01108468
0.12352467 -0.0022230826 0.11355056 0.13812634 -0.038000252 0.06270123 0.035668496 0.04852895
-0.047856588 0.058775894 -0.15079738 0.014303898 -0.17231232 -0.058972076 -0.006222183 -0.027919285
0.06424373 0.10196949 0.23548496 0.031605046 0.0012183881 -0.021046916 -0.02185393 0.059622504
-0.0068209777 0.06968727 0.07493528 0.11768929 -0.12534544 0.04037356 0.080398805 0.022377219
-0.0600118 0.19344933 -0.01672509 0.08647743 0.1274513 -0.035162274 -0.23879728 -0.04159959
0.06376686 0.059448153 0.03552115 -0.00060283014 -0.11258906 0.024059158 -0.018397423 -0.05437919
0.105719715 -0.104262225 -0.12814924 -0.044186555 0.02627478 0.19449447 -0.05878153 0.029563867
0.18980303 -0.006014177 -0.052333325 0.07925636 -0.031789377 -0.0056649693 -0.042716794 0.16481517
0.06198553 0.095733166 -0.047153357 -0.07643882 -0.0042992053 0.12711337 -0.041385815 0.05027349
0.19733615 0.15286411 0.14599507 -0.08658251 0.11660983 -0.063508384 0.088563345 0.021969488
-0.14081852 0.12921895 -0.06298709 0.04047847 0.057621058 0.07467222 -0.07017984 0.003772366
-0.08545518 -0.121908665 -0.16252914 -0.03435328 -0.09822183 0.03343689 0.07881129 0.01605061
-0.08026376 0.042041067 0.034186967 0.16496994 0.018638862 -0.036672786 0.12623355 -0.048436046
0.029062543 0.022027202 -0.097846 0.13388993 -0.047085807 -0.20073082 0.04721932 -0.12681371
-0.06106614 0.027112054 0.04969441 -0.19133906 0.05822134 0.021837255 -0.07358273 0.0010692376
00000000: afa7 3b3d cd98 d83d f223 02bd a2f4 afbd
00000010: 97e7 13bd 4c06 84bd 60c3 2a3e 859c 35bc
00000020: 81fa fc3d 23b1 11bb 328d e83d fe70 0d3e
00000030: 27a6 1bbd 8169 803d 2119 123d 4bc6 463d
00000040: 4505 44bd febe 703d a16a 1abe e65a 6a3c
00000050: a472 30be b48c 71bd 74e3 cbbb fcb6 e4bc
00000060: 3792 833d 61d5 d03d f822 713e 4b74 013d
00000070: 52b2 9f3a 956a acbc 0307 b3bc ba36 743d
00000080: 8282 dfbb 33b8 8e3d ab77 993d 1507 f13d
00000090: 8e5a 00be bf5e 253d 21a8 a43d 6e50 b73c
000000a0: efce 75bd 9517 463e 0e03 89bc 141b b13d
000000b0: 9882 023e 5106 10bd 4687 74be 5564 2abd
000000c0: 3398 823d e87f 733d a07e 113d 3f07 1eba
000000d0: 1895 e6bd b617 c53c 31b6 96bc b7bc 5ebd
000000e0: 9483 d83d 6f87 d5bd 8e39 03be f6fc 34bd
000000f0: 353e d73c 8f29 473e e7c4 70bd ec2f f23c
00000100: ba5b 423e 9312 c5bb 785b 56bd 2951 a23d
00000110: 9435 02bd 35a1 b9bb cef7 2ebd 4fc5 283e
00000120: 8ae4 7d3d c00f c43d e123 41bd f58b 9cbd
00000130: 59e0 8cbb 022a 023e 2c84 29bd 93eb 4d3d
00000140: 7d12 4a3e 6988 1c3e bb7f 153e 2c52 b1bd
00000150: 22d1 ee3d af10 82bd b360 b53d 5bf9 b33c
00000160: bb32 10be f951 043e 60ff 80bd c1cc 253d
00000170: 0f04 6c3d c0ed 983d 73ba 8fbd cd39 773b
00000180: 2003 afbd 40ab f9bd 0a6e 26be 06b6 0cbd
00000190: 8728 c9bd 1ff5 083d d067 a13d 927c 833c
000001a0: 5461 a4bd 4133 2c3d a207 0c3d e1ed 283e
000001b0: 87b0 983c 3436 16bd 5e43 013e e064 46bd
000001c0: 9214 ee3c 6472 b43c 7c63 c8bd 711a 093e
000001d0: 0cdd 40bd 618c 4dbe 0c69 413d 74db 01be
000001e0: 7d20 7abd 191a de3c 5e8c 4b3d 63ee 43be
000001f0: 8079 6e3d 0be4 b23c 8bb2 96bd a925 8c3a

classifier.1.running_var f4 [128]
0.00070441095 9.569062e-05 0.0008622329 0.0010829556 0.00047527583 0.0008407187 0.0007145549 0.0010858334
0.00079460256 0.00014499965 0.00040621642 0.00016454882 0.0010355351 0.0013717782 0.002002623 0.0011109712
0.0001526912 0.00082982273 0.00092864246 0.0029336915 0.0027055552 0.0003979233 0.001072989 0.0011746484
0.00035259954 0.0018718945 0.0014999433 0.0012803725 0.000292639 0.00063818926 0.0007882651 0.0005392155
0.00072299567 0.0003502436 0.00049693533 0.0040564737 0.000907983 0.0003443712 0.00014347164 0.00013022243
0.00031748755 0.00077271694 0.0002875882 0.00066493737 0.0013217897 0.0003839903 0.0012596232 0.000731713
0.00014132452 0.000238057 0.0007470375 0.0009265415 0.00012713927 0.00073749066 0.0010966277 0.00082838314
0.00020617413 0.0003896052 0.00012513422 0.0013751476 0.0004615012 0.0005095345 0.0003159999 0.0005957321
0.00030923603 0.0011245956 0.0005086144 0.00023952975 0.000121569334 0.00029364575 0.0010544861 0.00025093564
0.0006505683 0.00040989075 0.00041525922 0.00087855005 0.00073470274 0.0008458836 0.0005954943 0.00012027272
0.00025090046 0.0002620798 0.0027750698 0.0006106844 0.0015626125 0.0010951266 0.002327228 0.0007018821
0.0005045858 0.00045934622 0.0006121965 0.00015159743 0.0006120404 0.001863038 0.0007088448 0.00088564353
0.0005789643 0.00051297224 0.0027651882 0.00078615063 0.0021261275 0.00029593112 0.00034987996 0.0009255736
0.000287978 0.00033107484 0.0018529496 0.00043916097 0.0009771521 0.0006932536 0.0023599078 0.0005407155
0.001423812 0.0004078361 0.00089757325 0.0022389484 0.0010895763 0.0007279941 0.00014772505 0.00046299206
0.001959618 0.00074335455 0.0035873689 0.0008005263 0.0005906979 0.001744749 0.0017699174 0.00025907304
00000000: 38a8 383a 83ad c838 7807 623a f6f1 8d3a
00000010: 712e f939 ad63 5c3a f850 3b3a 8652 8e3a
00000020: e04c 503a 0c0b 1839 72f9 d439 bd8a 2c39
00000030: cbba 873a 3dcd b33a 703e 033b 029e 913a
00000040: bb1b 2039 7688 593a 2470 733a 2d43 403b
00000050: af4f 313b 5ca0 d039 89a3 8c3a a9f6 993a
00000060: 1cdd b839 5b5a f53a bf99 c43a 2cd2 a73a
00000070: 576d 9939 284c 273a 93a3 4e3a 245a 0d3a
00000080: 6b87 3d3a e6a0 b739 c444 023a 2bec 843b
00000090: b505 6e3a b88c b439 e070 1639 518c 0839
000000a0: 7574 a639 2890 4a3a 6fc7 9639 314f 2e3a
000000b0: e73f ad3a 4e52 c939 f119 a53a 6ed0 3f3a
000000c0: 8330 1439 f09e 7939 d7d4 433a 26e3 723a
000000d0: b050 0539 2954 413a b8bc 8f3a da27 593a
000000e0: 7230 5839 ed43 cc39 7636 0339 4c3e b43a
000000f0: a4f5 f139 4892 053a caac a539 e82a 1c3a
00000100: f520 a239 2b67 933a 8954 053a 472a 7b39
00000110: 0af3 fe38 77f4 9939 af36 8a3a 0390 8339
00000120: e68a 2a3a 9be6 d639 26b7 d939 7f4e 663a
00000130: 1199 403a 4abe 5d3a f21a 1c3a ed3a fc38
00000140: 4a8b 8339 c167 8939 f2dd 353b 5616 203a
00000150: 93d0 cc3a 5a8a 8f3a 6884 183b 83fe 373a
00000160: 2e46 043a 68d4 f039 d07b 203a 20f6 1e39
00000170: 5671 203a 2f31 f43a c5d1 393a 882a 683a
00000180: a3c5 173a fc78 063a 2938 353b ad15 4e3a
00000190: 8056 0b3b 3427 9b39 1870 b739 31a2 723a
000001a0: c1fb 9639 1d94 ad39 acde f23a 303f e639
000001b0: c913 803a 76bb 353a afa8 1a3b cebe 0d3a
000001c0: 349f ba3a d6d2 d539 1f4b 6b3a 52bb 123b
000001d0: 1dd0 8e3a dbd6 3e3a a4e6 1a39 bebd f239
000001e0: ef6c 003b aedd 423a 101a 6b3b 69da 513a
000001f0: 11d9 1a3a 10b0 e43a 93fc e73a 32d4 8739

classifier.3.weight f4 [128, 128]
-0.06843226 -0.039363902 -0.048724417 0.052034482 0.042260326 0.054133315 0.07218902 0.072171696
0.06903458 0.09835516 -0.06792972 -0.0052210824 0.028519735 -0.005017192 -0.054953538 -0.04046267
0.097715475 0.007991812 0.08015865 -0.006350134 -0.015380901 -0.042911973 -0.020211484 0.041045245
0.010431373 0.10127161 -0.008391371 -0.02572271 0.094153136 -0.020950785 -0.051320147 0.062359296
-0.06461734 0.011980666 -0.030247698 -0.0070215585 0.08278534 0.0673528 -0.04593318 -0.060881943
0.071583666 -0.03912214 0.028432565 0.018697003 0.04940716 0.08753118 0.05812559 -0.017061038
0.048792485 -0.031380344 0.02722527 -0.03138171 -0.019051665 -0.02990491 -0.031715468 -0.062421355
-0.014274777 -0.043617327 -0.014353863 -0.059008893 -0.07980183 -0.051741365 -0.013623345 0.047184963
0.033381592 -0.06384642 0.07742911 0.07461204 -0.063779235 -0.0725372 -0.0029906314 -0.015025115
0.05619483 0.068986885 -0.0088410415 -0.055039488 -0.055579603 -0.022369942 0.009448372 0.03482605
0.017952593 0.09133942 0.078994945 -0.029159034 0.08924306 0.04281771 0.026627583 -0.013943788
0.040515013 -0.045398347 0.033436876 0.007362731 0.021319428 0.0074127777 0.08457889 -0.077995144
-0.014956651 -0.059459295 -0.021553379 0.08022496 0.005959064 0.058384053 0.051492598 0.0160224
0.08353033 -0.018617606 -0.061957803 -0.0022862083 -0.07060742 -0.008670463 -0.052227855 -0.023350773
-0.0030322575 0.0137936575 -0.030734887 -0.028393673 0.03478709 0.08710386 0.06345987 -0.072633244
0.08932283 -0.06367234 0.106524825 -0.043333255 -0.035606407 -0.005604195 -0.0672395 -0.038672287
0.0813483 -0.084078945 -0.043253157 0.06872449 -0.035407446 0.018644499 0.06823497 0.057728056
0.029101191 -0.043968435 -0.06777152 -0.05817863 -0.047779124 0.039994627 -0.04203263 -0.048452813
-0.029387992 0.04228933 0.038275503 -0.05781889 -0.023309952 0.070286945 -0.0015866745 0.04370388
0.02572128 0.05969309 -0.035917833 -0.009981795 -0.012450768 -0.057747312 -0.011331641 0.029550228
0.032492794 0.019062681 0.11215276 -0.07643855 0.113862835 -0.0036896023 -0.029397596 -0.006103557
-0.051480282 -0.06263083 -0.043102074 -0.035591543 0.01733204 0.042589087 -0.054846745 -0.040268335
-0.051785942 -0.08526162 -0.022594552 0.03787924 -0.067194946 0.048178732 -0.059382346 0.048023764
-0.080938354 0.036581 0.046163563 0.06953047 0.09369924 0.048026457 -0.06043159 -0.031564232
0.019616067 -0.050394725 -0.08327295 -0.053092413 0.04088507 -0.035321914 0.04909533 0.06062833
-0.025466014 0.088911444 -0.011472894 0.03365296 0.033581167 0.045329276 0.02458709 0.04367708
0.025625652 -0.0059926226 0.029615123 0.09535303 0.045652002 -0.054255754 0.024176542 -0.032242913
0.10701996 -0.07765726 0.064406246 -0.07087167 -0.02432105 -0.043648623 0.07699072 -0.03923381
-0.05742255 0.0032860746 -0.045793526 0.06815129 0.003423737 -0.022619877 0.02099273 -0.04706115
0.04713193 0.027570846 -0.053873304 -0.059357602 -0.0112828165 0.01706481 -0.038053796 0.046296515
0.03669314 0.0035206007 -0.055797547 0.012822871 0.0049262275 0.080034636 0.06611023 -0.06552532
-0.06886812 0.014492925 -0.03910908 0.0021828462 -0.074883625 0.06776635 0.07635502 0.08092236
00000000: 3626 8cbd 0b3c 21bd 4193 47bd 1c22 553d
00000010: 2a19 2d3d e5ba 5d3d d6d7 933d c1ce 933d
00000020: 0062 8d3d 6e6e c93d bd1e 8bbd 9d15 abbb
00000030: 38a2 e93c 4267 a4bb f616 61bd 2fbc 25bd
00000040: 0d1f c83d 17f0 023c 382a a43d c914 d0bb
00000050: 2d00 7cbc 77c4 2fbd 8e92 a5bc 0f1f 283d
00000060: 59e8 2a3c 7d67 cf3d f67b 09bc 6fb8 d2bc
00000070: 5cd3 c03d fba0 abbc 1335 52bd 766c 7f3d
00000080: 1956 84bd 8e4a 443c 05ca f7bc 1a15 e6bb
00000090: 5c8b a93d 44f0 893d 6e24 3cbd 585f 79bd
000000a0: 759a 923d 893e 20bd 69eb e83c 752a 993c
000000b0: 2a5f 4a3d 8c43 b33d 1915 6e3d 97c3 8bbc
000000c0: a1da 473d ad88 00bd 8807 df3c 1c8a 00bd
000000d0: 3d12 9cbc 24fb f4bc 14e8 01bd 89ad 7fbd
000000e0: c1e0 69bc 15a8 32bd 772c 6bbc 4fb3 71bd
000000f0: 246f a3bd c1ee 53bd 7334 5fbc 0545 413d
00000100: 23bb 083d e9c1 82bd 2793 9e3d 32ce 983d
00000110: b09e 82bd 628e 94bd 78fe 43bb e62b 76bc
00000120: 8d2c 663d ff48 8d3d 04da 10bc 1671 61bd
00000130: 70a7 63bd 2b41 b7bc 58cd 1a3c c3a5 0e3d
00000140: 5111 933c 2910 bb3d 1ac8 a13d edde eebc
00000150: 11c5 b63d a061 2f3d 1722 da3c 7c74 64bc
00000160: 12f3 253d 9ef3 39bd 1bf5 083d 1043 f13b
00000170: 15a6 ae3c e3e6 f23b b237 ad3d ebbb 9fbd
00000180: be0c 75bc 978b 73bd b690 b0bc fc4c a43d
00000190: 4044 c33b 1e24 6f3d e7e9 523d 6941 833c
000001a0: f311 ab3d f383 98bc 77c7 7dbd 36d4 15bb
000001b0: 9f9a 90bd 8f0e 0ebc e0ec 55bd 1f4a bfbc
000001c0: d7b8 46bb cbfe 613c bbc7 fbbc d999 e8bc
000001d0: e87c 0e3d 8263 b23d 40f7 813d bdc0 94bd
000001e0: e3ee b63d a566 82bd b029 da3d 367e 31bd
000001f0: 06d8 11bd 65a3 b7bb ddb4 89bd d566 1ebd
00000200: f099 a63d 9531 acbd 392a 31bd 6dbf 8c3d
00000210: 6607 11bd 59bc 983c c7be 8b3d 4174 6c3d
00000220: 9f65 ee3c 3f18 34bd cbcb 8abd b74c 6ebd
00000230: 0bb4 43bd 68d1 233d 682a 2cbd 7576 46bd
00000240: 16bf f0bc 9437 2d3d c6c6 1c3d 80d3 6cbd
00000250: 83f4 bebc 9af2 8f3d f6f7 cfba d702 333d
00000260: 6fb5 d23c be80 743d 941e 13bd af8a 23bc
00000270: 4efe 4bbc 7288 6cbd 59a8 39bc 5213 f23c
00000280: 2a17 053d 5729 9c3c 59b0 e53d d18b 9cbd
00000290: eb30 e93d 41cd 71bb 3ad3 f0bc 5900 c8bb
000002a0: fddc 52bd 9844 80bd cd8b 30bd 70c8 11bd
000002b0: ecfb 8d3c e571 2e3d fba6 60bd 69f0 24bd
000002c0: 7f1d 54bd a59d aebd 3618 b9bc 4327 1b3d
000002d0: 819d 89bd 1057 453d e73a 73bd 91b4 443d
000002e0: 02c3 a5bd f5d5 153d 0116 3d3d fe65 8e3d
000002f0: 63e5 bf3d 64b7 443d 1d87 77bd 7f49 01bd
00000300: e0b1 a03c b36a 4ebd 028b aabd 6e77 59bd
00000310: 1a77 273d b6ad 10bd 2f18 493d 6955 783d
00000320: 1a9e d0bc 3417 b63d cef8 3bbc b0d7 093d
00000330: 688c 093d 31ab 393d dd6a c93c bde6 323d
00000340: e3ec d13c c35d c4bb 6a9b f23c 7348 c33d
00000350: 98fd 3a3d 483b 5ebd e20d c63c 2511 04bd
00000360: 482d db3d c50a 9fbd 6ce7 833d 2b25 91bd
00000370: f03c c7bc e6c8 32bd 50ad 9d3d a2b3 20bd
00000380: e833 6bbd 2f5b 573b fe91 3bbd e792 8b3d
00000390: c660 603b 524d b9bc f2f8 ab3c 31c3 40bd
000003a0: 690d 413d 41dc e13c 41aa 5cbd f520 73bd
000003b0: 90db 38bc 80cb 8b3c 4cde 1bbd 6aa1 3d3d
000003c0: 8c4b 163d e1b9 663b f88b 64bd 0517 523c
000003d0: 316c a13b 33e9 a33d cd64 873d 2432 86bd
000003e0: bb0a 8dbd bc73 6d3c d830 20bd 150e 0f3b
000003f0: 965c 99bd 16c9 8a3d 0560 9c3d 9fba a53d

classifier.3.bias f4 [128]
0.041700613 -0.08351362 0.058349237 -0.08178175 -0.06589787 -0.08160812 0.026471477 -0.08216854
0.049616124 0.054906268 -0.0632325 0.03875367 -0.0343577 0.069003776 0.018546706 -0.072279
-0.08195624 0.025435435 -0.08065172 0.002939442 -0.06081824 0.058959637 -0.06967563 -0.006149668
-0.004770987 0.08164203 0.07207977 -0.027973514 0.07284734 0.052919112 -0.06821302 0.06429093
0.028894236 0.05662513 -0.06493642 -0.05269135 -0.0011239796 0.068329155 0.076591805 -0.039673
-0.020766158 0.008697083 0.009168225 -0.07575481 0.022905875 0.07424936 0.035825234 0.03828601
0.074078694 0.010933511 -0.06317247 -0.048050355 0.06643284 -0.031865396 0.0349588 0.07739069
0.020221444 -0.08230603 0.05433884 -0.04344752 -0.0066857385 0.06779481 -0.05371615 -0.029982334
-0.011429286 -0.010035531 0.012396769 0.07061415 -0.038557876 0.058865227 0.052112117 -0.054829083
-0.08458216 0.056861036 0.023426874 -0.0023357242 0.072068915 -0.017042097 -0.006137765 -0.051503275
0.007749036 -0.012498475 0.057883006 0.026923783 -0.030488728 0.06403583 0.066627204 0.018401997
0.081361406 -0.018071625 -0.0329245 0.07067059 -0.0631073 0.035660345 -0.052518327 0.0385731
-0.07751519 0.069460355 -0.072932184 0.049145367 0.017853724 0.03530524 -0.080331266 0.07196855
0.06183322 -0.012760527 -0.060248535 0.07738735 0.0045440127 -0.035203613 0.08414582 -0.01728587
-0.037624087 -0.026877057 -0.03209915 0.055504456 -0.046814796 0.044511948 -0.035585992 -0.07454624
-0.06937017 -0.08235691 0.00823913 0.015682533 0.07564878 -0.025003076 -0.07673355 0.015812531
00000000: 43ce 2a3d 3009 abbd 9cff 6e3d 317d a7bd
00000010: 76f5 86bd 2822 a7bd b6da d83c fb47 a8bd
00000020: 473a 4b3d 65e5 603d 0a80 81bd 2bbc 1e3d
00000030: a9ba 0cbd da51 8d3d 43ef 973c 0307 94bd
00000040: acd8 a7bd f95d d03c bb2c a5bd a7a3 403b
00000050: 8c1c 79bd a97f 713d 19b2 8ebd 2783 c9bb
00000060: f155 9cbb f033 a73d 8f9e 933d b628 e5bc
00000070: fc30 953d b6c1 583d 45b3 8bbd f7aa 833d
00000080: 9bb3 ec3c c1ef 673d 63fd 84bd e3d2 57bd
00000090: 7f52 93ba 28f0 8b3d 2adc 9c3d 2880 22bd
000000a0: ca1d aabc 367e 0e3c 5336 163c 5625 9bbd
000000b0: 1aa5 bb3c 0c10 983d 7bbd 123d cbd1 1c3d
000000c0: 92b6 973d 7822 333c 9160 81bd 73d0 44bd
000000d0: f10d 883d 4a85 02bd f530 0f3d 037f 9e3d
000000e0: 71a7 a53c 1090 a8bd 6792 5e3d 07f6 31bd
000000f0: 0a14 dbbb 01d8 8a3d 7705 5cbd 839d f5bc
00000100: e641 3bbc 116c 24bc d11b 4b3c 279e 903d
00000110: ddee 1dbd aa1c 713d 8473 553d 7694 60bd
00000120: 6939 adbd 1ee7 683d b7e9 bf3c f312 19bb
00000130: de98 933d de9b 8bbc 4e1f c9bb 19f5 52bd
00000140: a0eb fd3b 67c6 4cbc bb16 6d3d 448f dc3c
00000150: 7fc3 f9bc 3825 833d d873 883d c9bf 963c
00000160: cfa0 a63d f20a 94bc d7db 06bd bebb 903d
00000170: 663e 81bd 9510 123d 751d 57bd d4fe 1d3d
00000180: 49c0 9ebd 3b41 8e3d 785d 95bd a74c 493d
00000190: f941 923c 3a9c 103d b884 a4bd 3f64 933d
000001a0: d544 7d3d 8811 51bc 2bc7 76bd 427d 9e3d
000001b0: f1e5 943b aa31 10bd a554 ac3d 199b 8dbc
000001c0: b71b 1abd 462d dcbc 667a 03bd a458 633d
000001d0: dfc0 3fbd 2952 363d 9ec2 11bd b3ab 98bd
000001e0: f311 8ebd bdaa a8bd 6afd 063c a878 803c
000001f0: bfed 9a3d 40d3 ccbc 7b26 9dbd 4889 813c
