Results/regression/10-shot/3_modes/hard/it2/n_models/models30_2.pt (torch, 10759 bytes, 9 tensors)

net.0.weight f4 [40, 1]
0.71436626 0.82850575 -0.5348361 -0.71856165 0.56799746 -0.25101155 0.969709 0.37174612
0.3998317 -0.016542196 -0.51499206 -0.70945406 0.7470335 0.45411688 -0.035653666 0.6747852
-0.63439 0.11899261 -0.8740493 0.29273516 0.019620715 -0.881712 0.7638006 0.69948316
-0.76001334 0.43012628 -0.81384647 -0.3343376 -0.7604724 -0.01446675 -0.8764444 0.043143183
0.56544656 -0.019478908 -0.8235239 0.48902982 -0.82458365 -0.37437096 0.93038493 0.8435565
00000000: b5e0 363f f418 543f 05eb 08bf a8f3 37bf
00000010: 4868 113f 9684 80be d93e 783f 8255 be3e
00000020: beb6 cc3e 8083 87bc 85d6 03bf c89e 35bf
00000030: 963d 3f3f 0282 e83e 9409 12bd b9be 2c3f
00000040: 6267 22bf 66b2 f33d b2c1 5fbf 62e1 953e
00000050: 9fbb a03c e1b7 61bf 7088 433f 5411 333f
00000060: 3c90 42bf 8339 dc3e 3e58 50bf 4c2e abbe
00000070: 52ae 42bf f305 6dbc a95e 60bf e8b6 303d
00000080: 1bc1 103f 3b92 9fbc 76d2 52bf 1e62 fa3e
00000090: ea17 53bf 8dad bfbe b52d 6e3f 52f3 573f

net.0.bias f4 [40]
0.23137105 -0.9084828 0.051220417 0.15210438 0.95503795 -0.3535521 -0.7804345 -0.13632536
0.13596737 -0.24029212 0.590196 0.093028665 0.603457 0.42598283 0.98774886 -0.39158344
-0.4605137 0.12911642 0.40538788 0.3619604 0.8355482 -0.8227527 -0.35768068 0.34546494
0.3283025 -0.2743814 -0.8837048 0.56925416 -0.91756546 -0.44459665 -0.10050619 -0.2211169
0.58267164 0.05144561 -0.8739972 0.33591783 0.40409684 -0.38529253 0.17134774 0.3649683
00000000: 88ec 6c3e 5492 68bf 80cc 513d 40c1 1b3e
00000010: 5e7d 743f c804 b5be 8eca 47bf e098 0bbe
00000020: 083b 0b3e 230f 76be 1617 173f d085 be3d
00000030: 287c 1a3f 6c1a da3e 1cdd 7c3f a07d c8be
00000040: 74c8 ebbe 1837 043e 008f cf3e e052 b93e
00000050: 7de6 553f ec9f 52bf ec21 b7be c8e0 b03e
00000060: 4417 a83e b87b 8cbe 7a3a 62bf a4ba 113f
00000070: 92e5 6abf 2ca2 e3be 30d6 cdbd 786c 62be
00000080: f829 153f a2b8 523d 48be 5fbf 6cfd ab3e
00000090: c8e5 ce3e 1045 c5be c875 2f3e 20dd ba3e

net.1.weight f4 [40]
1.005207 0.996402 1.0010539 1.0084658 0.9824288 1.0196474 0.9911785 0.99574196
1.0041268 1.0007511 1.0069237 1.0091974 0.9990899 1.0025407 0.9997146 0.98912233
0.9898154 0.9887285 1.0062783 1.0036769 0.9901792 0.98977864 0.993775 0.9913233
1.0119274 0.9838942 1.0057375 1.0119636 1.0041884 1.0025886 1.0088371 0.9891577
0.9942661 1.0125191 1.0078174 1.0068988 1.0116181 0.99195987 0.9939734 0.9870888
00000000: 9faa 803f 3414 7f3f 8922 803f 6815 813f
00000010: 7480 7b3f ce83 823f e0bd 7d3f f2e8 7e3f
00000020: 3a87 803f 9d18 803f e0e2 803f 612d 813f
00000030: 5bc4 7f3f 4153 803f 4ced 7f3f 1f37 7d3f
00000040: 8b64 7d3f 501d 7d3f bacd 803f 7c78 803f
00000050: 627c 7d3f 2262 7d3f 0a68 7e3f 5dc7 7d3f
00000060: d686 813f 7ee0 7b3f 02bc 803f 0688 813f
00000070: 3f89 803f d354 803f 9321 813f 7039 7d3f
00000080: 3988 7e3f 3a9a 813f 2900 813f 0fe2 803f
00000090: b47c 813f 15f1 7d3f 0a75 7e3f dab1 7c3f

net.1.bias f4 [40]
-0.011396594 -0.011705617 -0.008062186 -0.005675091 -0.03924258 -0.005794328 0.0023283912 0.0071704728
0.009762694 -0.01416716 0.0056865546 0.035737053 0.008257295 -0.007076915 -0.008599275 -0.02453582
0.017982839 -0.009915966 0.0049317093 -0.008102634 -0.004551786 0.016934263 0.015021591 -0.010048236
0.03123306 -0.048613526 -0.00721977 -0.00484073 0.022969484 0.0022985847 0.018136425 0.026961153
-0.005325749 0.010240481 -0.006056237 0.009490271 0.0006535714 -0.009687928 -0.009837182 -0.017450564
00000000: c8b8 3abc ebc8 3fbc 4217 04bc 1df6 b9bb
00000010: d4bc 20bd 59de bdbb ec97 183b 49f6 ea3b
00000020: b5f3 1f3c 601d 68bc 4756 ba3b 0461 123d
00000030: 9b49 073c 77e5 e7bb f9e3 0cbc 58ff c8bc
00000040: bf50 933c 9376 22bc 2d9a a13b e9c0 04bc
00000050: 2627 95bb b9b9 8a3c 1f1d 763c 5ba1 24bc
00000060: 79dc ff3c fa1e 47bd d293 ecbb fd9e 9ebb
00000070: 802a bc3c daa3 163b d792 943c a3dd dc3c
00000080: 9f83 aebb b1c7 273c 6673 c6bb 157d 1b3c
00000090: 6f54 2b3a 1dba 1ebc 222c 21bc 7cf4 8ebc

net.3.weight f4 [40, 40]
-0.12505884 -0.1426509 -0.028705979 0.05760178 -0.10622342 -0.07432009 -0.0853502 0.14689177
-0.12256664 -0.010141139 -0.04728531 0.037369937 -0.11268755 -0.116834 -0.11827162 -0.036316697
-0.018511603 -0.0020756323 0.01884102 -0.1419273 0.017047634 0.15785791 -0.057485834 -0.13392666
-0.002183204 0.058337156 0.15161145 0.0052271723 0.07812992 -0.105147704 -0.04533329 0.07942832
-0.06490212 0.03483233 0.09709508 -0.029421875 -0.051170327 0.035863876 0.14838454 -0.06923432
0.01809743 -0.002198988 -0.10828409 0.06454732 0.14500669 -0.06381171 0.1337947 0.15993856
-0.08551639 0.05077819 -0.029255569 -0.1429805 0.14812931 -0.06073403 -0.13772842 -0.039247554
-0.030201811 0.010376952 -0.0710025 0.106354706 0.07400715 -0.13309613 -0.09944006 -0.051677473
-0.14252809 -0.079548135 -0.08298214 0.09043342 -0.14115518 -0.15196307 0.15314843 -0.0076878476
0.055445235 -0.14995821 0.0034686066 0.16057187 -0.07839002 -0.098814026 0.028578695 0.14717673
0.06823643 0.08941771 -0.14672561 0.057193503 -0.0414834 -0.109382086 0.032179326 0.007910136
-0.05862607 -0.008752835 -0.14655474 0.092934005 -0.06973479 0.17289615 -0.14214839 0.023916056
0.1509154 -0.0022652233 0.11388004 0.054855477 0.14603208 0.08053817 0.020295452 0.12956524
0.009079354 -0.014995037 -0.10260613 0.06280807 0.09252189 0.12486879 -0.08772269 -0.051683106
-0.13080296 0.07474074 -0.08881087 -0.06918161 -0.12574582 0.14840798 0.014313252 -0.103750356
-0.027921345 -0.019698806 0.13718347 -0.028521126 0.020988746 -0.091823414 0.11760715 -0.06133607
-0.052603975 0.050579183 -0.00045581933 -0.16223086 -0.017008692 0.007868016 -0.050126877 0.005352637
0.12052152 0.0031847279 -0.053882025 -0.043237515 -0.1317888 0.10251045 0.025904018 -0.08348463
0.09818425 -0.16050069 0.08311637 -0.043232895 -0.017749397 -0.025871571 -0.0009320816 0.12387847
-0.05988943 -0.123758525 -0.10509495 0.018483963 -0.10488712 0.01691004 0.039266676 0.061110392
0.13140932 -0.13245855 0.09147 -0.018717777 -0.022380786 0.17174678 -0.12515731 0.115787245
-0.061870873 -0.051199682 0.08386133 0.13397735 -0.12599346 -0.04031802 -0.039427154 0.14954312
-0.08345396 0.060668424 0.03172234 -0.011099832 -0.05632198 -0.028653882 0.13084157 0.08965241
0.1887086 -0.018738795 0.18216538 -0.06918651 -0.026092712 -0.121600926 0.05868576 -0.06994627
0.10113351 -0.014821607 -0.092793025 -0.09870418 -0.032876175 -0.12377507 0.025833895 0.07273717
0.078832045 -0.040343814 -0.013457606 -0.033742324 -0.038443014 0.11416876 0.06775248 -0.033414245
0.053398818 0.11436144 0.13778943 0.17432709 -0.10729446 -0.08600586 0.10125812 -0.13874382
-0.11769811 0.01748298 0.086020485 -0.019499872 0.084463164 0.1469108 0.09327176 0.1334655
-0.11785598 0.030571725 -0.04743514 0.04398993 -0.050494045 0.04722932 -0.047076687 0.11029504
0.032211542 0.013829376 -0.08196615 -0.037376728 -0.016381744 0.07401972 -0.010462088 0.13597603
0.08642148 0.025987078 -0.09305078 -0.08278024 -0.09180103 -0.059385173 -0.10767963 -0.11235228
0.12674621 0.07542293 0.090315215 0.06003512 -0.13301471 0.15820293 -0.020101255 0.11070844
00000000: 6d0f 00be 1413 12be cd28 ebbc d8ef 6b3d
00000010: aa8b d9bd 2235 98bd 16cc aebd cc6a 163e
00000020: 3804 fbbd 0527 26bc 3eae 41bd 3811 193d
00000030: bbc8 e6bd aa46 efbd 6438 f2bd d1c0 14bd
00000040: a5a5 97bc 5507 08bb 7c58 9a3c 6455 11be
00000050: 7ba7 8b3c 81a5 213e 4476 6bbd 1224 09be
00000060: 1614 0fbb f1f2 6e3d 0840 1b3e b348 ab3b
00000070: 9402 a03d ae57 d7bd 66af 39bd 51ab a23d
00000080: 67eb 84bd 58ac 0e3d c9d9 c63d 2506 f1bc
00000090: fa97 51bd 00e6 123d 1ef2 173e b9ca 8dbd
000000a0: 1041 943c e61c 10bb 0dc4 ddbd 6331 843d
000000b0: a27c 143e b7af 82bd 7a01 093e efc6 233e
000000c0: 3823 afbd cbfc 4f3d 60a9 efbc 7b69 12be
000000d0: 36af 173e 3fc4 78bd ae08 0dbe 0bc2 20bd
000000e0: ca69 f7bc 1704 2a3c c269 91bd 7fd0 d93d
000000f0: 1091 973d 5a4a 08be 3ba7 cbbd c2ab 53bd
00000100: e2f2 11be 22ea a2bd 8af2 a9bd 2835 b93d
00000110: fc8a 10be 359c 1bbe f1d2 1c3e 57ea fbbb
00000120: 8b1a 633d a58e 19be 9051 633b f46c 243e
00000130: f28a a0bd 025f cabd de1d ea3c 7fb5 163e
00000140: 8bbf 8b3d a220 b73d 3d3f 16be bc43 6a3d
00000150: 7fea 29bd b703 e0bd 78ce 033d 8499 013c
00000160: e421 70bd 0d68 0fbc 7212 16be 2f54 be3d
00000170: 1dd1 8ebd b00b 313e 598f 11be 9beb c33c
00000180: 9189 1a3e 2474 14bb f039 e93d 23b0 603d
00000190: 6f89 153e 32f1 a43d a642 a63c c0ac 043e
000001a0: 92c1 143c bead 75bc 2a23 d2bd 84a1 803d
000001b0: 1e7c bd3d 35bb ff3d f4a7 b3bd aab1 53bd
000001c0: 36f1 05be ac11 993d 79e2 b5bd 17af 8dbd
000001d0: 83c3 00be 43f8 173e 2182 6a3c 117b d4bd
000001e0: 4ebb e4bc 645f a1bc d379 0c3e 23a5 e9bc
000001f0: 97f0 ab3c ea0d bcbd 04dc f03d 883b 7bbd
00000200: 4477 57bd 1e2c 4f3d 09fb eeb9 d91f 26be
00000210: d055 8bbc dae8 003c d751 4dbd 2c65 af3b
00000220: fdd3 f63d deb6 503b 66b3 5cbd d219 31bd
00000230: a5f3 06be 00f1 d13d aa34 d43c fdf9 aabd
00000240: d314 c93d 4b5a 24be ea38 aa3d fa14 31bd
00000250: 2f67 91bc 9ef0 d3bc f056 74ba ffb3 fd3d
00000260: 9e4e 75bd 1c75 fdbd 053c d7bd ae6b 973c
00000270: 0fcf d6bd ed86 8a3c 18d6 203d e44e 7a3d
00000280: 2a90 063e 37a3 07be a054 bb3d 0656 99bc
00000290: e957 b7bc 63de 2f3e 3d29 00be dd21 ed3d
000002a0: 506c 7dbd c2b6 51bd 7dbf ab3d 5c31 093e
000002b0: 6e04 01be 8224 25bd 5e7e 21bd d521 193e
000002c0: e9e9 aabd 747f 783d 49ef 013d 12dc 35bc
000002d0: e0b1 66bd 8cbb eabc 55fb 053e af9b b73d
000002e0: d43c 413e 1a82 99bc 9089 3a3e a8b1 8dbd
000002f0: 62c0 d5bc e809 f9bd 7b60 703d fd3f 8fbd
00000300: 161f cf3d 53d6 72bc 450a bebd 6b25 cabd
00000310: 2ba9 06bd c97d fdbd 9ba1 d33c 3af7 943d
00000320: b272 a13d 8e3f 25bd 4a7d 5cbc 6435 0abd
00000330: 6c76 1dbd 50d1 e93d d0c1 8a3d 60dd 08bd
00000340: b8b8 5a3d 5536 ea3d ac18 0d3e cd82 323e
00000350: 33bd dbbd d723 b0bd 6b60 cf3d dc12 0ebe
00000360: b50b f1bd 7738 8f3c 822b b03d 32be 9fbc
00000370: 06fb ac3d c96f 163e 4405 bf3d 2eab 083e
00000380: 7a5e f1bd 8e71 fa3c 594b 42bd c92e 343d
00000390: d8d2 4ebd 8873 413d 7cd3 40bd 5ee2 e13d
000003a0: 40f0 033d 9b94 623c dedd a7bd 5718 19bd
000003b0: 0233 86bc a797 973d 2d69 2bbc 4d3d 0b3e
000003c0: bffd b03d dae2 d43c 6891 bebd b088 a9bd
000003d0: 2e02 bcbd de3d 73bd 2387 dcbd f418 e6bd
000003e0: c2c9 013e 5677 9a3d 2ff7 b83d 63e7 753d
000003f0: 0235 08be f3ff 213e 63ab a4bc 1bbb e23d

net.3.bias f4 [40]
-0.016601225 -0.054954387 0.13916546 0.07476402 -0.00048331177 0.15707886 0.07502827 0.11669812
0.13132459 -0.036615375 0.014163474 0.08633222 0.09623437 0.01606061 0.14320204 0.12221768
-0.1101501 -0.14947177 0.057845242 0.14621747 0.01116253 -0.1551291 -0.1274438 0.08642199
0.07685748 0.09922838 0.05602699 -0.11973757 0.1057944 0.07863952 0.025123384 0.060146347
0.07116573 -0.11084103 0.10654051 0.005883171 0.12904465 -0.05225773 0.044750597 0.04326167
00000000: 4bff 87bc da17 61bd 6481 0e3e e11d 993d
00000010: 0265 fdb9 48d9 203e 6ca8 993d 6dff ee3d
00000020: f479 063e 01fa 15bd ea0d 683c f2ce b03d
00000030: 8616 c53d 8a91 833c 8ea3 123e 434d fa3d
00000040: 6096 e1bd 210f 19be 22ef 6c3d 08ba 153e
00000050: 0be3 363c 2ada 1ebe a180 02be 03fe b03d
00000060: 7467 9d3d 4038 cb3d 8f7c 653d f938 f5bd
00000070: bcaa d83d c20d a13d 8ecf cd3c 045c 763d
00000080: 57bf 913d 9f00 e3bd e931 da3d 9ec7 c03b
00000090: 4824 043e 340c 56bd 674c 373d 2633 313d

net.4.weight f4 [40]
1.004529 1.0225576 1.0624698 1.094572 1.0268162 1.07866 1.0067751 1.067682
1.0023065 1.034362 1.004821 1.0583442 1.0179285 1.0125637 1.0752507 1.008255
1.0101142 1.0530962 1.0244375 1.0622472 1.1197059 1.0577656 1.024624 1.02523
1.0517135 1.0970504 1.0142323 1.0022416 1.0081989 1.0070544 1.0931884 1.0247753
1.0230238 1.0239294 1.0454644 1.0162237 0.99720013 1.0307996 1.0471624 1.032821
00000000: 6894 803f 2be3 823f 03ff 873f ef1a 8c3f
00000010: b76e 833f 8811 8a3f 02de 803f cea9 883f
00000020: 944b 803f f965 843f f99d 803f d377 873f
00000030: 7b4b 823f b09b 813f d1a1 893f 800e 813f
00000040: 6c4b 813f dbcb 863f c520 833f b7f7 873f
00000050: 8652 8f3f dd64 873f e126 833f bd3a 833f
00000060: 8c9e 863f 266c 8c3f 5dd2 813f 7449 803f
00000070: a90c 813f 29e7 803f 99ed 8b3f d62b 833f
00000080: 72f2 823f 1e10 833f c7d1 853f 9e13 823f
00000090: 8248 7f3f 3ef1 833f 6b09 863f 7b33 843f

net.4.bias f4 [40]
0.004784571 0.018096989 0.045478992 0.10446852 0.016778894 0.0510367 0.0043811067 0.07474572
-0.0021257834 0.0075353472 0.0046913633 0.047667865 0.01460735 0.002935769 0.052804716 -0.0039729644
0.022021186 0.06197324 0.0017150169 0.04139032 0.111240014 0.0536808 0.028523387 0.017501242
0.04713912 0.071450494 0.0057056644 -0.00094269135 -0.0034526547 0.0067678285 0.09419228 0.024129543
0.01111366 0.026072038 0.04731888 0.013125854 -0.02053873 0.032837406 0.036721617 0.022967461
00000000: e4c7 9c3b 2340 943c 2e48 3a3d 97f3 d53d
00000010: e473 893c dc0b 513d 638f 8f3b 4914 993d
00000020: ba50 0bbb 13eb f63b 02ba 993b 613f 433d
00000030: ab53 6f3c 0866 403b c249 583d a42f 82bb
00000040: c665 b43c a7d7 7d3d 6bca e03a e588 293d
00000050: ced1 e33d 66e0 5b3d e1a9 e93c c45e 8f3c
00000060: f314 413d a354 923d 95f6 ba3b f21e 77ba
00000070: ef45 62bb a9c4 dd3b e2e7 c03d 52ab c53c
00000080: 1216 363c 0795 d53c 71d1 413d d20d 573c
00000090: d740 a8bc 8480 063d 6869 163d 4226 bc3c

net.6.weight f4 [1, 40]
-0.022863735 0.1775023 0.34188113 0.4473034 0.19833823 0.40440303 -0.102835365 0.38219327
-0.112676494 -0.24266838 -0.0340867 0.3201179 0.14807421 -0.049153175 0.41150048 -0.08882176
0.09982334 0.32702604 -0.23386082 0.3435603 0.51515085 0.31566226 0.18440999 0.21399647
0.31827655 0.43775532 -0.044208787 -0.07111939 -0.09768793 0.0029099248 0.460311 0.19677716
-0.24815743 0.15417983 0.2888939 0.04930462 -0.07461987 0.22862333 0.28213334 -0.23879337
00000000: ba4c bbbc 2ac3 353e 0b0b af3e f404 e53e
00000010: 2d19 4b3e ea0d cf3e 599b d2bd d6ae c33e
00000020: efc2 e6bd 0f7e 78be 7f9e 0bbd 7ee6 a33e
00000030: c4a0 173e d754 49bd 31b0 d23e 2fe8 b5bd
00000040: 2e70 cc3d f56f a73e 3679 6fbe 23e7 af3e
00000050: ede0 033f 7c9e a13e f9d5 3c3e e421 5b3e
00000060: 25f5 a23e 7721 e03e 4614 35bd 0ba7 91bd
00000070: 9c10 c8bd 70b4 3e3b e2ad eb3e f47f 493e
00000080: fb1c 7ebe 51e1 1d3e e7e9 933e a4f3 493d
00000090: 4dd2 98bd 3c1c 6a3e c873 903e 4086 74be
