Results/regression/10-shot/3_modes/hard/it2/n_models/models18_8.pt (torch, 10759 bytes, 9 tensors)

net.0.weight f4 [40, 1]
000000 ee e6 61 3f 5c 9b b0 be 80 c5 d6 3e 42 72 17 bf
       0.88242996 -0.3449353 0.41947556 -0.5915872
000010 5e 6b d2 be ac 2f 7e bf 1a 2c 5f bf ef c6 56 bd
       -0.4109754 -0.9929149 -0.8717667 -0.05243581
000020 24 f5 5f bf a0 d5 ee 3e 10 5b ac 3e 3d d0 1f 3f
       -0.8748343 0.46647358 0.33663225 0.6242712
000030 24 d1 15 bf b4 d5 1a bf 6a 93 5e 3f b7 05 60 be
       -0.5852225 -0.60482335 0.86943686 -0.2187718
000040 75 82 0f 3f 9e 35 29 3f b2 0b 8c bd e3 08 75 be
       0.56058437 0.6609744 -0.06838168 -0.23929171
000050 16 96 0a 3f 58 7d ea 3e c2 a6 45 bf ea d2 66 3f
       0.5413526 0.45798755 -0.7720758 0.9016558
000060 fd 55 c1 bd de 88 58 bf d6 67 29 3f de b8 29 bf
       -0.09440229 -0.8458384 0.66174066 -0.6629771
000070 66 79 0a 3f 49 8d 28 3f 75 e5 0d bf 90 4c 79 3f
       0.5409149 0.65840584 -0.5542825 0.9738245
000080 d5 1d 8b 3d fd ce 02 3e 4c f1 3d 3f b8 bd 20 3e
       0.067927994 0.12774272 0.74196315 0.15697372
000090 e4 4f fa bd 73 96 f4 be 8c b0 ad be e0 26 88 be
       -0.12222269 -0.47771034 -0.33923757 -0.2659216

net.0.bias f4 [40]
000000 0a bf 16 3f cc fb 05 bf 90 32 14 be 32 95 3e 3f
       0.5888525 -0.52337337 -0.14472413 0.74446404
000010 98 3b d8 be 28 37 00 3f 10 64 49 3e 5a bb 6b bf
       -0.42232966 0.5008416 0.19667077 -0.9208275
000020 0a 30 59 bf 2e dd 03 bf b8 ba 5b be 5e 3d 20 3f
       -0.84838927 -0.5150937 -0.21457946 0.6259364
000030 58 32 e0 be be 00 1d 3f 82 02 31 3f 56 a1 1b 3f
       -0.4378841 0.6132926 0.6914445 0.60793054
000040 d8 0a a6 3e cc 52 85 3e f6 1d 30 3f ec 83 3f 3f
       0.32430148 0.26039732 0.68795717 0.7481067
000050 fa 16 44 bf 80 7b a9 3d b4 36 8e be 2a f5 09 bf
       -0.7659756 0.08275509 -0.2777611 -0.53889716
000060 4c 32 bc 3e 34 47 49 bf 5c c2 6d bf c0 6b a8 3c
       0.36757123 -0.7862427 -0.92874694 0.020559192
000070 ac 40 c7 3e 70 6d 3b be d8 83 98 be a0 ed 1f 3f
       0.38916528 -0.18303466 -0.2978809 0.6247196
000080 30 b6 40 3f c0 c6 cc 3c f0 80 97 3e 88 6d 8a 3e
       0.75277996 0.024997115 0.2959056 0.2703669
000090 9c e1 ca be be 2f 2f 3f 80 51 f1 be 54 1a 5d 3f
       -0.3962525 0.68432224 -0.47132492 0.863683

net.1.weight f4 [40]
000000 0d a7 7f 3f 9a 03 80 3f e0 c6 7e 3f 27 23 80 3f
       0.99864274 1.0001099 0.9952221 1.0010728
000010 b0 58 80 3f 88 69 80 3f ec 55 7f 3f 2a 08 80 3f
       1.0027065 1.0032206 0.9974048 1.0002491
000020 1e 2e 80 3f 17 4c 80 3f 07 7c 80 3f 35 5d 7e 3f
       1.0014074 1.0023221 1.003785 0.9936097
000030 16 a8 80 3f ca 09 80 3f dd 55 80 3f 9d c8 7f 3f
       1.0051296 1.0002987 1.0026203 0.99915487
000040 03 55 7f 3f d5 42 7f 3f df b0 7e 3f 74 71 7f 3f
       0.9973909 0.9971135 0.99488634 0.9978249
000050 a7 25 80 3f 3d fc 7f 3f 4b be 80 3f b8 aa 7f 3f
       1.001149 0.9999426 1.0058073 0.9986987
000060 21 62 7f 3f c2 53 80 3f 4b 6b 80 3f e1 cb 7f 3f
       0.9975911 1.0025561 1.0032743 0.9992047
000070 3c 6a 80 3f 5a 3f 80 3f e6 d9 7f 3f 0e 70 7f 3f
       1.003242 1.0019333 0.9994186 0.99780357
000080 bd b2 7f 3f 58 5e 80 3f b2 19 80 3f 1f 77 80 3f
       0.9988211 1.0028791 1.0007842 1.0036353
000090 76 13 7f 3f 8f 77 7f 3f 84 77 7f 3f dc 06 7f 3f
       0.9963907 0.99791807 0.9979174 0.9961984

net.1.bias f4 [40]
000000 da 9e 80 3a 3a 20 23 3b 8a 9c 89 bb 34 5f bb 3b
       0.0009812966 0.0024891035 -0.004199569 0.005718136
000010 0b e5 a7 3a 4b cf 7e 3b f4 c1 ca ba a8 f6 95 3b
       0.0012809349 0.003888088 -0.001546918 0.004576523
000020 82 f6 9e 3b da 14 ec 3a b2 bc c8 3b 54 fb b6 bb
       0.0048511634 0.0018011585 0.00612601 -0.00558416
000030 84 da bc 3a 27 48 e4 ba 17 21 a4 3b 0d 7f 4f bb
       0.0014408384 -0.0017416523 0.0050088274 -0.0031661422
000040 6a 36 ac ba 1c c1 5a 3a 79 24 2c bc c8 ed 11 3b
       -0.0013138775 0.00083448156 -0.010506743 0.0022266973
000050 2f 51 4e 3b f1 e5 7f bb c4 61 a6 3b ce af e3 ba
       0.0031481495 -0.0039046968 0.0050775725 -0.001737112
000060 12 7f ff 3a 60 e9 3a 39 06 fc b0 3b e6 8f ce bb
       0.0019492826 0.00017825281 0.0054011373 -0.006303775
000070 95 a6 bb 3b 1c 93 8c 3b 26 9c 81 3b 61 a6 de bb
       0.0057266452 0.0042899977 0.003955382 -0.0067947363
000080 63 9c 68 bb c2 e9 42 3b 27 62 e6 39 51 2a 8a 3b
       -0.0035493604 0.0029741381 0.00043942148 0.0042164703
000090 94 57 87 ba ec 46 13 3b 70 1f c8 ba a6 3a 22 3a
       -0.0010325783 0.0022472693 -0.0015268158 0.0006188549

net.3.weight f4 [40, 40]
000000 13 33 da 3d 45 f8 05 be ba db dd 3d 64 31 b4 3c
       0.10654273 -0.13082989 0.10832925 0.021996208
000010 b2 07 94 3b c2 1f 35 bd 44 76 ae 3d 36 57 1b be
       0.004517519 -0.04421974 0.08518651 -0.15169987
000020 ac db 18 3e 10 a1 1e 3e b8 f4 90 3d 37 ff eb bd
       0.14927548 0.15491128 0.070779264 -0.11523288
000030 26 66 e9 bd a6 d5 9a 3d a9 fe 85 3c c1 73 dd 3d
       -0.113964364 0.075602815 0.016356783 0.10813094
000040 e2 48 a0 bc 39 e9 cd bd a6 89 ff bd 82 dc f8 3c
       -0.019566003 -0.10054249 -0.12477426 0.030378584
000050 e2 c4 18 3e d1 6e 0d be 79 f1 ab 3d a7 ac 85 3d
       0.14918855 -0.13811804 0.08395667 0.065270714
000060 99 fc e1 bd fe d2 ad 3c 25 0c 20 3e bc 45 b8 3d
       -0.11034507 0.021218773 0.15629633 0.08997676
000070 e5 dd a0 3d 5e 6d eb bc ca 12 1f 3d f9 0e c0 3b
       0.07854823 -0.028738674 0.038836278 0.00586116
000080 59 1d d4 bd a8 cf c6 bd f8 ae 17 3e e4 7a ce bd
       -0.1035716 -0.09707576 0.14812839 -0.10082033
000090 56 fb b7 bd 5e 9b fc 3c 9a 47 98 bd ef 27 b1 bb
       -0.089834854 0.030835804 -0.07435532 -0.005406372
0000a0 f7 5b 0a be fb 93 b4 3d 54 59 b3 3d 3e df b3 3d
       -0.13511644 0.088172875 0.08757272 0.087828144
0000b0 84 b2 de bd f6 20 e7 bd d7 1a 0b 3e 8d 17 0a be
       -0.10873893 -0.11285584 0.13584457 -0.13485546
0000c0 11 5e 64 3d b8 45 30 ba 42 b8 be 3d f7 51 06 be
       0.05575377 -0.0006724256 0.09312488 -0.13117205
0000d0 0a df b3 3d 20 d7 60 3d 9c 41 33 bd 39 5f 1b be
       0.08782776 0.05489266 -0.04376374 -0.15173043
0000e0 5d c4 91 bc ad f0 17 3e c0 d4 03 3d 3e ff 0e be
       -0.017793829 0.14837904 0.032185316 -0.13964555
0000f0 24 29 0b 3e dd 8d 6b bd 81 f2 4f 3d 38 70 05 3e
       0.13589913 -0.05750834 0.05076838 0.1303109
000100 be 2a cd bd ad a4 11 be 98 15 32 3d d1 8b a7 bc
       -0.10017918 -0.14222975 0.043477625 -0.020452412
000110 af 7f 04 3e c8 97 c7 bd 41 14 f1 3d 89 ae 82 bc
       0.12939332 -0.09745747 0.11771441 -0.015952365
000120 da f9 08 be f4 0c 21 3d 8a 5e 75 3c 8e c4 a8 3c
       -0.13376561 0.039318994 0.014976153 0.020601537
000130 58 65 c7 3d fd d4 06 bd a3 0d 8f 3c 65 d6 d3 bd
       0.09736127 -0.032917965 0.017462557 -0.10343627
000140 27 34 d7 bd 25 94 0c 3e a4 e3 06 be 7a 3e 07 3e
       -0.10507994 0.13728388 -0.13172776 0.13207427
000150 77 1b d8 3c 9d 4c d6 bc 2e 3c 17 3e 43 f4 b3 3a
       0.026380284 -0.026159579 0.1476905 0.0013729412
000160 54 f7 b4 bc 23 1f 6e 3d d6 82 0d be 75 7c c7 3c
       -0.022090591 0.058135163 -0.13819441 0.024351338
000170 6c da ef 3d 7b 3d e2 3d 99 67 d4 3c 00 9d d2 3c
       0.117115825 0.11046883 0.025928305 0.025709629
000180 63 8d 87 3d 6c c0 0b bc af 5c 03 be b1 54 8e bc
       0.06618764 -0.008529764 -0.12828325 -0.017374368
000190 eb df 8e 3d 92 b3 31 3d 50 b2 21 be f6 b5 0b be
       0.06976303 0.043384142 -0.15790677 -0.13643631
0001a0 e8 90 b3 bc 5f 72 f2 3d bc d6 3d 3d 2d b4 ac 3d
       -0.021919683 0.11838221 0.046347365 0.08432803
0001b0 cc b7 d4 3d 85 c9 07 be 7e d4 92 3d ba d6 8d 3c
       0.10386619 -0.13260467 0.07169436 0.017314304
0001c0 3a 0b 9b bd aa 1b 20 3e 22 d9 04 3d e3 db 8d bc
       -0.07570501 0.15635553 0.032433636 -0.017316764
0001d0 9d b2 02 3d 91 2f 3c bd 93 69 33 3d 1c 6f 00 3e
       0.03190862 -0.0459438 0.043801855 0.12542385
0001e0 9e df 22 be 35 6d 05 3a 2d ac e6 3d 02 8c 9f bd
       -0.15905616 0.00050898205 0.11263309 -0.07790376
0001f0 55 d8 0c 3e 7e 81 75 bb f8 78 1f 3e f2 8a 3c 3d
       0.13754399 -0.0037461217 0.1557349 0.046030946
000200 37 64 e0 bd 47 7f 0e be 29 30 1b be 9a 94 8c 3c
       -0.109566145 -0.1391574 -0.1515509 0.017160702
000210 dd c3 06 be 96 f7 82 3c 56 68 3a 3d 7f 07 1b be
       -0.13160653 0.015987199 0.04550966 -0.15139578
000220 ed a8 5b 3c 6c d5 0d be 36 50 86 bd 75 dc b2 bc
       0.013406974 -0.13850945 -0.06558268 -0.021833638
000230 59 2a f7 bd dc b3 03 3e 95 00 24 3c 08 4a e1 3d
       -0.12068624 0.1286158 0.010009904 0.110004485
000240 88 ec b4 bd 66 78 09 be a9 8b f1 3c f5 a7 d7 3d
       -0.08834177 -0.13424835 0.02948554 0.10530082
000250 29 ec b7 3d 36 ef 83 bd 3a 09 e4 3d a3 72 00 3e
       0.08980591 -0.0644211 0.11134572 0.1254373
000260 13 1d b7 3d 4b 04 d1 3d 55 15 06 be 6c 53 10 be
       0.08941092 0.10205897 -0.13094075 -0.14094323
000270 72 37 d6 bd 41 90 38 bd d3 68 7c 3d f6 41 fe 3d
       -0.10459794 -0.045059446 0.061623406 0.12414925
000280 0e a9 eb 3b b5 ab 1b 3d ba 50 df 3d 05 0b c9 3d
       0.0071917837 0.03800555 0.10904069 0.09816555
000290 9e e2 bf bc cd 84 dc 3d d9 58 d7 3b 00 75 ba 3d
       -0.02342349 0.10767517 0.0065718708 0.09104347
0002a0 17 eb bb 3d ea 26 39 3b 39 03 de bd 69 bf 1d bd
       0.09175699 0.0028251954 -0.108404584 -0.03851262
0002b0 d1 d1 e9 3d 9d 67 b5 3c 54 a2 b2 bd 7c 23 ea bd
       0.114169724 0.022144133 -0.08722368 -0.11432549
0002c0 4b 39 e2 bd b2 5f 0e 3e 6b 14 29 3d ba 3f 21 3e
       -0.11046084 0.13903692 0.041279238 0.15746966
0002d0 05 8e 15 3e 06 ca 01 be cc c6 0c be 9c 50 e7 bd
       0.14604957 -0.12674722 -0.1374771 -0.11294672
0002e0 16 3b d0 bd 36 e7 3f bc 65 b4 c7 bd 17 07 09 3d
       -0.1016752 -0.01171284 -0.097512044 0.033454027
0002f0 21 3e 98 3d 84 21 3c bd a0 dc 01 3e 42 d1 9a 3d
       0.07433725 -0.0459304 0.12681818 0.07559444
000300 a3 08 66 3c a8 18 de bd aa 80 d3 bd 68 9d 0b 3e
       0.014040145 -0.108445466 -0.10327275 0.13634264
000310 33 d0 20 3e f5 e6 77 3d a6 a4 36 bc 59 8a f9 3d
       0.15704422 0.060522992 -0.011147654 0.12184591
000320 7a c8 ab 3d cb d6 fc 3d 93 15 01 be e0 57 be 3b
       0.08387847 0.12345656 -0.12605886 0.0058088154
000330 94 21 07 be ff 9b 79 3c 54 22 82 bd 29 64 8a 3c
       -0.13196403 0.015234946 -0.06354204 0.016893463
000340 8c 01 06 3e b3 04 93 3c 2e 90 e5 3d 8a 6f c2 bb
       0.13086528 0.017946577 0.11209141 -0.0059337066
000350 c4 91 4e 3d 3e 08 9f 3d 8d dc 17 3e 72 7d f4 bd
       0.05043198 0.07765244 0.14830227 -0.11937989
000360 48 82 89 bd c2 fe 76 bd 05 7b b7 3d a3 28 2a be
       -0.06714302 -0.06030155 0.08959011 -0.16617064
000370 4d 2f 8f 3d 8b ec 14 3e 9b 7c 15 3e 3d 9d aa 3c
       0.06991444 0.14543359 0.14598314 0.02082693
000380 0d f3 cd bd eb 70 b0 bc 5e 62 fa 3d 0a 2d c4 bd
       -0.10056124 -0.021538218 0.12225793 -0.09578903
000390 72 68 c0 3d 34 05 9b 3d 81 e4 76 bd 8a 07 16 be
       0.09394921 0.07569352 -0.060276512 -0.14651313
0003a0 cd a5 f2 3d 45 cc 1b bd 94 f8 ef 3d c2 39 90 3d
       0.1184803 -0.038036603 0.117173344 0.070422664
0003b0 98 6d c1 3c 90 8c f2 3d 4d 21 08 3b ac eb 87 3d
       0.023611829 0.118432164 0.0020771802 0.06636748
0003c0 4a df 7d bd 6d 1b d8 3c dc e8 12 3e 70 e1 36 3d
       -0.061980523 0.026380265 0.14346641 0.044648588
0003d0 7c 12 1e be f8 3c 1a 3e a0 e5 c4 ba 7c 47 bf bd
       -0.15436739 0.1506232 -0.0015022047 -0.093398064
0003e0 a4 9d 8b bd f2 dd 0f 3e 7f 93 fc 3d 93 a1 1e bd
       -0.06817177 0.14049509 0.1233282 -0.038728308
0003f0 01 70 09 be 1e 3b a4 3d 45 15 c6 3b ca 66 94 3d
       -0.13421632 0.08019088 0.006045016 0.07246168

net.3.bias f4 [40]
000000 9a 6d d9 bd f7 86 0d 3e 5f 34 57 bd 8a 1a b7 bd
       -0.10616608 0.13821016 -0.05254018 -0.08940609
000010 cf 59 17 bc b9 8e a8 bd c3 5b 21 bd 20 f6 04 bc
       -0.009237721 -0.08230347 -0.03939415 -0.008115321
000020 22 43 ea 3d 00 b3 e7 3c ef 3a 2d bd ac 68 5b 3d
       0.11438586 0.028283596 -0.04229253 0.05356662
000030 b3 44 3b bd 60 47 42 3d e7 77 ed 3c 81 01 58 bd
       -0.045719814 0.04743135 0.028987838 -0.05273581
000040 11 5f c1 3d 01 fe 1d 3e 77 7d 11 3d 0f 42 76 3c
       0.094419606 0.15428926 0.035520043 0.015030398
000050 95 24 02 3e 33 de 15 be 49 63 c9 3d a1 31 12 3e
       0.12709267 -0.14635544 0.0983339 0.14276744
000060 df 23 2e 3d 45 b7 0e 3e aa 76 08 be 72 b9 bf 3d
       0.042514678 0.139371 -0.13326517 0.09361543
000070 ed f7 0b 3e 4a 1e ee 3d 79 f2 05 3e 7b 28 b8 bd
       0.13668795 0.11626871 0.13080777 -0.08992096
000080 49 19 f6 3d b3 4d 12 bb 0d f2 0a be 58 6e bb 3c
       0.120165415 -0.0022324144 -0.13568898 0.022879764
000090 61 d5 15 bd d4 17 fd bc 1d d8 c6 bd 77 8d bb 3d
       -0.036580447 -0.030895151 -0.09709189 0.09157842

net.4.weight f4 [40]
000000 c5 60 7e 3f 62 3a 82 3f 80 10 80 3f 2b fb 7f 3f
       0.9936641 1.0174067 1.0005035 0.99992627
000010 e9 1d 80 3f 0d 14 82 3f fc ee 80 3f bd 22 80 3f
       1.0009128 1.0162369 1.0072932 1.0010601
000020 1f 15 80 3f d9 16 80 3f 9b a1 7f 3f 49 33 7f 3f
       1.0006446 1.0006973 0.99855965 0.9968763
000030 3b 8f 81 3f 41 b2 81 3f 5f 41 80 3f 88 08 82 3f
       1.0121835 1.0132524 1.001995 1.0158854
000040 50 3d 81 3f 8c b3 82 3f ba 43 80 3f 3e 74 80 3f
       1.0096836 1.0211043 1.0020669 1.0035474
000050 87 2d 81 3f 6d 6a 80 3f 57 b1 81 3f 39 21 82 3f
       1.0092019 1.0032479 1.0132245 1.0166389
000060 7e 8e 80 3f b6 21 80 3f 87 d2 80 3f 96 1c 80 3f
       1.0043485 1.0010288 1.0064248 1.0008724
000070 94 8d 82 3f a2 1d 80 3f f2 09 80 3f f5 74 80 3f
       1.0199456 1.0009043 1.0003035 1.0035692
000080 9f 50 80 3f ba 1a 80 3f 29 5c 80 3f 74 28 80 3f
       1.0024604 1.0008156 1.0028125 1.0012345
000090 94 51 80 3f 94 e5 7f 3f 92 6e 80 3f ad 64 80 3f
       1.0024896 0.99959683 1.0033743 1.0030724

net.4.bias f4 [40]
000000 3d 73 01 bc 9a cd 92 3c d2 a4 3b 3a 9e 0d 0b ba
       -0.00790101 0.017920304 0.0007158044 -0.00053044583
000010 89 cf 6b 3a 30 5a 80 3c de 55 8b 3b 5d 52 9a 3a
       0.0008995464 0.015668005 0.0042521795 0.0011773814
000020 b6 cf 8d 3a c2 c3 72 3b fd 64 93 bb 60 0d d1 bb
       0.0010819349 0.003704295 -0.0044981227 -0.0063797683
000030 5d 52 07 3c 94 a2 6c 3c 84 cb b0 3a 64 f1 88 3c
       0.008259383 0.0144430585 0.0013488387 0.016716667
000040 3c 2b 24 3c b1 13 8e 3c 48 81 a1 3a ee 43 eb 3a
       0.0100200735 0.017343374 0.0012321854 0.0017949322
000050 d0 9c 20 3c 90 26 d0 3a 96 fc 77 3c 27 5e 7e 3c
       0.009803012 0.0015880633 0.015135905 0.015525377
000060 c1 26 1c 3b 15 f7 a1 3a 2f 66 41 3c cb c1 5e 39
       0.002382681 0.0012356961 0.011804148 0.00021243763
000070 4e 31 b3 3c 81 0c 71 3a ca 83 d3 39 03 af 1f 3b
       0.021874096 0.00091952836 0.00040343247 0.002436579
000080 8e a1 90 3a 5e 14 8d 3a b8 b3 f0 3b 39 73 7e 3a
       0.0011034475 0.0010763516 0.007345643 0.00097065006
000090 72 70 22 3b 73 5e 02 ba 9f 3b 94 3b 60 9b f2 3a
       0.002478626 -0.00049731805 0.004523709 0.001850944

net.6.weight f4 [1, 40]
000000 c8 fe 02 bd 87 3c 53 3e 07 a5 b1 bd 4a 78 1a bb
       -0.03198126 0.20628558 -0.086740546 -0.0023570233
000010 0c 81 58 bd fb fc 59 3e 10 56 0d be 7b 38 3c bc
       -0.052857444 0.2128791 -0.13802361 -0.011488075
000020 f4 54 97 bd 6b 07 c9 3d 47 16 ab bd 3c 8e cc bd
       -0.073892504 0.09815868 -0.083538584 -0.099880666
000030 a6 9e 51 be ea 73 2b 3e d8 6c 44 3d 85 0f 4c 3e
       -0.20470676 0.16743436 0.047955364 0.19927795
000040 32 06 07 3e ff a0 54 3e 65 86 ec 3c 83 e9 20 3e
       0.13185957 0.2076454 0.028872678 0.15714078
000050 4b 5a 06 3e de cc 05 3e a8 9d 2a 3e ee eb 3e 3e
       0.13120382 0.13066432 0.16661704 0.18644688
000060 c1 bb d4 bd 19 6c 96 bc 16 ff 24 3e 12 49 1e 3c
       -0.10387374 -0.018362092 0.16112933 0.009660976
000070 88 3d 67 3e 07 90 5f bd 77 82 c5 3c cb c1 8c 3d
       0.22582066 -0.054580715 0.024110062 0.068729006
000080 6a 4a f1 3d 40 66 44 3d af a9 15 3e 3d 6b 07 bd
       0.117817715 0.047949076 0.1461551 -0.033061255
000090 db eb 6f 3d f9 f0 af 3c 9d 88 96 3d b3 4c a6 bd
       0.05857454 0.02147721 0.07350276 -0.08120098
