Results/regression/10-shot/3_modes/hard/it2/n_models/models18_9.pt (torch, 10759 bytes, 9 tensors)

net.0.weight f4 [40, 1]
000000 4c 20 86 be 21 8c 1b 3f 3e 1c 57 bf 4c 3d de be
       -0.26196516 0.60760695 -0.8402747 -0.4340614
000010 de 7e 1d bf 14 5b 2c 3f 02 ee 22 3f 14 5f 23 bf
       -0.6152171 0.67326474 0.6364442 -0.6381695
000020 ed b5 40 bf 89 cb 75 be 81 ff 33 3e f2 94 28 be
       -0.75277597 -0.24003424 0.17577936 -0.16463068
000030 87 e4 64 bf 3e c8 17 3f 36 06 a4 3e 54 78 8f 3e
       -0.89411205 0.5928992 0.3203599 0.2802149
000040 ca 07 f7 3c e6 3c 57 bf 8f ca 4a 3f de f1 f8 be
       0.030155081 -0.840773 0.7921533 -0.4862203
000050 ff 7b 25 3f 0e 51 5f 3f 97 7a 44 3f 76 2e be be
       0.6464233 0.87233055 0.7674956 -0.37144822
000060 ee 79 c3 3d 40 98 02 3f f7 ff 7a bf f4 49 69 3f
       0.095447406 0.51013565 -0.9804682 0.9112847
000070 87 2e d5 3e 94 e3 cb be 88 53 29 bf 30 71 92 bd
       0.4163706 -0.39822066 -0.66143084 -0.07150495
000080 17 48 5f bf 65 a6 c6 3e 0a 22 6c bf 34 ba 7d 3f
       -0.87219375 0.38798824 -0.9223944 0.9911225
000090 62 cb 72 bf aa a9 23 bf bc 89 4c 3f 5e 72 14 3f
       -0.9484159 -0.6393076 0.79897666 0.5798701

net.0.bias f4 [40]
000000 4c 44 16 bf 70 3e be 3e 80 79 f9 3d 16 d8 05 3f
       -0.5869796 0.3715701 0.121813774 0.52282846
000010 98 9a ff 3e f8 85 dd be 72 a8 2b 3f 20 39 9a 3d
       0.49922633 -0.43266273 0.670539 0.07530427
000020 5e b8 2f 3f 40 f5 c3 3c 60 35 07 3e b0 6c 66 bf
       0.68640697 0.023920655 0.13203955 -0.90009594
000030 58 28 03 3f 40 6f 6f 3d 60 66 22 3f f8 41 17 bf
       0.51233435 0.058455706 0.6343746 -0.59085035
000040 06 1f 16 3f f8 ae 1a 3f 1c b9 b7 3e c0 75 ce be
       0.5864109 0.6042323 0.35883415 -0.4032421
000050 d6 e0 1d 3f a0 ca f0 3e 0c 29 18 bf b4 94 0f 3f
       0.616712 0.4702959 -0.5943763 0.5608628
000060 a0 39 c1 be 00 ab 43 3c a0 24 20 3e 5c bc 25 bf
       -0.37739277 0.011942625 0.15638971 -0.6474054
000070 80 b1 1f 3f 58 08 d7 be 44 d8 7e bf b8 10 b8 3e
       0.6238022 -0.41998553 -0.99548745 0.35950255
000080 b6 d5 38 3f 2a 04 6a 3f 98 00 2f 3f 90 7f 7f 3f
       0.72201097 0.91412604 0.6836028 0.9980402
000090 92 03 70 3f 10 4b e5 be 54 85 f1 3e b0 de 30 bf
       0.9375545 -0.4478383 0.47172034 -0.69089794

net.1.weight f4 [40]
000000 6a 06 7f 3f ea 02 81 3f 5d 97 7d 3f 45 a4 7d 3f
       0.9961916 1.0079014 0.9905909 0.9907878
000010 4a 2c 7c 3f f6 06 7e 3f d0 96 7d 3f da 43 80 3f
       0.9850508 0.9922937 0.99058247 1.0020707
000020 4e b4 7d 3f 5d 5b 74 3f 0b 71 79 3f 65 1b 81 3f
       0.9910325 0.9545191 0.97438115 1.0086485
000030 ec 6b 7d 3f 87 c9 79 3f ff b9 78 3f 94 04 79 3f
       0.989928 0.9757313 0.9715881 0.9727261
000040 ae 20 7c 3f b6 b0 76 3f 81 23 76 3f 4a 10 80 3f
       0.98487365 0.9636339 0.96147925 1.0004971
000050 96 74 80 3f f2 36 7e 3f 72 4b 7b 3f 99 c4 7e 3f
       1.0035579 0.9930259 0.98161995 0.99518734
000060 af 79 7b 3f 64 34 7b 3f 2e b7 7a 3f ee d5 7a 3f
       0.9823255 0.98126817 0.9793576 0.9798268
000070 eb d0 7a 3f 7c 73 7e 3f a3 a7 77 3f 30 6f 80 3f
       0.97975034 0.99394965 0.9674017 1.0033932
000080 13 76 7e 3f d7 86 7a 3f 1e 28 7f 3f ce be 82 3f
       0.99398917 0.97862 0.9967059 1.0214479
000090 d0 1d 7e 3f b0 40 7b 3f 8f ca 7b 3f 7a 96 7f 3f
       0.9926424 0.9814558 0.98355955 0.99838984

net.1.bias f4 [40]
000000 06 aa 6f 3d 60 82 b7 bd 41 df 8a 3c c3 d3 ad 3b
       0.058511756 -0.08960414 0.016952159 0.005304785
000010 9a e6 86 3d 79 b9 ff 3d f5 e3 d9 3d 16 da 97 3b
       0.065869525 0.12486548 0.106391825 0.004634152
000020 73 ae 5c bd ef 72 b2 3e 6e aa 05 3e f0 6a 10 bd
       -0.053877305 0.34853312 0.13053295 -0.035258234
000030 e7 83 44 3d 2e 54 59 3e c3 a5 e5 3d 2a 8f d5 be
       0.047977354 0.21223518 0.11213257 -0.41710788
000040 a1 49 96 3d 32 03 d3 be ed f1 80 3e 9d ee 3c bb
       0.07338262 -0.41213375 0.25184575 -0.0028828748
000050 ad d6 43 3c 94 ee d5 3c 4e 37 94 3d 4d 4d 0a be
       0.011953038 0.02611474 0.07237111 -0.1350605
000060 f4 40 3f 3c 01 ce 08 bd 7f 07 4a bb b0 2b bc bd
       0.011673201 -0.033399586 -0.0030827222 -0.0918802
000070 d5 af a0 be db 0a c3 3d 96 59 8a 3e f5 2a 72 3d
       -0.3138415 0.09523555 0.27021474 0.059123
000080 5f db 04 3d 89 c1 bd 3d f6 40 ab 3c 70 05 96 bd
       0.03243577 0.092654295 0.020905 -0.07325256
000090 24 a5 05 bd 96 db 41 3e 92 32 08 3b de e1 ab bd
       -0.032628193 0.18931422 0.0020782095 -0.0839269

net.3.weight f4 [40, 40]
000000 3a d5 48 3d a6 10 17 3e 74 13 e1 3c 32 f6 b8 bd
       0.049031474 0.14752445 0.027475096 -0.09031333
000010 a3 b3 9e 3d 00 4f 0e be a4 a7 ac bb 33 b3 01 3e
       0.07749107 -0.13897324 -0.0052690078 0.12666015
000020 c9 91 8a bd 75 c3 ee 3d d7 70 0f 3e 8b 8c e9 3d
       -0.067660876 0.11658374 0.14007889 0.114037596
000030 f9 0a 7c bd 3f 57 5d 3d 8d 71 03 be 20 09 ce 3c
       -0.0615339 0.054038282 -0.12836285 0.025150836
000040 70 08 c8 bd 88 2b dd bd d9 a5 d9 3c 12 1a 11 3e
       -0.09767234 -0.107993186 0.02656834 0.14170101
000050 27 70 c0 3d 0d 97 f2 bd 23 b8 f7 bd a6 e0 ff bd
       0.09396391 -0.11845217 -0.12095668 -0.1249402
000060 59 0b 80 bd 50 81 c1 3c 66 e3 0d be cc b7 17 3e
       -0.062521644 0.023621231 -0.13856277 0.14816207
000070 99 12 35 3e f5 29 02 3e 3e aa 4c 3e cd 9c d1 bd
       0.17682876 0.12711318 0.19986817 -0.102349855
000080 03 65 4d 3d 26 7d 59 3d 58 44 fd 3c 9d d0 33 3e
       0.05014516 0.053097866 0.030916378 0.17560048
000090 f3 71 6f 3d af 7e e2 3d 34 d7 75 bd d2 81 1f 3e
       0.05845828 0.11059319 -0.060019687 0.15576866
0000a0 74 7f ac bd 46 1e bc bc 93 11 41 bc 83 d7 0e 3e
       -0.08422747 -0.022963654 -0.011783975 0.13949399
0000b0 ca c1 88 3c 2a 36 f5 bd 19 64 0e 3e 67 06 d3 bc
       0.016693968 -0.119732216 0.13905372 -0.025759889
0000c0 ed 29 9f 3d d0 af bc 3c 36 15 3d bd c7 b3 12 be
       0.077716686 0.023033053 -0.046162806 -0.14326392
0000d0 1f 6d 27 3e 4f 16 96 bd f5 ca e5 bd 42 c0 89 3d
       0.1635022 -0.07328474 -0.112203516 0.067261234
0000e0 6c 96 bb bd 0c e9 3a 3e 27 7a 55 bd 4c c2 24 3e
       -0.0915955 0.18252963 -0.052118447 0.16089743
0000f0 ac 46 e6 3d 13 19 94 3d 90 b9 ef 3d 8a e4 19 3e
       0.11243948 0.07231345 0.11705315 0.15028587
000100 32 0d 31 3e 1b f1 d2 bc a8 28 eb bd 5b 96 8e 3c
       0.1729019 -0.025749734 -0.11482364 0.01740568
000110 f0 f6 2b 3e 33 e2 55 bd ce d7 c6 bc 5b 30 42 3c
       0.16793418 -0.052217674 -0.024272826 0.011852349
000120 02 72 0f be 5a 54 b8 bd 75 3c ff 3d e7 34 dd 3d
       -0.14008334 -0.09000464 0.12462703 0.10801106
000130 64 4f 55 bc 21 a7 1d 3e 66 59 12 bc 8f e5 28 3e
       -0.0130194165 0.15395786 -0.008932447 0.1649382
000140 e4 ef 2a 3d ac c8 e5 3d 28 a9 dd 3d cd c1 c0 bd
       0.041732684 0.11219916 0.108232796 -0.094119646
000150 6c 87 43 bd 4c 86 e7 bc f8 d1 16 3e d9 9a d6 bd
       -0.04773657 -0.02826228 0.14728534 -0.104787536
000160 8e 78 07 3e 94 e3 2e 3e ac 12 1c 3e 8d 27 fe bd
       0.13229582 0.17079002 0.15241498 -0.124098875
000170 6e 07 18 be 67 ed 24 3d 30 82 ac bd 7d 91 2f bd
       -0.14846584 0.040265467 -0.08423269 -0.042863358
000180 6b 6b 41 bd 41 bf 4f bd b5 e1 8a bd a2 85 0f 3e
       -0.047221582 -0.050719503 -0.067813314 0.1401582
000190 f7 39 fa bd 65 f5 8b 3d 13 1a 60 3c ab ed 8f 3d
       -0.12218087 0.06833915 0.013678092 0.070277534
0001a0 13 1a 18 be 8a c9 14 bc 1e 45 ff 3d b7 48 f4 3b
       -0.14853697 -0.009081254 0.12464355 0.0074549573
0001b0 55 64 ea 3c 82 93 ff bd ea d7 8d bd 58 5f 5c 3d
       0.028612295 -0.12479307 -0.06925948 0.053801864
0001c0 ce e8 b8 3d 8a eb 1a be 01 cd a7 3d 59 2e 49 3d
       0.09028779 -0.15128914 0.08193398 0.049116466
0001d0 0d 32 64 3b 89 17 0b be 3e 08 0b be fa 98 1c 3e
       0.0034819872 -0.13583197 -0.13577363 0.15292731
0001e0 28 f7 59 3d d1 08 cd 3d 3c 42 0d 3b bf a1 58 3c
       0.053214222 0.10011447 0.0021554371 0.013222157
0001f0 a8 cf 9c 3d 99 97 15 bd 7e 0e 13 3d 41 4c 01 be
       0.07656795 -0.036521528 0.035902493 -0.12626745
000200 f8 ca 4e 3c a6 31 34 3d ad f0 a4 bd 7c 4b 7a bc
       0.012621634 0.04399266 -0.08053718 -0.015276786
000210 f1 a9 e4 bc 81 33 1e be a2 33 07 be 15 6e 46 bc
       -0.027913066 -0.15449335 -0.1320329 -0.012111207
000220 49 fd fe 3d d6 e3 39 be 20 3a 0b be 70 07 b4 bd
       0.12450654 -0.18153319 -0.13596392 -0.08790481
000230 81 d4 14 3d 12 35 e5 3d 7b 0a fb bd d0 a7 22 be
       0.036335472 0.11191763 -0.12257858 -0.15884328
000240 71 29 c4 3d ef d0 28 3c ea 6c aa bd d8 89 dd bd
       0.09578217 0.01030372 -0.08321555 -0.10817307
000250 bf ef 2f bd 89 a0 a4 bd e7 13 b8 3d e8 04 6b 3d
       -0.04295325 -0.08038432 0.08988171 0.057377726
000260 c7 84 ee bd ef 69 90 bd c3 cc 00 be 25 09 bb 3d
       -0.11646419 -0.07051455 -0.1257811 0.091326036
000270 b0 e8 23 bd 87 0c a7 3c c5 92 6f 3c 6a 14 d3 bd
       -0.04001683 0.020391716 0.014622395 -0.10306628
000280 6c 09 10 bd 38 8e b5 3d 43 dd f2 3d 06 47 d4 bd
       -0.035165235 0.08865017 0.118586086 -0.10365109
000290 d4 4c a7 bd 36 19 72 3d 04 d3 01 bc 28 3b 17 3e
       -0.08168951 0.059106074 -0.007923845 0.1476866
0002a0 d9 31 d3 bb 01 c1 1c be ba d4 03 bd 92 c7 00 3e
       -0.0064451513 -0.15308 -0.032185294 0.1257613
0002b0 39 5c 55 3d 58 f9 21 3e 02 65 14 bd 80 55 52 be
       0.052089904 0.15817773 -0.03622914 -0.20540428
0002c0 a6 52 8f 3d ac 48 3d 3e 61 5b ab 3c 20 2f db 3c
       0.06998186 0.18484753 0.020917596 0.02675587
0002d0 b4 6a 19 3e 04 39 15 3d b6 b6 04 be 98 52 24 3d
       0.1498211 0.036431327 -0.12960324 0.04011783
0002e0 d3 bf e4 3d 53 a7 47 3d 3d bc a3 bd 8a dd cf 3a
       0.111694 0.048743557 -0.07994888 0.001585887
0002f0 1b e8 16 be 20 a3 93 bd 1a 6c 34 be 68 9c 5a 3d
       -0.14736979 -0.07208848 -0.17619362 0.053371817
000300 e7 39 e0 bd 51 62 a8 3d ba ad fc 3b d1 5e 2e be
       -0.10948544 0.08221877 0.0077111395 -0.17028357
000310 c8 bc 1a 3e 1d 13 00 be 64 e5 f0 ba 6d 77 36 bd
       0.15111077 -0.12507291 -0.0018378911 -0.044547487
000320 51 cb 94 bd 7c 6a 13 3e 00 b2 20 3e f7 4a 0e 3e
       -0.07265342 0.1439609 0.15692902 0.13895784
000330 38 4f 52 3d 03 67 e8 3c bf 2c c9 bd 4d 24 0b 3e
       0.05134508 0.028369432 -0.09822988 0.13588066
000340 47 1a eb bc e5 1f f5 bd 15 2d b9 3c 53 54 09 3e
       -0.028699053 -0.11968974 0.022604505 0.13411073
000350 ef 14 0a 3e df 77 6c bd 81 2c 14 3c dd 17 22 3e
       0.13484548 -0.057731505 0.009043814 0.15829416
000360 c8 9c e5 bd 59 0f f9 3d da e9 95 3c 3b 4a a3 bc
       -0.11211544 0.121611305 0.018299986 -0.019932857
000370 2c b6 2e 3e 04 fb d1 3d 1c 7e 62 3d a2 e4 20 3e
       0.1706168 0.102529556 0.05529605 0.15712216
000380 70 98 5f 3d d7 38 0c 3d e0 db b0 bd 54 58 05 be
       0.054588735 0.034233894 -0.08635688 -0.13021976
000390 86 85 fe bd 95 be 4f 3b ac d7 49 3d 81 35 12 3d
       -0.12427811 0.003169929 0.049277946 0.035695557
0003a0 67 f4 02 bd 5f db 2b bc 60 7c b2 bb 72 bb 01 3e
       -0.03197136 -0.010489314 -0.0054469556 0.12669161
0003b0 d5 0a 90 bd 4f e9 71 bd 08 cf e5 bd d0 0a 0b 3d
       -0.07033316 -0.05906039 -0.11221129 0.03394586
0003c0 55 64 09 3e ee b3 06 3d 06 1c 65 bd d4 12 f0 3d
       0.1341718 0.032886438 -0.05593493 0.11722341
0003d0 5e 7e 55 bc c7 5e e5 3d 98 af e7 3d 16 91 bb bd
       -0.013030617 0.11199718 0.11312789 -0.09158532
0003e0 da 63 22 3e a4 25 fe bd cd d7 1c 3e fd 04 2a 3e
       0.15858403 -0.12409523 0.15316696 0.16603465
0003f0 6a 3a 01 3d a3 2c f2 3d 9e 7c 83 bd fc d5 3b be
       0.03154985 0.1182492 -0.06420253 -0.18343347

net.3.bias f4 [40]
000000 21 5c 0d be 75 8e d4 bc 81 30 ab bc 80 a2 b7 bd
       -0.13804676 -0.025946835 -0.020897152 -0.08966541
000010 e2 c6 14 3e ce 92 10 3d 5a 33 86 bd 78 ad 62 3c
       0.14528993 0.035296254 -0.06552763 0.0138353035
000020 55 c0 df bd bc c5 90 bb c8 8f e1 bd ad ca 23 3d
       -0.10925356 -0.004418103 -0.11013752 0.03998821
000030 f3 b9 4f 3d 96 f2 97 bd 07 29 0f 3e d0 91 86 bc
       0.050714444 -0.074193165 0.13980494 -0.01642695
000040 dd c0 ba bd 51 0f f1 3d c9 fd 83 bd d3 b5 cd 3d
       -0.09118817 0.117704995 -0.0644489 0.10044446
000050 0d ab 6d bb 9d 6b 1a 3e 78 a5 01 3e f1 fb 13 be
       -0.0036265284 0.15080114 0.12660778 -0.14451577
000060 3b 89 e1 3d 22 3e 77 3d f0 d6 75 bc 49 aa bc bd
       0.11012503 0.06036199 -0.015004858 -0.09212167
000070 a8 a5 0d be 12 89 3b bc a7 1b 93 bd 0c e0 ee 3d
       -0.13832724 -0.011446254 -0.07183009 0.11663827
000080 5c 1e 84 3d 21 0b f5 3c bc eb 88 bd f3 49 cb 3d
       0.06451103 0.029912533 -0.06685588 0.09926214
000090 1f dc 1a 3e 27 f4 55 bc e3 06 48 bc 6e 22 d0 bd
       0.15123032 -0.013058699 -0.012208673 -0.10162817

net.4.weight f4 [40]
000000 7e cf 8c 3f ee bd 84 3f 8a 26 83 3f 3d e8 95 3f
       1.1000822 1.0370462 1.0246136 1.1711498
000010 41 17 98 3f 1b ae 84 3f f7 f4 96 3f 53 bb 90 3f
       1.1882097 1.0365633 1.1793507 1.1307167
000020 ea 26 80 3f 97 b8 87 3f 0a 57 99 3f 8e c6 90 3f
       1.0011876 1.0603207 1.1979687 1.1310594
000030 63 1f 82 3f 60 e3 93 3f fd af 86 3f c7 aa 88 3f
       1.0165828 1.1553764 1.0522457 1.0677117
000040 82 bd 85 3f 18 cf 93 3f fc b6 88 3f b2 f9 9c 3f
       1.0448458 1.1547575 1.0680842 1.2263701
000050 12 52 8c 3f ec 7d 81 3f d5 cf 83 3f e4 79 85 3f
       1.0962546 1.0116553 1.02978 1.0427823
000060 2e 32 8b 3f 36 c5 83 3f 20 27 82 3f 93 9c 83 3f
       1.0874689 1.0294559 1.016819 1.0282158
000070 50 2d 83 3f 2a 45 94 3f f0 d4 7f 3f c4 11 89 3f
       1.0248203 1.1583607 0.9993429 1.0708547
000080 0b 44 97 3f a2 3a 7f 3f 13 fd 87 3f bc 47 8c 3f
       1.181764 0.9969884 1.0624107 1.0959392
000090 fc 19 86 3f e0 cf 7f 3f c7 61 86 3f fd 01 89 3f
       1.047668 0.9992657 1.0498589 1.0703732

net.4.bias f4 [40]
000000 39 1d 13 be ff cf ef bc e3 92 93 3b a0 31 06 3e
       -0.14366616 -0.029273985 0.0045035942 0.13104868
000010 87 0c dd 3d f2 b6 8f bc 8b da b5 3d 02 3e e6 3d
       0.10793405 -0.01754329 0.088795744 0.11242296
000020 27 1c b2 bd 73 79 52 3d 87 26 22 3e 32 85 bb 3d
       -0.08696776 0.051385354 0.1583501 0.09156264
000030 c4 92 0b 3d 8c 50 09 3e 84 e1 44 be 11 53 7d be
       0.034075513 0.13409632 -0.19226652 -0.24738719
000040 eb bd a1 bb fb fa c3 3d 50 69 32 3c 29 0d 85 3d
       -0.00493597 0.09569355 0.010889366 0.06496651
000050 9f b5 1b 3d b7 b8 7b 3b 56 14 27 3c dd db 45 3c
       0.038015004 0.003840966 0.01019772 0.012076345
000060 db 38 ed 3c a3 d6 97 3a 6a bf 35 bc 3d 6d e1 bd
       0.028957775 0.0011584352 -0.011093 -0.11007164
000070 ce 0b 2b bb a4 cc b4 3d 62 23 ad bb a6 8f 65 be
       -0.0026099565 0.088280946 -0.005283759 -0.22418079
000080 3d cb 2c 3e ef 0f 22 3c 09 72 cf 3c d1 8b 72 be
       0.16874404 0.009891494 0.02532293 -0.23686148
000090 84 f8 83 bc 36 82 02 bc 84 9f d1 3b cc df 84 3c
       -0.016109712 -0.007965615 0.0063971896 0.016219996

net.6.weight f4 [1, 40]
000000 40 dc 00 bf 51 cb 9a 3e c6 b9 5f 3e 66 7f 21 bf
       -0.50336075 0.30233243 0.2184821 -0.6308502
000010 39 52 28 3f 68 4a 95 3e 37 b7 21 3f 3d 8e 08 bf
       0.6575046 0.2915833 0.6317019 -0.5334204
000020 27 63 27 be f1 30 b4 be 94 70 2f bf b2 e0 09 bf
       -0.16346417 -0.3519359 -0.68531156 -0.5385848
000030 05 ff 3e 3e c2 bc 19 bf 39 e2 c1 be 1e d8 e8 be
       0.1865197 -0.60053647 -0.37867907 -0.45477384
000040 d9 64 a6 3e df 04 15 3f d6 74 bb be 07 1d 38 3f
       0.32498816 0.5821056 -0.36612576 0.7191929
000050 a7 03 e4 3e 96 46 18 3e df 1b 81 3e 15 a4 93 be
       0.44534037 0.14870676 0.25216576 -0.28836122
000060 19 48 d8 3e ae 99 85 3e f2 75 39 3e aa ce 81 be
       0.42242506 0.2609381 0.18111399 -0.25352985
000070 02 90 81 3e 65 44 19 3f 15 4d 9e bb df 71 e7 be
       0.25305182 0.59869987 -0.0048309662 -0.45204064
000080 57 ba 29 bf 7a fe b4 bd 7b 10 b6 be 2d 52 07 bf
       -0.6629996 -0.088376 -0.3555945 -0.52859765
000090 79 2b ae 3e 99 68 94 3c c0 1b ad 3e 11 3b c8 3e
       0.34017542 0.018116282 0.33810234 0.39107564
