Results/regression/10-shot/3_modes/hard/it2/n_models/models18_16.pt (torch, 10759 bytes, 9 tensors)

net.0.weight f4 [40, 1]
0	0x3f395800	0.723999
1	0x3f536986	0.8258289
2	0xbd8d05d0	-0.06885874
3	0xbf50660a	-0.814057
4	0x3f699a70	0.9125128
5	0x3f47c0c2	0.780285
6	0xbf3dda94	-0.7416165
7	0xbf35dfda	-0.71044695
8	0xbf1f6a7e	-0.6227187
9	0x3d1adb40	0.03780675
10	0x3e8b6ac4	0.27229893
11	0x3f45a908	0.77211046
12	0x3f25adc2	0.6471826
13	0x3ee66a50	0.45002985
14	0xbf1ce568	-0.61287546
15	0x3f03a0ee	0.51417434
16	0x3f01d088	0.5070882
17	0x3f562ba8	0.83660364
18	0x3f5f7c8a	0.87299407
19	0xbea0cdf8	-0.31407142
20	0xbf05ee9a	-0.523172
21	0x3ea62044	0.32446492
22	0xbf58c2e8	-0.84672403
23	0x3f13b794	0.57701993
24	0x3e131bf8	0.14366138
25	0x3f3c87c6	0.73644674
26	0xbf270956	-0.6524862
27	0x3dff5a10	0.1246835
28	0x3e0da700	0.13833237
29	0x3f3caa2c	0.7369716
30	0x3d9c0120	0.07617402
31	0x3e51fef0	0.20507407
32	0x3e36f8b8	0.17868316
33	0xbe8abe38	-0.2709825
34	0xbe6d5d90	-0.23180223
35	0xbf3055f4	-0.68881154
36	0xbf20474c	-0.6260879
37	0xbe6ceb48	-0.23136628
38	0x3f688f9e	0.9084414
39	0xbf6bcd2c	-0.9210994

net.0.bias f4 [40]
0	0xbecafd8c	-0.39646566
1	0x3d87a0a0	0.06622434
2	0xbf2ec77a	-0.6827313
3	0x3f0219a2	0.5082036
4	0xbf496754	-0.7867329
5	0x3ceba440	0.028764844
6	0xbf2216fc	-0.6331632
7	0x3f5cfd5e	0.8632411
8	0x3f1cbc64	0.6122496
9	0x3ee8b7b8	0.45452666
10	0x3e6cf940	0.23141956
11	0x3f288ed8	0.6584296
12	0xbefc37d4	-0.49261343
13	0xbf6e43d0	-0.93072224
14	0xbf3ba75a	-0.73302233
15	0x3f0cd63c	0.55014396
16	0x3e8f5184	0.2799188
17	0x3f1a1e7a	0.60202754
18	0x3e551620	0.20809221
19	0x3ea9c39c	0.3315705
20	0x3f62bb50	0.88567066
21	0xbeef0d68	-0.46689916
22	0xbf290e9e	-0.6603793
23	0x3f14bdb6	0.58101976
24	0xbdfc3190	-0.12314141
25	0x3e902554	0.2815348
26	0x3f6fe67e	0.9371108
27	0x3e52baa8	0.20579016
28	0xbf106388	-0.5640187
29	0x3ed675fc	0.4188689
30	0x3ef03474	0.4691502
31	0x3f5c18c0	0.85975266
32	0xbea41a2c	-0.32051218
33	0x3f69e3e4	0.9136336
34	0x3d825d70	0.06365478
35	0x3f5061d2	0.8139926
36	0x3f251684	0.6448748
37	0x3d81a890	0.06330979
38	0x3f759d80	0.9594345
39	0x3f4f2b58	0.8092551

net.1.weight f4 [40]
0	0x3f800000	1.0
1	0x3f800000	1.0
2	0x3f800000	1.0
3	0x3f800000	1.0
4	0x3f800000	1.0
5	0x3f800000	1.0
6	0x3f800000	1.0
7	0x3f800000	1.0
8	0x3f800000	1.0
9	0x3f800000	1.0
10	0x3f800000	1.0
11	0x3f800000	1.0
12	0x3f800000	1.0
13	0x3f800000	1.0
14	0x3f800000	1.0
15	0x3f800000	1.0
16	0x3f800000	1.0
17	0x3f800000	1.0
18	0x3f800000	1.0
19	0x3f800000	1.0
20	0x3f800000	1.0
21	0x3f800000	1.0
22	0x3f800000	1.0
23	0x3f800000	1.0
24	0x3f800000	1.0
25	0x3f800000	1.0
26	0x3f800000	1.0
27	0x3f800000	1.0
28	0x3f800000	1.0
29	0x3f800000	1.0
30	0x3f800000	1.0
31	0x3f800000	1.0
32	0x3f800000	1.0
33	0x3f800000	1.0
34	0x3f800000	1.0
35	0x3f800000	1.0
36	0x3f800000	1.0
37	0x3f800000	1.0
38	0x3f800000	1.0
39	0x3f800000	1.0

net.1.bias f4 [40]
0	0x00000000	0.0
1	0x00000000	0.0
2	0x00000000	0.0
3	0x00000000	0.0
4	0x00000000	0.0
5	0x00000000	0.0
6	0x00000000	0.0
7	0x00000000	0.0
8	0x00000000	0.0
9	0x00000000	0.0
10	0x00000000	0.0
11	0x00000000	0.0
12	0x00000000	0.0
13	0x00000000	0.0
14	0x00000000	0.0
15	0x00000000	0.0
16	0x00000000	0.0
17	0x00000000	0.0
18	0x00000000	0.0
19	0x00000000	0.0
20	0x00000000	0.0
21	0x00000000	0.0
22	0x00000000	0.0
23	0x00000000	0.0
24	0x00000000	0.0
25	0x00000000	0.0
26	0x00000000	0.0
27	0x00000000	0.0
28	0x00000000	0.0
29	0x00000000	0.0
30	0x00000000	0.0
31	0x00000000	0.0
32	0x00000000	0.0
33	0x00000000	0.0
34	0x00000000	0.0
35	0x00000000	0.0
36	0x00000000	0.0
37	0x00000000	0.0
38	0x00000000	0.0
39	0x00000000	0.0

net.3.weight f4 [40, 40]
0	0xbdaa1db6	-0.08306448
1	0x3d53c01e	0.05169689
2	0x3d2d1566	0.042256735
3	0x3d26f799	0.04076347
4	0x3db3625c	0.08758995
5	0xbc93c6e1	-0.018039169
6	0xbd1958a2	-0.037438042
7	0xbdcc3ef2	-0.09972943
8	0xbddfe274	-0.109318644
9	0xbdd82a56	-0.1055495
10	0xbd85be6f	-0.06530463
11	0xbdcc8e9b	-0.09988137
12	0x3cadf966	0.021237087
13	0x3dc5a1ea	0.09650023
14	0x3d9a4499	0.07532615
15	0xbe0868ac	-0.13321179
16	0xbcbef4fa	-0.023310173
17	0xba8a31aa	-0.0010543365
18	0xbdf9f79f	-0.12205433
19	0x3d137528	0.0360004
20	0x3da3db60	0.08000827
21	0x3bc2331e	0.005926504
22	0xbdce43d7	-0.10071533
23	0xbdb7d3d7	-0.08975952
24	0xbda68851	-0.08131469
25	0x3e0302ef	0.12794088
26	0xbcd2d3b3	-0.025735712
27	0x3e04271d	0.12905546
28	0x3e20b373	0.15693454
29	0xbdb2020b	-0.08691796
30	0x3d52ecf5	0.05149551
31	0x3e0ca327	0.13734113
32	0x3e1da125	0.15393503
33	0x3d5c78ed	0.05382626
34	0xbdeeb68d	-0.116559125
35	0xbbcf02b7	-0.0063174623
36	0x3d733d10	0.059384406
37	0x3e1e4f7e	0.15460011
38	0x3d0262ac	0.031832382
39	0xbd8f1a88	-0.06987482
40	0x3e10d37d	0.14143176
41	0x3de695e2	0.11259057
42	0xbda83f7a	-0.08215232
43	0x3deee6c9	0.116651125
44	0x3c020be8	0.007937409
45	0xbd97cb6e	-0.07411848
46	0xbda8bff4	-0.08239737
47	0x3dffb0e0	0.12484908
48	0xbe176b75	-0.14787085
49	0x3d6ca278	0.05777213
50	0xbddf645e	-0.109078154
51	0x3e0be292	0.13660648
52	0x3d0d658b	0.034520667
53	0xbcf86d1e	-0.030325469
54	0x3d0d0f50	0.03443843
55	0xbd80a145	-0.0628076
56	0x3df7edbd	0.12105892
57	0x3d86244f	0.06549894
58	0x3da4a96e	0.08040129
59	0x3e04afca	0.12957683
60	0x3d681f08	0.05667022
61	0xbdfb3dd0	-0.12267649
62	0x3d404493	0.046940397
63	0x3e06025d	0.13086839
64	0xbdab9b31	-0.0837921
65	0x3e19d69f	0.15023278
66	0xbd1e2297	-0.038607206
67	0x3d5d80ea	0.05407802
68	0x3dbea521	0.093088396
69	0xbcb36fcc	-0.021903895
70	0xbdb020e4	-0.086000234
71	0x3db6e671	0.08930672
72	0xbcb0c30c	-0.02157738
73	0x3e1a7f40	0.15087605
74	0x3d04250f	0.032261904
75	0x3d739ac9	0.059473787
76	0xbe0fd04f	-0.14044307
77	0xbc83589e	-0.016033467
78	0x3e1a75f1	0.15084054
79	0x3d89e887	0.06733804
80	0xbe1d0bff	-0.15336607
81	0x3de3d4ec	0.11124596
82	0x3d6ef57d	0.058339585
83	0x3e127545	0.14302547
84	0x3d06e589	0.032933746
85	0x3c857406	0.016290676
86	0x3c47d531	0.012196825
87	0x3d8f5219	0.06998081
88	0xbc4c2f1b	-0.012462403
89	0x3dd6eefd	0.10494802
90	0x3d22bbc4	0.03972985
91	0xbd226f8e	-0.039657168
92	0xbccb1c11	-0.024793657
93	0xbbc58523	-0.006027834
94	0xbd58b8bd	-0.052910555
95	0xbe01c4e5	-0.12672766
96	0x3d937b80	0.0720129
97	0xbdc5bdff	-0.096553795
98	0x3d37b351	0.044848744
99	0x3ddf4a2e	0.109028205
100	0x3d68d06a	0.056839384
101	0x3e0f6a92	0.14005497
102	0x3db999a3	0.09062507
103	0x3d3ab87f	0.045586105
104	0xbdf27754	-0.11839166
105	0x3d7a9dc0	0.0611856
106	0xbb4257cc	-0.0029654382
107	0x3dff91d8	0.12478989
108	0xbdeb4bc7	-0.11489063
109	0xbddff58c	-0.10935506
110	0xbd7336cc	-0.05937843
111	0xbe07d2e6	-0.13264045
112	0xbdcead4d	-0.10091648
113	0x3e0f0dc0	0.13970089
114	0x3c444c63	0.011981103
115	0xbe139ca9	-0.1441523
116	0x3d83f524	0.06443241
117	0xbd717491	-0.058949057
118	0x3dc9458f	0.098277204
119	0xbdc40092	-0.09570421
120	0x3d882971	0.06648529
121	0xbd5432da	-0.05180631
122	0xbd6afecb	-0.057371896
123	0x3dc9c76e	0.09852491
124	0x3d0f0a58	0.034921974
125	0xbd68e19c	-0.056855783
126	0xbe15b05d	-0.14618059
127	0xbd880c38	-0.066429555
128	0xbe11dfbb	-0.14245503
129	0xbd1ed1ae	-0.038774185
130	0x3e0b82eb	0.1362416
131	0x3d8511bf	0.064975254
132	0x3e1fc879	0.15603818
133	0x3d82fae3	0.06395509
134	0xbe01b4d9	-0.12666644
135	0xbd27200e	-0.040802054
136	0x3e01fdf2	0.12694529
137	0x3ddbbb79	0.10729117
138	0x3de59548	0.11210114
139	0x3dd461ff	0.10370254
140	0xbe164db2	-0.14678076
141	0x3d4028a6	0.046913765
142	0xbe1711c2	-0.14752868
143	0xbda29400	-0.07938385
144	0x3e1bacf1	0.1520269
145	0x3df74ce3	0.12075212
146	0x3e1486ed	0.14504595
147	0xbd6f2e13	-0.05839355
148	0x3c0acf4e	0.008472277
149	0xbe1cd745	-0.15316494
150	0x3dfc4c30	0.12319219
151	0xbcf5549d	-0.029947573
152	0xbd8bdd19	-0.068292804
153	0xbc72aa64	-0.014811132
154	0xbbf5df8e	-0.0075034564
155	0x3dcdadf0	0.100429416
156	0xbd876ae0	-0.06612182
157	0xbe0ef641	-0.13961126
158	0x3d3b8bc1	0.045787577
159	0x3cad155c	0.021128349
160	0xbd8ead77	-0.069666795
161	0x3ddeef9a	0.10885544
162	0xbdfe2eee	-0.12411295
163	0xbd8eb901	-0.069688804
164	0x3e0f3d24	0.13988167
165	0xbe142f95	-0.14471276
166	0x3dceb72f	0.10093533
167	0x3cc4a026	0.024002146
168	0xbe131194	-0.14362174
169	0xbdac89c9	-0.08424718
170	0xbd73ce21	-0.05952275
171	0xbc6bffb6	-0.014404228
172	0x3dd19204	0.102329284
173	0x3d109a32	0.035303302
174	0xbd271f90	-0.040801585
175	0xbc597480	-0.013272405
176	0xbdc17fd8	-0.094482124
177	0x3de4f3a4	0.11179283
178	0xbcf3de15	-0.029768983
179	0xbcd71196	-0.026253503
180	0xbdb96e44	-0.090542346
181	0xbe1e9ab0	-0.15488696
182	0xbc563cce	-0.01307602
183	0xbd30f873	-0.04320569
184	0xbd8cfed4	-0.06884542
185	0x3d933a98	0.0718891
186	0xbd9a9646	-0.07548194
187	0xbe1ece1e	-0.15508315
188	0x3e138631	0.14406659
189	0x3d5421fe	0.05179023
190	0xbd1dc302	-0.038516052
191	0xbdb97626	-0.09055738
192	0xbbff5f30	-0.0077933297
193	0xbd5ef8d0	-0.054436505
194	0xbe04c8cd	-0.12967224
195	0x3e0adbb9	0.1356038
196	0xbdb8aaf2	-0.0901698
197	0xbd9107a4	-0.070815355
198	0x3d2259b7	0.03963634
199	0x3bce0f0f	0.006288416
200	0xbcded870	-0.027202815
201	0x3c009f23	0.007850441
202	0xbda989f7	-0.08278268
203	0xbcb4c345	-0.022065768
204	0xbd4f0f53	-0.050551724
205	0x3d4f2fa8	0.050582558
206	0xbd84c1b6	-0.0648226
207	0xbe10235a	-0.14075986
208	0x3dd0bede	0.10192655
209	0xbd325536	-0.043538295
210	0xbe13e84c	-0.14444083
211	0xbd302591	-0.043004576
212	0x3d8687f6	0.06568901
213	0xbd7c8199	-0.06164703
214	0x3c271c7a	0.01019966
215	0x3dc43af7	0.09581559
216	0xbe1d883a	-0.15383998
217	0x3ccd5658	0.025065586
218	0xbbe65569	-0.0070292247
219	0x3e1d4b30	0.15360713
220	0xbe027525	-0.1274
221	0xbb0db22c	-0.0021621091
222	0x3de58731	0.11207426
223	0x3d81dcf2	0.0634097
224	0xbd410908	-0.047127753
225	0x3c430f4a	0.011905501
226	0xbd17252d	-0.036900688
227	0x3dfd33bf	0.123633854
228	0x3db52d35	0.08846513
229	0x3e1c8659	0.15285625
230	0x3e0240c3	0.12720017
231	0x3d6d08e3	0.057869803
232	0x3c1e93bd	0.009678778
233	0x3c0bd38f	0.008534326
234	0xbd2d8701	-0.042365078
235	0xbcead32d	-0.02866515
236	0x3d1976c1	0.03746677
237	0x3d1cfa44	0.03832461
238	0x3d36c74b	0.044623654
239	0xbde9dc1f	-0.11418938
240	0xbdc713a2	-0.097205415
241	0xbd8dbeb6	-0.06921141
242	0xbd67d360	-0.056598067
243	0x3e166b8e	0.14689466
244	0x3dcef236	0.10104792
245	0x3d7caf0a	0.061690368
246	0xbbde7dd7	-0.0067899036
247	0x3e1fbaea	0.15598646
248	0xbd9338f2	-0.07188596
249	0x3de3033b	0.110846005
250	0xbdd8a0e2	-0.10577561
251	0x3da68e34	0.08132592
252	0xbc52ec49	-0.012873718
253	0x3d206234	0.039156154
254	0x3de05bdb	0.1095502
255	0x3e0fef21	0.14056064

net.3.bias f4 [40]
0	0x3bba4df2	0.0056855613
1	0x3e16f86b	0.14743201
2	0x3d4a5fdf	0.049407836
3	0xbdeacb1f	-0.114645235
4	0xbe18799b	-0.14890139
5	0x3da5d41b	0.080970965
6	0x3e0ed071	0.13946702
7	0x3bcfe823	0.0063448115
8	0x3e1d96ea	0.153896
9	0x3dc17fa3	0.09448173
10	0x3e064569	0.13112415
11	0xbd2db5de	-0.04240977
12	0x3e0b2e3a	0.13591853
13	0xbd8614cb	-0.06546935
14	0x3dc8f2e5	0.098119535
15	0xbd835472	-0.06412591
16	0x3ddc4b33	0.107565306
17	0xbdc7b405	-0.09751133
18	0x3dfa9208	0.122348845
19	0xbd5b86cb	-0.053595345
20	0x3dfb0dbf	0.12258481
21	0xbdf7a610	-0.12092221
22	0xbdd4ed6f	-0.10396849
23	0x3dd4589c	0.103684634
24	0xbdfcf600	-0.12351608
25	0xbd9eaf4a	-0.077482775
26	0xbdd61f3f	-0.104551785
27	0x3d684972	0.056710668
28	0xbd0b1c86	-0.03396275
29	0x3e1b16fe	0.1514549
30	0xbdfbe631	-0.12299765
31	0xbe0e2224	-0.13880211
32	0x3de49903	0.11161997
33	0x3e0e4b6c	0.13895959
34	0x3dea231d	0.114324786
35	0xbd7b6531	-0.0613758
36	0x3e06dfd6	0.13171324
37	0x3d0a61fd	0.033784855
38	0x3e0b0a5a	0.13578168
39	0x3d0fdeac	0.035124466

net.4.weight f4 [40]
0	0x3f800000	1.0
1	0x3f800000	1.0
2	0x3f800000	1.0
3	0x3f800000	1.0
4	0x3f800000	1.0
5	0x3f800000	1.0
6	0x3f800000	1.0
7	0x3f800000	1.0
8	0x3f800000	1.0
9	0x3f800000	1.0
10	0x3f800000	1.0
11	0x3f800000	1.0
12	0x3f800000	1.0
13	0x3f800000	1.0
14	0x3f800000	1.0
15	0x3f800000	1.0
16	0x3f800000	1.0
17	0x3f800000	1.0
18	0x3f800000	1.0
19	0x3f800000	1.0
20	0x3f800000	1.0
21	0x3f800000	1.0
22	0x3f800000	1.0
23	0x3f800000	1.0
24	0x3f800000	1.0
25	0x3f800000	1.0
26	0x3f800000	1.0
27	0x3f800000	1.0
28	0x3f800000	1.0
29	0x3f800000	1.0
30	0x3f800000	1.0
31	0x3f800000	1.0
32	0x3f800000	1.0
33	0x3f800000	1.0
34	0x3f800000	1.0
35	0x3f800000	1.0
36	0x3f800000	1.0
37	0x3f800000	1.0
38	0x3f800000	1.0
39	0x3f800000	1.0

net.4.bias f4 [40]
0	0x00000000	0.0
1	0x00000000	0.0
2	0x00000000	0.0
3	0x00000000	0.0
4	0x00000000	0.0
5	0x00000000	0.0
6	0x00000000	0.0
7	0x00000000	0.0
8	0x00000000	0.0
9	0x00000000	0.0
10	0x00000000	0.0
11	0x00000000	0.0
12	0x00000000	0.0
13	0x00000000	0.0
14	0x00000000	0.0
15	0x00000000	0.0
16	0x00000000	0.0
17	0x00000000	0.0
18	0x00000000	0.0
19	0x00000000	0.0
20	0x00000000	0.0
21	0x00000000	0.0
22	0x00000000	0.0
23	0x00000000	0.0
24	0x00000000	0.0
25	0x00000000	0.0
26	0x00000000	0.0
27	0x00000000	0.0
28	0x00000000	0.0
29	0x00000000	0.0
30	0x00000000	0.0
31	0x00000000	0.0
32	0x00000000	0.0
33	0x00000000	0.0
34	0x00000000	0.0
35	0x00000000	0.0
36	0x00000000	0.0
37	0x00000000	0.0
38	0x00000000	0.0
39	0x00000000	0.0

net.6.weight f4 [1, 40]
0	0x3db632e2	0.08896424
1	0x3db6f3e4	0.08933237
2	0xbd83fbee	-0.06444536
3	0x3ded748d	0.11594496
4	0xbdcf6151	-0.101259835
5	0xbd30cfbc	-0.04316686
6	0xbd47bea9	-0.048765812
7	0x3c9147aa	0.017734367
8	0x3deff249	0.11716134
9	0xbde16f0e	-0.1100751
10	0x3d70d8e2	0.058800586
11	0xbd8c4601	-0.0684929
12	0x3d7f0a5c	0.06226574
13	0xbc8449d2	-0.016148482
14	0x3dcf2305	0.10114101
15	0x3d6b1827	0.05739608
16	0xbda515c6	-0.080607936
17	0x3a1a0ade	0.0005876253
18	0xbd68c336	-0.056826793
19	0xbd4311d7	-0.047624435
20	0xbc181df2	-0.009284483
21	0x3c80d217	0.015725179
22	0xbdc9832d	-0.09839473
23	0xbb8afee6	-0.004241812
24	0xbde1fd0f	-0.11034595
25	0xbd91cd69	-0.07119257
26	0x3a45f422	0.0007551332
27	0xbda908c9	-0.08253629
28	0xbda51f57	-0.08062618
29	0xbd33296b	-0.04374067
30	0xbd0740b0	-0.033020675
31	0x3dcabd47	0.09899383
32	0xbcf9f418	-0.0305119
33	0xbdd6c63c	-0.10487029
34	0xbdca4c90	-0.098778844
35	0xbe0adadb	-0.13560049
36	0xbdbccecb	-0.0921913
37	0xbd227b05	-0.0396681
38	0x3d97f353	0.07419457
39	0x3c911938	0.01771222
