Results/regression/5-shot/5_modes/hard/it3/maml/5te_model.pt (torch, 125731 bytes, 20 tensors)

te_net.0.weight f4 [32, 2]
00000000: 9e18 103f df57 9c3d 9a3a 0a3f 7ebb 4b3c
00000010: edb2 6ebe d160 07bf d486 c93e 764e 6f3d
00000020: 3cd8 623e 1358 b23e 1cd1 16bf 1a20 95bc
00000030: 0807 f93e bcd7 43be 5a3f 5ebe 7176 ec3e
00000040: b9ae 2abf bf88 b2be 1094 a63e 8c45 9cbe
00000050: 6b5e 303f 7410 13bf 62b8 06bf 34ee 263e
00000060: 8ebe f8be f4f5 47be e5cc ffbe f5aa 833d
00000070: 3086 a2be abc4 1cbf b72f 063e b404 853d
00000080: 77bb 203f 4492 1a3f a836 14bf 94f1 693d
00000090: 53fc 293f 8bf9 a83e b596 aabe 0b68 c73d
000000a0: 675a 393e 04e7 9bbe 1f4c e13d b608 5f3d
000000b0: e521 fbbe 6dfd 43be e8be c4be df4f f83e
000000c0: 129e c1be 502a 84bd 8ea0 22be 72da cd3d
000000d0: ef4b b7be d991 b93d 9e6e 5abe e0d4 99bd
000000e0: 15f5 16bf 8bc0 d4bd 7cc1 bf3e ca8c 013f
000000f0: 261a aabe 994f ea3d ba17 993e 21fd 30be
0.5628756 0.076339476 0.5399567 0.012434838 -0.23310442 -0.52882105 0.39360678 0.058424436
0.221528 0.3483282 -0.58912826 -0.018203784 0.48638177 -0.19125265 -0.21703854 0.46184114
-0.66672856 -0.34869954 0.32534838 -0.3052181 0.6889407 -0.5744698 -0.52625096 0.16301805
-0.48582882 -0.19527417 -0.4996101 0.06429092 -0.31743002 -0.6123759 0.1310414 0.06495038
0.6278605 0.60379434 -0.578959 0.057115152 0.6640064 0.33002886 -0.33318105 0.097366415
0.18100892 -0.30449688 0.11000847 0.054451667 -0.49049297 -0.19139643 -0.384269 0.48498437
-0.3781591 -0.06453383 -0.15881559 0.10051431 -0.3580012 0.09061021 -0.2133126 -0.07511306
-0.58967716 -0.10388287 0.37452304 0.5060545 -0.33223075 0.11440963 0.29900914 -0.17284061

te_net.0.bias f4 [32]
00000000: 8f10 0cbf 8339 0dbf d656 0dbf da5f b73d
00000010: fcc2 2abf d3d0 143f f911 103f 0042 cb3e
00000020: 637b 66be afb3 bb3e f046 153f 1fea 34bf
00000030: 7555 2ebf f206 0abf b99a ab3d aaba 9a3e
00000040: 21b6 dabe 15b8 8bbe 57fb 1a3f d36e f9be
00000050: b711 89bd d581 9b3d c348 7b3e 9f53 19bf
00000060: 72aa 9e3e a264 403e 4040 2c3f 236f 71be
00000070: b732 e0bd e47f 26bf 987e 183f e40c cabb
-0.54712766 -0.5516588 -0.55210626 0.08953829 -0.6670377 0.5813114 0.56277424 0.39698792
-0.22508006 0.36660525 0.5831137 -0.7066974 -0.6809915 -0.5391685 0.083791204 0.30220538
-0.42717078 -0.2728888 0.60539764 -0.48717365 -0.06692832 0.07593123 0.24539475 -0.5989322
0.30989414 0.18788388 0.6728554 -0.23577552 -0.10947173 -0.65038896 0.59568167 -0.0061660875

te_net.2.weight f4 [32, 32]
00000000: 4d2d 17be 39e6 1f3d bd8d 393e 0556 c2ba
00000010: edb9 cc3d e5e4 3a3e 9f12 303c 2570 7dbd
00000020: cf00 8c3d 63d5 ba3b fa78 a03d fd20 46bd
00000030: 5b8e 663d 2484 1f3d 4b0f 2abe aab4 cabd
00000040: 1a6d 803d 929f 5dbd a55e 223e e416 243c
00000050: 19a0 7abd 1963 283e eb88 07be 754e 993d
00000060: 8c30 543d 7ed9 29bd c4a1 dbbd 96c8 f93d
00000070: 1f81 0e3d 161c 003e e8b8 09be c613 823d
00000080: 2a00 093c eea2 fdbc d66a dcbc bd5d 3a3c
00000090: 78f7 4e3c 5a4c 2a3e a808 e6bd c7cc 11be
000000a0: b21f 7c3d ea67 26be d102 f43d 3957 17bd
000000b0: 42b1 143e e5f8 073e 2c97 96bd f50b 2c3d
000000c0: a093 00bd f59d da3d b557 eabc 3304 1c3d
000000d0: 3aaf 84bd 857b 16be 1d8e 28be d4cd 183d
000000e0: 6413 edbd 6bb4 fb3d 2a9e ffbc dc3a cbbc
000000f0: fab9 5ebd 7a5d af3c 2dd5 6dbd 0a18 af3d
00000100: e61a 093d de9a cebd d9e5 1bbd d775 f1bd
00000110: f781 813d acde e93d 3103 3c3e d88d 7bbd
00000120: e591 dcbc a060 143e a4ef febc 7643 5e3d
00000130: 6844 a6bc 9720 1bbe a14c 0d3e b772 0ebe
00000140: 52ea c2bd 5619 afbd 3a9d eabd b23c 123e
00000150: c731 303e 811a fc3c 4c2d 6b3c 962a ec3c
00000160: 47a1 853d a80e 89bd 8def c63d c3c6 b7bd
00000170: cbd6 52bd d3f1 183e a93f 22be 03e6 cabd
00000180: 56fd c9bd dac2 d03d 04f8 d9bd 02b4 fdbd
00000190: 63dd 2a3e c0b7 0fbe 30ba 993c bc20 043e
000001a0: 9895 013e b368 5f3d bf26 11bd 6579 e03a
000001b0: 618e 8fbc 3244 dbbc 5ff5 f5bd 4c58 053e
000001c0: 7a93 3e3d 634c 81bd b1a2 00be 46f2 0a3e
000001d0: 8d91 e03d fb73 29bc 4845 ea3d e8df 19be
000001e0: 8867 0bbe ea89 0d3e 4353 fcbd cdc9 1e3e
000001f0: 5396 05be fe5c 323e 21c8 fc3c 5e33 853d
00000200: 2ec3 03be 1db7 e4bd eaf6 11be a041 fbbd
00000210: f44e 013d 5798 30be a910 18be 8662 923d
00000220: 828a e73c 869d 5cbd 3c8a 28be 74c3 ba3d
00000230: 4466 e1bd 7c22 95bd 6b22 aabb f055 32be
00000240: aea1 d83d 6f61 fe3d 755a 56bd f07f 963d
00000250: c929 dbbd 493d a5bd 1fe7 bbbd 18a9 f7bd
00000260: bb08 1d3d 2896 0fbe 713f febc a307 14be
00000270: 1ab6 12bd da9a 17bd 7d01 c33d 9081 d33d
00000280: c93b 863c d631 fbbb 73e4 203e 78f1 14be
00000290: c0c4 c63d eb41 a6bd 17b7 053e bc02 a23d
000002a0: 98c4 003e 7891 4a3d e222 c83d 7793 4e3c
000002b0: 5867 1c3e 63b5 133e e9e9 08be 8f08 ac3d
000002c0: 2418 143e 2b36 04be af3d 2f3b 7605 1fbe
000002d0: a723 043e f1cc 313e 522d 90bd d033 3abe
000002e0: 62ed 80bd 75f4 2a3e f04d e93c 7cdf 173e
000002f0: 0087 523d 54c3 edbd f949 473d b588 1d3c
00000300: f74a f7bd 2916 623d 0d00 be3c 6395 8c3c
00000310: 9c0d 283d 8b21 103e 84b4 edbb cdf5 2c3e
00000320: e50a 84bc 4e54 6ebd b2ca 11be afa5 c53c
00000330: 51c9 cebd 1c93 c5bd 02f3 fcbd 7509 cb3d
00000340: 5f1b e23d 0aa7 e73d 2741 aabd abf6 8a3d
00000350: 7988 f3bd 9fad 26bd 1dd8 103e c85d 1c3e
00000360: 4621 593d 1b13 9abc 56b8 bfbd e435 1d3a
00000370: 90ba 453c c8c2 16bc dd50 3c3d a17c b7bd
00000380: d82c 13be 9005 513d 6499 c7bd 7b85 813d
00000390: 1b2f 38bd c5c6 f5bc 4800 f2bd a093 1abe
000003a0: 89ab cf3c 19a9 6fbd c215 003d d27a 2f3e
000003b0: b8ef 6dbd 07e5 023d e3ce 163e 585e c33d
000003c0: 92ea b5bd ea7e fb3d 109e b2bd 6b9c 98bd
000003d0: 4f09 04be ff85 d13c 745f 0a3e 4334 c2bd
000003e0: a66c 20bd d993 013e 505c 4fbd 5e36 fdbd
000003f0: 37f3 4d3d 2669 05bb 9dc4 033e fd6e ffbc
-0.14763375 0.039037917 0.18120475 -0.0014826661 0.099964 0.18251379 0.010746627 -0.061874527
0.06836092 0.005701707 0.078355744 -0.048371304 0.056288105 0.03894438 -0.16607396 -0.0989774
0.062708095 -0.054107256 0.15856417 0.010015223 -0.061187837 0.16444053 -0.13235824 0.074856676
0.05180411 -0.041467182 -0.10724214 0.12196462 0.03479111 0.12510714 -0.13449442 0.06351428
0.0083618555 -0.03096148 -0.026906412 0.011374888 0.012632243 0.16630688 -0.1123212 -0.14238273
0.061553665 -0.16250578 0.119146 -0.036948416 0.14520743 0.1327854 -0.073530525 0.04200359
-0.031390786 0.10674659 -0.028606275 0.038089942 -0.06478734 -0.14695556 -0.16460462 0.037305668
-0.11575964 0.12290271 -0.031203348 -0.02480834 -0.05437658 0.021406878 -0.05806463 0.08549507
0.033472918 -0.10088132 -0.038060997 -0.11790054 0.06323617 0.114194244 0.18360592 -0.06141457
-0.026925037 0.14489985 -0.031120129 0.054263555 -0.02029629 -0.15149151 0.13798763 -0.13910948
-0.09517349 -0.08549754 -0.1145577 0.14280966 0.17206489 0.030774357 0.014354061 0.0288289
0.06524902 -0.066922486 0.097136594 -0.08973458 -0.051474374 0.14935999 -0.15844597 -0.099071525
-0.09862773 0.10193415 -0.10643008 -0.123878494 0.16686015 -0.14034939 0.018765539 0.12903112
0.12654722 0.05454321 -0.03543734 0.0017126022 -0.017523946 -0.026765916 -0.120096914 0.13021964
0.046527363 -0.06313398 -0.12562062 0.13568982 0.109652616 -0.010342593 0.114389956 -0.1502682
-0.13613713 0.13822141 -0.123205684 0.15506668 -0.13045625 0.17418286 0.030857148 0.06503938
-0.12867424 -0.111677386 -0.14254346 -0.12268376 0.031569436 -0.17245613 -0.14850105 0.07147698
0.028264288 -0.053861164 -0.16458982 0.09119311 -0.11005834 -0.07281968 -0.005192091 -0.17415595
0.10577713 0.12420928 -0.05233236 0.07348621 -0.10701329 -0.0806833 -0.09174942 -0.12092799
0.038338404 -0.14022124 -0.03103611 -0.14456038 -0.035818197 -0.037012912 0.09521768 0.103274465
0.01638593 -0.007665853 0.15712146 -0.14545238 0.09705496 -0.081180416 0.13058124 0.07910678
0.12574995 0.049455136 0.09772278 0.012608401 0.15273798 0.14424662 -0.1337048 0.0840007
0.14462334 -0.12911288 0.0026739647 -0.15529427 0.12904225 0.17363335 -0.07039894 -0.18183827
-0.06295277 0.16694815 0.028479546 0.14831346 0.051398277 -0.116095215 0.04865453 0.009615113
-0.12074845 0.055196915 0.023193384 0.017161077 0.041028604 0.14075296 -0.007254185 0.1689064
-0.016118476 -0.058185868 -0.14237478 0.024126856 -0.10096992 -0.096471995 -0.123510376 0.09913913
0.11040377 0.11311157 -0.08313208 0.067853294 -0.118912645 -0.04069292 0.1414494 0.1527015
0.053010248 -0.018807938 -0.09361331 0.0005997105 0.012068406 -0.009201713 0.045975555 -0.08959318
-0.14372575 0.051030695 -0.09746054 0.063242875 -0.0449668 -0.030002007 -0.1181646 -0.15095377
0.025350349 -0.058510873 0.03127075 0.17136696 -0.05808994 0.0319567 0.14727359 0.09539479
-0.08882631 0.12280066 -0.08721554 -0.07451709 -0.12894176 0.02557659 0.13512975 -0.094826244
-0.039166115 0.12654056 -0.050625145 -0.12363885 0.050280776 -0.0020356863 0.12867971 -0.031180853

te_net.2.bias f4 [32]
00000000: 2999 cabd cfa4 123e dc13 4abc 7b86 52bd
00000010: 6cc6 d13d 54b0 cbbd cf35 e7bd 5ca2 9b3d
00000020: bdf6 a8bc b8d1 bebd 4f31 fb3c 380e 143d
00000030: 2e52 b23d 5891 f2bd 585d b9bd 55f1 d0bd
00000040: 3395 6cbd 2207 80bd 2721 043e dccc 1e3e
00000050: a30a c03b 51be 0a3e d900 063e 9468 343d
00000060: 1473 00be ad97 07bd 052c 693d 09fa 34be
00000070: 4719 12bc c85e 7f3d 43f9 dbbd 3dbc 033e
-0.09892494 0.14320682 -0.012333836 -0.05139778 0.10242924 -0.09945741 -0.1128956 0.07599327
-0.020625466 -0.093173444 0.03066316 0.036146373 0.08707081 -0.11844128 -0.09051007 -0.102022804
-0.057759475 -0.062513605 0.12903272 0.15507835 0.005860643 0.13549162 0.13086261 0.044045046
-0.12543899 -0.033103634 0.056926746 -0.17673506 -0.008917159 0.06234625 -0.10740902 0.12864776

te_net.4.weight f4 [64, 32]
00000000: c821 be3c 602c 41bd 01fb 023d 84bd 00bd
00000010: a14c 3e3d 149f 24bd ba60 6e3d 5abb 2b3e
00000020: 132d 1bbe 12e2 25bd 957a 55bd a61c a6bd
00000030: 2e95 043e 45ad a1bd 5f1b 8ebd 6ad9 fc3d
00000040: 458e c8bd ac1f 26be 976e c3bd 8b57 1ebe
00000050: 19d8 1ebe 2c72 e6bd 5a16 ca3d 69af 3dbd
00000060: df79 943d c062 96bd df95 043e bb47 1bbd
00000070: 68bd 4cbd 81fb 32be 6113 39bd d0e1 cebd
00000080: 36d4 893d 7a47 0fbe 5f77 3cbe f07c 9bbc
00000090: b004 26bd 3cf5 a83d d31a 30be 762b 0bbe
000000a0: b79d 6a3d 2c3f dd3d 505d d1bc 5cbc 0fbd
000000b0: 12c8 abbd a03b 263e 03e5 633d a252 d1bd
000000c0: 1fa1 ec3d 0179 23bd 7243 e23d 506d f2bd
000000d0: 0823 a33d 5ed0 c4bd f592 8fbd 5730 2fbc
000000e0: 19f9 12be 5fb0 213e 02b5 cdbd b4ec 1c3d
000000f0: 3b7c fa3d 72e9 8abd acfc 943d d5e8 e83d
00000100: 3a6c 21bd d7fc f93d 2b86 b1bd 0289 1cbe
00000110: 352f 4c3d 9b0a c4bc cdb2 343e cb2a dc3d
00000120: 9d3e a8bd 143d afbc 0b0f 21bd e1f9 4ebe
00000130: fccf d0bd e40b 91bd a425 1cbd b0c3 a83d
00000140: 856b 0e3e cecc b93d 7905 e5bd 0652 1a3e
00000150: 0108 afbd 20bb c8bd 4707 c4bd 7c97 8bbd
00000160: 6498 1b3e 4884 36bd 9ac3 febd f9db f03d
00000170: 2116 57bc 9baf e73c 5967 f4bd 5272 25be
00000180: 3a49 8c3c 775e b53b 50fd 393e 2394 463d
00000190: 0743 1a3e 0682 443c 031f dabd 07c2 31bd
000001a0: f1de 1e3e edf6 14be 66d8 33be aeb9 ef3d
000001b0: 05a6 f9bd 09b0 dcbc 17f5 12bc 4c5a 583d
000001c0: 0b45 703d e3a0 bf3d 1861 fc3d d6a5 71bd
000001d0: 428e 943d 910e f8bd c259 273d bc07 27be
000001e0: 8ba4 9c3c 4b97 973b 8ce2 4f3c 5c35 273d
000001f0: 6c22 423e 6c5d dfbc 2269 afbc df51 a33d
00000200: 1daf cabc 17ec 1e3e 5f94 04be 8b8b 34be
00000210: 8ef8 623d cf3a 04be a58d 2a3d 6e23 0a3e
00000220: d7e1 06be b74e 26be 4c93 1dbe 583f e13d
00000230: 6053 2dbe 25fa febc 2ad4 1ebe 933a 053d
00000240: 1622 1b3e 316b b4bd 8d32 23be 5234 20bd
00000250: 9dd9 b43d 4750 8bbd aa6f b53c b1e8 ad3d
00000260: 6402 3abe abcf e53c 2260 c23c 252b 0a3e
00000270: c76b 32bd 10be 21bd f07c 2abc 9be0 e13b
00000280: f933 0a3e f62a 23be 919f 1b3c 640a 3cbe
00000290: 736c f33c cfd5 8bbd 40b9 e9bd 3b82 6e3d
000002a0: f3e3 ad3d 52f6 d23c 0fde 0fbe aa3c bdbc
000002b0: 1346 9ebd 39ad 073e 43b8 ddbd 3ff4 05bd
000002c0: 1da8 ffbd 2f61 0abe 2f36 a1bd dc4c ba3d
000002d0: 6739 633b 4ffc f13d 2912 7d3d 8f63 123e
000002e0: 3006 3fbd e066 333e 81ae 863d cb9b 3dbe
000002f0: 235c eb3d da77 363e 96c3 85bc 4b24 0fbe
00000300: d61e 6ebd 91e2 5abd b90d e7bd 4db5 dcbd
00000310: 57c1 223d 83bb 25bd 71ef 0abe 0f17 65bd
00000320: 591d 9bbb fc84 02bd c74e bb3d b232 5a3c
00000330: 2b6f 8bbd 408c 463a d73d fe3d b861 08be
00000340: d6ce 293e 27c5 82bd 291d 2cbe 4ec0 8c3c
00000350: 027a 723d fa9e f23d f175 19be eae8 e1bd
00000360: bee1 f23d 8c3b cd3d 2c00 0f3e 6160 c7bd
00000370: 7611 a5bd db86 a53d db29 e7bd a2b1 1bbe
00000380: c4f4 293e f730 353d 534e 373d c1e7 ec3c
00000390: f78e 2fbe 6a57 1f3e 976f 1b3e afba eabd
000003a0: ec72 f53a 5fa2 ccbd c61c 003e 5608 b2bd
000003b0: 7a97 13bd c2b7 afbd 8ea5 863d 75e3 0dbe
000003c0: fd2a 2abe 6eeb f73d 798a e53d a8f7 b2bd
000003d0: e3aa 1dbe f0ce 1fbe 1a23 fabc 5eac 32be
000003e0: c37c 153e da98 b4bc 3f54 61bd fa0d b5bd
000003f0: 5aa1 033c 84bc 733d 53cf c0bc 54ef f9bd
0.023209468 -0.04716146 0.031977657 -0.031430736 0.046459798 -0.04019077 0.058197714 0.16770688
-0.15153913 -0.0404988 -0.052118856 -0.08110933 0.12947533 -0.07894377 -0.06938814 0.12346156
-0.09792761 -0.1622302 -0.09542578 -0.15463082 -0.15512122 -0.11252245 0.098675445 -0.046309862
0.072498076 -0.07343054 0.12947796 -0.037910204 -0.04998532 -0.17478754 -0.045184497 -0.10101664
0.06729929 -0.1399211 -0.18404911 -0.018980473 -0.040531814 0.082499 -0.17197733 -0.13590798
0.057279315 0.10803065 -0.02555719 -0.035091743 -0.0838777 0.16233683 0.055638324 -0.10220839
0.11554169 -0.03991032 0.110480204 -0.11837256 0.07965666 -0.096100554 -0.07010452 -0.010692677
-0.14352836 0.15789936 -0.1004429 0.038311675 0.12230726 -0.067828074 0.07274756 0.11372534
-0.039409854 0.122064285 -0.08668169 -0.1528664 0.049849708 -0.023930838 0.17646332 0.107503496
-0.082150675 -0.021391429 -0.039320987 -0.20212509 -0.1019592 -0.07082346 -0.038121834 0.082404494
0.13908203 0.090722665 -0.111826845 0.15070352 -0.085464485 -0.09801316 -0.095717005 -0.06816003
0.15194851 -0.044559747 -0.12439652 0.117607065 -0.013127835 0.028281977 -0.119337745 -0.16156891
0.01712476 0.0055349427 0.18163037 0.048481118 0.15064631 0.011993891 -0.10650446 -0.04339793
0.15514733 -0.1454732 -0.17563018 0.117053375 -0.12189869 -0.026939409 -0.008969567 0.05282049
0.058659595 0.093568586 0.12323207 -0.058996044 0.07253696 -0.12112153 0.040857084 -0.16311544
0.019121429 0.00462619 0.01268829 0.04082237 0.18958443 -0.027266227 -0.021412436 0.079746
-0.024741704 0.15519749 -0.12947224 -0.17631356 0.05541282 -0.12913059 0.04163899 0.13490078
-0.13172089 -0.16240965 -0.1538822 0.1099841 -0.16926336 -0.031125138 -0.15510622 0.032526564
0.15149722 -0.08809508 -0.15937252 -0.039112397 0.08830569 -0.06802421 0.022147972 0.08491648
-0.18164974 0.028053125 0.02372748 0.13493021 -0.043559816 -0.0394879 -0.010405764 0.00689323
0.13496388 -0.15934357 0.009498493 -0.18363339 0.029714799 -0.0682789 -0.11412287 0.058229666
0.084907435 0.02575222 -0.14049552 -0.023100216 -0.07728209 0.13249673 -0.10826161 -0.032703634
-0.12483237 -0.13513635 -0.07871663 0.09096691 0.0034671666 0.11815702 0.061784897 0.14295791
-0.04663676 0.17519712 0.06576253 -0.18516462 0.11492183 0.17819157 -0.016328614 -0.13978688
-0.058134876 -0.053438727 -0.11281914 -0.10776768 0.039735164 -0.04046203 -0.13567902 -0.055930194
-0.004733723 -0.031865105 0.09145885 0.013317751 -0.06808313 0.00075739995 0.12414139 -0.13318527
0.16582808 -0.0638526 -0.16807999 0.017181542 0.059198387 0.118467286 -0.14986397 -0.11030753
0.11859463 0.10021123 0.1396491 -0.0973518 -0.08059971 0.08082362 -0.1128728 -0.1520448
0.16597277 0.04423615 0.04475243 0.028919103 -0.1714438 0.1556069 0.15179287 -0.11461388
0.0018726266 -0.09991907 0.12510976 -0.08692996 -0.03603313 -0.08579971 0.06574546 -0.13856299
-0.16617961 0.121054515 0.11208052 -0.08738643 -0.1539722 -0.15606284 -0.030534316 -0.17448565
0.14598374 -0.022045542 -0.055011984 -0.088405564 0.008034075 0.059505954 -0.02353636 -0.12203851

te_net.4.bias f4 [64]
00000000: 4730 8cbd 0f02 eb3d 5fff 0b3e 60f8 15be
00000010: 528f d03d 32f5 f3bd 2fb1 fdbd f7a2 b7bd
00000020: 1188 4d3d 7e87 9a3d 4559 43bd 5506 223d
00000030: e7a7 c2bd 1db1 053e 915b 10bd d217 02be
00000040: b5a0 be3b b581 d8bd 4e7c 0a3d 0028 98bc
00000050: 7cae 1d3e b2ba c63c 4b90 ddbd a495 023e
00000060: 9f4c 1d3e 24fe 8abd 2b65 ab3c 08ce d83d
00000070: 484d a3bd 86a9 3ebd 3d52 c8ba eb8e 26be
00000080: 0e34 4dbd dde2 edbc b8ce 13bd c69f c5bd
00000090: ae8d 99bd 13a7 203e 1960 953d 4a54 aabc
000000a0: 5951 d7bd acc9 393e 823f ac3d a935 6c3d
000000b0: 8c44 9b3d 2507 2c3e 44cd 37bd 8d1d ec3d
000000c0: 6668 fdbc e658 f2bd 42f8 efbd 18c1 d3bd
000000d0: 08f0 ee3d b7ae d6bd 27f8 563d 9939 df3d
000000e0: c38d 36be 6986 ed3b 92b9 0cbe e293 e4bd
000000f0: 7860 fc3d 5dab 96bd 55ca d3bd 233e 20be
-0.06845146 0.11475002 0.13671635 -0.14645529 0.10183586 -0.11912002 -0.12387311 -0.0896663
0.05017859 0.07545374 -0.047692556 0.03955682 -0.09504681 0.13055845 -0.035243575 -0.12704399
0.0058174976 -0.10571615 0.033809952 -0.018573761 0.15398592 0.024258945 -0.10818537 0.12752396
0.1536126 -0.06786755 0.020922264 0.10586172 -0.079737246 -0.04654839 -0.0015283298 -0.16265456
-0.05009847 -0.02903884 -0.036085814 -0.09649615 -0.074977264 0.15688734 0.0729372 -0.020792145
-0.10513563 0.18143338 0.08410551 0.05766836 0.07581434 0.167996 -0.04487349 0.11529074
-0.03093357 -0.11833362 -0.11717273 -0.10339564 0.11666876 -0.10482543 0.05248275 0.10899658
-0.17827515 0.007248689 -0.13742664 -0.11161019 0.123230875 -0.07356904 -0.10341326 -0.15648703

classifier.0.weight f4 [128, 64]
00000000: 8c71 553d 6b23 8a3d fb31 9cbd 6203 623d
00000010: c270 d939 3917 fcbd 2096 f13b 1384 e5bd
00000020: 0f33 633d bbf8 553b 42e3 ecbc d90e 0fbd
00000030: ad8c 023b d4da 3d3d 40f7 b3ba a3aa c2bc
00000040: c52b fbbc 95d5 31bd 0213 93bd 453b 813d
00000050: e9d4 33bc 2138 e7bd a478 a9bd 6a2f 983c
00000060: cec3 11bd ce39 f13d 7f64 32bd cd4d 89bd
00000070: 2b82 8039 319d e2bd 49eb d7bd 333f de3d
00000080: 33f5 f13c 0be8 c3bd 6ef1 673d fba4 0f3d
00000090: 9b61 06bd 7aac e3bc a86a 2abd c7b3 f7bd
000000a0: 884e 9a3d eb5c 65bd 5954 98b9 4211 8a3d
000000b0: 2973 1cbd 4708 28bc 6297 843d d9c4 69bd
000000c0: d7b8 e0bb 95a3 b43c 2b4d bb3d e222 d13d
000000d0: c011 303d 2841 a53c 4cf4 a03d f62f 08be
000000e0: 55d0 60bb 6563 99bd 94a7 1a3d 3bf3 783d
000000f0: a73c 0cbd 6abe cdbd d98a 7c3d 2290 d8bd
00000100: 44d4 0a3d 6511 f23c fc30 00be f280 3e3d
00000110: 3322 243d 0dfb 953b 0016 f9bd 1847 813d
00000120: d292 b83d 2be0 d5bd 1c1f 29bd 03ce b33d
00000130: cfdc e7b9 c2e3 8ebd 744c babd 75e0 e7bd
00000140: dbd6 cebb db8f 3c3c d8f4 873c 005d 90bd
00000150: 1d0b 063e 3867 c3bd 9460 f13d 18f0 f03b
00000160: 5346 663d 7e82 653d c96d bb3d 4c90 a3bd
00000170: 5872 a03d b00f 233c 09db 3abc fc56 09be
00000180: ae78 fabd 4886 37bd b99e e3bd 8566 903c
00000190: 92a0 833c 0112 ea3d c801 12bd d97b b53d
000001a0: d009 d53d bf1d d43d f51f ce3d 812c 953c
000001b0: a0b9 993d e949 3ebd 0933 f8bd 160e 5a3d
000001c0: 75cf 97bd 227d bfbd 22c5 ce3d 78cb 533d
000001d0: 1a5c ecbc 78ed 803c 59e6 9c3d fb6c 943d
000001e0: b019 e03d 60b5 83bd d465 adbd 026d 16bc
000001f0: 6bdd af3b 3b5a 09be 3791 df3d da5f d43d
00000200: 98af a5bd c24a fb3c 845d dcbd c1d5 783d
00000210: 2d98 cd3d 6a75 bebd a883 183d 4caa 873d
00000220: 70ae cbbb 085b 2fbd 5418 8d3d 8dd6 0e3d
00000230: bc90 bbbd aa36 8d3d 2219 ddbd 8a8e 2e3b
00000240: ccbe 2f3c 327e 413d f243 a2bc 02d4 92bd
00000250: f537 063d 1c39 8abd 38e3 7abc 1c8c 633d
00000260: 6d0b a03c e1c8 643d 2c0d 66bd 32ef 3dbd
00000270: aec5 33bd 7e92 6dbd a8f2 acbc 50e2 90bd
00000280: 1059 f2bd f4ea b93d 2ce4 19bd b6c8 96bc
00000290: f2cd cc3d 1d6b 473d f7ac 683d 5dfd d03d
000002a0: c04d cbbc 552b 913d 78c7 cbbd 5159 e23d
000002b0: 97fc 1fbd bcd0 24bd 333b c8bd c0e8 d5bd
000002c0: e719 5a3d a21a 273c 430b 70bd 2016 03bd
000002d0: e086 c63d 3afd 48bd 4357 d4bd 6582 a1bd
000002e0: f357 323d c74a 693d f769 ecbd b895 733d
000002f0: 93b3 74bd c3d7 a43d 2a12 513d 60a2 aabd
00000300: da8e d13d 3d09 c33d 1184 1bbd 4c1b a9bd
00000310: abef 28bc c0f5 b63c 506c 713c e82a 8bbd
00000320: 5278 533d 741b cfbd fe15 81bd a7f9 af3d
00000330: 6822 bebd 954c dd3c 3c03 50bd e616 c5bd
00000340: dce9 1fbd 791c 003d 4972 cf3b 3f13 013d
00000350: a7ba f9bd 672b dcbd 706d a8bd 15fa 15bd
00000360: fc77 a13d e1e4 773d 3dab afbc 2c3e dbbd
00000370: e5ef 06be c07a ce3c 9fc6 87bd a39f c2bd
00000380: c4f4 c4bd 0431 e53d 9e4a 9b3d f483 d83d
00000390: 0b6e 1cbd baa5 babd 74af 99bb c1e3 9d3d
000003a0: 16b7 c13d 9537 ac3d 829f 5fbd 4572 fabd
000003b0: b1b7 973d f766 d9bc 7fda 1cbd 9dab 75bb
000003c0: 7ff4 83bd b887 8a3d 3f95 8cbc c054 04bc
000003d0: 72b4 a13c de7a b63d 90cf b2bd d971 a1bd
000003e0: 413c 7ebd dc2d e4bc eac6 b73d 2df7 04be
000003f0: 7f2e 52bd 9acc c63c 83da cbbd a081 30bb
0.05211024 0.06745037 -0.076267205 0.055179007 0.00041473476 -0.12309117 0.0073726326 -0.11206832
0.055468615 0.0032649476 -0.028916959 -0.03492627 0.0019920275 0.04635127 -0.0013730302 -0.023763007
-0.03066052 -0.04341658 -0.0718136 0.06310133 -0.010976055 -0.112900026 -0.082749635 0.018577296
-0.035587125 0.117786035 -0.04355287 -0.067042924 0.00024511045 -0.11065138 -0.10542924 0.10851898
0.029535865 -0.09565743 0.05662673 0.035069447 -0.032807928 -0.027792204 -0.04160562 -0.12094837
0.0753451 -0.055996817 -0.00029054543 0.06741573 -0.038195763 -0.01025588 0.064741865 -0.057072494
-0.006857972 0.022050658 0.09145578 0.102117315 0.042985678 0.02017267 0.07859096 -0.13299546
-0.0034303863 -0.07489661 0.03775747 0.060778838 -0.03423753 -0.10046084 0.061655853 -0.10574366
0.03389384 0.02954931 -0.12518686 0.04650969 0.040071677 0.0045770467 -0.12162399 0.06312388
0.09012379 -0.10443147 -0.041289434 0.08779528 -0.0004422427 -0.06977035 -0.090966135 -0.11322109
-0.006312234 0.011508907 0.016596243 -0.07048988 0.13090177 -0.09541172 0.11785999 0.00735284
0.05621941 0.05603265 0.09151799 -0.07986507 0.07834309 0.009952471 -0.011404761 -0.13412088
-0.12230049 -0.044805795 -0.11114258 0.01762701 0.016067777 0.11429215 -0.03564623 0.08861513
0.10402262 0.10357236 0.10064689 0.018209698 0.07506108 -0.046457205 -0.12119109 0.05323609
-0.07412616 -0.09350039 0.10096194 0.051707715 -0.028852511 0.015738234 0.07661123 0.07247349
0.109423995 -0.06431079 -0.08466688 -0.009181263 0.0053669713 -0.13413326 0.109163694 0.10369845
-0.080901325 0.030675296 -0.10760024 0.060750727 0.10038791 -0.09299739 0.037234932 0.066242784
-0.006215863 -0.042811424 0.06889406 0.03487258 -0.09158465 0.06895192 -0.10795809 0.0026635253
0.010726642 0.04723949 -0.01980779 -0.071693435 0.03276821 -0.06749174 -0.015312962 0.05555354
0.019536698 0.055855636 -0.056164905 -0.046370693 -0.043889694 -0.058001034 -0.021111801 -0.07074416
-0.118333936 0.09078017 -0.037571117 -0.018406253 0.100002185 0.048686136 0.056805577 0.10204575
-0.024817348 0.07088343 -0.09950155 0.11052192 -0.039059248 -0.040238127 -0.09776916 -0.10444784
0.05324736 0.010199221 -0.05860449 -0.032003522 0.09693694 -0.04906962 -0.10368206 -0.07886199
0.043540906 0.05695608 -0.11543649 0.059468955 -0.059741568 0.08048966 0.051042713 -0.08331752
0.10232325 0.095232464 -0.037967745 -0.082571596 -0.010311048 0.02233398 0.014735296 -0.06795293
0.05162842 -0.10112658 -0.06303023 0.08592539 -0.09283906 0.027014056 -0.050784335 -0.09623508
-0.039041385 0.031277154 0.0063307625 0.031512495 -0.12193804 -0.10750466 -0.082239985 -0.03661545
0.07884213 0.06052101 -0.021443957 -0.10705218 -0.1317745 0.025205016 -0.06629681 -0.095031045
-0.09616998 0.111909896 0.075825915 0.10572043 -0.038190883 -0.09113641 -0.004690105 0.07709456
0.09458749 0.08409039 -0.054595478 -0.122288264 0.07408083 -0.026538355 -0.03829431 -0.0037486323
-0.06443118 0.067641675 -0.01716101 -0.008076847 0.019739363 0.08910154 -0.08730996 -0.07883043
-0.06206918 -0.027853899 0.08973487 -0.12984915 -0.051313873 0.024267484 -0.09953787 -0.0026932731

classifier.0.bias f4 [128]
00000000: ab6f ebbd 2e39 2cbd d59d 843d 9f5e c43d
00000010: 33bb 96bc 8b71 bb3d e0c3 4f3c 8466 553c
00000020: 619e af3d 64fc edbd 4099 973d 1aca 9e3c
00000030: 01a3 91bd f648 e4bd 1325 d23b 50a6 e63d
00000040: 9afd 56bd bba6 63bd fb55 ac3d 4168 953d
00000050: 41d5 33bd 42b3 513d 7b5f da3c 0083 c63d
00000060: ffc7 92bc e227 f0ba 70db a5bd 2301 cfbd
00000070: cc34 b13d 17a9 a13b dce5 603d 5d7b 4abd
00000080: 16ec 83bd 7aee 003e 9ea0 6c3d 2de5 5d3d
00000090: 3d46 fa3c 2f47 5cbb c4d3 ae3d 703a 9f3d
000000a0: 9d77 2bbd 6cb9 a13d 42b8 d03d fe53 8e3d
000000b0: 2fcf 443d 2c2f 8f3d 9350 16bd 02e4 b8bd
000000c0: 3a0e 823d 2f6c 89bd 0cae a5bd 2d4b 3a3c
000000d0: 126e 5fbd efca c2bd 1663 84bd 88cb e13d
000000e0: 7415 a7bd 093e 0b3d e881 e93b dd93 84bd
000000f0: ea24 dc3d 52fa 8bbb 9d83 f8bd 1a35 5ebc
00000100: 6c5a fabd 0fb4 733d 6f9d f6bd 0ca2 a23d
00000110: d559 e93d 014d e1bd a6e5 963c e803 dabd
00000120: 6307 fdbc 8317 0dbc 3693 83bd 48b8 453c
00000130: 6beb dd3d 1596 f03d 966f de3d 3047 de3d
00000140: e6f9 863d 49d5 37bd 5ace 9abd 2852 98bd
00000150: 5e9d 2d3c a95b f23d 3ce3 adbc 6da6 8a3c
00000160: 441d 833c 1198 c8bd b4a9 863d 3cf8 873c
00000170: 0e88 db3b 07d5 9e3d 3264 973d fc93 5e3d
00000180: b494 d8ba 3336 d3bd 599e f13d 548b ac3d
00000190: 6457 c73c 73bb af3d 1393 983d 3a2c 6cbd
000001a0: ea7a 583d 8935 ea3d 1eaa ea3d 1e4c ed3d
000001b0: 5fa0 c93c 9b67 abbd 0932 c6bc 95c6 8b3d
000001c0: 7543 973d b522 d63d 6ccc 1cbc 9b0a e5bd
000001d0: 6fb0 523c 9bd4 f4bd b89b 9f3d 78ac 0c3c
000001e0: 18e2 cabc 5763 cdbd ae32 08bd c9d4 023e
000001f0: 70b5 bfbd 8c1c 8b3d 97e2 d1bc 59e6 9f3d
-0.11495908 -0.04204672 0.064754166 0.0958836 -0.01839981 0.09152516 0.012680978 0.01302493
0.0857513 -0.11620405 0.07402277 0.019383479 -0.07111169 -0.11146729 0.006413111 0.1126219
-0.052487947 -0.05557893 0.08414837 0.072952755 -0.043904547 0.051196344 0.026656857 0.09692955
-0.017917631 -0.0018322433 -0.08098495 -0.10107639 0.08652648 0.004933487 0.05490671 -0.049434055
-0.06441514 0.12590972 0.057770364 0.054173637 0.03055107 -0.0033611765 0.08536485 0.07774818
-0.04186212 0.078966945 0.101913944 0.06949614 0.04804915 0.06991419 -0.036697935 -0.09027864
0.0635037 -0.067100875 -0.080898374 0.011370462 -0.05454833 -0.09511363 -0.06464212 0.11025149
-0.08158389 0.03399471 0.0071260817 -0.06473515 0.10749228 -0.004271784 -0.12134478 -0.013562465
-0.12224278 0.05949789 -0.12041747 0.07941064 0.11394087 -0.110010155 0.018420052 -0.10645276
-0.030887311 -0.008611563 -0.06424563 0.012067862 0.10835918 0.11747376 0.10861127 0.10853422
0.06590633 -0.04488114 -0.0755889 -0.07437545 0.010596601 0.11833889 -0.021226518 0.016925061
0.016005166 -0.09794629 0.06575337 0.01659786 0.0066995686 0.077554755 0.073921576 0.054340348
-0.0016523809 -0.10313072 0.117977805 0.08425012 0.024333663 0.08580675 0.07449927 -0.057659365
0.052851595 0.11435992 0.114582285 0.11586784 0.024612604 -0.083693705 -0.02419378 0.06824986
0.07385913 0.104558386 -0.009570222 -0.111836635 0.012859448 -0.11954614 0.07793373 0.008586042
-0.024766013 -0.10028713 -0.033251457 0.12776484 -0.09360778 0.06792554 -0.025620742 0.07807607

classifier.1.weight f4 [128]
00000000: 955a 7e3f dafa 7f3f b32a 803f f068 803f
00000010: 0eac 7d3f 2f54 823f 6d68 803f b066 7f3f
00000020: 4402 7d3f da9f 7b3f c7f8 803f 1a26 7f3f
00000030: 31bd 823f 924c 7c3f c1b8 7b3f 52a5 7f3f
00000040: d0aa 7e3f 1d66 7c3f 28f6 813f 90bf 7f3f
00000050: 7c48 843f 92f0 7c3f 6f0e 823f 4ef1 7c3f
00000060: ec8b 823f e70d 7a3f 1df3 803f 8591 803f
00000070: 3f85 803f 9456 803f 144b 7c3f a6f1 7b3f
00000080: 0234 803f 23de 833f 8a3e 7b3f a82c 7c3f
00000090: 1316 7c3f 084c 803f 55ab 7c3f 8425 813f
000000a0: aff2 7a3f 3d18 803f bcb8 7f3f b909 813f
000000b0: 9e8e 803f 8b40 813f 8639 803f dac3 803f
000000c0: 647c 7e3f 9d33 7d3f 7b48 803f adc8 793f
000000d0: 3717 803f 2b4f 7f3f 50f2 803f 02d2 843f
000000e0: b4f7 7e3f d808 7b3f 8540 7e3f fe03 7c3f
000000f0: bacb 7d3f 9743 813f 844f 813f 695c 7e3f
00000100: 602e 853f 94ec 7c3f 63d9 813f 8cd2 7c3f
00000110: 6d26 843f 48b6 7c3f 9ec7 7b3f 34e4 823f
00000120: 2768 813f aefc 823f 2901 813f 569b 7a3f
00000130: 8668 7d3f 5a83 803f 37f7 823f 7417 803f
00000140: 745a 7c3f ad32 813f e8c2 803f bd87 823f
00000150: 4767 7b3f 5281 7f3f 70aa 823f 5efe 7b3f
00000160: 1e36 7d3f feec 7b3f a469 7f3f a0c8 7c3f
00000170: a9ee 7d3f c2ad 803f 7a38 7c3f e144 7c3f
00000180: 05a0 793f 3b27 803f 4241 7d3f 327d 843f
00000190: a1a5 803f a2c6 803f 41f0 7a3f 4110 7e3f
000001a0: 2d0f 7c3f cce2 7f3f e19f 7d3f 1670 833f
000001b0: 21c4 803f 5b82 803f 4a7f 7e3f ce3a 823f
000001c0: f6fa 7b3f db48 7f3f 23a8 7e3f 4693 7d3f
000001d0: a8fa 803f 5905 803f 748b 803f d090 7e3f
000001e0: 5ba5 803f 13e3 7e3f b87c 7b3f 75bd 813f
000001f0: 0c6d 823f d5d9 793f b55e 7e3f 3bcb 7a3f
0.9935697 0.99992144 1.0013031 1.0032024 0.9909066 1.0181941 1.0031868 0.99766064
0.9883158 0.9829079 1.0075921 0.99667513 1.0213987 0.9855434 0.9832879 0.99861634
0.9947939 0.9859331 1.0153246 0.99901676 1.033462 0.9880458 1.0160655 0.988057
1.0198951 0.97677463 1.0074192 1.0044409 1.0040663 1.0026422 0.9855206 0.984156
1.0015872 1.0302166 0.981423 0.9850564 0.9847118 1.0023203 0.9869893 1.0089574
0.98026556 1.0007397 0.9989126 1.0081092 1.0043523 1.0097822 1.0017555 1.0059769
0.99408555 0.9890688 1.0022119 0.9757183 1.0007085 0.99730176 1.0073948 1.0376589
0.99596715 0.9806037 0.993172 0.9844359 0.9913899 1.0098752 1.0102391 0.99359757
1.0404778 0.9879849 1.0144466 0.9875877 1.0324227 0.9871564 0.98351467 1.0225892
1.010991 1.0233362 1.0078479 0.97893274 0.98987615 1.0040085 1.0231694 1.0007157
0.9857552 1.009359 1.0059481 1.0197674 0.98204464 0.998067 1.0208263 0.9843501
0.989107 0.98408496 0.9977057 0.9874363 0.9919229 1.0053027 0.98523676 0.985426
0.97509795 1.0011972 0.989277 1.0350707 1.0050546 1.0060618 0.9802285 0.9924355
0.98460656 0.9995544 0.9907208 1.0268581 1.0059854 1.0039781 0.9941298 1.0174196
0.9842981 0.99720544 0.99475306 0.99052846 1.0076494 1.0001632 1.0042558 0.99439716
1.0050462 0.9956524 0.9823718 1.0135943 1.0189528 0.9759801 0.9936326 0.97966355

classifier.1.bias f4 [128]
00000000: 99e6 c4bb f9f1 1b3c 3b7f 073b 2853 363c
00000010: 063c 223c b637 a03c 11dd 233a ae8f 9e38
00000020: 5c9b 36bc bd90 7dbb b323 e53b e20e c3bb
00000030: da83 233d 18d3 8bbc 3091 2f3b 4378 feba
00000040: 2c63 d83b 8b08 49bc c3f1 cd3b 1d0b 19bc
00000050: 43a1 803c 9d97 c33b 14c5 ed3a a72a 02bc
00000060: d28e 173c bd30 47bc e10b e73b 3cfd 613c
00000070: 9e04 9a3b 605b 843c 3565 d2bb f18c 25bb
00000080: e4ee b93b a930 2a3b 8f03 39bc 7a84 33bc
00000090: 4246 7b3a aae1 14b7 b723 a6bb 7ec5 3d3c
000000a0: 9358 0dbc 567d b93b 23f4 2e3c d40f db3b
000000b0: 34f0 fc3b 8f91 7dbb 743a ab3c 74d7 c53b
000000c0: d61c dabb 537b bd38 a231 933c 4a88 09bc
000000d0: f56b 523c 6167 343c 7831 0d3d 74ca 093d
000000e0: 462d 72bc e206 3bbc 63cf d3bb 03df ecba
000000f0: bed5 b73b 15a0 ea3c 011e 233c 055c dbb9
00000100: f876 073d bee6 01b9 91ff 95ba 2592 85bb
00000110: 6350 dc3c 683c 11bb 40dc e0bb 22fb d73c
00000120: 7ea5 503b 9fed 6e3a 5cac 983c 4899 e03b
00000130: f1b8 30bc c16a 96bc c60f c23b c8cb 0b3c
00000140: 70ab 133c a6cd 8f3c 196f 613c c73a 833c
00000150: 0719 e33b 18ee 41bb 4ac0 093d b0c1 2cbc
00000160: dfb1 52bc 6d40 f93a 8841 81bb a1a2 943c
00000170: a2ae 853b ad77 623c cdea ccbb d038 8abc
00000180: f5f1 1839 431f a2ba bf33 e83b e513 013d
00000190: 2697 423c b746 f2ba 3b14 b4ba a416 d0bb
000001a0: 53b3 0f3c 72ae 933b 97af 42bb 326a eb3c
000001b0: 2cd5 4c3c 9193 a739 fc71 97bb 9d14 943b
000001c0: 2072 153c de25 2d3c 9473 873c d58d 173a
000001d0: c16b 593c e4db 43bb d602 fa3a 2a35 753b
000001e0: 4d0a b03c 739f 5038 80c1 95ba 17be 2cbb
000001f0: 04c2 0d3c 5bb7 74bb a56f 3c3b 6516 42bc
-0.0060089347 0.00951814 0.00206752 0.011128224 0.009902006 0.019557815 0.0006250898 7.5607895e-05
-0.011145439 -0.0038691007 0.006992781 -0.005952702 0.039920665 -0.01706843 0.002678942 -0.0019414503
0.006603619 -0.012270103 0.0062849238 -0.0093410285 0.015701896 0.0059690014 0.0018140399 -0.007944739
0.00925036 -0.012157616 0.0070509766 0.013793286 0.0047002574 0.016156852 -0.006420756 -0.002526101
0.00567423 0.0025968945 -0.011292352 -0.010956878 0.00095853594 -8.874029e-06 -0.0050701755 0.01158273
-0.008627075 0.005660693 0.010678324 0.0066852365 0.007719064 -0.0038691496 0.020901896 0.006037647
-0.0066562695 9.035193e-05 0.017968003 -0.00839431 0.012843122 0.011010976 0.034471005 0.03364034
-0.014781302 -0.011415215 -0.0064639314 -0.0018071834 0.005610197 0.028640786 0.009955884 -0.00041839495
0.03307244 -0.00012388357 -0.0011443963 -0.0040762597 0.0268938 -0.002216125 -0.0068621933 0.026364867
0.0031836922 0.0009114388 0.018636875 0.00685421 -0.010786281 -0.018361451 0.0059222905 0.008532472
0.009013042 0.017554116 0.013759398 0.016019238 0.0069304737 -0.0029591378 0.033630647 -0.010544226
-0.012859791 0.0019016393 -0.0039445795 0.018143954 0.0040796557 0.013822478 -0.0062535764 -0.016872793
0.00014585986 -0.0012368936 0.0070862467 0.031513114 0.011876857 -0.001848421 -0.0013738939 -0.006350355
0.008770782 0.0045068795 -0.002970671 0.028737161 0.012501996 0.00031962668 -0.0046217423 0.004519059
0.009121448 0.01056811 0.016534604 0.00057813275 0.013270319 -0.0029885704 0.0019074332 0.0037415721
0.021489287 4.9739563e-05 -0.0011425465 -0.002635842 0.008652214 -0.0037340734 0.0028753069 -0.01184616

classifier.1.running_mean f4 [128]
00000000: 90f7 46be 0154 433d 00d0 563e 00d2 473d
00000010: 71ca 693d d5a1 3b3e 0a91 23be 1587 abbd
00000020: 4346 3d3d 35e2 073e f5a3 9f3d 16a0 33be
00000030: d43e 9dbd 5d88 71bd 958a e83d 107c 773e
00000040: c3d2 053d e9b8 25bd 3d09 563d 80af 63bd
00000050: c133 10be 9d2f fd3d 74a9 74be 50be 033e
00000060: 441f a5bd 3e60 923d b54c 46be 5195 f93d
00000070: 2a89 eebc 0b62 27bd 9f84 0cbc 5c21 62be
00000080: 49e8 2f3d e816 253e 0a37 0b3e bef3 0e3e
00000090: 9a7c cabd 56a7 41bd 7851 283e 42e4 2dbd
000000a0: d321 9bbd e422 a5bd 8ceb 023b 1d9f a4bd
000000b0: f60b 5a3c 8959 8c3d 35b0 06be 9153 98bd
000000c0: 3384 c0bc a63a 223e 8575 56bb 5d4b 03be
000000d0: 291c 503e 1315 7bbc 4ef0 aabd 8464 cc3d
000000e0: 98db adbd fea3 debc 1899 86bc 4fb9 3fbb
000000f0: 9d81 883d 7a31 1a3c b153 63be 7e24 5dbd
00000100: cf79 92bd a34b d3bc 7d65 0dbe ad9c 563c
00000110: 2c8f 273e 4e3c 24be 7f77 c33d 3b1f 08be
00000120: b826 78be 28bf c93b 22c4 2dbe 2509 913c
00000130: 36f1 8a3d 2761 18be 517e 903d 1d3c 913e
00000140: c500 a13c a1f9 06be e586 7dbd 55b8 9bbd
00000150: 5073 ae3d 21fe 353e f16e 10bd 2615 23bb
00000160: 11cf 8cbc 7f69 e9bd 8d2f 313a b78c 7cbd
00000170: 9505 2bbe 6623 d53d 7fd5 063e 5d1f 5ebd
00000180: 5aa0 353e e5eb 7abe 997d ed3d dc89 db3d
00000190: 4c65 ecbc 9803 c2bc 1bf6 5a3e fbf3 0fbe
000001a0: 2798 2e3e 2818 363e ea1d e23d e7b5 0d3e
000001b0: ff1b b9bd d330 c03d 8cb6 dcbd af2d d3bc
000001c0: f5f8 033e 9005 f2bd 7b68 91bd 4ec4 a43d
000001d0: 878a 4abe 514e 8fbe 02db fd3b 1fed bdbd
000001e0: aecf 10bd 6ba2 40bd 07ae bf38 93c2 0c3e
000001f0: 2019 e6bd cfe3 63bd 1d1c 9cbc be27 94bc
-0.19430375 0.047687534 0.20977783 0.048784256 0.05707783 0.18323453 -0.15973297 -0.08375374
0.046209585 0.13269885 0.07794944 -0.17541537 -0.07677999 -0.058967937 0.113545574 0.2416842
0.0326717 -0.040459547 0.052254904 -0.05558729 -0.14082243 0.12362597 -0.23892766 0.12865567
-0.08062604 0.07147263 -0.19365199 0.12186683 -0.02911814 -0.040864985 -0.008576541 -0.22083038
0.042946134 0.1612202 0.13595214 0.13960168 -0.09887047 -0.047278725 0.16437328 -0.04245401
-0.07574811 -0.080632955 0.0019976823 -0.08038161 0.013308516 0.06853015 -0.13153155 -0.07437814
-0.023500537 0.15842685 -0.0032723856 -0.12821718 0.20323242 -0.015324849 -0.08346616 0.09980109
-0.0848915 -0.027177807 -0.016430423 -0.002925474 0.06665347 0.00941121 -0.22199894 -0.05398988
-0.071521394 -0.025792902 -0.13808246 0.013098878 0.1636321 -0.1603863 0.095442764 -0.13293163
-0.2423352 0.006156821 -0.1696935 0.017704556 0.067842886 -0.1488081 0.07055343 0.28366175
0.019653687 -0.13181163 -0.061896224 -0.07603518 0.08518088 0.17772724 -0.035262052 -0.0024884432
-0.01718858 -0.11397075 0.00067591 -0.061657634 -0.16701348 0.10407142 0.1316738 -0.05422913
0.1773695 -0.24504049 0.115962215 0.10719654 -0.028856896 -0.023683354 0.21382944 -0.14057915
0.17050229 0.17782652 0.11040862 0.13838921 -0.09038543 0.093843125 -0.107770056 -0.02577862
0.12887938 -0.11817467 -0.07100006 0.08045255 -0.19779406 -0.27989438 0.007747055 -0.09273743
-0.03535431 -0.047029894 9.140005e-05 0.13746099 -0.11235261 -0.055637177 -0.019056374 -0.018085357

classifier.1.running_var f4 [128]
00000000: 75e3 fb39 7acb 0e3a d8b0 1e3b f67e 8f3a
00000010: e09e 9339 53ea 533a 0d48 bc3a 1a81 303a
00000020: f7f0 5a3a 8e3d 893b d112 093a 630c b83b
00000030: 5ee1 7339 ca5d bb39 8255 343b c0a5 ce3a
00000040: 961a 013a facd d83a 3718 3f39 ece7 fe3a
00000050: 3a82 dd3b d84d dc3a ff2c f63b 53b6 003b
00000060: 7c16 0e3a 8ba7 783a 3e1b bb3a 4e89 093c
00000070: 13f4 263a e185 953a 7a2a ca3a dc77 103a
00000080: 39cb fd3a a733 153a ab8a 673a f15b 803a
00000090: ec46 093b 2e14 f439 4fd8 093b ed29 6e3b
000000a0: b8c8 f239 ba71 bf3b bb02 c73a 2b35 eb39
000000b0: 78b4 9b39 e080 7639 f280 8a3a 1054 923a
000000c0: 0be3 923b e5de 783b 5b04 913a 103e 443b
000000d0: dcba ab3b 5cad 4d3a 5e0f 0039 9fba 6839
000000e0: e651 e139 067c 693a 1e19 e13a 92e4 063b
000000f0: 9442 3e3b eb7f 0939 c2d6 9d3a 9950 5c39
00000100: 20fa 7539 db34 e23a 19a4 973a f7e2 d539
00000110: 4d4a 2f3a 4ff1 043b 7387 753a 6f11 a839
00000120: 3b65 9a3b 76a3 e338 4ddc b939 5d1b 563a
00000130: b83d 0b3b fdf5 253c 0401 3f3a e484 4d3b
00000140: a10e 1c3a 4844 093a 9629 643a d2d7 6739
00000150: b992 463a cb7b 6b3a ce2d 9838 8580 cc3a
00000160: a010 c23a 90a2 f139 502f ce3a 8d27 823a
00000170: e66c 8c3a c61c 693b 76a4 053a 3465 cb3a
00000180: 76f2 023c 5acf a83a e6c8 893a b679 0b3a
00000190: 8de3 833a 9b48 f63a 99a1 513b 49c6 533b
000001a0: 8e64 b33b 84c7 de39 fdfa 1e39 1d4f 043a
000001b0: 1d94 363a 8d2d 663b 3d30 a339 adde aa3a
000001c0: c12d 9339 fc15 d93b 287a 513a a28a 5f3b
000001d0: eb9d bf3a 5ea4 bb3a 960e 593b 2f4c c03a
000001e0: 546c 913a 8333 9339 c38d 423a a031 f838
000001f0: dc11 4739 48f7 843a af4d 7e3a 52b9 9e39
0.0004804392 0.00054471905 0.0024214294 0.0010947871 0.00028156396 0.0008083928 0.0014364735 0.0006733105
0.00083519466 0.004188246 0.0005228939 0.005616711 0.00023258242 0.00035737298 0.0027516787 0.001576595
0.0004924921 0.0016540878 0.000182242 0.001944778 0.006759909 0.0016807867 0.007512688 0.0019639924
0.00054202206 0.0009485415 0.0014275087 0.008394552 0.00063687674 0.0011407697 0.0015424036 0.00055110245
0.0019362933 0.0005691596 0.0008832614 0.0009793026 0.0020946814 0.00046554342 0.002103347 0.0036340908
0.00046307384 0.0058424147 0.0015183309 0.00044862306 0.00029698364 0.00023508398 0.0010566993 0.0011163969
0.004482632 0.0037974652 0.001106392 0.0029944219 0.005240781 0.0007845962 0.00012212756 0.00022194766
0.00042976363 0.00089067256 0.0017173623 0.0020583016 0.0029031383 0.00013112991 0.0012042152 0.0002101086
0.000234582 0.0017258184 0.0011569291 0.00040795628 0.0006686792 0.0020285433 0.0009366192 0.00032056446
0.0047117746 0.000108546505 0.00035450087 0.00081675296 0.0021246504 0.010129449 0.0007286223 0.0031359727
0.00059531076 0.000523631 0.00087037066 0.00022110276 0.0007574964 0.0008982985 7.2564566e-05 0.0015602267
0.001480598 0.0004608822 0.0015730653 0.000993 0.0010713607 0.0035570129 0.0005098054 0.0015517832
0.0079923775 0.0012879178 0.0010512143 0.00053205655 0.0010062322 0.0018789949 0.003198719 0.0032314232
0.0054746335 0.0004249179 0.00015161555 0.0005047189 0.00069648196 0.0035122365 0.00031125723 0.0013036333
0.00028072114 0.006624935 0.000799092 0.0034109731 0.0014619207 0.0014315953 0.0033120266 0.0014671142
0.0011094906 0.00028076404 0.0007421637 0.00011834805 0.00018984772 0.0010144496 0.0009700907 0.00030274183

classifier.3.weight f4 [128, 128]
00000000: f663 68bd 5539 51bd 59d7 1cbd 5626 47bc
00000010: 9230 933d 063c a43c 7406 bfbc c211 f5bc
00000020: 9c72 0c3d 4e28 f43c 2afa e33d 48c2 823c
00000030: 183e 4b3d 81c6 9e3d 3b14 8f3c 4f6b 66bc
00000040: f0e1 153d e6d7 cebc 40ef 64bd 4f44 85bd
00000050: eab2 2bbd c383 0cbc 25a8 723c e6d0 59bd
00000060: 570f 01bd bf87 eebc f784 373d 7761 ce3c
00000070: 2dbd 913d d8ee b13d d0c0 8a3b a64f 20bd
00000080: e7fa a63d 0971 92bd 71b4 f23c aca4 143c
00000090: 7a7d 86bd 194a ba3c b8e2 9fbd 4e4c fbbc
000000a0: 4ccb 603c fe3f 4f3c 45df e2bc 9976 82bd
000000b0: c6c6 533a 8777 7b3c 1ead c33c fb99 373d
000000c0: 2655 66bd 213f 15ba 09ad 88bd ad78 88bd
000000d0: 5197 8fbd 07fe 6fbd c26c 81bd 0d0d fe3c
000000e0: 3e2f 513d 6a27 57bd 7459 55bd 6813 6cbd
000000f0: a498 913b 6077 88bd ad4f 0dbb 0194 15bd
00000100: ddb4 07bd f038 d63a b86e 17bc 6f99 0fbd
00000110: 4ab5 77bd 7f4b babd 0722 073c c4eb 403d
00000120: 122c b9bd 6900 7dbd 98c6 823d aa1a e7bc
00000130: f7b6 40bd 4bf5 71bd 1fef a8bd 5b36 643c
00000140: 3e71 243d bbfb fc3a 2693 2bbd 5667 993c
00000150: 6574 adbc f5d3 0cbd 3bb1 82bc edea 43bd
00000160: 55d4 903c 9bb5 b13c 9648 5ebd 4882 823d
00000170: 5b90 823d c877 273d a7c0 bb3c a857 7a3d
00000180: 7fe8 a73d 0e3f 9ebb d5ae 793d 3acc 6abc
00000190: 0285 283d 9a69 cd3c d3ba 8ebb a82e 72bb
000001a0: c352 edbc 6b07 b33c 2dde 973d 64b1 523d
000001b0: d7f9 213d cffc b4bd fae6 9c3c 48ec 2fbd
000001c0: fa90 a8bd 8240 013d c9d4 6bbc 47e1 d33c
000001d0: c816 003d 9ad0 aa3c 7b45 263c a5d0 c63d
000001e0: 16d4 9aba 486b 31bd 2aea 34bd ab79 d1bb
000001f0: 4b44 37bc 67b6 903d ef7c 09bd bbe8 c13c
00000200: 1688 a7bd f80b 46bc e44a 94bd a4ff ffbb
00000210: 6555 993d 01be 09bc cfcc 4ebc 6574 893d
00000220: 56bd 023d a1e5 653d e48b a5bd ddaa 163c
00000230: 1aff 5ebd 1934 a8bd 4312 76bb c5cf e93c
00000240: a947 843b 9658 7dbd 7c0d 243d 7701 a1bd
00000250: 8d38 3fbd 11e4 10bd d603 80bd 0cf0 57bd
00000260: 6926 4dbd 4a36 15bc 37bb 81bd 4673 2f3d
00000270: 3f68 4cbd 1e07 b73c 9078 353c 7bad ef3c
00000280: f63b c1bc f8dd 723d 7a91 423d e816 4fbd
00000290: e930 07bc bfde 3b3d de9f 5dbc 5659 c13b
000002a0: d426 863d 9865 c43c 2105 a23c 0cde 8bbd
000002b0: b1a1 203c 5b99 89bd 0f27 38bd d019 ef3a
000002c0: 35bb 783d e1cf 863d 1dd7 393b f799 7b3d
000002d0: 373c f2bc b0db 213a fc52 90bc 90f8 8abc
000002e0: ef56 3bbc 58da 743d 7679 6bbd 35f7 9cbd
000002f0: de7d a2bc c95b 51bd 935f 81bd c1ce e53c
00000300: 08e6 babc f1ca e4bb d35b cbbc 9572 e3bc
00000310: 1bf8 343d 703b e83c b649 3f3c 9a8d 14bd
00000320: 8985 c0bb e715 bdbd 43c2 a23c c534 413d
00000330: f7d9 83bd 5720 263d ae39 1abc 084a 8c3c
00000340: 1388 40bd 5976 ec3c 8612 6e3b 252c 3f3d
00000350: 24d1 afbd c2e7 88bb d87f 34bd 9b55 4d3d
00000360: 9bdd 373d 9649 79bd ff86 5b3c 1596 93bd
00000370: f3de 73bd 3f0e c0bc 9032 2c3d a04f 963d
00000380: 7eab 3b3d b774 89bd 959e 1bbd 142e 0c3c
00000390: 5185 9bbc 3753 8d3d d62f bf3c 205c 463c
000003a0: 34e1 bdbd 0182 a5bd b917 223c 6c06 70bc
000003b0: 4c9a 88bc 9b2e 833d 7e2d 6d3d fbb7 adbc
000003c0: 69a4 4f3d bf08 ccbd e800 943d 2dd7 18bd
000003d0: 5594 67bd 4152 143d 77bc c6bc 7f5f b13c
000003e0: e8dd 583d 9205 923c 5fb4 6b3d 828e 943b
000003f0: dc39 a9bc bfc0 75bd 5cf0 573d 91a4 92bd
-0.056735955 -0.051080067 -0.03829131 -0.012155136 0.071869984 0.020048153 -0.023318507 -0.029915694
0.034288988 0.029804375 0.111316994 0.015961781 0.049619764 0.07752705 0.017465701 -0.01406367
0.036592424 -0.025249433 -0.05589223 -0.065071695 -0.041918673 -0.008576336 0.014810597 -0.053177737
-0.03150877 -0.029117463 0.04480454 0.02519296 0.071161605 0.08688134 0.004234411 -0.03913846
0.081533246 -0.07150466 0.029627057 0.009072464 -0.065669015 0.02274041 -0.07806915 -0.030676033
0.013720345 0.012649534 -0.027694354 -0.06370277 0.0008078631 0.015348322 0.02388626 0.04482458
-0.056233548 -0.0005693306 -0.06673629 -0.06663642 -0.07011283 -0.05859187 -0.06319572 0.031012082
0.051070444 -0.052527823 -0.052087262 -0.057635695 0.004443245 -0.06663394 -0.0021562383 -0.0365181
-0.03313147 0.0016343873 -0.009242706 -0.035058435 -0.060475625 -0.09096431 0.008247859 0.047099844
-0.09041609 -0.06176797 0.06385535 -0.028210957 -0.04704949 -0.05907182 -0.08248734 0.013928975
0.04014706 0.0019301096 -0.04188838 0.018726032 -0.021173665 -0.034381825 -0.01595365 -0.047831465
0.017679373 0.021693042 -0.054268442 0.063725054 0.0637519 0.040885717 0.022919012 0.06111875
0.08198642 -0.004829294 0.06095775 -0.014330918 0.04114247 0.025074769 -0.0043557673 -0.0036954079
-0.028970128 0.021854123 0.074154235 0.051438704 0.039544906 -0.08837282 0.019153107 -0.042949945
-0.08230777 0.03155566 -0.014393994 0.025864257 0.031271726 0.020851422 0.010148401 0.097077645
-0.0011812474 -0.043315202 -0.04416863 -0.006392678 -0.011185716 0.070660405 -0.03356641 0.023670545
-0.08180253 -0.0120878145 -0.07240847 -0.007812457 0.07486991 -0.008407117 -0.012622072 0.067116536
0.031918846 0.056127194 -0.08083323 0.00919601 -0.054442503 -0.08213062 -0.0037547506 0.028541455
0.004036863 -0.06185206 0.040051922 -0.078616075 -0.04668479 -0.03537375 -0.06250732 -0.05271916
-0.05008546 -0.009107182 -0.063345365 0.042834543 -0.049904104 0.02234226 0.011076108 0.029257527
-0.023588162 0.059293717 0.04750202 -0.050558954 -0.008251407 0.045866724 -0.013526885 0.0059005423
0.065503746 0.023974225 0.019777836 -0.068294615 0.009804175 -0.06718703 -0.044959124 0.0018241946
0.06072541 0.065826185 0.0028356977 0.06142613 -0.029569728 0.00061743986 -0.017617695 -0.016964227
-0.011434301 0.05977854 -0.05748888 -0.076643385 -0.019835409 -0.051112924 -0.063170575 0.02805269
-0.022814766 -0.0069822003 -0.024824059 -0.027764598 0.044181924 0.028348655 0.011675289 -0.036267854
-0.0058752936 -0.09232693 0.019868022 0.047169466 -0.06438058 0.040558185 -0.009413166 0.017125145
-0.04700477 0.028865026 0.0036326959 0.04667296 -0.08584812 -0.0041780183 -0.044067234 0.050130468
0.044889074 -0.060861193 0.013398885 -0.0720636 -0.059538793 -0.023444293 0.042040408 0.07339406
0.045817845 -0.06711715 -0.037993032 0.008555908 -0.018984469 0.069006376 0.02333824 0.012106925
-0.0927147 -0.08081437 0.009893351 -0.014649969 -0.016675137 0.06405374 0.057904713 -0.021205893
0.050693903 -0.09962606 0.07226735 -0.037314583 -0.056537945 0.036211256 -0.024259789 0.021651981
0.052946 0.017824922 0.057545062 0.00453359 -0.020657472 -0.05999827 0.05271946 -0.07160295

classifier.3.bias f4 [128]
00000000: 11ed 8b3d cb97 953d dec8 b63b fd36 89bc
00000010: 9b0e 743d 8d25 033d f423 2abc f892 28bd
00000020: 4c2f a63c d71d 81bc df19 aebc a7ee 3dbc
00000030: 0b38 96bd 8bac c2bc 1814 54bc 73a2 87bd
00000040: 08a2 9f3d 5d1d a43d 56f2 b0bc 6d91 4dbc
00000050: e8e4 1ebd 5a00 a53c 1718 133d e0e5 e3bc
00000060: 33b8 9abd 566d 5e3d 29fe 4c3d bfc7 343d
00000070: c9fc 11bc bd58 98bd 4cd3 acbd 30fb 143d
00000080: 97fb a23d 2a98 04bd e6d9 8dbd 4cae 003d
00000090: 40cf 7c3d f70d 803d d812 ac3c fac6 54bd
000000a0: 13ff ac3c ce3d 21bd 06f2 b2bd b7ff 10bd
000000b0: 01de f1bc ecbf 3b3d 37bb 99bc 62a5 c1bb
000000c0: 8a7a 3abc 105d 51bd 8a8d 543d 2124 2bbd
000000d0: 49c6 50bd 92a1 19bd 3986 acbd 3e66 55bc
000000e0: 3d70 afbd 8230 a03d 4b57 2fbd 955b 87bc
000000f0: 0883 79bd cf5c 933b 429b 46bd 8168 4cbc
00000100: 6a83 8ebd 24ed b6bb e08a 323d 8d28 d3bc
00000110: 1d42 fa3c 6eff 0e3c eb71 6fbd 8b2e f33b
00000120: 2d82 2a3d 5ae6 a1bc 360f 993d a64d 91bd
00000130: 5561 253d 136f 68bd 3041 a93d 6a4e c0bc
00000140: 39b4 3b3d e2a7 533c e38c 063d 938d 62bc
00000150: d8eb d0bc 138b 8bbd 8feb 50bd 074e 563d
00000160: 2da1 763c 9f76 a8bd 97b4 1cbd d5e2 a93d
00000170: 30bb 063d eb29 ed3b a0c5 5c3d 1d96 6dbc
00000180: 072e 35bd 7847 7439 bd42 57bd 1984 f9bc
00000190: f7a0 27bd 43a9 743b 6a42 a8bd e35e 0ebc
000001a0: 7c1d aebd 57e7 133d f863 423d 3434 b73d
000001b0: 2341 873c 2e73 8d3d f5c4 e63c 79af e9bc
000001c0: 2c2e f7bc 5130 61bc dbdc 38bd ba25 2a3d
000001d0: eecb 2ebd e919 793c 2a53 a9bc d29e 81bd
000001e0: 3892 70bc 1662 bcba 5707 153d 5280 04bd
000001f0: cd69 36bd 0a96 4a3d bd7a 723d 2cc9 9a3d
0.06832326 0.07304343 0.0055781445 -0.016749853 0.05958424 0.032018233 -0.010384548 -0.041155785
0.020286225 -0.015761299 -0.02125257 -0.011592544 -0.07334908 -0.023763916 -0.012944244 -0.066227816
0.07794577 0.08013413 -0.02159993 -0.012546879 -0.03879252 0.02014177 0.035911646 -0.027819574
-0.075546645 0.05430349 0.050047074 0.044135805 -0.008910366 -0.074388005 -0.08438739 0.036372364
0.07958143 -0.032371677 -0.069263265 0.031416222 0.061721087 0.062526636 0.02100508 -0.05194757
0.021117723 -0.039365582 -0.087375686 -0.03540012 -0.029524805 0.045837328 -0.018766029 -0.0059096077
-0.011381755 -0.051114142 0.051892795 -0.041782502 -0.05097035 -0.0375076 -0.084240384 -0.013024865
-0.0856633 0.07821752 -0.04280786 -0.016523162 -0.060915977 0.0044971476 -0.04848791 -0.012476088
-0.06958659 -0.0055824686 0.043589473 -0.025776172 0.030549103 0.008727891 -0.05845825 0.00742132
0.04162805 -0.01976316 0.074736044 -0.070948884 0.040376026 -0.056746554 0.08264387 -0.02347489
0.04582617 0.012918444 0.032849204 -0.013827699 -0.025503084 -0.06813636 -0.051005896 0.052320506
0.015053076 -0.0822575 -0.03825816 0.08295218 0.03289336 0.007237663 0.053899407 -0.014501122
-0.04423335 0.00023296278 -0.05255388 -0.030458497 -0.040924992 0.0037332333 -0.082157925 -0.008689615
-0.085017174 0.036109295 0.04745862 0.08945504 0.016510552 0.069067344 0.028170088 -0.028526055
-0.030173384 -0.01374443 -0.0451325 0.041539885 -0.04267495 0.015203931 -0.020669539 -0.06329121
-0.014683299 -0.0014372494 0.036383953 -0.03234894 -0.044534493 0.049459495 0.059199084 0.07557902
