Results/regression/5-shot/5_modes/hard/it4/maml/3models_2.pt (torch, 10759 bytes, 9 tensors)

net.0.weight f4 [40, 1]
00000000: 09f3 0d3f 49ad a4bf fc38 1fbf 3494 1c3f
00000010: 687c 10bd a0cf 3ebe 5920 a23f 30e3 3a3f
00000020: f2bd 87bf 24f8 47bd fdce 523e fad6 cb3f
00000030: bc0d d13e 785e dabf 3144 aebf ec5a 98bf
00000040: 7253 443f 2966 9fbf a5bc 40bf 33d2 7cbf
00000050: 407e 70bf d6b1 343f fc93 35bd cbd9 533f
00000060: 2f79 94bf abe3 a73f 620f 593f b56d 943e
00000070: c85d c83e 9cfb 833e 92f0 a53d 4b7e c9bf
00000080: 91b2 ce3e bb8a b53f ef97 643f 062c 9ebf
00000090: 6463 b3bf dc5b 1b3f 422d d6bd b6cd 34bf
0.5544897 -1.2865382 -0.62196326 0.6116364 -0.035274893 -0.1863389 1.2666122 0.7300291
-1.0604842 -0.04882063 0.20586772 1.5924981 0.4083079 -1.706008 -1.361456 -1.1902747
0.7668983 -1.2453052 -0.7528785 -0.9875824 -0.9394264 0.70583856 -0.044330582 0.827542
-1.1599482 1.3116354 0.847891 0.2898995 0.3913405 0.257779 0.08102526 -1.5741667
0.4037061 1.4182962 0.8929433 -1.2357185 -1.4014707 0.6068704 -0.10457851 -0.7062639

net.0.bias f4 [40]
00000000: bb29 fdbd 3c29 1cbf e1b0 8e3e acfd 9abe
00000010: 9468 65bf 2707 943e 3662 4f3f 0a3c 9b3b
00000020: ab37 75be 2ae4 d6bc a8eb 98bd 25e6 f73d
00000030: 51a4 483f b8df 0b3f 511b 10bf 215e e8be
00000040: 6b8a 08bf dc32 383f daa3 6bbf 8f7f 9c3e
00000050: 84a9 073f 8c6c 1f3d d38d 2d3d e987 633f
00000060: b3c0 65bd 35ca 7bbd d3b2 163e 1b46 6cbe
00000070: 60a5 bf3e 356b 1b3f a5ac 33bf 8dfa 4fbe
00000080: a26e 4bbe bc0b 06bf 2ad5 153f 03ef 6abd
00000090: 5936 cd3e a122 ddbe 4a58 4e3f 1dd6 0e3f
-0.12361475 -0.6100042 0.27869323 -0.3027166 -0.896127 0.28911707 0.81009233 0.004737382
-0.23947017 -0.026231844 -0.07466823 0.121044435 0.78375727 0.5463824 -0.5629168 -0.45384315
-0.5333621 0.71952605 -0.9204689 0.3056607 0.52993035 0.038921878 0.042371582 0.8887926
-0.056091975 -0.061472137 0.14716654 -0.23073618 0.3743086 0.6071046 -0.7018531 -0.20310421
-0.19866422 -0.52361655 0.5852839 -0.057356846 0.40080526 -0.43190482 0.8060347 0.5579546

net.1.weight f4 [40]
00000000: c440 983f 3f4c 2f3f 0266 553f 7ee3 773f
00000010: 2d29 253f e23d 4f3f 3511 823f 407b 573f
00000020: fd2f 553f c29a 2b3f a63f 923f 46b3 623f
00000030: 430f 793f a73c 833f 2cfa 633f 2332 853f
00000040: e878 873f 6741 403f 26ce 4e3f c65c 483f
00000050: b286 663f 8b1f 903f dc2b 2c3f c2ee 843f
00000060: 3e56 4f3f d188 873f 0b3d 8e3f 6cde 743f
00000070: e76b 923f 9122 4a3f 49dd 5d3f db93 423f
00000080: 0ed3 7a3f 94a2 8d3f 1345 963f 9d15 5a3f
00000090: 5a04 273f ae33 653f 3822 743f 57ba 433f
1.1894765 0.6847572 0.83358777 0.968315 0.64515954 0.809538 1.0161501 0.8417244
0.8327635 0.67033017 1.1425674 0.885548 0.9728891 1.0252885 0.89053607 1.0405926
1.0583773 0.75099796 0.8078331 0.7826656 0.9004928 1.1259626 0.67254424 1.0385363
0.8099097 1.0588628 1.1112379 0.9565189 1.1439179 0.78958994 0.8666578 0.7600686
0.97978294 1.106524 1.173983 0.8518923 0.65241015 0.8953198 0.95364714 0.7645621

net.1.bias f4 [40]
00000000: 4be0 553e fc8a 03bf 0c6c a8be d6f2 c0be
00000010: 9cb2 0fbe eda9 5abf 032a 0b3e 52b6 263f
00000020: acf8 db3b 8da8 22bf 5e39 1f3f db3b 32bf
00000030: 4a8c 513d a105 853d bd00 3b3f 0cfa 1fbe
00000040: 7306 ffbd dd39 7dbf 8e53 2dbe 48cf 01bf
00000050: 5d83 b33d d200 f33d 8663 08bf 6398 0abe
00000060: c156 3dbf 28a2 a5be 7819 773e 5266 e0be
00000070: 90d6 c33e 6f78 f3bd 58fe 2cbe 186d a83e
00000080: 16ea 2e3e 9776 98bc eae4 fe3e ab9c 173f
00000090: db8d 25be 3163 37be a88c fb3c c237 873c
0.20886342 -0.5138395 -0.32894933 -0.3768527 -0.14032978 -0.85415536 0.13590245 0.6512195
0.0067129936 -0.6353844 0.6219691 -0.6962258 0.05115918 0.06495214 0.73048 -0.15622729
-0.12452402 -0.9891642 -0.16926405 -0.5070691 0.0876529 0.11865391 -0.5327686 -0.13534693
-0.739605 -0.32350278 0.2413081 -0.43828064 0.38249636 -0.11888205 -0.168939 0.32895732
0.17081484 -0.018611236 0.49784023 0.5922343 -0.16167395 -0.17908932 0.030706719 0.01650608

net.3.weight f4 [40, 40]
00000000: 5a67 e53d 9565 0bbe 6cbe 933c 5dbd dc3d
00000010: dbea 31be 8bb1 b43d b4b3 693e 4d3c 8c3e
00000020: cc62 47be 6f63 a93d 802e 8b3e 0633 7ebc
00000030: 3a40 3abd 0104 a2be 1819 d3be 604a 68be
00000040: 345b 8d3d 0599 bf3c 18e0 a1be c611 a43d
00000050: 3fc0 01be 5ba9 233e 5cf3 813c a2ca cbba
00000060: 7d18 d23d d12a 223d 8ebf f73d c6e0 82bd
00000070: e0d8 723e 6530 a43c 2fcb 08be 525c adbe
00000080: 29a5 f33d 66d6 d9bc 6b6f db3d 5c1a d1be
00000090: 9b98 71be c002 61bd 3b4a 3abe f223 d8bd
000000a0: 31f3 593e 972f 1abe 9a48 94bd fdb4 aa3e
000000b0: 384c 5f3d 9b72 62bd 60cb 563e 6638 6ebc
000000c0: be16 e33d 0785 a53d e270 b4bc 0ac0 f33e
000000d0: d427 d73d 0e02 143e eabb e53d 2945 45bd
000000e0: b1c1 443e 76ed ed3d 02e8 edbd 308c 35be
000000f0: 9048 9fbc 255f 603e feb4 253e d99d 9a3d
00000100: c3eb b03d f058 663e 7a0b 25bb 160a b53e
00000110: 4de6 8a3d 01fd c73c 8cc0 04bc a9ae 33bc
00000120: 1ef0 423d a293 9c3d bd00 92bd 7208 0e3e
00000130: a8e7 b7bd 7817 5f3e b179 da3d fda1 8d3d
00000140: dd61 983d 19a7 143d fb9a a33d fdc3 763e
00000150: 755c e7bc f772 a03e 7dda 563d 72e7 c0bd
00000160: 7a24 fd3d 632d 3a3e a3ec e1bc c123 813e
00000170: 4eac 0dbd bac4 a9bd 2720 74bd d676 043e
00000180: 1393 39bd a79d 0c3e d675 72bc e270 233d
00000190: baa8 b33d 337d eabd 10cf df3d 4379 2f3d
000001a0: ea50 ee3d ced1 063e ce52 85b8 bd90 043b
000001b0: 0c30 57bd 6f4b e93c 25bc 9e3d 42b1 49bc
000001c0: b60f e93d 89aa db3c 132b b33d f298 3b3d
000001d0: c0f1 e6bd 859e afbd 51e5 253e 4e9c 75bd
000001e0: 22b7 cabd 0cc5 323c a1ad d83d 09cd 83bd
000001f0: 3a4c d63c 6262 18be d81c ea3d faec 2dbe
00000200: 6a1a 06be fae1 413e e218 5bbe c858 75be
00000210: 8fa8 6fbd 1335 183e ac45 02be 39bc 743d
00000220: a0b1 dc3d d7f8 0fbf c173 993d 9365 1b3d
00000230: b9bb 273e 8eda 86bd 765a 223e 4b9c a33d
00000240: c55a 0bbe 8dc4 e4bc 4273 22be 90f1 483d
00000250: 2e02 e4bd b880 71bd d9be c2bd 0964 0a3e
00000260: 216d 31bc 3394 9bbd 0129 1bbe ebef c13d
00000270: 2f97 543d 6b6a 2fbe b9da bb3c deea cd3d
00000280: 0be8 12be c84c 4e3e 96fc cb3e c3e3 a23d
00000290: 6553 e03d 5246 403e a1bd 253d f795 b3bd
000002a0: 3511 543d 3bf6 463e effb 1a3d c93c 173d
000002b0: ca43 bebd d4a4 913e 5e26 253e 77d3 243e
000002c0: 05ec ee3d ab73 44bd cc29 033e a8e2 8f3e
000002d0: 6d26 813e ae29 073e 2c9f 113e c185 ae3d
000002e0: d541 5c3e 39f1 f93d c5ea 84bd 7ad1 0d3e
000002f0: 8433 a4bd 1cf0 29bd 7864 353e 314f 9abc
00000300: 6671 cdbb 5b2a 1abd 82ed 923d d393 e9bc
00000310: 6bf0 163e ae8d e1bd 3587 b33c 28f8 613d
00000320: ba58 1d3e 2dfa e73d 5058 01be ed55 fc3d
00000330: 413f 883d a176 123e b002 893e a2ff 133e
00000340: 994a 8e3a e11d 003e b263 333e ab25 753e
00000350: b8f7 853e 8507 2c3c 9f05 6e3e 38c0 983d
00000360: 3710 aa3e af51 c63d 9348 af3c 161e 443e
00000370: 40ae 8d3d f7d2 e13e 0cd6 553e 9754 8d3e
00000380: f5cc 263d c2a1 d43e 8d61 373e 257b 713e
00000390: 8a8d 203e 0cba 943e bc5b ca3d 17f0 d23d
000003a0: 3e6c a23e f62f c03e 2b7f 253e 9f13 82bc
000003b0: 2530 313e 0711 e43e 5255 16bd 496f 0a3e
000003c0: fd5d 35bd 40b8 37bd c339 31bd 8d74 d43c
000003d0: 210e 0dbe 5f1d b53e 8224 4c3e 8e96 5e3e
000003e0: 15a7 e6bc c1d5 a43d 3f9b 793e d311 423d
000003f0: 30c4 eb3d 8f45 193e 3a5d 9abd 605a e43d
0.11201353 -0.13612969 0.018035136 0.10778306 -0.17374747 0.08822926 0.22822458 0.27389756
-0.19471282 0.082709186 0.27183914 -0.015515095 -0.045471407 -0.3164368 -0.41230083 -0.22684622
0.06902161 0.023388395 -0.31616282 0.080112025 -0.12670992 0.15982573 0.015863113 -0.001554806
0.10258577 0.039591614 0.12097083 -0.063905284 0.23715544 0.020042608 -0.13358758 -0.33859497
0.11896736 -0.026591491 0.10714611 -0.40840423 -0.2359337 -0.054934263 -0.18192379 -0.10553731
0.21284176 -0.15057217 -0.0724041 0.33341208 0.054516047 -0.055285078 0.20976019 -0.014539814
0.11088322 0.080820136 -0.022026483 0.47607452 0.105056435 0.14453909 0.112174824 -0.04816166
0.19214512 0.11617558 -0.116165176 -0.17729259 -0.01944378 0.21911295 0.16182324 0.07549638
0.08638718 0.22494864 -0.0025183843 0.35359257 0.06782208 0.024412634 -0.008102547 -0.010966935
0.047592275 0.07645346 -0.07129047 0.13870409 -0.08979732 0.21786296 0.10667742 0.069156624
0.07440541 0.03629217 0.079885446 0.24098201 -0.02824233 0.3133771 0.05245446 -0.09419145
0.12360473 0.18181376 -0.027578657 0.2522259 -0.03458815 -0.08289476 -0.059600975 0.12935957
-0.045306277 0.13732015 -0.014798602 0.039902575 0.087724164 -0.11449661 0.10928166 0.042840254
0.11636527 0.13165972 -6.357358e-05 0.0020227872 -0.052536055 0.028478352 0.077507295 -0.012310328
0.1137995 0.026814716 0.0874845 0.045800157 -0.11276579 -0.08575157 0.16200759 -0.059963517
-0.09898211 0.010911237 0.10579992 -0.06435592 0.026159395 -0.1488128 0.11431283 -0.1698493
-0.13096014 0.1893386 -0.21396211 -0.23959649 -0.05851036 0.14863996 -0.1272189 0.059749816
0.10776067 -0.56239074 0.074927814 0.037938666 0.16380204 -0.06584655 0.1585482 0.07988795
-0.13608845 -0.027925754 -0.1586428 0.049058497 -0.11133228 -0.058960646 -0.095090576 0.13514723
-0.010829241 -0.07596626 -0.1515236 0.09469589 0.051901992 -0.17130439 0.022931444 0.10054563
-0.1434633 0.20146477 0.39841145 0.07953598 0.10953406 0.18776825 0.040464047 -0.08768838
0.051774222 0.19429867 0.03783792 0.036923204 -0.092902735 0.28446066 0.16127917 0.16096292
0.11666111 -0.047961872 0.12808913 0.28102612 0.2522463 0.13199493 0.14220876 0.08521605
0.21509488 0.12204213 -0.06490091 0.1384944 -0.08017638 -0.04148875 0.17714107 -0.01883659
-0.0062696217 -0.03763805 0.07174207 -0.02851287 0.1474015 -0.110133514 0.021915058 0.0551683
0.15365878 0.11327014 -0.12631345 0.123210765 0.0665269 0.14303066 0.26759863 0.14452985
0.0010855972 0.12511398 0.175185 0.2394015 0.26165557 0.01049984 0.23244332 0.07458538
0.33215496 0.09683549 0.02139691 0.19152102 0.06918001 0.44106266 0.20882434 0.276036
0.040722806 0.4152966 0.17908306 0.23582132 0.15678993 0.29048193 0.09880778 0.102997
0.31723207 0.3753659 0.16161792 -0.015878497 0.17303522 0.4454424 -0.03670246 0.13519014
-0.044279087 -0.04485345 -0.043267976 0.025934482 -0.13774921 0.3537397 0.19935802 0.2173712
-0.028155843 0.08048583 0.24375628 0.04738028 0.11512029 0.14967941 -0.07537313 0.1115005

net.3.bias f4 [40]
00000000: cb8c 383e acbe 813e 105d 83bf d15d dabe
00000010: c676 9dbe ffe6 213d c7ab 313d e40f 5bbf
00000020: 5a4d 383e 5d9f 8cbe ca49 2cbf 60c5 0cbd
00000030: 3ed5 2b3e eae5 963e 8bba 743e a039 febe
00000040: 9b6b 443e 927e a5be a449 2d3e 1dc2 68bd
00000050: 0a57 20bd dfd1 72bf c660 2cbf 1585 313e
00000060: aba3 573e eeb6 ae3d 02d7 023d 7290 11bf
00000070: 403a f4be 7108 7b3d e71e 5abe be55 023f
00000080: 3023 87bd 5fd7 2f3e 0ffb c8be f847 48bd
00000090: 4673 2cbf 55d8 4cbe 079c d5bd 82bd 2cbe
0.18022458 0.25340784 -1.0262775 -0.426497 -0.3075468 0.039526936 0.04337671 -0.8557112
0.17998257 -0.27465335 -0.67300093 -0.03436792 0.16780564 0.29472286 0.23899285 -0.4965334
0.19181673 -0.32323128 0.16922623 -0.056825746 -0.039145507 -0.9485149 -0.67335165 0.17335923
0.21058528 0.08530985 0.03194333 -0.5686103 -0.4770069 0.061287347 -0.21300851 0.5091208
-0.06598508 0.17172001 -0.39254043 -0.04889676 -0.67363393 -0.20004399 -0.104301505 -0.16869166

net.4.weight f4 [40]
00000000: 4713 cc3f 9378 e83f f897 6240 eede 3040
00000010: 5f04 ae3f 7157 ae3f f618 a33f 3ac7 5840
00000020: 84d9 a83f be67 3c40 98e8 4440 9b49 1940
00000030: 9607 be3f 4172 ba3f c002 c83f a283 2d40
00000040: fd84 a93f b2b5 1f40 bb37 c03f 560a d43f
00000050: e047 ae3f 7a24 5f40 9de9 6f40 371f d43f
00000060: 02dc e23f cbcd 1740 2d53 e73f ac3f 3a40
00000070: c693 c63f 8697 3540 84a9 c03f 3f0a 1b40
00000080: 4086 c03f 90ea a13f 989b c43f e184 bb3f
00000090: 7e67 6540 d38b bb3f 0254 b83f fcea c13f
1.5943383 1.8161796 3.5405254 2.7636065 1.3595084 1.3620435 1.2741992 3.3871598
1.319138 2.943832 3.0766964 2.3951175 1.4846065 1.4566118 1.5625839 2.7111592
1.324371 2.4954648 1.5017008 1.6565654 1.3615685 3.4866014 3.7486336 1.6572026
1.7723391 2.3719356 1.8072258 2.9101362 1.5513847 2.8373733 1.5051732 2.4225004
1.504097 1.2649708 1.5359983 1.4649926 3.5844417 1.4652046 1.4400637 1.5149837

net.4.bias f4 [40]
00000000: 4655 353f fdbf 2d3f d5cd 6c40 4684 8940
00000010: 3b09 3f3e d397 a03e e3e4 503d 499a 9d40
00000020: 07f2 cc3e c9b2 2840 b329 5940 d534 c83f
00000030: e757 b53e f9a1 cf3e 3a73 1d3f d47a 3d40
00000040: 13da 533e cd25 1940 d5c3 163f 3cb4 f23e
00000050: b57c d43e e63d 8940 9c4c 6940 1225 a63e
00000060: 7f92 4b3f e7dc e53f ceec 1d3f 7555 3140
00000070: 67c5 d13e 7ecd 6240 1fb6 d23e 1a5d 973f
00000080: 15de f73e fdb3 7d3c 1042 173f cd46 883e
00000090: e6a4 4240 a4ed 0a3f 0afc 1d3f d9ff 363f
0.7083324 0.67871076 3.700063 4.2973967 0.18655865 0.31365833 0.050999533 4.9250836
0.40028402 2.6359122 3.39317 1.5641123 0.35418627 0.40553263 0.61503947 2.9606218
0.20688657 2.3929322 0.58892566 0.47403133 0.41501394 4.288806 3.6453009 0.32450157
0.7952041 1.7958039 0.6168946 2.770841 0.4097092 3.5437922 0.41154572 1.1825287
0.48411623 0.015484807 0.5908518 0.26616517 3.0413146 0.5426886 0.61712706 0.7148414

net.6.weight f4 [1, 40]
00000000: d017 513e ed62 99bd 0d37 16bd 9b7f d0bb
00000010: 5366 2abe c994 3f3e 3675 79bd 9517 553c
00000020: e6f3 a23e 921f 463d 992d 953c 15c8 7b3d
00000030: c1d7 4abd 1881 233e 1ea6 0b3e 7ddd 723d
00000040: 9bfa 29be 9d34 e03c 0cd2 703e dcf0 1abe
00000050: 0292 5c3e 2e2a 25bd eec2 683d 0808 34be
00000060: 1fdd 553e 8931 db3d 6abb 9ebc 19a0 b0bb
00000070: 3eb1 d63e cbc8 16bd 1ea9 95bd ad07 9ebc
00000080: 22f0 163e b52e 1fbe b0cb 813e 7050 54be
00000090: 1a0f ef3c 6261 553e e965 a23e 6d47 903e
0.2041924 -0.07489572 -0.036673594 -0.006362868 -0.16640596 0.18709101 -0.060902797 0.013006111
0.31826705 0.04836995 0.01821022 0.06147011 -0.049522165 0.15967214 0.13637587 0.05929326
-0.16599505 0.027368838 0.23517627 -0.15130943 0.21540073 -0.04032343 0.056826524 -0.17581189
0.20885132 0.107028075 -0.019376475 -0.005390179 0.419321 -0.036812585 -0.07307647 -0.01929077
0.14740041 -0.15545161 0.25350714 -0.2073381 0.029182006 0.2083793 0.31718376 0.28179494
