Results_paper/classification_omniglot_imagenet_fc100/it3/maml/3models_0.pt (torch, 534505 bytes, 20 tensors)

conv_net.0.0.weight f4 [32, 3, 3, 3]
000000 bf 56 ae 3c 41 35 d4 bd 87 20 5b bd b7 a6 4e be
       0.021281598 -0.1036172 -0.053497817 -0.20180784
000010 cd f6 3e be 28 0f 45 bd 8e 8b b3 be 8b 35 15 be
       -0.18648835 -0.048110157 -0.3506741 -0.14571206
000020 58 c8 ac bd d1 f9 75 3e 7d bb a3 3e 13 71 00 3e
       -0.0843665 0.24021079 0.3197898 0.12543134
000030 de 19 20 bd 65 9f 07 3e a8 42 8f 3d 4b 17 3f be
       -0.03908717 0.13244398 0.069951355 -0.1866123
000040 4b 17 0f 3e 14 99 86 3d 0c b4 9a bd d7 b2 6f 3e
       0.1397373 0.06572166 -0.075538725 0.23408066
000050 7f 19 57 3e fd d5 bb bd a9 60 ac 3a 8b e8 3c 3e
       0.2100582 -0.091716744 0.0013151366 0.18448083
000060 24 17 60 bc 96 09 71 3d 0c f7 83 3e 0f e9 78 3e
       -0.013677392 0.058847032 0.2577442 0.24307655
000070 84 7d 23 bd 85 d5 62 3d 41 e6 df 3d 51 bb 5c 3e
       -0.039914623 0.05537941 0.10932589 0.2155583
000080 18 f1 02 3e 91 e5 87 bd 64 54 aa 3d 5f 79 07 3e
       0.12787282 -0.06635583 0.083168775 0.13229893
000090 f1 b9 78 3c 49 26 f7 bd c3 56 32 be 9d c2 8a be
       0.015181051 -0.12067849 -0.1741591 -0.27101603
0000a0 87 78 aa bd 01 21 a2 bc 0f 41 ac be c5 fe 39 be
       -0.0832377 -0.019791128 -0.33643386 -0.18163593
0000b0 60 b2 79 3d 1b b4 95 3e 52 74 5d 3e 00 4e 92 3a
       0.060961127 0.29238972 0.21626404 0.0011162162
0000c0 a6 f6 d0 3d c9 30 23 b9 76 54 68 bd 08 48 9a bd
       0.102032945 -0.00015563065 -0.056721173 -0.0753327
0000d0 7e fc 41 3e 54 16 5a 3e ea 95 0b 3e 2b d5 85 3e
       0.18943974 0.2129758 0.13631406 0.26139197
0000e0 88 ac d5 3e 28 7e b1 be f5 cb 33 be 96 18 d3 bd
       0.41733193 -0.34666562 -0.17558272 -0.10307424
0000f0 c8 61 12 be db 48 00 be 01 d7 82 3d 86 17 8d 3e
       -0.14295113 -0.12527792 0.06388665 0.2755701
000100 77 3b 4f 3e c8 26 b6 3e 06 db 46 be 95 bc 32 be
       0.20237528 0.35576463 -0.19419488 -0.17454751
000110 ea cc 83 be 2a fc b7 bd 88 97 0b be 11 fa 18 bd
       -0.25742275 -0.08983643 -0.13632023 -0.037347857
000120 12 8d f8 bc ec 5b 14 be 83 15 43 3e 19 79 77 bd
       -0.030340705 -0.1448819 0.19051175 -0.060418222
000130 fc 3f 46 be 3f 23 b3 bd 44 e0 91 3d 5d f3 dc 3d
       -0.19360346 -0.08746957 0.071228534 0.10788605
000140 e5 16 36 3e c2 33 41 3d 5e 89 fc bd f6 67 ec bd
       0.17782171 0.0471685 -0.12330888 -0.115432665
000150 8a 2a e7 ba c3 3f 3f be e3 67 ce be 35 3d 88 3c
       -0.0017636579 -0.18676667 -0.40313634 0.016630748
000160 d9 a0 28 be 7e b1 9d be b1 8c cb 3d 78 49 46 3d
       -0.16467609 -0.30799478 0.09938944 0.04840991
000170 75 3d 14 be b4 5f 12 3e f2 e4 55 3c 7e 3d 5b bb
       -0.14476569 0.1429432 0.013055073 -0.00334534
000180 30 d3 c9 3b 02 a2 25 bd 34 80 f5 bd da 0a bd 3d
       0.0061592087 -0.040437706 -0.119873434 0.092305854
000190 d0 d9 de 3d 6a 83 49 be 70 15 2a 3e a4 3d 68 3e
       0.10881388 -0.19679037 0.1660974 0.22679764
0001a0 7e 1c 29 3d b6 f6 45 3e 21 9a b4 3e 4f 7e fd 3d
       0.041286938 0.19332394 0.3527384 0.12377607
0001b0 5d 09 2c be 77 ca 9a bc b2 ea 1c be d5 55 71 be
       -0.16800447 -0.01889537 -0.15323904 -0.23567899
0001c0 9b 92 4c be b8 95 bb bd e1 62 e0 bd e2 27 d6 b9
       -0.199778 -0.09159416 -0.1095636 -0.00040846976
0001d0 4c 73 34 3e 14 25 0e 3e e5 ae 9a 3d d3 9b 5c 3e
       0.17622107 0.13881332 0.0755289 0.21543817
0001e0 5d b3 1b be 4e fd 01 be 15 3f b5 3d 09 fb 85 3e
       -0.1520514 -0.12694284 0.088499226 0.26168087
0001f0 d2 20 a6 3e 33 db 9f 3e bc 2e f8 bd 57 ff 98 be
       0.32446915 0.31221923 -0.12118289 -0.2988231
000200 0b d5 2f be ed c1 f3 bd e6 83 6e bc 51 5c 8d 3d
       -0.17171113 -0.11902223 -0.014557814 0.069023736
000210 a8 39 c4 bd d8 c2 b1 3a bd 1a a0 3e 5f ce 32 be
       -0.095813096 0.0013562096 0.312704 -0.17461537
000220 2a f8 bc 3d 43 cc df bc ab b7 34 3d ab f9 11 bd
       0.09227021 -0.02731908 0.044120472 -0.035638493
000230 73 9d 06 bd bb f0 9e 3c 0b 10 31 be 25 09 28 3e
       -0.032865 0.019401899 -0.17291276 0.16409738
000240 e6 a0 ca be af 14 86 3d 77 7c 11 bd 6e c9 8d be
       -0.3957588 0.06546914 -0.03551909 -0.2769274
000250 d7 ac 27 3d 1b 6c 91 bd 57 4d 3b 3d 2a 31 4e bc
       0.040936317 -0.071006976 0.045728054 -0.012584964
000260 44 25 32 be 09 eb b4 bd 16 56 a5 3e bc 8c ab 3e
       -0.17397028 -0.08833892 0.3229224 0.3350581
000270 c5 20 08 3c a8 46 9a 3c 7b a9 9e 3e ef b0 ef bd
       0.008308594 0.01883252 0.30988678 -0.11703669
000280 4d 8f 56 3e 7e f7 c8 3d 83 d9 89 be fb 1b ac be
       0.20953102 0.098128304 -0.2692376 -0.33615097
000290 3d e3 12 bd 27 47 86 bd cc d1 b7 bd 5b 0c 17 be
       -0.035861243 -0.0655654 -0.089755625 -0.14750807
0002a0 f4 11 84 be a3 9c 6e bd 04 19 a7 bd 93 6f 31 be
       -0.25794947 -0.05825485 -0.08159068 -0.17327718
0002b0 78 63 6a be 5f 3a f5 bb 65 3a 86 bd 29 c7 ad bd
       -0.22889507 -0.007483765 -0.065541066 -0.084852524
0002c0 36 93 68 3c 41 3f 1e 3e 4c 7c 4c bd 3b 64 37 be
       0.014195254 0.15453817 -0.049923226 -0.17909329
0002d0 d8 fa 8c 3e 88 dd 9b 3e c2 4f 03 3e fb 03 76 3e
       0.2753513 0.30442452 0.12823394 0.24024956
0002e0 7f 9c 35 3e fb 08 b8 3d a8 64 4d 3e 96 ea 12 3e
       0.1773548 0.08986088 0.20057929 0.143473
0002f0 94 88 ac 3d f2 cf 38 3e d6 06 8f 3e e3 35 e0 3d
       0.08424488 0.18048075 0.27934903 0.10947778
000300 57 ce d5 bd 7d 74 36 bc 4b 5d 08 3e 4b 1e d9 bd
       -0.10439747 -0.011136171 0.13316838 -0.10601481
000310 8f cc 96 be 7a 1a 2c be 52 b8 83 3e 3a ce ad 3e
       -0.2945294 -0.16806975 0.25726563 0.339464
000320 55 a9 51 3e cd fe 45 be 6d 7d 54 b9 ed 12 18 3e
       0.20474751 -0.1933548 -0.0002026462 0.1485097
000330 4c f2 ab be 5b d2 21 be ed 93 69 be be 34 54 3e
       -0.33583295 -0.158029 -0.22810335 0.20723245
000340 20 c0 49 3e 0f 6c 7c 3d 52 d9 42 3e fe 54 b3 bd
       0.19702196 0.06162649 0.19028214 -0.08756445
000350 c2 01 2b be 30 a1 0a bd c1 64 7f be 65 90 2d be
       -0.1669989 -0.033845127 -0.24940778 -0.16949613
000360 ae 08 40 3e 2c 3f 2f be af 72 7b bd e3 b1 62 3e
       0.18753311 -0.17113942 -0.061388668 0.22138171
000370 ac 53 09 3e 36 49 24 3e 84 38 a7 3d db 81 09 3f
       0.13410825 0.16043553 0.081650764 0.5371377
000380 e1 7e c6 3e 0f 5b f9 bb b6 81 3c be 8a 46 2d 3d
       0.38768676 -0.007609732 -0.18408856 0.0423036
000390 b9 d5 0b 3d 23 80 85 3e b5 bf 76 3e 37 40 11 bc
       0.03413937 0.26074323 0.24096568 -0.008865408
0003a0 3a 80 59 3e 89 03 6a 3e 1e 6d 8f 3c 7e c2 09 3d
       0.21240321 0.22852911 0.017508086 0.033632748
0003b0 b6 7e 38 3e 6b 2e e2 bd 31 42 b4 bd b4 c3 a1 3d
       0.18017086 -0.1104401 -0.088016875 0.078986555
0003c0 11 a3 80 be 8d e3 2c bd cf b8 81 bd e4 bc d2 3d
       -0.2512441 -0.042209197 -0.063340776 0.10289934
0003d0 18 fd dd 3c 66 35 05 bd c8 aa 6b 3c 6f 15 0e be
       0.027098224 -0.032521628 0.014383979 -0.13875364
0003e0 8d e0 22 3e 6e 11 1e be 74 96 29 be 8b e5 22 3e
       0.15905972 -0.15436336 -0.165613 0.15907876
0003f0 18 09 72 3e 5e f3 66 3d 62 6d 42 3e ff 35 ca bb
       0.23636281 0.056384437 0.18987039 -0.0061709876

conv_net.0.0.bias f4 [32]
000000 0b f6 37 bc 7d 20 82 be e8 6d 6e 3e 6b 34 42 3d
       -0.011228095 -0.25415412 0.23284113 0.04741327
000010 b8 04 f1 bd b8 da 31 be c9 05 bf bd 58 e2 6d be
       -0.11768478 -0.17368591 -0.09327275 -0.23230875
000020 ff 10 05 3e 4a 4b 89 3d 1b 10 d0 3d 54 47 12 3e
       0.12994765 0.067038134 0.10159322 0.14285022
000030 c5 bb 26 be 6f 99 45 3c 58 aa 5d 3d b1 3f 0f 3e
       -0.16282566 0.012060507 0.05411753 0.1398914
000040 08 4f 65 3d 38 c1 ac 3c 12 c1 f6 3c 6e 68 d4 3d
       0.055983573 0.021088228 0.03012136 0.10371481
000050 d9 2e ea bd a8 d1 69 be d8 b9 a1 bd 1e 46 e6 3b
       -0.11434717 -0.22833884 -0.07896775 0.0070274016
000060 bb c8 7c be f9 96 6e 3e f6 1e 35 be b3 eb 23 bd
       -0.24685948 0.23299779 -0.17687592 -0.040019702
000070 70 75 18 3d 57 8d b6 bd 25 5f 1d 3b 1d a5 c3 bd
       0.037221372 -0.08913677 0.002401301 -0.09552977

conv_net.0.1.weight f4 [32]
000000 af e4 37 3f 26 9d 77 3f a5 50 9c 3f 03 28 7f 3f
       0.7183332 0.96724164 1.2212111 0.9967043
000010 dc 7b 56 3f 87 5e 3d 3f ba 3f 3b 3f 41 9d 9f 3f
       0.83782744 0.7397236 0.73144114 1.2469865
000020 c8 8e 45 3f 1f fd 3f 3f 3c 5a 3d 3f 17 0a 78 3f
       0.7717099 0.7499561 0.7396581 0.96890396
000030 11 d6 56 3f 9f 30 97 3f 17 f2 47 3f bb e6 72 3f
       0.8392039 1.1811713 0.78103775 0.94883317
000040 4f dc 9f 3f cf 03 73 3f 52 b3 83 3f 3f 1f 8e 3f
       1.2489108 0.94927686 1.0289099 1.1103286
000050 70 79 63 3f 3f d8 ba 3f e9 56 40 3f 4d 21 59 3f
       0.88857174 1.4597243 0.75132614 0.8481644
000060 ba 44 78 3f a8 92 a9 3f e8 68 72 3f 99 f9 46 3f
       0.9697987 1.3247881 0.94691324 0.77724606
000070 f4 db 34 3f ed 63 6d 3f 63 2e 1e 3f b1 da 3c 3f
       0.7064812 0.927306 0.6178953 0.73771197

conv_net.0.1.bias f4 [32]
000000 b1 da 6f be b4 fc aa bd c2 ee ed 3e 56 da ca 3d
       -0.23423268 -0.083489805 0.4647122 0.099049255
000010 35 d0 d3 3e 2c 9b f7 bd ab 83 63 bf 26 7b d7 3e
       0.41369787 -0.120901436 -0.88872784 0.42086142
000020 ee 13 b1 be 29 66 98 be e1 ad f6 be d1 71 b6 bc
       -0.34585518 -0.29765442 -0.48179534 -0.022271069
000030 13 f1 15 bc a8 69 93 3e 3b c1 1a bd 7c a8 cd 3c
       -0.009151715 0.28791547 -0.037781935 0.025104754
000040 38 8b c7 3e 66 ab 66 bd e6 b3 45 3d 34 e4 19 be
       0.38973403 -0.056315802 0.048267268 -0.15028459
000050 e9 65 a2 be 9f 61 9e bd ba 77 8c bf 22 f6 6d be
       -0.31718376 -0.077334635 -1.0974038 -0.23238423
000060 eb 92 d9 be a2 83 92 bd 38 e0 36 be ee 9a cf be
       -0.42494902 -0.07154013 -0.1785897 -0.4054789
000070 70 16 7c be d5 d0 c4 3e 77 67 26 bf 45 27 9d be
       -0.24617934 0.38440576 -0.65001625 -0.30694023

conv_net.1.0.weight f4 [32, 32, 3, 3]
000000 f9 67 c7 bd 08 06 98 bc 99 c3 b6 3c 93 eb 95 3d
       -0.09736628 -0.018557563 0.022310065 0.07320323
000010 a2 18 0d 3e 40 36 11 3d 10 29 3f 3e f4 f4 1b 3e
       0.13778928 0.035452127 0.18668008 0.15230161
000020 00 9d e5 3d c7 ad 09 be 84 29 13 3d 65 fa 16 3e
       0.11211586 -0.13445197 0.035928264 0.14743955
000030 df fd 74 be 38 db 93 ba dd 3c 79 3e 6d f7 1f be
       -0.23924969 -0.0011280542 0.24339624 -0.15621729
000040 74 12 4f 3c c0 bd f8 3d f6 11 52 bc 9c e8 7a 3d
       0.012638677 0.12145567 -0.012821665 0.06125699
000050 00 bb 00 3e d3 95 e0 3d f5 a7 2a 3e da 2c f8 3d
       0.12571335 0.10966077 0.16665633 0.1211793
000060 d9 fe c2 3c d0 8e ce 3d b6 43 db 3d 5e e6 f9 bd
       0.023803161 0.10085833 0.10706274 -0.12202142
000070 10 27 05 be 9a b2 97 be 04 5a 41 3e 4b ed cb 3d
       -0.13003182 -0.2962845 0.18881994 0.099573694
000080 8d 56 69 be 4d ee a8 3e f1 f9 49 3e 0e d9 9a 3d
       -0.22786923 0.3299431 0.19724251 0.07560931
000090 34 3f 1e bd f4 c2 57 bd 63 b1 d7 bc 70 b1 bd 3d
       -0.038634494 -0.052676156 -0.026329702 0.09262359
0000a0 5c 9f cd bc fd 77 34 be b2 42 2d 3e 3c f3 0d 3e
       -0.025100403 -0.17623897 0.16919973 0.13862318
0000b0 3a 08 26 3d 95 ee 2f be 3f 0d eb bd 2a bd 25 bd
       0.04053519 -0.17180856 -0.11477136 -0.040463604
0000c0 2c 3b 0c bc 6e ac 15 3c f3 42 f5 bc 4c a9 d7 3d
       -0.00855903 0.009135349 -0.02993915 0.10530338
0000d0 22 fe 1e 3e 04 d5 9f 3c d3 06 97 be 2f 0a 40 be
       0.15526631 0.019510753 -0.29497394 -0.18753885
0000e0 56 07 6f be 57 85 3a be 69 95 44 3d 0a ab 58 bd
       -0.23342642 -0.18214928 0.04799405 -0.05289749
0000f0 cc e8 cf bd 9a 71 6b 3d 62 26 ef 3b 9f 54 ab 3d
       -0.10151824 0.057481386 0.0072982768 0.083657496
000100 ba 27 ba 3c 65 f7 97 3d 47 13 e3 bc 5c 8d 28 bd
       0.022724021 0.07420234 -0.027719153 -0.041150436
000110 af 72 00 3c 9f 42 d1 bd b8 2f 3c 3b 16 14 ce 3d
       0.007839843 -0.10217785 0.0028714966 0.10062425
000120 8f 34 c9 bd 34 21 46 be 55 96 39 bd 1c b1 e6 bd
       -0.09824478 -0.19348603 -0.045309383 -0.1126425
000130 84 a6 ef bd 66 c7 81 3d 5f 99 88 3d 4b ed 01 bd
       -0.11701682 0.0633686 0.06669878 -0.03172044
000140 29 89 12 3e 02 f3 e7 bd d1 1a d7 bd b9 df 9e bd
       0.14310135 -0.11325647 -0.10503162 -0.077575155
000150 30 98 6b be b8 3b 29 be bc 38 88 bb 2b 44 37 be
       -0.23007274 -0.16526687 -0.004157154 -0.17897098
000160 b2 6d 3c be 85 18 18 be eb 0a e5 bc 6f 9b 05 bd
       -0.1840122 -0.14853103 -0.027959308 -0.032618936
000170 3f 4a dc bd 62 32 21 3e a6 65 2f 3e 2b 07 94 3c
       -0.10756349 0.15741876 0.1712862 0.018069824
000180 15 21 57 3e 8e 81 5a 3e 33 9c 7b 3e 7f f3 a8 bd
       0.21008714 0.21338484 0.24571304 -0.08249568
000190 5f 72 ca 3c 73 a6 47 bd e5 21 3a be 72 94 c1 bd
       0.02471274 -0.048742723 -0.18176992 -0.09452142
0001a0 b6 f0 5c bd 98 16 26 be 30 98 ba 3d 47 99 6c 3d
       -0.053940497 -0.16219556 0.09111059 0.057763364
0001b0 9e 47 37 3d 51 b2 48 bd 62 2c 80 3d a8 6d 80 3c
       0.044746034 -0.04899818 0.06258465 0.015677288
0001c0 9d cb 33 be 34 b1 a5 bd b6 60 97 3d 3b ec ca bd
       -0.17558141 -0.080904394 0.07391493 -0.09908339
0001d0 3a 54 9b 3d dc 45 5e 3d 25 fe 0a bd 43 78 29 bc
       0.07584424 0.05426584 -0.033933777 -0.010343614
0001e0 6a 37 91 3d 8f 2b 7a 3d 1a 9e e0 3c 79 f3 ae 3d
       0.070906475 0.061076697 0.027419139 0.085425325
0001f0 c4 f4 9d 3c f2 8f 7e 3d b4 b0 37 be 7e 60 a8 bd
       0.019281752 0.062148996 -0.179385 -0.082215294
000200 c9 eb 19 3d 91 61 b5 bd cc 41 7f bc 42 e1 11 bc
       0.037578378 -0.088565 -0.015579652 -0.008903803
000210 e4 e7 89 3c 0e 28 24 3d d9 69 ac 3d 0b f0 93 3c
       0.016834207 0.04007726 0.08418626 0.018058797
000220 98 47 ff 3d f1 43 58 3e c4 79 26 be c0 ec dd bd
       0.12464827 0.21119668 -0.16257387 -0.10836172
000230 dd 60 28 3d 0a 1d 9c bd 04 41 09 be c8 c1 db 3d
       0.041108 -0.07622726 -0.13403708 0.1073032
000240 7d 74 56 bd 1b 37 df 3d 5e c0 66 3d 34 bb 91 be
       -0.052357186 0.108991824 0.0563358 -0.28463137
000250 89 da 36 be 02 35 df bc 1a 16 8b be 29 c7 d8 bd
       -0.17856802 -0.027246956 -0.271653 -0.10584862
000260 c4 6a 2e bd c8 f0 9c bd 71 ff d5 bb bd 3a 63 bd
       -0.04258229 -0.07663113 -0.006530695 -0.05547594
000270 e8 4c bc 3c 98 03 13 3e 78 22 e5 3c 04 bd 3a 3d
       0.02298589 0.1435684 0.027970538 0.045590416
000280 14 b2 8d 3d 3a 26 12 3d e4 eb 9b bc e3 fb af 3d
       0.06918731 0.035680987 -0.01903338 0.085929655
000290 e4 ff ea 3c 24 d7 87 3d 63 20 ad 3d 71 34 6d 3d
       0.028686471 0.06632832 0.08453443 0.05791134
0002a0 c9 37 f8 bb a2 f6 b8 3d f2 6c 26 3e 5d 31 46 be
       -0.0075750095 0.090314165 0.16252497 -0.19354768
0002b0 a5 66 9c bd 3a e6 0a bd db 02 3b be 03 ed 3e bc
       -0.076367654 -0.033910967 -0.18262808 -0.011653188
0002c0 f1 8b 03 be a4 87 f3 3c f1 71 91 3d 47 3a 34 3d
       -0.12846352 0.029727764 0.07101811 0.04400089
0002d0 b5 9e b6 bc 36 08 86 3d 3b 22 d0 3d ad 93 bf bb
       -0.022292474 0.06544535 0.10162779 -0.0058464617
0002e0 bd 86 23 3e 87 ef 4d 3e 2f cb 30 be f2 41 67 bd
       0.15969367 0.20110904 -0.17265008 -0.056459375
0002f0 50 b1 3d 3d f7 df c1 3d 6f b1 cf bd 6d 30 d4 bd
       0.046311677 0.09466546 -0.10141265 -0.10360799
000300 c5 97 2d 3e 11 6b 81 bc 72 88 78 bd bd 20 26 3e
       0.16952427 -0.015798124 -0.060677 0.16223426
000310 95 4c 8b bd e4 8f b2 bd f5 14 f5 be 8f 23 89 be
       -0.06801716 -0.08718851 -0.4786755 -0.26784942
000320 00 36 a8 be 81 37 7f be 9e 3c 74 3c 67 ff 7b bd
       -0.328537 -0.24923517 0.01490703 -0.061522868
000330 85 1d 9e bd 1b 64 91 3d 82 3c 08 bd aa b9 0d be
       -0.07720474 0.07099172 -0.03326083 -0.13840356
000340 d4 bd 41 3d d6 5b e0 3d dc 3f 5f be 43 5e c1 bd
       0.047300175 0.10955016 -0.21801704 -0.09441807
000350 ea 7c 13 3d 04 5f 83 be df 52 21 be 19 d4 1e be
       0.0360078 -0.2565843 -0.15754269 -0.15510596
000360 4c 76 ab 3d 88 fe 32 3d 43 e0 ef bc d4 04 34 3d
       0.08372173 0.04369977 -0.029281741 0.043949917
000370 8d 29 ca bc 35 0a 2b bd 21 c5 4e 3d 15 ca cb bc
       -0.024678016 -0.04175778 0.050480966 -0.024876634
000380 4a b8 b8 3d 40 6e 6c be 54 58 09 be 1f 8c cd bd
       0.09019525 -0.23088932 -0.13412601 -0.100364916
000390 9f 97 df ba 17 57 b1 bd f6 95 22 bd 61 c1 4f bc
       -0.0017058736 -0.08659189 -0.039693795 -0.0126803825
0003a0 31 38 05 be c4 f9 23 be 97 ca 3e 3e c8 c5 65 3e
       -0.13009717 -0.16013247 0.1863197 0.22438729
0003b0 77 45 9e 3e a9 9c 25 3c 69 36 52 3e e4 36 55 3e
       0.30912372 0.0101081515 0.20528568 0.2082172
0003c0 16 a6 88 be 8b 95 f1 bd 62 65 02 bd e0 11 80 3d
       -0.26689214 -0.11796101 -0.031834967 0.062534094
0003d0 ac 9a 00 3e 44 75 9a 3c df a2 fc 3c c9 12 6a bc
       0.12559003 0.018854745 0.030839382 -0.014286705
0003e0 f7 38 2b 3d 23 27 33 3d 8d 86 a1 bd 0e 98 d1 3d
       0.041802373 0.043738496 -0.07886992 0.1023408
0003f0 54 d4 19 be d2 14 5e bd 08 05 b1 bd d5 c4 f4 bd
       -0.15022403 -0.054219075 -0.08643538 -0.11951605

conv_net.1.0.bias f4 [32]
000000 73 83 27 bd fa 6e bd bc 13 34 77 3c 37 23 14 bc
       -0.040896844 -0.023124207 0.015088099 -0.009041599
000010 22 9d 88 bd 23 f0 0a 3d e8 a3 6e bd 6b cd 17 bc
       -0.06670596 0.03392042 -0.058261782 -0.009265284
000020 5b ae 99 bd 05 06 8f bc 69 bd 6a 3c 39 78 d1 3d
       -0.07503959 -0.017458925 0.014327385 0.10228009
000030 e7 5d 91 3d 0e b0 e3 bb a8 a7 32 bd 6c e7 bb bd
       0.070979886 -0.0069484776 -0.04361692 -0.091749996
000040 63 16 31 bd 52 dd eb 3c 27 bb 5d bd 96 6e a7 3d
       -0.04323424 0.028792057 -0.05413356 0.081753895
000050 68 b5 42 3c e0 1e f6 3b d4 e3 89 bd b8 c6 c1 3c
       0.011884071 0.007511005 -0.06732908 0.023654327
000060 25 5b 8e bc 81 b2 96 bd 6c 07 8b bb a9 ca 98 bc
       -0.017377445 -0.07358266 -0.004242828 -0.018651323
000070 fe 44 24 3d e9 88 50 3d 68 d3 84 bc 99 72 a1 bc
       0.04010486 0.050911818 -0.016214088 -0.019707965

conv_net.1.1.weight f4 [32]
000000 16 6f 84 3f 67 55 7b 3f 31 79 71 3f 2d db 70 3f
       1.0346401 0.9817719 0.9432555 0.94084436
000010 9c a0 a1 3f 78 0e 30 3f 10 67 1a 3f 9a 49 23 3f
       1.2627139 0.6877208 0.6031351 0.6378418
000020 34 f6 4a 3f 50 2f fb 3e 23 9e 41 3f de 88 3e 3f
       0.79281926 0.49059534 0.7563192 0.7442759
000030 9d 9e 9c 3f 56 25 7a 3f 23 d0 18 3f 5e d5 8e 3f
       1.2235905 0.9771322 0.5969259 1.1158864
000040 be cc 49 3f 8a ce 35 3f 61 ea 42 3f 84 0e 55 3f
       0.78828037 0.7101828 0.76138884 0.83225274
000050 a4 ed 46 3f 69 00 1a 3f fd c1 63 3f 1b e0 5e 3f
       0.7770636 0.60156876 0.8896788 0.8706071
000060 05 1c 89 3f e8 ae ab 3f e1 8b 6f 3f 49 d0 2d 3f
       1.0711676 1.3412752 0.93572813 0.6789594
000070 e3 43 34 3f 1e 76 86 3f 5b 52 c3 3f 5d 92 19 3f
       0.70416087 1.0504797 1.5259508 0.5998896

conv_net.1.1.bias f4 [32]
000000 43 00 eb be 59 57 2f bf ba 7c 07 bf 90 98 fb be
       -0.45898637 -0.68492657 -0.5292469 -0.49139833
000010 8b 19 06 bf dd d7 b8 be bb c9 e8 be c1 9f 7e be
       -0.52382725 -0.3610219 -0.45466408 -0.24865629
000020 ba e1 f5 be b2 11 94 be e8 41 ef be cc dd bf be
       -0.48023778 -0.2891975 -0.4672997 -0.37473905
000030 ee 4a 4e be e5 5b 8e be 30 60 e3 be c3 03 26 bf
       -0.20145771 -0.27804485 -0.44409323 -0.6484949
000040 53 58 fb be ad a4 61 bf ca 04 d8 be 6c 93 d4 be
       -0.49090824 -0.881419 -0.42191154 -0.41518724
000050 22 0a c7 be 07 24 f8 be 42 5e 2b be 2d cd ae be
       -0.38874918 -0.48464987 -0.16735175 -0.34140912
000060 c0 76 11 bf 0d b7 04 bf e6 4c d3 be 31 a1 65 bf
       -0.56821823 -0.51841813 -0.41269606 -0.89699084
000070 87 30 17 bf 88 70 2e bf c7 3b 23 bf e7 af 09 bf
       -0.5905842 -0.6814046 -0.6376309 -0.5378403

conv_net.2.0.weight f4 [32, 32, 3, 3]
000000 62 67 4a bd 95 2a 0c bc 85 3c 64 bc d5 74 b4 3b
       -0.049415 -0.008555074 -0.013930445 0.0055070915
000010 52 5c 80 3c 9c 48 20 bd 51 b4 b6 bd fa 52 d9 3c
       0.015669022 -0.039131746 -0.089211114 0.026528824
000020 fd 51 20 3c 5b b5 47 bd 51 9d 9e bd f2 f9 5e be
       0.0097851725 -0.04875694 -0.077448495 -0.21775034
000030 f3 7f 01 be c8 c7 7f bd d6 59 97 bd 67 fb 8a 3d
       -0.12646465 -0.062446386 -0.07390182 0.067862324
000040 09 9f 2c 3d 13 aa 72 3c c3 d2 58 3d 92 29 06 3e
       0.042143855 0.014811057 0.052935373 0.13101795
000050 04 37 8e b9 fb ef 34 3d 13 e1 c0 bc f3 7e 74 bc
       -0.0002712534 0.044174176 -0.023544824 -0.014922845
000060 01 09 2b bc dd 4c 85 bd 87 e0 a0 bc 43 d5 6b be
       -0.010439158 -0.06508801 -0.019638313 -0.23030572
000070 fd 82 17 3d d8 c3 0e 3e 29 52 c3 bd 7f 20 c3 3d
       0.036990155 0.13941896 -0.09537155 0.095276825
000080 57 d7 26 3e 0e 2b 63 3e c1 f9 5c 3e d7 c0 f2 3d
       0.16293083 0.22184393 0.21579649 0.118531875
000090 51 82 cc bc b8 d4 ad bb 63 99 3b bd 04 81 26 bc
       -0.024964483 -0.005304899 -0.045800578 -0.010162596
0000a0 9a 5c 91 bc 39 2c d4 bd 17 c3 2a bc 28 dd c8 3d
       -0.017744351 -0.10359997 -0.01042249 0.09807807
0000b0 86 66 57 bc e9 01 64 bd ff af f0 3d b4 91 14 3e
       -0.013147002 -0.055665884 0.117523186 0.14508706
0000c0 36 3d b8 3d 1e ec 29 3c 86 e2 ab 3d 71 4d a0 3d
       0.0899605 0.010371236 0.08392815 0.07827271
0000d0 d6 0b 33 bd 25 22 10 3d 71 cb 86 bd 24 6c b4 bc
       -0.04371246 0.035188813 -0.06581772 -0.022024222
0000e0 7e de b7 3c 10 e2 fc bc bc 31 1a 3c 8b e9 15 3c
       0.02244496 -0.030869514 0.009411272 0.009149919
0000f0 d9 10 25 3e aa 26 17 3d 4d d4 9c 3d f2 8f 8f bd
       0.16119708 0.036902107 0.07657681 -0.07009877
000100 86 25 08 3d 16 93 63 bb 33 70 0e be 56 b5 93 3c
       0.03323891 -0.0034725121 -0.13909988 0.018030804
000110 44 16 c8 3d a9 3b 4e be 29 72 8b bd 4a 11 a6 3d
       0.09769872 -0.20139946 -0.06808884 0.081087664
000120 6d da da bd 25 ec d7 bd dc b9 24 bd 52 b9 c3 bc
       -0.10686193 -0.10543088 -0.04021631 -0.023892079
000130 fa b6 52 bd fc ad d5 3b 15 3d a0 bc b4 f8 0b 3e
       -0.05144403 0.0065209847 -0.019560376 0.13669091
000140 2e 2a b7 3c fa c6 19 3e 52 73 03 bd cf a3 a2 be
       0.02235898 0.1501731 -0.0320924 -0.317656
000150 a4 f2 9c 3d 88 1d 08 be 6c 77 da bd 62 51 8a 3d
       0.076634675 -0.13292515 -0.10667309 0.06753804
000160 1c 14 ec 3c 30 dd 23 bc b2 50 3a 3d ee d5 8a 3d
       0.028818183 -0.010001466 0.045487113 0.06779085
000170 03 46 6b 3e 7b 8b b7 bd 8a c2 4a 3d ae 96 4b 3e
       0.22975926 -0.08962151 0.049501933 0.19881698
000180 7b 64 98 be 3f 18 b7 3d 9c df 81 3d 12 41 10 3e
       -0.2976416 0.089401715 0.06341478 0.14087322
000190 38 74 39 bc 50 32 47 bd a9 40 98 3d e9 a0 01 be
       -0.011319213 -0.048631966 0.07434208 -0.12659039
0001a0 85 13 61 3d d1 03 5d 3a 4a 11 9e 3c f7 e1 18 3e
       0.054950256 0.00084310496 0.019295353 0.14929949
0001b0 7f 84 70 bd 06 1f 51 3d b3 c9 1c 3d 3f fb a3 3b
       -0.058720108 0.051054977 0.038278293 0.005004316
0001c0 1c ae 33 3d 45 32 58 bd 3a 48 43 bd 43 df f2 bc
       0.043867216 -0.052782316 -0.047676302 -0.029647475
0001d0 d5 ed 0f bd 8a e7 0f bd 7e 3d 72 bd 8d 57 9e 3c
       -0.035138924 -0.035132922 -0.059140675 0.019328857
0001e0 d1 ef ce bd fc 8b ac bd 1d 9a 05 3b 88 89 66 bd
       -0.10104335 -0.084251374 0.0020386048 -0.056283504
0001f0 9e 30 cd bc cf ba c7 3d a6 d2 01 bc 37 84 31 be
       -0.025047597 0.09752428 -0.007923758 -0.17335592
000200 63 d2 99 be 70 2d 55 bd 3e 92 47 be b3 e2 86 be
       -0.30043325 -0.052045286 -0.1948938 -0.26344833
000210 0d f0 75 bc 77 ab ce bc 3e 0c 46 ba 00 ff c7 3b
       -0.015010846 -0.025228245 -0.0007554925 0.0061033964
000220 8b 75 ef bc 61 4e 32 bd 9a ff 85 bc db 8a 52 bd
       -0.029230854 -0.04353178 -0.016357232 -0.051401954
000230 14 3a cc bd 16 fe cd bd 48 c2 0d be 80 bd 86 bd
       -0.09972015 -0.10058229 -0.13843644 -0.06579113
000240 fd d8 81 3d 92 9f 23 3e 39 3a 00 3e 35 02 47 3d
       0.06340215 0.1597884 0.1252221 0.04858609
000250 5d f0 5d 3e 5d b4 01 3e 3b 08 3b bd c5 e9 8c 3d
       0.21673723 0.1266646 -0.045662146 0.068805255
000260 d6 74 82 bd 4c 50 c4 3d ad 34 0c 3e 03 26 8d bd
       -0.06369941 0.09585628 0.13691969 -0.06892016
000270 d2 27 6a 3d 87 37 8f bc 79 b3 bb bc c1 b2 78 3d
       0.05716688 -0.017482532 -0.022912728 0.060717348
000280 6d 16 d4 3c 8e 50 22 bd de 52 4c 3d d3 d6 4a 3d
       0.0258896 -0.039627604 0.049883716 0.04952128
000290 9d 69 1a 3d 2a 8b 43 3e 69 53 e1 3d c5 f0 6d 3e
       0.037698377 0.19096056 0.11002237 0.23236378
0002a0 5f 96 c4 be 70 35 34 be 4a d6 f0 bb 6b 79 38 3d
       -0.38395974 -0.1759851 -0.007349764 0.04503767
0002b0 c8 b0 c0 3c 42 e8 a4 3c 14 01 1b be f9 99 2c 3d
       0.023521796 0.02013028 -0.1513713 0.042139027
0002c0 ed e6 27 3d 90 d2 a1 bd 9e 81 6c 3e b2 1d 10 be
       0.040991712 -0.0790149 0.2309632 -0.14073828
0002d0 4a 14 e9 3c ef b1 d6 bd 01 ba 9c 3d 94 1b 46 be
       0.028452057 -0.10483157 0.07652665 -0.19346458
0002e0 6a 05 2b be 71 2c 32 bd 71 2d c6 bd 64 14 e1 bd
       -0.16701284 -0.043499414 -0.09676636 -0.10990217
0002f0 b0 f6 2f bd 70 16 87 3d 42 85 0b 3d ec 8e b4 3c
       -0.04295987 0.065960765 0.03406263 0.022040807
000300 38 e0 05 be 40 f4 26 be 4d b1 3b 3d 55 4c cd bd
       -0.13073814 -0.16304111 0.045823384 -0.10024325
000310 6d c2 cf bc f8 60 c1 3d c9 8c 83 3d 1d e6 63 bc
       -0.025361264 0.094423234 0.06423337 -0.013909844
000320 10 81 45 bd 51 b7 12 3e 3a a3 43 bd a1 c0 b7 bd
       -0.048218787 0.14327742 -0.047763087 -0.08972288
000330 f7 eb 9b 3c c3 b2 ba bd 42 a7 7d be b4 8e 8e bd
       0.019033415 -0.09116127 -0.24770835 -0.06960812
000340 f3 f8 46 be 2b db 6f be 74 ed 87 3d 05 7f c6 bc
       -0.19430904 -0.2342345 0.066370875 -0.02423049
000350 1c a4 bc bd d2 09 09 3e ba a9 d3 3d 43 8f 14 3e
       -0.09210989 0.13382652 0.10335107 0.14507775
000360 e2 38 34 3d 19 d2 0c be 15 dd 78 be 4b 0b 8e 3d
       0.04399956 -0.13752021 -0.24303086 0.06935748
000370 6e e0 6b bb cd 5f 1f bd dc 06 33 3d 00 04 a7 3d
       -0.0035991925 -0.038909722 0.043707713 0.0815506
000380 43 ef 5f bd fa bc 9d 3c 2f 16 24 bb 0c b0 27 bc
       -0.054671537 0.01925515 -0.0025037637 -0.010234844
000390 16 f0 db bc 96 75 b1 3a 91 31 39 3d 7e 4e 07 bd
       -0.02684788 0.0013539072 0.045213286 -0.03303384
0003a0 19 25 5d 3d 8d 6e d1 3b 88 93 a0 bd dc 4d d5 bd
       0.053990457 0.0063913525 -0.07840639 -0.10415241
0003b0 2d 80 27 3d 21 55 a0 bd ae ee a4 bd 34 b0 4e 3d
       0.040893722 -0.07828737 -0.08053337 0.05046101
0003c0 91 31 92 3d cd bf a9 bd e8 2e 8f 3d ef 0d bf bc
       0.0713836 -0.08288536 0.069913685 -0.023322074
0003d0 b4 6c fa 3d c2 3c 73 3c 78 a8 07 3d 1b 64 b2 3d
       0.12227765 0.014846029 0.03311965 0.087105
0003e0 df af e9 3b 25 7b 0e 3e c7 02 0a 3d c5 1c 23 3a
       0.007131561 0.13914163 0.033694055 0.00062222435
0003f0 91 28 93 3d ef c1 72 bc 1f 49 42 bd 70 77 2e 3e
       0.07185472 -0.014816745 -0.047433015 0.1703775

conv_net.2.0.bias f4 [32]
000000 8a d4 6a bd 3f 68 13 bc 70 8f 55 bd 9e 4a 2f bd
       -0.0573316 -0.008997022 -0.052138746 -0.04279577
000010 55 d7 d5 3c 52 ef 5b 3d ec d1 a8 bc a2 95 36 3d
       0.026103655 0.05369503 -0.020607911 0.044576295
000020 6a b7 71 3d 06 7f 66 bd a5 3d 6f bd e8 c9 db bc
       0.059012808 -0.056273483 -0.0584084 -0.026829675
000030 de 65 02 bd 6c e7 58 bd ae 6f 49 bd e4 76 c1 bc
       -0.03183543 -0.052955076 -0.04917877 -0.023616262
000040 af d1 de bc 05 ca 0d be fa 74 1a 3c f5 d2 32 be
       -0.027199594 -0.13846596 0.009427303 -0.17463286
000050 db cb 25 bd 01 a9 f4 ba 4c 8b 8a bd 20 34 b1 3c
       -0.040477615 -0.001866609 -0.0676485 0.0216313
000060 86 40 44 bd 92 56 8d bb f3 e2 47 3c a7 fa 7a bd
       -0.047913097 -0.0043132985 0.012200105 -0.061274197
000070 e2 ac 04 3d b0 c0 1a bd 37 00 74 3c 56 0c 4a 3d
       0.032391436 -0.037781417 0.014892629 0.04932817

conv_net.2.1.weight f4 [32]
000000 c1 db 4c 3f e4 f6 3f 3f f6 b5 38 3f a2 f7 1b 3f
       0.8002282 0.749861 0.7215265 0.6092473
000010 32 53 48 3f a0 b8 61 3f bf c7 43 3f eb e4 53 3f
       0.78251946 0.8817234 0.76476663 0.82771176
000020 98 de 48 3f 9b 8d 4d 3f f3 0a 4d 3f b9 11 3d 3f
       0.7846465 0.802942 0.8009483 0.7385517
000030 99 ea 94 3f 68 4d 96 3f d2 cf 63 3f 12 a7 47 3f
       1.1634094 1.1742373 0.88988984 0.77989304
000040 ea 90 5c 3f c3 cc 90 3f db 7c 47 3f 37 49 95 3f
       0.8615862 1.1312488 0.7792489 1.1662968
000050 67 07 42 3f 15 01 3c 3f c2 d5 35 3f 41 71 52 3f
       0.75792545 0.7343915 0.71029294 0.8220406
000060 90 a0 49 3f 4b 98 4d 3f dc d2 5c 3f bf 45 55 3f
       0.78760624 0.80310506 0.86259246 0.8330955
000070 a2 41 1d 3f c9 bb 38 3f 02 93 57 3f d6 be 92 3f
       0.6142827 0.7216154 0.8420869 1.1464489

conv_net.2.1.bias f4 [32]
000000 37 c8 30 bf a9 f3 1e be fa 18 0c bf b1 e0 be be
       -0.69055504 -0.15522636 -0.5472561 -0.372808
000010 76 36 c4 be 06 49 22 bf d0 2a e2 be b7 c3 1b bf
       -0.383228 -0.63392675 -0.44173288 -0.6084551
000020 bc 79 ac be 49 03 17 bf ec 3e b2 be 7c 3e c2 be
       -0.33686626 -0.5898939 -0.3481363 -0.37938297
000030 dc 1a 9a be a2 69 65 be d5 10 d2 be fd 66 ad be
       -0.30098617 -0.22403577 -0.41028467 -0.33867636
000040 c5 dc b2 be c9 71 55 be 85 17 81 be 28 89 6a be
       -0.3493406 -0.20844187 -0.25213256 -0.22903883
000050 2b c7 96 be 3f ff 06 bf 7a 26 1e bf 9f 9f bd be
       -0.29448828 -0.52733225 -0.6177746 -0.37035844
000060 46 46 0d bf 97 d2 b0 be 92 bf cc be 9f 04 d8 be
       -0.55185354 -0.34535667 -0.39989907 -0.42191026
000070 14 7c 89 be 99 fb a1 be 5d 70 c2 be bc 3e 89 be
       -0.26852477 -0.31637266 -0.3797635 -0.26805675

conv_net.3.0.weight f4 [32, 32, 3, 3]
000000 8c 82 5b 3d c1 1d 6e bd f7 37 c2 3d b7 bd a0 bd
       0.053591296 -0.058133844 0.09483331 -0.07848685
000010 da 21 d4 bc 5e a4 28 3e 8f c4 74 3d a9 53 7e bd
       -0.025895048 0.16468951 0.059757765 -0.062091503
000020 b7 9a 84 3d 94 32 e5 3c 43 e8 1f bd 45 eb 18 3d
       0.06474822 0.02797822 -0.03903986 0.037333746
000030 0b 7e 86 3d b1 e4 8f 3d 6a 73 45 3d 78 4f 22 be
       0.065670095 0.07026041 0.04820577 -0.15850627
000040 9b 12 5b 3d d2 8a 47 bb b5 cf 7c be 01 b8 8b 3d
       0.05348454 -0.0030447734 -0.24688609 0.06822205
000050 70 32 35 bd de 19 6d bd 14 40 21 3d ba 0f 0f be
       -0.044237554 -0.057885997 0.03936775 -0.13970843
000060 2e ff 7d bd 03 c3 03 3c 41 37 4e bd c9 86 82 bd
       -0.062010936 0.0080421 -0.050345663 -0.063733645
000070 ec 86 12 3c 80 3d 5a 3c af 82 e4 3d 04 c1 4c 3d
       0.008943301 0.013320327 0.111577384 0.04998876
000080 d9 5d db bd 11 90 88 3d 2f 5e bb 3c be b8 f8 3c
       -0.107112594 0.066681035 0.022872059 0.03036153
000090 9e de d0 bd 4e 7c 1b be fa 2d bc bc 1e 36 13 be
       -0.10198711 -0.15184137 -0.022971142 -0.14376113
0000a0 89 27 a5 bd 84 60 71 bd 20 5a 1d bd 6b 30 71 bd
       -0.08064181 -0.058929935 -0.038416028 -0.058884066
0000b0 ea 85 8f bb 01 33 7b be 03 8e 50 bd 06 9c 8b be
       -0.0043799775 -0.24531175 -0.050916683 -0.27267474
0000c0 13 6a a0 bd bb ea 49 3c 55 7c b2 bd 44 11 ee bd
       -0.07832732 0.0123240305 -0.08715121 -0.11624387
0000d0 90 b9 aa 3d 7a 4c a9 bd 54 87 22 be 79 04 38 be
       0.083361745 -0.0826654 -0.15871936 -0.17970456
0000e0 a9 2d e0 bd e5 22 4b bd bf 7a 3b bd da 1b 8a bc
       -0.10946209 -0.049593825 -0.045771357 -0.016858984
0000f0 71 42 46 be b1 84 81 bc 41 88 46 be 58 37 fa bb
       -0.19361283 -0.015810343 -0.19387914 -0.007635992
000100 c1 c2 bb 3d 90 78 6c 3d 87 26 03 be ca 0f 89 3c
       0.09168006 0.057732165 -0.12807666 0.016731162
000110 be cd 1e 3e 18 ea 9b bd f1 36 ea 3d c1 41 c4 3c
       0.15508172 -0.07613009 0.114362605 0.023957135
000120 ee 00 ac bc d0 bb f5 3d 51 b6 c3 3c 95 1e 6d 3c
       -0.020996537 0.11998713 0.023890646 0.014472623
000130 2f db 0c 3e 74 27 da 3a eb 01 d9 bd a6 06 88 3e
       0.13755487 0.0016643838 -0.10596069 0.26567572
000140 e5 06 31 bd be 1e 2b bd 40 b0 a1 bd e2 26 d3 3c
       -0.043219466 -0.041777365 -0.07894945 0.025775377
000150 b6 30 35 be 93 d1 c9 3c 51 4a bf 3c 6c ba c6 bc
       -0.17694363 0.024636066 0.023350867 -0.024258815
000160 70 8a a7 3c df 22 8e bd f5 1b 48 bd 0a ec 8f 3d
       0.020451754 -0.06940245 -0.048854787 0.07027443
000170 e7 24 b5 3d 3b 05 82 3d e5 26 c1 3d aa e1 3e 3e
       0.08844929 0.06348654 0.09431247 0.18640772
000180 c2 71 68 bd 58 f0 ed 3d b5 77 16 3e e8 ed 1d 3e
       -0.056749113 0.116181076 0.14694102 0.15422785
000190 d6 ee 06 3e 2c 97 5c bd b3 82 02 3e 9a fe 8e 3d
       0.13177046 -0.053855106 0.1274517 0.06982155
0001a0 cc db a1 3d 80 16 bb bc 8f 31 63 3d b6 01 07 3e
       0.07903251 -0.022837877 0.055467185 0.13184246
0001b0 1b dd 9b be 86 f6 f9 bd 36 5c 82 bd 11 b8 f4 bd
       -0.30442128 -0.12205224 -0.06365244 -0.119491704
0001c0 c9 e1 ba bd d8 e1 6d be 21 3d 47 be 6b 3a cf bc
       -0.09125096 -0.23230684 -0.19456913 -0.02529641
0001d0 fc 85 93 bd f2 61 dd 3e 44 29 88 3d 65 33 8e 3d
       -0.0720329 0.4323879 0.06648496 0.069433965
0001e0 50 6c b2 3d a3 e3 d6 3d d1 4d c1 3e 8d 39 87 3e
       0.08712065 0.10492637 0.37754682 0.26411095
0001f0 25 a7 5e 3d 54 b3 3f bd d5 f1 31 be 99 0a 9b bb
       0.05435862 -0.04680188 -0.17377408 -0.004731488
000200 5d db 58 bd ed 32 ec bb ef 8f 7c bc 4d 74 7e bd
       -0.052943576 -0.0072082193 -0.015415176 -0.06212263
000210 38 6d be 3c 54 23 00 3d c6 4a 86 bd 9c 0e 17 bd
       0.023245439 0.03128369 -0.06557231 -0.036879167
000220 f9 63 e1 bd ef d7 a2 bd 66 11 30 3c c7 98 88 bd
       -0.110053964 -0.07951342 0.010746336 -0.06669765
000230 0c f5 ef bd a2 30 59 3d 3d 1a 10 bd 53 9c 48 3a
       -0.11716661 0.053024895 -0.035181273 0.00076526887
000240 02 65 53 be fd d6 9c 3a 1e de e8 bc e0 bd 5c bd
       -0.20644 0.0011965927 -0.028426226 -0.053892016
000250 85 c8 0f bd 5b 0e e4 bd 7a 88 95 bd 47 5b 15 3e
       -0.03510334 -0.111355506 -0.073014215 0.14585601
000260 07 1d f9 bc fd 10 af 3c 60 87 d9 bc cf b1 34 bb
       -0.03040935 0.021370405 -0.02655381 -0.0027571802
000270 23 d7 9d bd 79 d4 65 bc 0e bb 57 bd 81 f1 7b 3c
       -0.0770705 -0.014027708 -0.052668624 0.015377403
000280 9a ae 32 3d 66 b6 9f bd 11 4d 28 be c3 9d 20 be
       0.043623544 -0.077984616 -0.16435649 -0.15685181
000290 ae b0 2b 3d 43 1a b3 bc 0d e0 94 be d6 30 53 3c
       0.04191654 -0.021863109 -0.29077187 0.012890061
0002a0 9c df 3f 3d 84 f8 b5 bd c4 6d cb 3d 93 1f 87 3e
       0.04684411 -0.08885291 0.099330455 0.26391277
0002b0 a4 32 8f 3d b1 b1 a8 3d 3e d2 ad 3d 8a fe b9 3d
       0.06992081 0.08237017 0.08487366 0.090817526
0002c0 f3 43 85 3e ae 8b 09 3e 63 fb 70 3c 4a 21 26 bd
       0.26028404 0.1343219 0.014708373 -0.04055909
0002d0 00 86 68 3b 89 60 0e 3d 3a 6b 11 be fa 2d ac 3d
       0.003548026 0.03476003 -0.1420106 0.08407207
0002e0 74 06 e6 ba db 6b ce bd 79 0f 59 3b 8b c0 9a 3d
       -0.0017549531 -0.100791655 0.0033120795 0.07556256
0002f0 b5 d8 7c bd 4c 49 fb bd ec b1 e5 bd 07 71 76 bd
       -0.061730105 -0.1226984 -0.112155765 -0.060166385
000300 3d bb a4 3d 5a 19 da bc eb 03 bb bd 56 54 26 bd
       0.08043525 -0.026623417 -0.09131607 -0.040607773
000310 b2 d6 c5 3a c1 b2 87 3c c4 f5 9f bd 65 89 15 be
       0.0015093891 0.016564729 -0.07810548 -0.14603193
000320 cd 49 c1 bd 9f 7f e5 bd 06 60 b0 bd 36 a8 2e be
       -0.094379045 -0.112059824 -0.08612065 -0.17056355
000330 9d 46 63 be 9e e1 18 be 89 08 8a be d1 4a d6 bd
       -0.22194906 -0.14929816 -0.26959637 -0.10463489
000340 c5 73 d1 3b 75 30 b4 bc b8 a8 a5 bd fe 39 a1 3d
       0.0063919746 -0.021995762 -0.08088821 0.07872389
000350 a1 78 88 bd 42 15 27 3e a1 36 e1 3c 92 43 3f 3c
       -0.06663633 0.16316703 0.02749187 0.011673825
000360 f3 45 f5 3d 23 22 6f 3d b3 95 26 3d 45 8f 22 3e
       0.119762324 0.058382165 0.040670108 0.15874965
000370 3c 3b 1e 3e 13 fa ac 3d fe cb a9 3d 69 e3 9a 3e
       0.15452284 0.08446135 0.082908615 0.30251625
000380 d1 a1 9b bb f1 02 83 3d cb 05 87 3d ed f9 76 bd
       -0.0047495146 0.063970454 0.06592902 -0.06029694
000390 7b 9f bc bd 20 0d 6b 3c be 28 b4 bc 33 30 cf bd
       -0.09210106 0.014346391 -0.021992084 -0.10116615
0003a0 8a 30 06 3e 9b f8 fa bb 09 20 b2 3d 03 13 af bd
       0.13104454 -0.0076590306 0.086975165 -0.08548548
0003b0 ae e4 38 bd 6f a1 b2 3c 38 74 18 3c 0b 02 e1 3c
       -0.04513996 0.021805493 0.009305052 0.027466794
0003c0 bb 0e 92 bc 55 d9 49 bd 81 be 28 bd 4c d4 9d 3d
       -0.01782929 -0.04927953 -0.041197304 0.07706508
0003d0 82 25 e8 3d d3 56 c1 3d c6 5a 87 3d ce b4 50 3e
       0.11335279 0.094403885 0.066091105 0.20381472
0003e0 2b 55 8a 3d f8 0d 6a bd b9 d1 6f 3d 37 f4 16 3e
       0.06754526 -0.057142228 0.058549616 0.14741598
0003f0 81 9c dd bc 17 95 8c bc 06 ac 08 bd fe bf c6 3d
       -0.027052166 -0.017160935 -0.03336718 0.09704588

conv_net.3.0.bias f4 [32]
000000 c9 c7 c6 3c f6 11 9f 3d 8a a2 b4 3d 10 37 a3 3d
       0.024265187 0.07767098 0.08820064 0.07969487
000010 dc 51 c7 bd 8e 34 7a 3d a0 de ba bc 79 00 0b 3e
       -0.0973241 0.061085276 -0.022811234 0.13574399
000020 34 b7 c0 3c 25 a4 a0 bb 32 5a af 3c 2e df f5 bc
       0.023524858 -0.00490238 0.021405313 -0.030013647
000030 41 86 a1 3d 9f e3 55 3c bf 05 e3 3d 9c 73 8a ba
       0.07886935 0.013054757 0.1108508 -0.0010563019
000040 5f 38 91 3d 03 81 4a 3d 3b b9 b0 3d 12 3a c0 3d
       0.0709083 0.04943944 0.0862908 0.09386076
000050 ec db 84 bb 09 f9 d4 3c 56 2f 01 bc 0c cb 79 3d
       -0.004054537 0.025997655 -0.007884821 0.060984656
000060 2b 1c a1 3c b5 20 45 bc 45 ba 30 bd 8a e9 bc bc
       0.019666752 -0.012031724 -0.04314639 -0.023060579
000070 15 51 4f 3d c9 88 93 3c ab ab 36 3e fd 81 9e 3c
       0.050614435 0.01800956 0.17838924 0.019349093

conv_net.3.1.weight f4 [32]
000000 4c 13 8d 3f 49 7f 9e 3f 77 c4 ac 3f c4 4b 9b 3f
       1.1021514 1.2382594 1.3497456 1.2132497
000010 c3 a6 91 3f ef 7b 8d 3f 19 c1 8f 3f a6 b5 99 3f
       1.1379017 1.1053447 1.1230804 1.200856
000020 29 9e a8 3f c5 fb f7 3f 8b 8f 97 3f 8a ed 8e 3f
       1.3173267 1.9373709 1.1840681 1.1166241
000030 13 6a 90 3f c5 d3 8c 3f 1f f3 90 3f da 6d 7c 3f
       1.1282371 1.1002127 1.1324195 0.9860512
000040 ae dd 91 3f a5 20 92 3f 9e 80 8a 3f 5f 7a 9a 3f
       1.1395776 1.1416212 1.0820501 1.2068595
000050 10 64 94 3f 6d 74 81 3f 80 17 86 3f 8a 7e 8f 3f
       1.1593037 1.0113655 1.0475922 1.1210492
000060 d4 7b 9b 3f 03 44 a7 3f 1f f2 a0 3f 27 ea 87 3f
       1.2147164 1.306763 1.257389 1.0618333
000070 c0 db 91 3f d7 43 ad 3f 75 7b 96 3f 38 0a 8d 3f
       1.1395187 1.3536328 1.1756426 1.1018744

conv_net.3.1.bias f4 [32]
000000 97 d3 ef bd 1f 44 0d be 59 20 ff bd 2d 57 bb bd
       -0.117102794 -0.13795517 -0.12457342 -0.09147487
000010 99 15 f1 bd 73 ee 57 be 76 c5 2b be 15 88 22 bd
       -0.117716976 -0.21087055 -0.16774544 -0.03968056
000020 22 a2 34 be f3 d5 26 bd 22 ab 85 be 59 79 44 be
       -0.17639974 -0.04073138 -0.26107126 -0.19186915
000030 68 08 fd bd 6c b2 10 be c3 f5 e4 bd fa c4 4e be
       -0.12355119 -0.14130563 -0.11179688 -0.20192328
000040 74 99 9f bd ab 8c 5d bd 81 51 d8 bd 27 71 59 bd
       -0.07792941 -0.05408923 -0.10562421 -0.053086426
000050 2d 68 37 bd e3 90 14 be dd fe a9 bd c3 82 30 be
       -0.044777084 -0.14508395 -0.083005644 -0.17237382
000060 3b 99 97 bd 35 1a 28 be 3b d5 42 be 95 58 6f bd
       -0.07402273 -0.16416247 -0.19026653 -0.058434088
000070 66 14 28 bd aa e2 1a bd 5c 9a 93 bd 73 83 6b bd
       -0.04103508 -0.03781382 -0.07207176 -0.057498407

fc_net.0.weight f4 [128, 800]
000000 3a df 37 bc cc 36 f9 bb 91 6e 61 3b 98 de 9b bc
       -0.011222655 -0.0076054092 0.0034398178 -0.01902704
000010 69 8f 0d 3c 29 80 30 3c 54 05 58 3c 8a 5b 07 bd
       0.008640149 0.010772743 0.013184864 -0.033046283
000020 6e 86 31 3c 17 65 93 3c ae 00 9a 3c f4 53 db 3b
       0.010835273 0.01799254 0.018799152 0.0066933576
000030 6e b9 28 bd e9 0e d8 bc d0 df b7 3c ff c7 05 bd
       -0.041192465 -0.026374297 0.02244559 -0.032661434
000040 47 f7 00 bd 3e a4 22 3c 49 a2 0f bd ee 43 13 bd
       -0.031485822 0.009926854 -0.035066877 -0.035953455
000050 f6 94 ed 3b 61 5b 01 bd 6f 9a 69 bc 1b af ba 3b
       0.0072504235 -0.031581286 -0.014258011 0.0056971437
000060 31 f3 0b bd a3 a1 28 bb c5 c0 e5 bb 70 f0 a8 3b
       -0.034167472 -0.0025731109 -0.0070115053 0.0051556155
000070 67 ff e8 3c b4 b9 1d bd f6 81 fb bc 40 e7 2e bd
       0.028442098 -0.03850718 -0.030701619 -0.042701006
000080 a4 d8 80 bc 32 c4 42 bd 81 85 f5 bc 16 3d 79 3c
       -0.015728302 -0.047550388 -0.029970886 0.015212318
000090 29 b1 1a bc 56 9c b5 bc e9 f5 4f b8 88 1a 35 bd
       -0.009441652 -0.022169273 -4.9581668e-05 -0.044214755
0000a0 01 a1 c1 bc da 8c 9a 3c 0a 31 11 3d 4b 3c 88 3c
       -0.023636343 0.018865991 0.035447158 0.016630312
0000b0 55 26 40 bc 6e 75 f2 3c 78 21 01 bc 64 68 d5 3b
       -0.011727889 0.02959701 -0.007881515 0.0065126885
0000c0 3c 26 0f bd 13 53 1a bc c9 94 45 3a e7 c3 d1 3c
       -0.034948573 -0.0094192205 0.00075371243 0.025606109
0000d0 3f 8c 64 3c a8 97 1d bc e3 11 3f bc 74 19 b5 bb
       0.013949453 -0.009618677 -0.011661979 -0.005526716
0000e0 d7 9a 13 3c 0f 3f f0 3b e0 14 f4 3b a6 b1 07 bd
       0.009009085 0.007331736 0.0074487776 -0.033128403
0000f0 bd 60 7e 3b 2b f7 09 3c 8d 14 45 bc 8a 88 f5 bc
       0.0038814985 0.008420746 -0.0120288255 -0.029972333
000100 46 49 41 bc c1 45 e8 bc 58 88 8e 3c 5d 01 b5 3c
       -0.011797255 -0.028353574 0.017398998 0.022095377
000110 56 ee ef 3b 82 e2 1f bd 63 7a 10 bd 6d bf 18 bc
       0.007322113 -0.039034374 -0.035272967 -0.009322983
000120 24 cf 84 bc f7 db ca bc 6a c1 fc 3c 94 d1 0a bd
       -0.016212054 -0.02476309 0.030853946 -0.033891276
000130 4b 41 5a b8 3f 27 c9 bb ae 46 83 3c d0 75 42 bb
       -5.203606e-05 -0.0061387117 0.016024914 -0.0029672273
000140 bb bd ea 3c 92 4c 6b bc ed b9 8c bb 15 6f f1 bc
       0.028654924 -0.0143615175 -0.004294625 -0.029471913
000150 0a f9 b0 bc b6 77 2b bc bb 46 0c 3c d0 96 9b 3b
       -0.021603126 -0.010465553 0.008561785 0.004748203
000160 37 32 00 3d ae f5 46 bc 57 c1 78 3b c3 fa c7 3c
       0.03129789 -0.012143536 0.0037957036 0.024411565
000170 cb d7 d9 bc fe 21 01 bd d5 ca 10 bc c2 b8 5d 3c
       -0.026592156 -0.031526558 -0.008837421 0.013532819
000180 8c 25 a2 bb 08 fa bd 3c 42 43 b4 3c 39 c8 a7 3c
       -0.0049483236 0.023190513 0.022004727 0.020481216
000190 73 51 9d bc 88 58 5d 3c 50 bd 4f 3b 36 1c 4c bc
       -0.019203877 0.013509877 0.0031698532 -0.012457898
0001a0 19 30 29 bc 52 4b c8 3c d5 57 ba bc 2a ef bf bc
       -0.010326409 0.024449978 -0.02274696 -0.023429472
0001b0 1a 7d c2 bc 9a 80 9c bc 69 63 d7 3c 2d cf 0b bd
       -0.023741294 -0.01910429 0.02629252 -0.034133125
0001c0 97 34 9a 3c fb 41 0f bc ed 79 83 3a da 62 16 3c
       0.018823905 -0.008743758 0.0010030844 0.0091788415
0001d0 84 48 84 3c 69 bd 22 bd 38 83 d8 3c 99 9a db 3c
       0.01614786 -0.039731417 0.026429757 0.026807116
0001e0 c6 d1 e9 bb 40 6c f8 bb 3f 26 2b 3b 2a 0a a7 bc
       -0.0071356026 -0.007581264 0.0026115326 -0.020390589
0001f0 09 9e a0 bc 1b a6 c3 bc 62 98 7a bc 28 75 b5 3c
       -0.019606607 -0.023882916 -0.01529512 0.022150591
000200 f6 05 71 bc d8 d4 b5 3c e9 db 82 bc 1f dc 14 bd
       -0.014710894 0.022196218 -0.015974002 -0.036342736
000210 46 9d 8b 3c 3e 51 38 3c 33 f7 da bb 55 b0 57 bc
       0.017042767 0.011249838 -0.0066823005 -0.013164599
000220 8b dd 4c 3b 31 1d b4 bc f8 d6 db bc 80 e4 bb 3c
       0.003125998 -0.021986576 -0.026835904 0.022936106
000230 c8 8e 40 bd f7 df 81 3c a2 e2 95 3c c2 2b 16 bd
       -0.047011167 0.015853865 0.018296544 -0.036662824
000240 8e b1 4d 3c a7 f7 a2 3c dd 51 2e 3c 02 26 a2 bc
       0.012554539 0.01989348 0.010639635 -0.019793514
000250 7e 98 c8 3c 5f ba 17 bd 5f f2 d4 3c f2 84 42 3c
       0.024486776 -0.03704297 0.025994478 0.011872517
000260 1f d8 19 bd 9a 28 83 bc da ef 68 3c 54 ed 9e bc
       -0.037559625 -0.016010571 0.014217341 -0.019400276
000270 b8 bf 2c bd ca 7b 2c 3c ad 10 ed 3b 42 62 97 3c
       -0.042175025 0.0105275605 0.007234654 0.01847947
000280 35 73 db bc b0 4c ff bc fa 54 73 3c e9 e2 17 bd
       -0.026788333 -0.031164497 0.014851803 -0.037081633
000290 3f fc 11 3b bd 45 7f bb 30 52 06 bd 70 c2 be bc
       0.0022275595 -0.003895148 -0.032793224 -0.023286074
0002a0 59 fa 03 bd 5a 51 3a bc 25 9e 30 3c eb 10 cc 3c
       -0.032221172 -0.011371935 0.010779892 0.02491041
0002b0 15 c1 89 3c 93 59 95 3a 2a fe e9 bc c0 4e 0b 3c
       0.016815701 0.0011394493 -0.028563578 0.008502662
0002c0 10 89 89 3b 1d b1 aa bc e9 1a 37 3c 66 3e 38 bd
       0.0041972473 -0.020836407 0.0111758495 -0.044981383
0002d0 44 8e d2 bc e8 03 23 bb 83 b5 a3 3b 14 26 cf 3b
       -0.025702603 -0.0024874154 0.004996003 0.006321678
0002e0 75 e7 37 bc 65 45 1d bd 1d 05 9e 3c d2 0e a2 3c
       -0.011224617 -0.038396258 0.019289548 0.019782458
0002f0 79 e7 02 bd 11 69 03 3c 46 f1 04 3c ec a2 89 3c
       -0.03195903 0.008020655 0.008114165 0.01680132
000300 ac dc 58 3c e2 f2 8b 3c fc 24 68 3a 6c 88 80 bc
       0.013236206 0.017083589 0.0008855609 -0.015690051
000310 93 44 3e bd 82 c5 85 bb 5f 09 0e 3b b2 a1 27 bd
       -0.046452116 -0.0040823827 0.0021673066 -0.04092569
000320 a0 46 f1 3c 7a 84 d1 bc 6c 03 23 3b c5 57 51 bc
       0.029452622 -0.025575865 0.0024873866 -0.012777274
000330 80 11 0b bc 22 27 1c bc e3 a7 af bc f6 d2 7a bc
       -0.008488059 -0.009530814 -0.02144236 -0.015309086
000340 a2 59 d1 bc 94 71 94 bc b0 89 e3 3b f2 c2 0a 3d
       -0.025555436 -0.018120565 0.006943904 0.03387732
000350 9f ea 0e bd 75 21 9f bb 97 de 6e 3c ad f5 52 3b
       -0.03489172 -0.0048562833 0.014579437 0.0032189891
000360 2b 02 21 3d 95 f7 c7 3c 09 88 2b bc 67 38 18 3d
       0.03930871 0.024410048 -0.010469445 0.037163164
000370 40 ff 85 bb 12 70 e8 3a 7c 5f 15 3d 6f e2 ad 3b
       -0.004089266 0.0017733595 0.036468014 0.005306534
000380 cf 14 0a 3d 8b 92 ce bc 9d ab 17 bd 04 e6 15 bc
       0.03371125 -0.025216362 -0.037028898 -0.009149078
000390 59 af 28 3b 33 7e f1 3b 07 da 82 3c 8b 95 ba bc
       0.002573928 0.0073697804 0.015973104 -0.022776386
0003a0 bf 69 bb 3c 61 86 18 bd c5 47 37 bc 97 19 76 bc
       0.022877572 -0.03723753 -0.011186545 -0.0150207495
0003b0 8a 93 f5 bc b4 20 12 bc 10 b2 14 bd 00 dd 80 bc
       -0.029977579 -0.00891893 -0.036302626 -0.015730381
0003c0 dc 9e 68 bc 5e c1 88 3c 0d 48 ac bc e5 e5 ee 3c
       -0.014198031 0.016693767 -0.02103045 0.029162357
0003d0 ef 2e 67 bc c3 8d b9 bc 42 bb 9c 3c c6 50 f7 3c
       -0.014110311 -0.022650605 0.01913226 0.030189883
0003e0 2b e8 03 bd 88 ad cc 3c 97 46 33 bd 4c 8b a0 bc
       -0.032203835 0.02498509 -0.04376849 -0.019597672
0003f0 dc 7d 15 3c e0 aa e7 bc f7 9a ea bb 3b 72 a0 3c
       0.0091242455 -0.028279722 -0.0071595865 0.01958572

fc_net.0.bias f4 [128]
000000 08 95 82 3c eb 4c fa bc ee 24 25 3c f6 67 3d bd
       0.015940204 -0.030554255 0.0100796055 -0.046241723
000010 fb f9 41 3d d1 c2 3f bc 7e d6 8d bc 53 81 a8 3b
       0.04735754 -0.011704163 -0.017314192 0.00514237
000020 be 1c 8d bd a8 f2 09 bd da 9f 91 3b f2 cd 07 bd
       -0.06890248 -0.03367868 0.0044441046 -0.03315539
000030 91 3d 7a bd 9f c6 b7 bc 73 82 95 3d db 70 30 3d
       -0.06109387 -0.022433577 0.07300272 0.043076377
000040 5a 9c e6 3d 68 8a 6d 3b 44 03 69 3c 4f da 95 bd
       0.112602904 0.0036245827 0.01422197 -0.0731703
000050 e3 82 f3 bc 81 10 0f 3d 78 a8 6e bd f0 2b d2 bc
       -0.029725498 0.03492785 -0.058266133 -0.025655717
000060 be fc 9d 3d cc c0 cf bc ef 78 57 3c 65 7d 4d 3e
       0.07714222 -0.025360487 0.013151391 0.20067365
000070 74 fd 8c bd 99 c2 a6 bc 18 71 95 bc 4f 38 5d bd
       -0.0688428 -0.020356463 -0.018242404 -0.05400878
000080 dd 77 28 bd 73 fb ee bb f2 27 07 bd 19 a5 4f bd
       -0.041129936 -0.0072931587 -0.03299708 -0.05069456
000090 ae a8 25 bc b7 f8 a3 3c 45 b7 5a bd 68 5e df 3d
       -0.010111017 0.020016057 -0.053397436 0.109066784
0000a0 8a 17 93 bd e6 b0 e0 bc af 91 b1 bc 7e e1 1c bd
       -0.07182224 -0.027428102 -0.021675913 -0.038300984
0000b0 62 e2 1a bd 20 3c 59 ba 78 32 8a bc ed 70 92 3c
       -0.03781355 -0.00082868524 -0.016869769 0.017876113
0000c0 18 c4 13 bc c3 9c 71 bd 24 2f 3a 3d 6c 44 b0 3c
       -0.00901892 -0.05898739 0.045455113 0.021517001
0000d0 58 29 62 3c 3f 3e 1d bc 6c 14 15 be 9f 7b 93 bc
       0.013803802 -0.00959736 -0.14558572 -0.018003283
0000e0 99 c4 8b bc 12 cd 59 bd ad 49 8b bd 87 0e 88 bd
       -0.017061519 -0.053174086 -0.06801162 -0.06643396
0000f0 9c ee 86 bc 57 fe 13 bd 90 b0 99 bd 64 e4 bd bd
       -0.0164712 -0.03613123 -0.0750438 -0.09272078
000100 48 4f 9e bc 9a 1d f1 ba a2 0a b5 bb 58 e5 dc ba
       -0.019324914 -0.0018395663 -0.005524949 -0.0016853018
000110 dc 56 ed bc b5 19 a9 bc 29 f0 4d bd fe 92 6b bd
       -0.028972082 -0.02064214 -0.050277863 -0.05751323
000120 a1 8b 11 bd 4f 7c 6d bd 89 1b 6c bb b1 82 02 bd
       -0.03553355 -0.057979878 -0.0036027154 -0.03186292
000130 78 e8 c2 3c 98 f0 a1 bc 1a ae 96 3c b8 62 8d bd
       0.02379249 -0.019768044 0.018393565 -0.06903595
000140 0f c3 18 bd 32 04 88 3d 2d c2 a0 3e ce d8 50 3a
       -0.037295397 0.06641425 0.31398144 0.0007966877
000150 ee cc 69 3e f6 1a b4 ba 26 29 18 bc 5c 79 de bc
       0.2283208 -0.0013740945 -0.009287154 -0.027157478
000160 f2 4e 83 bc 69 9d cc 3d cc 1a 10 3e fc d0 a7 3b
       -0.016028855 0.09990961 0.14072722 0.0051213484
000170 a8 dc 27 3d fb 0d be 3d c2 02 27 bd 3e e3 9f bc
       0.04098192 0.0928001 -0.040774114 -0.019517537
000180 84 db 25 bc af 1e 51 bd a2 ee 9c bc ca 0f b8 bd
       -0.010123137 -0.051054653 -0.019156758 -0.089873865
000190 f3 a0 5d bd c1 62 11 bd 72 8c 0e bd b2 d0 8f bd
       -0.05410857 -0.03549457 -0.034801908 -0.07022227
0001a0 71 cb c5 bd 15 bf 97 bd 54 8a c5 3a 16 c6 71 3c
       -0.09657944 -0.07409493 0.0015071132 0.0147567
0001b0 03 0b df bc 8d 08 0a bd 66 b6 bb 3c 16 57 c2 3b
       -0.02722693 -0.03369956 0.022914123 0.0059307916
0001c0 73 22 99 3d 44 ba 88 3b 3d 03 69 bd 76 06 84 bd
       0.07477274 0.004172595 -0.056887854 -0.06446545
0001d0 bc 94 9b 3d 3c 91 fc bd da fe 39 bd 48 c3 cc 3a
       0.07596728 -0.12332389 -0.04540906 0.0015622163
0001e0 cc 93 31 3d 5e c9 0d bd 04 d1 3f 3d 78 40 2b bd
       0.04335384 -0.034615867 0.046830192 -0.04180953
0001f0 cb 22 6c 3c da 96 f2 bb 6b 94 a5 bc d9 d6 22 bb
       0.014412592 -0.007403237 -0.020212373 -0.0024847297
