Results/regression/10-shot/5_modes/hard/it1/maml/5models_2.pt (torch, 10759 bytes, 9 tensors)

net.0.weight f4 [40, 1]
00000000: 786c aabf 0a73 033f 533a 953e 33f4 dcbe
00000010: 5d1a 10bf cd45 06bd 1c1d 2abf e542 9cbf
00000020: 620e 9fbf 7883 c7bd 6a1c d2bd 4bae 75bf
00000030: 9521 12bf 45b6 3f3f 8c2b 363f 119c 8d3f
00000040: 29fb a4be 50a2 c03f 3afa 51bf 087d 383e
00000050: 3257 b8bf 8df1 10bf 4082 6f3d 6724 3fbf
00000060: bc32 bc3d 1ddd adbf a540 38be 7473 863e
00000070: c629 a1bf 99f2 3ebf e74f 83bf ad2c 09bd
00000080: d05a e8bf 6d1e 213f 1a41 45bf 5144 aebf
00000090: c710 503f 1e9a 26bf ac7f 25bf e6d9 983f
-1.3314352 0.5134741 0.2914606 -0.4315506 -0.5629023 -0.03278141 -0.6645067 -1.2207915
-1.2426264 -0.097418725 -0.10259326 -0.95969075 -0.5708249 0.74887496 0.711602 1.1063253
-0.3222287 1.5049534 -0.8202244 0.18016446 -1.440161 -0.5661858 0.058473825 -0.7466492
0.09189364 -1.3583103 -0.1799341 0.2625996 -1.2590873 -0.74588925 -1.0258759 -0.03348987
-1.8152714 0.6293705 -0.7705246 -1.3614599 0.812756 -0.65078914 -0.64647937 1.1941497

net.0.bias f4 [40]
00000000: ce12 bb3e 973a 113f f97d 8a3f 7aa8 41bf
00000010: b5ab 9fbe 6c1e 383f 1d91 51bf 0094 003f
00000020: 4851 7a3f 472b f03e 5100 17bd a93d c23e
00000030: 6284 e03e 49da 1cbf cf7d 19be 9552 5e3f
00000040: 1042 74bf 1962 49bf d0b9 e7be 8dbd 24be
00000050: 3e55 0b3f 25c1 873e 6627 e8be 2fd3 273e
00000060: 335f 4f3f 112f 0b3f 2c20 12bc cbe1 793f
00000070: c5f5 e5be a76c 8a3e 93ff ffbe 1b7a 5a3e
00000080: fee9 46be 5d67 16bf beb4 0c3f c19e 84be
00000090: b342 4cbf ed62 583f b6e3 3cbf 2cad 273e
0.36537784 0.56730026 1.0819694 -0.756477 -0.3118569 0.7192142 -0.8186205 0.5022583
0.97780275 0.46908018 -0.036865536 0.37937668 0.43851 -0.61270577 -0.14989398 0.8684476
-0.95413303 -0.7866531 -0.4525895 -0.16087933 0.54426944 0.26514545 -0.4534256 0.16389154
0.8100464 0.5436869 -0.008918803 0.9761016 -0.4491407 0.2703602 -0.49999675 0.21335642
-0.19425198 -0.5875147 0.5496329 -0.2590237 -0.79789275 0.8452595 -0.7378496 0.16374654

net.1.weight f4 [40]
00000000: 8cd7 063f 2eda 823f ee9c 9d3f 2cc7 213f
00000010: 5f47 3c3f bb26 243f a7c9 493f 79c6 353f
00000020: 6141 103f 2aa8 1f3f 2dd7 033f bd6e 003f
00000030: 6527 183f 4697 943f 8cff 9d3f 6caa 2a3f
00000040: 4f12 153f 5b36 483f 3d8e f43e 34e8 803f
00000050: 8ebb 123f 1383 f13e 1287 473f 07b2 193f
00000060: 94b8 453f 3a1c 233f 7e65 2b3f 0067 af3f
00000070: a0c3 033f 7b90 153f 6679 503f 87ea 2f3f
00000080: f8e2 2a3f 0200 b13f 0546 443f 33d6 4f3f
00000090: df10 873f 6a46 273f d462 3e3f 7f65 0e3f
0.5267265 1.0222833 1.2313516 0.6319454 0.73546404 0.641216 0.7882332 0.7100597
0.5634976 0.62365973 0.5150021 0.50168973 0.5943511 1.1608665 1.2343612 0.66666293
0.5823106 0.7820794 0.4776477 1.0070863 0.57317436 0.47170314 0.77940476 0.60037273
0.7723477 0.63714945 0.6695174 1.3703308 0.51470375 0.58423585 0.8143524 0.68717235
0.66752577 1.3828127 0.7666934 0.8118622 1.0552024 0.6534182 0.7436955 0.5562362

net.1.bias f4 [40]
00000000: 7d05 2fbf 1f93 393f b55c f9be 1c0d 11bf
00000010: 9592 c23c a997 c6be ff31 643e 6dba 783e
00000020: 66d8 84be 2972 67bf 1e6b 48bf 8ad1 35bf
00000030: 3a11 dfbe 14a2 853e 73c0 12bf 4c7b 8a3f
00000040: b9f6 1abf 53a5 db3e ca9d 0ebf a8ee 863d
00000050: 90f7 03bf 758c 033f 2c37 6dbf 170a 28be
00000060: af49 783f ee25 30bf 897a 053f 1b81 543c
00000070: 5d8c 0bbf a56b 34bf 0ae6 17bd af1b 69be
00000080: 6443 6f3d 9cd2 913d 0401 3e3d 80cc d1bd
00000090: 6e42 843e 018b 9fbe b7ba 8abf 665c 653f
-0.6836775 0.72490114 -0.48703542 -0.5666063 0.023751536 -0.38787583 0.22284697 0.24289866
-0.2594635 -0.9040857 -0.7828845 -0.71022856 -0.4356783 0.26100218 -0.57324904 1.0818877
-0.6053272 0.4289957 -0.55709517 0.06588489 -0.51549625 0.51386195 -0.9266231 -0.16410099
0.9698743 -0.68807876 0.521401 0.012970234 -0.5451105 -0.7047675 -0.037084617 -0.22764467
0.058413878 0.07120249 0.046387687 -0.102440834 0.25831932 -0.3116074 -1.0838231 0.89594114

net.3.weight f4 [40, 40]
00000000: 5cfa d33d a0d2 343f c5f5 233e cf83 963d
00000010: 81f4 e7bd a79d 423e e869 333d e0f4 66bd
00000020: e6ca ae3d 7421 703b a46b 613e c8f5 b73d
00000030: 2427 373e e72c c73e a1d7 113e 91f1 e23e
00000040: 9502 983d 923c 083f ab08 c6bc 8c0d a63e
00000050: a103 6cbd a0c0 aa3d d207 07be e6e3 7bbd
00000060: 2744 d13e feb5 e13d f649 99bd e208 1e3e
00000070: 860d ebbc 0d0b ff3d 2fcb 233e 4618 bbbd
00000080: b21c 913d 8517 393e 21ec 8dbd b4d1 763c
00000090: 4bfa 073f ab09 bcbd b2ee 8e3e acd0 ec3e
000000a0: 4634 debd 7f09 f53d c7d5 b73d 2fed b53c
000000b0: 200a 26bd a8e4 01be 0be5 35be b96d a5bd
000000c0: 389c 7cbc eb19 d0bd d089 553c b9bb 08bd
000000d0: e5b2 6dbe 644a e13d 1c61 043e 7593 713e
000000e0: fa1c c0bc 114c 0dbd c7bb 02be b211 423d
000000f0: 5182 dcbc bfa2 1cbd 413c 973c 5780 58be
00000100: 7f71 843e 15d7 5dbe 9f35 83be 3fe2 dd3d
00000110: 186e 01be 93fe a2bd eb9a 80be 0e8c 38be
00000120: 0583 dbba 9c20 17bc 1ea3 f3bd c0d1 1dbe
00000130: d741 cb3d 5929 27be cbf5 abbd 5a00 063e
00000140: 8a7d 073e a18b 583e 3cbe da3e efb4 18bc
00000150: 4f15 01be 93fe 08be b77e 703d 5ac8 a2bd
00000160: b27d 0c3e 49d2 6d3d 0dec 2b3d 5dd0 2f3e
00000170: 2a87 2f3e 76e5 263e 1c9a dc3e 8ca1 433b
00000180: f2be 053e c47f 283e 91c3 e13d 3f34 153d
00000190: ea7b b3bd 5fa0 b43b cf5a a33e 2408 38be
000001a0: fdb9 663d cf4f fc3d 2618 a6bd 1a0f 743e
000001b0: f799 8cb9 54c7 013d 189b 173e a449 9ebc
000001c0: 2eee 79bd ba05 8d3e c86f 233e 119c c9bd
000001d0: 4448 ed3d 10c1 b2bd 3a13 083e 75ad a23d
000001e0: fe5b 52bd c146 843e 481c 193f ae3a bf3c
000001f0: a8a3 1cbb 5e4d eaba c584 e1bd e582 e4bd
00000200: 455b 4fbe 5909 e93d d8da 3f3e e77e e2bd
00000210: 53e5 16bc 7444 343e e1ea 183f 9a8d 843e
00000220: 398a 57be fe72 ab3c e67a 65be da9c 783e
00000230: 6ae0 e7bc 019e 98bd 229e 1c3f e33a a23d
00000240: b71f c43e af26 01be 4eb1 d13c 1428 4f3e
00000250: 68ed 19be 80bb 493d ff24 33be f31c 28bd
00000260: 46c7 0fbe 2c94 0b3f 0e04 b03d 1319 82be
00000270: 56a5 923e 5873 043d f603 ba3d 4414 b63e
00000280: 60ea 9f3c 7468 ad3e 2958 853e 3662 e3bc
00000290: 5885 64bc be28 2cbd 3a69 0a3e c36b ce3c
000002a0: 4ab5 58bd 8faf b73d ace5 083c fb84 ddbd
000002b0: ec50 293d c415 9c3e 95fa 813e 8167 303d
000002c0: daee b1bc a58e d93d 914b f93d 9f15 313e
000002d0: 9b88 36bd eeff 50bd 1a6f 753e 106b b33d
000002e0: f549 553e f578 843d cf46 68bd 81c3 de3e
000002f0: 63d8 86bd 241c 523d 4ba0 debc 68c2 15bd
00000300: 1499 983d c5e4 933e fec7 db3d 4ec3 783d
00000310: 543b 103e da88 09be 6541 273e 04f6 603e
00000320: f562 6fbd 3997 6d3e 068f 6d3e 138a db3d
00000330: c12f 09be 4203 22bd fa60 f0bd 015b 943c
00000340: 88e1 57be 04e0 08be 6e55 8c3e 5d3b 54be
00000350: 3c81 43be fb4b 8b3e 0da3 983e 36d7 6d3e
00000360: 9fea 7c3d 5ca0 103e 85f9 8dbc ccbe 823e
00000370: dc85 aebd c149 d23d 68d5 0f3e d4e7 4f3c
00000380: 6813 0b3e 6639 1abe 8afe 2cbe 56f4 863d
00000390: 4239 c1bd 2115 e4bd d947 32be da77 41bd
000003a0: c4ed c1bd ccfa 003e 5f29 20bd 4d6c 9bbe
000003b0: c5a1 a43d deea b13d ed2e 8d3e 6a69 7f3e
000003c0: eebe 113e 8135 a63e 3776 213f d9e2 c13b
000003d0: 96d1 e43d e7ee 02bd f450 0b3e 6605 1f3e
000003e0: 4357 153e abc4 80bd 1fd1 c53d e436 173e
000003f0: 7d52 e13d 5d79 313e 7b4a 243f 4f00 963e
0.10350487 0.7063389 0.16011722 0.07349359 -0.11325932 0.19005452 0.043802172 -0.056385875
0.085347936 0.0036641033 0.22013718 0.08982426 0.17886025 0.38901445 0.14242412 0.44324926
0.074223675 0.5321742 -0.024174055 0.3243221 -0.05762065 0.083375216 -0.13186577 -0.061496638
0.4087231 0.110210404 -0.0748481 0.15433076 -0.028692972 0.1245328 0.15995477 -0.09135489
0.07085551 0.18075378 -0.06929804 0.015064646 0.5311629 -0.091815315 0.27916485 0.46252954
-0.10849814 0.11964702 0.08976322 0.022207825 -0.040537 -0.12684882 -0.17763154 -0.080775686
-0.015418105 -0.101611935 0.013033345 -0.03338215 -0.23212774 0.11000517 0.1292767 0.23591407
-0.023451317 -0.03449637 -0.12766944 0.047380157 -0.026917608 -0.038241144 0.018461348 -0.21142708
0.2586784 -0.21664079 -0.25626847 0.10834169 -0.12639654 -0.079587124 -0.25118193 -0.18022177
-0.0016747421 -0.009224083 -0.118963465 -0.15412045 0.09924667 -0.16324367 -0.08396491 0.13086072
0.13231483 0.21147014 0.42723262 -0.009320482 -0.12605785 -0.13378362 0.058714595 -0.0794837
0.13719824 0.05806187 0.041973162 0.17169328 0.17141405 0.1629847 0.43086326 0.0029850928
0.13061121 0.16454989 0.110236295 0.03642678 -0.08763869 0.005512282 0.3190522 -0.17971855
0.056329716 0.1231991 -0.08110075 0.23833886 -0.00026817594 0.031684235 0.14805257 -0.019322224
-0.06101816 0.27543432 0.1596061 -0.098442204 0.11586049 -0.0872823 0.13288584 0.079432406
-0.05135726 0.2583523 0.5980878 0.02334341 -0.0023901258 -0.001787584 -0.11011652 -0.11157779
-0.2024966 0.11378736 0.18735826 -0.11059361 -0.009209949 0.17604238 0.59733397 0.25889283
-0.21048822 0.020928856 -0.22410163 0.24278584 -0.028305251 -0.07452012 0.6117879 0.07921388
0.38305447 -0.12612413 0.02559724 0.20230132 -0.1503197 0.04925108 -0.17494582 -0.041043233
-0.1404086 0.5452297 0.08594523 -0.25409755 0.28641766 0.032336563 0.09082787 0.35562336
0.019520938 0.33868754 0.26043823 -0.027756792 -0.013947807 -0.042031042 0.13516703 0.02519787
-0.052907266 0.08969032 0.008355539 -0.1081638 0.04133694 0.30485356 0.2538649 0.04306746
-0.021720339 0.106229104 0.12172616 0.17293404 -0.04456387 -0.051025324 0.23968163 0.08760655
0.20828994 0.06468383 -0.056708153 0.43508533 -0.06584241 0.05129637 -0.027176043 -0.036562353
0.07451072 0.28885475 0.10731505 0.060733132 0.14085132 -0.13431111 0.1633354 0.21968848
-0.058443982 0.23202218 0.2319909 0.10719695 -0.13397123 -0.03955389 -0.11737247 0.0181098
-0.21082127 -0.13366705 0.27408928 -0.2072577 -0.19092268 0.27206406 0.29811898 0.23226628
0.06174719 0.14123672 -0.017330894 0.2553619 -0.085216254 0.10267974 0.14046252 0.0126895495
0.13581622 -0.15060958 -0.16893974 0.06589572 -0.09434749 -0.111368425 -0.1741022 -0.04723344
-0.09469178 0.12595671 -0.039101955 -0.30356064 0.080386676 0.086873755 0.27574864 0.24942556
0.1423299 0.32462695 0.63071007 0.005916935 0.11172788 -0.031966116 0.136051 0.15529403
0.14584069 -0.062875114 0.09659027 0.14767033 0.110020615 0.17331453 0.6417615 0.2929711

net.3.bias f4 [40]
00000000: a4d8 3a3e c87f 293e bdf9 f93d fe8e aa3e
00000010: 1769 d03b b7c4 4ab8 7841 d13c 0780 0dbc
00000020: 3c5d 0e3e 423a c03e 128e 5d3e 7e1f ddbd
00000030: fdcd baba abe4 233e 4256 713e 2c08 d43d
00000040: cf25 b9bd 2bb0 993e c6d6 3cbd afb5 a838
00000050: 5254 883e b00b 883e c6b2 263e bcc7 b83e
00000060: 0b79 8a3a b7aa 0d3e 6b02 9e3e 5b2b bc3e
00000070: 5e62 153e 625b 14be e05f 8dbd de29 043e
00000080: e58b b1bc b00a 213e 1278 943d 7643 f1bd
00000090: 96dd 093f e12b 223d dc90 6a3e e72b ec3d
0.18246704 0.16552651 0.12205837 0.3331222 0.006360184 -4.8343758e-05 0.025543913 -0.008636481
0.13902754 0.37544447 0.21636227 -0.10797022 -0.0014252063 0.16005199 0.23568061 0.10353121
-0.090404145 0.30017218 -0.04610326 8.0447055e-05 0.2662683 0.26571417 0.16279134 0.36089885
0.0010564638 0.13834654 0.3086122 0.36751828 0.14588305 -0.14487985 -0.06903052 0.12906596
-0.021673152 0.15726733 0.07249464 -0.11780445 0.5385374 0.039592627 0.22906822 0.11531811

net.4.weight f4 [40]
00000000: 1407 b13f 5ca1 ab3f 887a 1140 e184 a640
00000010: 9548 b53f cb46 2240 cb9b a23f 1baf ac3f
00000020: ae82 1b40 bdaa 5740 bfee 0740 46a8 ad3f
00000030: 9e05 0d40 a988 c63f 6c37 c93f f797 2d40
00000040: 54df c83f 2c43 4d40 1ebb 3e40 ed20 6140
00000050: 88f3 5c40 c47e 5f40 3c31 5e40 a035 cc3f
00000060: d435 e43f 6b71 b23f 6e5d 4140 a875 6b40
00000070: 3ec5 af3f c888 6540 8cdd c63f 2d9f c33f
00000080: 4019 3340 6393 1640 1e95 5440 12c7 aa3f
00000090: 116e 4840 3a1e bb3f ac2b 7140 a480 bf3f
1.3830285 1.3408618 2.2731037 5.2037206 1.4162775 2.5355709 1.2703794 1.3490938
2.429851 3.369796 2.123947 1.3566978 2.2034678 1.5510455 1.5720038 2.7124002
1.5693154 3.2072248 2.9801707 3.5176346 3.452364 3.4921122 3.471755 1.5953865
1.7828927 1.3940862 3.0213275 3.6790562 1.3732069 3.5864735 1.5536361 1.5282952
2.7984161 2.3527458 3.3216014 1.3342001 3.131718 1.46186 3.7682905 1.4961133

net.4.bias f4 [40]
00000000: b28c db3e abd5 fb3e 0f5d a43f 7ff8 5640
00000010: 8b35 ca3d 381a c73f 08d1 fe3d 17ea a73e
00000020: 1696 a63f 751b 7f40 c137 6d3f 382d e83e
00000030: 84e5 b23f c068 463f 961d 253f 0c7a b73f
00000040: 0a0f 233f e85e ee3f 2bad f03f c115 4440
00000050: c7df 1940 a66d 1b40 6006 1040 9e8b ca3e
00000060: 5c23 9e3f 5b5b ed3e aeeb a93f 050d 4440
00000070: 273b 863e d074 5040 77fd 013f 71ad 0b3f
00000080: 9e13 6040 21d3 a43f 8575 1f40 1ab4 b53e
00000090: c35d da3f 5019 763e 0748 5a40 d8ec 953e
0.4288078 0.49186453 1.2840899 3.358917 0.09873494 1.5554876 0.12442213 0.32795784
1.3014553 3.9860508 0.926632 0.45347 1.3976293 0.77503586 0.6449827 1.4334121
0.6369482 1.8622713 1.8802847 3.0638278 2.4042833 2.4285674 2.250389 0.39559644
1.2354541 0.4635876 1.3275049 3.0632946 0.26217005 3.2571297 0.5077738 0.54561526
3.5011973 1.2876931 2.4915478 0.3548897 1.7059864 0.24033093 3.4106462 0.2928226

net.6.weight f4 [1, 40]
00000000: 116a 0d3e b181 34be 19a7 8ebd c812 22bb
00000010: 3ce2 edbd 0c48 ae3c 753f 2f3e e29b 143e
00000020: 5825 7c3c 7a22 6e3a 9c52 343d d324 283e
00000030: 31ab 5dbd 738d dc3d 675e 0c3e 33e9 b03c
00000040: aab2 373e 8aba c2bc 2983 31bd 5264 183c
00000050: 4cca d93b 71c4 9ebc 68f2 18bd 88ba 4bbe
00000060: 02a9 973d c464 093e 9f1b bcbc f44b cbbc
00000070: 83e5 0e3e 166e 58bc f9f0 d63d 8b2b 083e
00000080: 2a8b 30bb e391 1b3d 5e13 3dbd d60f a33d
00000090: 341b febc e3aa 8cbd 305a 5f3b 80c8 d4bd
0.13809992 -0.17627598 -0.06965465 -0.0024730433 -0.116154164 0.021274589 0.1711405 0.1451259
0.015389763 0.0009084117 0.044024095 0.16420297 -0.05411834 0.10769167 0.13707887 0.021595573
0.17939249 -0.02377059 -0.043337975 0.009301262 0.00664643 -0.01938078 -0.03734055 -0.19895375
0.074052826 0.13417345 -0.02296239 -0.02481649 0.1395474 -0.01320984 0.10495181 0.1329786
-0.0026938417 0.037980925 -0.046161048 0.07962005 -0.03101883 -0.068685316 0.0034080856 -0.10389805
