Results_paper/regression/5-shot/5_modes/hard/it4/maml/model_list_1_tsamaml.pt (torch, 10759 bytes, 9 tensors)

net.0.weight f4 [40, 1]
000000 f9 c2 97 3e a4 93 11 bf fe 2f 17 bf 89 f6 46 bf
       0.2964094 -0.56865907 -0.59057605 -0.7771993
000010 19 98 16 bf af 98 5a 3f c0 48 bf be 7f 23 1e bf
       -0.5882583 0.85389227 -0.3736019 -0.6177291
000020 ff e9 a4 be 4d ca 4c 3f 9f f2 5a 3f d7 60 ac be
       -0.32209775 0.79996186 0.8552646 -0.33667633
000030 2c 54 34 3e f3 3e 7a 3e 9e eb 2d bf 34 ee 44 3f
       0.17610234 0.24438076 -0.6793765 0.7692597
000040 3d 5b e8 3e 01 76 6e bf 8f 37 06 bf 35 e1 0b bf
       0.4538211 -0.9314881 -0.52428526 -0.54640514
000050 61 2a 84 bf 7d 3d 5e 3f 2d 2e 2d be 88 3b a2 bf
       -1.0325433 0.86812574 -0.16912146 -1.2674417
000060 dd f3 21 bf 24 51 42 be fe 64 85 bf 85 65 2e 3e
       -0.6326273 -0.18976265 -1.0421445 0.17030914
000070 61 cd 9d 3d 1e e0 5a bf da 1d a0 bf 0e aa 8a 3f
       0.077051885 -0.85498226 -1.250911 1.0833147
000080 79 d5 56 3f 90 63 81 be 73 4b 4c 3e 3d 5a b8 bd
       0.83919483 -0.25271273 0.19950657 -0.090015866
000090 42 9d 97 3f 9e 0e 09 3e 17 13 a4 bd f3 bb d7 be
       1.1844866 0.13384482 -0.080114536 -0.4213558

net.0.bias f4 [40]
000000 fe 58 bd 3e e5 e0 77 be ff 5e af 3c af 2f 2a bf
       0.36981958 -0.24206884 0.021407602 -0.6647901
000010 9e 73 4a 3f 1a 5e fd be ec b2 82 bf ff 4f 12 bf
       0.7908267 -0.49485856 -1.0210853 -0.57153314
000020 33 c5 32 be 65 ee 5b 3e 60 6e 7f bf 03 2d 70 bf
       -0.17458038 0.21477659 -0.99777794 -0.9381868
000030 9c dc d7 bd d9 7c ac be 7d 01 0d 3f 8c d5 b0 be
       -0.10540125 -0.33689 0.55080396 -0.34537923
000040 67 43 13 bf 47 b5 94 3e 78 5d a6 3e 3b 16 81 3e
       -0.5752472 0.29044554 0.32493186 0.25212273
000050 8d aa 50 bf 40 e1 4c 3f a4 d7 1a be ff cd 65 bd
       -0.8151024 0.80031204 -0.15121323 -0.056104656
000060 b0 83 af 3e 76 e2 89 be df dd 95 3d 66 b9 a5 3d
       0.34280157 -0.26930588 0.07317709 0.080920026
000070 5d 28 19 3f ef 34 55 3f b4 f1 73 be 26 1d bb 3e
       0.59827214 0.83283895 -0.23822671 0.36545676
000080 e7 70 7a bf 70 93 d8 3e 2d 15 87 3d e7 bf 82 3d
       -0.97828525 0.42299986 0.06595836 0.06384259
000090 50 f9 d9 be 4e 58 69 3f 2d b5 35 3e 32 60 1b 3f
       -0.42573023 0.9115037 0.17744894 0.6069366

net.1.weight f4 [40]
000000 73 e3 5b 3f 09 41 83 3f eb 25 85 3f 44 86 54 3f
       0.85893935 1.0254222 1.0402197 0.83017373
000010 ba f5 63 3f 02 b7 41 3f 89 c4 88 3f 78 64 7e 3f
       0.89046824 0.7566987 1.0684978 0.99372053
000020 59 d6 96 3f fd 39 34 3f 50 6b 3d 3f 8f 44 8c 3f
       1.1784164 0.70400983 0.7399187 1.0958422
000030 1f 37 5a 3f 12 96 52 3f 7e c8 7b 3f 6f 9f 49 3f
       0.8524036 0.8226024 0.983528 0.787589
000040 a0 df 0c 3f d5 32 7f 3f c6 1b 4f 3f 25 68 2e 3f
       0.55028725 0.9968694 0.80901754 0.6812766
000050 95 a6 77 3f 90 ff 5a 3f e0 1d 8e 3f db b9 8d 3f
       0.9673856 0.8554621 1.1102867 1.1072344
000060 7c 5a 8e 3f 1f ad 79 3f a8 db 75 3f 3c e9 5f 3f
       1.1121364 0.97529787 0.96038294 0.8746526
000070 0d 70 32 3f 81 a0 82 3f 5b 97 87 3f 92 42 43 3f
       0.69702226 1.0205232 1.0593065 0.76273453
000080 e8 70 61 3f 3b 7f 60 3f 7a a3 6a 3f d3 2f 8c 3f
       0.88062906 0.8769414 0.91655695 1.0952095
000090 f6 6c 23 3f 62 ad 60 3f 26 b1 39 3f 1f 51 63 3f
       0.63838136 0.8776456 0.7253593 0.88795656

net.1.bias f4 [40]
000000 46 b9 af bb 25 c9 ba bc d5 5c 84 bf 62 31 5d 3f
       -0.0053626625 -0.022800991 -1.034083 0.8640348
000010 09 14 fc bd fc aa 32 bf 4e ff 73 bd 48 64 e8 3e
       -0.12308509 -0.6979215 -0.05956965 0.4538901
000020 4c 43 52 be d7 41 1a bf 39 18 09 bf 23 9e e9 be
       -0.20533484 -0.60256714 -0.53552586 -0.4562846
000030 5e 67 8f be 6e ef bf be bb d1 7a bd b7 3b 1e bf
       -0.2800855 -0.37487358 -0.06123517 -0.6180987
000040 02 67 2a bf 72 4e 52 bf a7 da 97 3e 05 b7 23 3f
       -0.6656343 -0.8215095 0.29659006 0.6395114
000050 b7 f2 3d bf c4 b9 2a 3f b8 eb 8d bd ee 5d 17 3e
       -0.7419848 0.66689706 -0.069297254 0.14781925
000060 24 8d 5a 3e e3 09 40 be 72 08 99 be 35 5e 19 3e
       0.21342903 -0.18753771 -0.29889256 0.14977343
000070 2e a3 64 be 00 95 eb 3e 27 2b ce bd ea 8f 02 bf
       -0.22327873 0.46012115 -0.100668244 -0.51000845
000080 93 9e 3b 3f df 97 db 3d aa 2c 32 be 02 30 78 3e
       0.7328884 0.107223265 -0.1739985 0.24237064
000090 5c 96 3a bf e1 cc 3b be e7 0c 55 3d ea 73 5d 3e
       -0.7288568 -0.18339874 0.052014258 0.21626249

net.3.weight f4 [40, 40]
000000 a0 c2 71 3e 88 c0 91 bd ff e5 27 3e 69 71 1e be
       0.236094 -0.071168005 0.1639633 -0.1547295
000010 8f df 2e bd 93 43 f4 3c 36 6d 04 3e 65 c7 62 bd
       -0.04269367 0.029817378 0.12932286 -0.05536594
000020 1f e0 24 3e 27 66 73 3e 49 31 a9 3e 76 08 29 3e
       0.1610112 0.23769437 0.33045414 0.16507134
000030 a7 16 75 3e ad ad 09 3e 92 a2 09 3d 06 2f c0 3d
       0.23934422 0.13445158 0.033602305 0.09383969
000040 91 86 8b 3e e0 e3 31 3e 63 88 b3 bd e5 19 5c 3d
       0.27251104 0.17372084 -0.08766248 0.053735632
000050 82 20 c3 3d a7 11 4c 3e 22 d8 c6 bd 53 fd 73 3d
       0.09527685 0.19928609 -0.09709193 0.05956776
000060 29 04 ac b8 6a 8b 96 bd 75 86 96 3d d8 6d 79 3e
       -8.202374e-05 -0.0735081 0.073498644 0.24358308
000070 9d 01 d1 3d d1 cc 99 bd e9 0f b0 bd a1 e5 a5 3d
       0.10205386 -0.07509769 -0.085967846 0.08100439
000080 8e 7b e5 3d b9 ba 01 3e fe 00 2a 3e 38 7b ae 3c
       0.11205207 0.12668885 0.16601941 0.02129899
000090 81 0f 97 3e c0 67 79 3e aa aa 3c 3a 37 04 9f bd
       0.29504016 0.24355984 0.0007197062 -0.07764476
0000a0 12 34 02 3e 0f 0f a6 be 7d b8 a7 be 9e c0 14 be
       0.12715176 -0.32433364 -0.3275794 -0.14526603
0000b0 21 7e bf be d5 a6 04 3d 45 36 85 be 2c fd 7d be
       -0.37400916 0.032385666 -0.26017967 -0.24803609
0000c0 c1 78 91 be 31 f6 28 bd bd 11 40 3d e8 f3 d7 be
       -0.2841244 -0.04125041 0.046891917 -0.42178273
0000d0 e6 df 98 3b 52 71 a7 3c 99 1c bb be 12 5b fd 3d
       0.0046653626 0.020439778 -0.36545256 0.12370886
0000e0 85 16 4e be e7 08 fa bd 5f 4f 7f be 31 ca a9 bd
       -0.20125778 -0.12208729 -0.24932621 -0.08290518
0000f0 fe 41 4c be 65 9a c1 3d 1a 79 fc be 01 0a e4 be
       -0.19947049 0.094532765 -0.49311143 -0.44538882
000100 cc 0a a1 be 8a cf 8f be 78 c5 33 be 47 b3 b5 bd
       -0.3145355 -0.28088027 -0.17555797 -0.08872085
000110 89 8c dc bd b6 77 2b be 48 34 b3 be fb 97 d8 3d
       -0.107689925 -0.16744885 -0.35000825 0.10575863
000120 3c e3 4c 3c 39 fe 24 be 3f 7d 3f bd 00 bb 88 be
       0.012505349 -0.16112603 -0.046750303 -0.2670517
000130 7a 68 da 3d 2e fd 61 bd 7f 45 0d bf a4 c6 23 be
       0.106644586 -0.05517309 -0.5518417 -0.15993744
000140 89 71 13 3e 85 51 80 3d 6d 42 a7 3e 43 85 f9 3d
       0.14398779 0.062655486 0.32667866 0.12183621
000150 92 7f f8 bd 70 d2 9a 3e 27 67 f2 bd 6b eb 92 3d
       -0.12133707 0.30238676 -0.11836081 0.07173809
000160 3e c8 1e bd f7 bc 91 3e cb 84 5d 3e 84 8a 0f be
       -0.038765185 0.2846448 0.21632688 -0.14017683
000170 5f 71 84 3e a7 0e a4 3e 9a 46 71 bd aa 39 97 3e
       0.25867745 0.3204243 -0.05890522 0.29536182
000180 81 1d 35 3e 23 8f d2 3d 3d f5 a8 bd 28 c7 5a 3e
       0.17687036 0.102812074 -0.082499005 0.21365035
000190 69 db a9 bd 35 47 36 3e 47 fc 0a bd 72 dc d8 3c
       -0.08293802 0.17800601 -0.033931997 0.026472304
0001a0 40 6d 5e 3e 77 f5 ab 3c a5 b5 f9 bd cf 6d 30 bd
       0.21721363 0.02099107 -0.12192849 -0.04307347
0001b0 17 6c a6 3c e1 57 bf 3d 77 83 33 3d 36 14 4d 3e
       0.020315213 0.093429334 0.043826547 0.20027241
0001c0 10 0e e9 3c ba c6 b2 3d 94 58 22 3d a9 b1 92 3c
       0.028449088 0.0872931 0.039635256 0.01790698
0001d0 72 1c ec 3e 76 7b 5b 3e 8e a7 b1 3b 4e 56 b5 3d
       0.46115452 0.21433815 0.0054215854 0.08854352
0001e0 17 eb 4b be b5 f1 80 bd 04 d6 08 be 9f c3 32 be
       -0.19913898 -0.06296102 -0.1336289 -0.17457436
0001f0 a0 82 97 bd 03 8d 21 be 84 c3 38 be 98 4f a5 bd
       -0.073979616 -0.15776448 -0.18043333 -0.08071822
000200 0f 37 7a be 52 bd ac be c3 4a 7b be 3c 05 55 be
       -0.24435066 -0.3373819 -0.24540238 -0.20802778
000210 b6 05 9b bd b0 e2 60 be 74 74 46 be 61 eb 65 be
       -0.07569449 -0.21961474 -0.19380361 -0.22453071
000220 ea e7 89 be 42 b1 9c ba 21 61 a3 bd c3 63 5a be
       -0.2693475 -0.0011954682 -0.0797751 -0.21327119
000230 62 83 33 bd df bf 24 bd 5b 77 2d bd a8 ee ab bd
       -0.04382647 -0.040222045 -0.042350154 -0.083951294
000240 dc 04 92 bd ff ac 50 be d9 92 84 be 4e be 55 bd
       -0.07129833 -0.20378493 -0.25893286 -0.05218344
000250 80 70 2f bc ff b5 be bc 7d 78 24 be 71 7d 43 be
       -0.010707974 -0.023280142 -0.16061588 -0.19090821
000260 29 b4 a0 bc 03 92 31 be ce fd 85 be 69 0a d1 bc
       -0.019617157 -0.17340855 -0.261702 -0.02551766
000270 31 00 aa be c5 ce 80 be 78 3f 8e be 70 84 0d be
       -0.3320327 -0.25157753 -0.27782798 -0.13820052
000280 c2 cf 85 bd d4 3d 28 be 87 5b d1 3d e5 22 0a bf
       -0.06533767 -0.16429836 0.102225356 -0.53959495
000290 69 c8 0b 3d 21 40 3f be 23 d9 8d 3b 6b 72 1b bf
       0.034126673 -0.18676807 0.004328863 -0.6072146
0002a0 f0 42 17 bd 23 8c 90 bb 09 53 a8 bd 26 a0 21 3d
       -0.03692907 -0.004411237 -0.08218963 0.03945937
0002b0 e2 4c 33 be 1b c5 29 bc d0 f3 ca bd 1d 2f 89 be
       -0.17509797 -0.010361935 -0.09909785 -0.26793757
0002c0 d4 06 b0 bc 8d 4c 9c bb ed 8d bf bd 98 d9 e4 be
       -0.02148763 -0.0047698678 -0.09353242 -0.4469726
0002d0 0c 29 03 3e cd 85 15 3e b7 08 a4 bd 0a 81 49 be
       0.12808627 0.14601822 -0.08009475 -0.19678131
0002e0 bc 99 0b be 47 9c c2 bb 77 e0 45 be 40 74 38 3e
       -0.13632864 -0.00593904 -0.19323908 0.18013096
0002f0 c9 9e d6 bd 26 a1 0f bf af f4 4a be cf 25 0d be
       -0.104795046 -0.5610527 -0.19819902 -0.13783954
000300 94 c8 6d 3e b5 7d 49 be 16 93 0d bc e1 df d8 be
       0.23221046 -0.1967686 -0.008641025 -0.42358306
000310 20 e4 14 be 1b ed c0 3d bf 8b 1a be e0 09 a6 be
       -0.14540148 0.09420224 -0.15092371 -0.3242941
000320 32 b7 ef 3d 63 b4 2d be 72 82 16 3d fa 78 ce be
       0.117048636 -0.16963343 0.036745496 -0.40326673
000330 46 21 20 be 8e 0e ac 3d c3 c4 21 be 69 bf 66 be
       -0.15637693 0.084012136 -0.15797715 -0.22533955
000340 d7 20 52 be 6c 99 05 3e 38 03 0e 3e 81 cc ba bd
       -0.2052034 0.13046807 0.13868415 -0.09121037
000350 da e7 ff bd cd f4 0b 3e d3 01 65 be d3 ab 59 bd
       -0.12495394 0.13667603 -0.22363977 -0.05314238
000360 54 0d ef bd 46 ff 2a be 60 d0 e2 be 52 7c 9f be
       -0.11672464 -0.16698942 -0.44299603 -0.31149536
000370 9a 25 eb bd 22 0f a0 3c d0 3b b0 be aa 32 86 be
       -0.11481781 0.019538466 -0.34420633 -0.2621053
000380 b3 eb fc be 69 8f 25 be 97 7c 2b be 5f 9d 1f bd
       -0.49398574 -0.16167988 -0.16746746 -0.03896844
000390 63 73 01 be 26 c8 cf be 23 e5 e4 bd 04 82 0a 3e
       -0.12641673 -0.4058239 -0.11176517 0.1352616
0003a0 c8 c0 89 3e ee 36 79 be fd 15 c9 bc 6d 34 b1 be
       0.26904893 -0.2433736 -0.024546618 -0.3461031
0003b0 58 99 88 3d c9 76 a9 3d ef 21 19 bd 50 6a 4e be
       0.06669873 0.082746096 -0.037385877 -0.20157743
0003c0 8c 81 2a bd 3d 88 0a 3e e1 96 81 3e fd 88 4e bd
       -0.04162745 0.13528533 0.25310424 -0.05042361
0003d0 80 f8 01 be d0 8b 1e 3e db fb 8c 3d 84 a4 11 bd
       -0.12692451 0.15483022 0.06883975 -0.035557285
0003e0 25 c9 0a 3e d6 9d 2a bd 2c 93 84 bd e3 df 95 bd
       0.13553293 -0.04165443 -0.06473383 -0.07318094
0003f0 ae 3e 53 bc d3 f2 0c 3e b3 d0 72 3e f9 38 8c bd
       -0.012893362 0.13764505 0.23712425 -0.06846804

net.3.bias f4 [40]
000000 90 2f 4f be 9a f2 3e 3d 1b 12 a7 3f 3f 06 d2 bc
       -0.20232987 0.04661808 1.30524 -0.025637744
000010 43 50 50 3a 14 14 02 3d dc 0c a5 be 9d fd 81 bd
       0.000794653 0.03175743 -0.32236373 -0.06347201
000020 dd ee 9c be c4 d4 ed be d2 52 21 be e0 9f 0f be
       -0.30650988 -0.4645139 -0.1575425 -0.14025831
000030 36 28 d5 bd 66 5d c5 3d 63 36 13 be 45 37 96 be
       -0.1040806 0.09636955 -0.14376216 -0.29339042
000040 3f 1a 8b bd 2d fe b4 be db 92 0d 3e be de e3 bd
       -0.067921154 -0.3535017 0.13825552 -0.11126469
000050 3c 08 39 be de 90 89 3e ac d0 c8 3d 99 d3 51 3c
       -0.18069547 0.26868337 0.09805426 0.0128067965
000060 57 b5 57 3d 48 8b 9d be 0d 2c fe 3d 76 79 46 bc
       0.052663174 -0.30770326 0.12410746 -0.0121139195
000070 09 40 a5 bd d6 f7 86 3e 42 45 bf bc f3 e5 19 be
       -0.08068854 0.2636096 -0.023348454 -0.15029125
000080 0c fd 72 3d a6 9a de bd e0 4f de 3d a3 7a 29 3e
       0.059323356 -0.108693406 0.10855079 0.16550688
000090 8e 83 1d 3e 16 30 80 be 2c 4a 0c be 91 6d 24 3f
       0.15382215 -0.25036687 -0.1370017 0.64229685

net.4.weight f4 [40]
000000 7c 69 d4 3f 6b 58 b0 3f f2 8b 5b 40 15 f2 af 3f
       1.6594691 1.3776983 3.4304166 1.3745753
000010 ff 97 ca 3f 5a f9 bb 3f a6 35 b8 3f 8d 72 d7 3f
       1.5827636 1.4685471 1.4391372 1.6831833
000020 a5 68 c0 3f b5 5c 2e 40 4f 15 c2 3f 4b 25 fa 3f
       1.5031935 2.7244084 1.5162753 1.9542631
000030 c4 db c1 3f 23 61 be 3f 95 f6 a3 3f a5 c1 ae 3f
       1.5145192 1.4873394 1.2809626 1.3652846
000040 48 22 b1 3f 7d e6 b9 3f 26 dd b1 3f 3c 77 b7 3f
       1.3838587 1.4523464 1.3895614 1.4333262
000050 5a 4a 08 40 d8 e6 f7 3f 91 2b 89 3f 0c 38 c7 3f
       2.129538 1.9367323 1.071642 1.5563979
000060 56 6b 04 40 96 a8 e3 3f 83 06 c7 3f ac ee c6 3f
       2.0690513 1.7785823 1.5548862 1.5541587
000070 09 4c c1 3f 7b 27 53 40 46 13 d0 3f 09 6c ad 3f
       1.5101329 3.2992847 1.6255882 1.3548595
000080 76 14 a2 3f 71 eb c2 3f e8 aa b7 3f 83 d2 aa 3f
       1.2662494 1.5228101 1.4349031 1.3345493
000090 b5 3b ac 3f 54 6c c0 3f 92 d5 cd 3f 65 d6 dc 3f
       1.3455721 1.5033059 1.6080801 1.7252928

net.4.bias f4 [40]
000000 18 fa c6 3e 44 a0 31 3d b4 1c 5d 40 6b 34 0c 3e
       0.3886268 0.04336573 3.454877 0.13691871
000010 18 45 e9 bd 55 17 08 3f 61 c2 01 bd 9a 54 93 3d
       -0.11390132 0.531606 -0.031679515 0.07193871
000020 f5 40 9e be 02 4f 0f 40 50 6b 27 3f d6 2f ae 3f
       -0.30908933 2.2391973 0.6539812 1.3608348
000030 64 23 68 bd 39 4f 95 3e 86 70 b9 3e 8e a2 1a 3e
       -0.056674376 0.29162005 0.3621866 0.15101072
000040 c8 b1 a9 bd fa 30 6d 3f 2a 5b 7b 3e dd 52 86 3f
       -0.08285862 0.9265286 0.24546495 1.0494038
000050 59 0f ce 3f 1b 89 66 3f f2 cf e4 3c 19 77 e4 3e
       1.6098434 0.90052956 0.027931187 0.44622114
000060 da d1 b0 3f f0 32 bd 3e b7 d0 f0 bc 1b 3d 95 3f
       1.3814042 0.36952925 -0.029396398 1.1659273
000070 ff c5 92 3e cb 68 3b 40 e7 08 89 be ac f9 d7 3d
       0.28666684 2.928271 -0.26764604 0.10545668
000080 0d 00 63 3e ef d9 07 3f cc 53 5a 3f 43 47 0f 3f
       0.22167988 0.53066915 0.85284114 0.5596811
000090 40 65 4a 3d 6b 8a ef 3d 11 22 0a 3f 7c 8d 9a bf
       0.049412966 0.11696323 0.5395823 -1.2074428

net.6.weight f4 [1, 40]
000000 e0 a3 83 3f 84 e9 37 3f 73 bf 5d 3c 1e 41 df 3e
       1.0284386 0.7184069 0.013534415 0.43604368
000010 21 3c 8a 3f 56 45 d4 3e c6 48 5b 3f e5 d4 9c 3f
       1.07996 0.4145915 0.8565792 1.225247
000020 a6 0e 80 bf 16 4e ad 3c d7 22 51 bf d9 2a f3 bb
       -1.000447 0.021155398 -0.81693786 -0.0074208793
000030 4b 1d 64 bf fc ff 53 bf 00 69 a6 3e c3 bb e1 3e
       -0.891072 -0.82812476 0.32501984 0.44088563
000040 a5 d3 4d 3f 5f f5 81 3f 8d 3d 79 be 51 5c 2f bf
       0.8040107 1.0153006 -0.24339886 -0.6850024
000050 88 a1 86 3c 32 83 0a bd 1d 8e 89 3c e8 86 75 bf
       0.016434446 -0.033816524 0.016791398 -0.95908976
000060 03 38 f1 3d 2e 91 bc bf 3a df 9c 3f a0 6c ed bc
       0.117782615 -1.4731805 1.2255623 -0.02898246
000070 7e 14 84 bf 62 04 16 b8 8a 09 8e 3f ea 7c 38 3f
       -1.0318754 -3.576687e-05 1.1096661 0.72065604
000080 13 ff 0b be 9b 95 7f bf 6d dc 73 bf 2a 4f d5 3e
       -0.13671522 -0.99837655 -0.9525822 0.4166196
000090 bd f4 05 3f 1b 5d 5b 3f 9b c0 71 3e 05 e3 0a 40
       0.52326566 0.8568894 0.2360863 2.1701062
