Results/classification_multiple/soft_adaptive/it2/maml/5models_2.pt (torch, 534505 bytes, 20 tensors)

conv_net.0.0.weight f4 [32, 3, 3, 3]
00000000: a4ec c8bc 97eb d53c 16f6 953c a036 af3d
00000010: 8adf a03d 5bbf 003e 9fbd 9bbd 3aef 79ba
00000020: 6cac bfbd 8a50 943d d852 db3e 869b a73d
00000030: 3721 083e 7a87 6d3e 8a4c 243e 0f19 843d
00000040: a11d fabd e41f 18be 3b92 60be 65d2 f3bd
00000050: d710 a2be 31e7 acbe ccc7 893d 42bf 9cbe
00000060: 7281 20bf 82ed 69be 3542 eebe 426d 923e
00000070: 0ea2 123d b004 84bd 57f3 a3bd 08f9 94bd
00000080: 8877 50be d965 213d 5567 10bd e696 c93d
00000090: e5a5 8b3c 2ec9 273d 9c4f 3e3e fe23 1dbe
000000a0: 97c6 b5bd 5fe5 3c3e 31ff 70be 6844 dc3c
000000b0: e18e 123d 89be f9be b44d 99be 016c 24be
000000c0: 18cb 5bbe e7e0 993e 188d a73e a0fb d73b
000000d0: 7bcd 2d3e 6de7 9a3e a4ac 84be 937d 72be
000000e0: 3bf9 bdbe 209d 78be ac52 50bc a63c a5be
000000f0: eb93 3abe e89a dcbd 6e8f 2bbe ab63 ce3c
00000100: a597 923e 4a97 243e 1c19 713e dbc0 903e
00000110: 7301 903e 45ef 11be bb03 1b3e f03b a43d
00000120: 423c 2d3e 05f2 753d 59ea 323e 7b06 0fbe
00000130: a4d5 063e be90 f73d 4b84 14bc cd3a 8a3c
00000140: 6c9f 573e 66cb b23e c191 483e b9cd aa3d
00000150: 06fd 8e3d 83de 85be b43c 5bbc 8f35 88be
00000160: a799 773d ef89 8b3d af71 f2bd b14f 383e
00000170: 89f5 be3e 068c f4bd 83ac 5fbe a6bf c23b
00000180: 8b63 d0be b85b 00be 46ae 353e 9161 4e3e
00000190: 3591 9abb 0556 9e3d 158d 793c 6e9d 30be
000001a0: 7061 913e 1ea0 0fbe 6fc5 67bd ca4a 763e
000001b0: 407e efbc b932 963e 3457 a03e 4ee8 f5bd
000001c0: aa48 563e 055f 7e3e 343c 0e3e bb6f 013d
000001d0: 5377 bf3e 42df 163e 0351 733c 5043 01be
000001e0: 7c6f 66be 2ea5 8bbe 41e7 a3bd f431 79be
000001f0: 1dfe 19bd 1b77 9bbe 93a2 8f3e 3913 9d3a
00000200: d579 183d ee85 123e ff62 08be f236 93be
00000210: 3ade fe3d 7a7a 92bc 6acb 5dbe 4f7e b73e
00000220: ede4 ca3e 3670 a33d dbad bc3c 44cb 73be
00000230: 2913 0d3e 4059 a1be e868 18be 155a 96be
00000240: 338c 86be 8373 3e3d 5ae1 27be b4a7 28ba
00000250: df36 1dbe 9ccd 393e 9176 7f3e bbc6 483e
00000260: 2743 58bd 86bf 93be e204 0f3b baf6 44be
00000270: aed4 11bc 90ce 7cbe c199 4b3d 5589 8a3e
00000280: 614c 9b3e 0406 f53d 66ad 28bd 9001 353e
00000290: f409 6a3d e049 8b3e 6995 903e 2a81 383e
000002a0: f8bd 93be 26f7 7bbe 962f c0be 401d 97bb
000002b0: df4b 833e 1c42 3e3e 40ab 3fbd 9e1f 153d
000002c0: 8654 b43e f3e1 14be 2e71 9dbe 70eb 97be
000002d0: caec 0a3e 116f c53d 7dae bb3d aa54 8f3e
000002e0: 3885 fb3c f231 153e e9a6 aabd 2919 ccbe
000002f0: a218 aabe 3cbe 8bbe 27bb 0bbf 7fee 63be
00000300: 0dcf 10be 7b92 86be 0569 c7be a305 a53e
00000310: 21d0 063b d5b9 07be a9b2 ab3b 5517 3cbb
00000320: dfa9 d83d b769 8c3e 10b1 8d3d 516c 1b3e
00000330: 8742 843e ab79 023d f801 4b3d 977c 2abe
00000340: 8cfe 2bbe 7b36 52be df73 73bd 6c72 02be
00000350: 35a8 a9bd a62f 083e 739c 2e3e 4595 ffbd
00000360: a80f 3d3e 78ad 8f3e 1ce8 e33d f88b cabd
00000370: 8e2b 70be 1236 6abe fce4 0dbd 9911 04bd
00000380: e01d dabd d1eb 973d f03f 883e af6a 733e
00000390: 1c6d 5b3d d696 84be 2fe6 cbbe 6e4a 953d
000003a0: d2e7 86bd 3ecc b6bd 9e9d cd3e 4168 3e3e
000003b0: 4c5e 803e 25fb 123e f6b9 04be 4677 a9bd
000003c0: c86a b2bd 2c49 1dbd b330 5cbe 744e 08be
000003d0: cb66 683e fcff 18be 0b55 31be e81d 3a3e
000003e0: 0d5d a2be 22ca a23d bc0a 70bd 88d2 e8be
000003f0: 3b8d ecbd 0960 403d 4dd5 a2be c05f 563d
-0.024526902 0.026113315 0.01830582 0.08555341 0.07855137 0.12572996 -0.07604527 -0.0009534244
-0.09359059 0.07241924 0.42836642 0.081839606 0.1329392 0.23196211 0.16044822 0.06450092
-0.122126825 -0.14855915 -0.21930782 -0.11905364 -0.31653473 -0.33770135 0.06727561 -0.30614668
-0.6269752 -0.22844508 -0.46534887 0.28598982 0.03579908 -0.064462066 -0.08005398 -0.072740614
-0.20358098 0.03940377 -0.035254795 0.09843235 0.017046878 0.040963344 0.18585056 -0.15345761
-0.08875769 0.18446873 -0.23534848 0.026888087 0.03578079 -0.4877818 -0.29942095 -0.16056825
-0.21464193 0.300544 0.32724833 0.0065912753 0.16972916 0.3025469 -0.25912964 -0.23680715
-0.3710421 -0.24278688 -0.012715023 -0.32272834 -0.18220489 -0.107717335 -0.16753933 0.02519401
0.2863132 0.16073337 0.23544735 0.28272137 0.28126106 -0.1425143 0.15138142 0.08019245
0.16917518 0.06004526 0.17472209 -0.13967316 0.13167435 0.12088154 -0.009064744 0.016873742
0.21056908 0.34920806 0.1958685 0.0834002 0.06981854 -0.26146325 -0.013381172 -0.26603362
0.06044927 0.06813418 -0.1183809 0.1799915 0.37296703 -0.1194077 -0.21843152 0.0059432564
-0.40700945 -0.12534988 0.17742261 0.20154406 -0.004717017 0.07731251 0.0152313905 -0.17247555
0.2839465 -0.14025924 -0.05658477 0.24051967 -0.029235005 0.29335573 0.3131653 -0.12007199
0.20926157 0.24840935 0.13890153 0.031600695 0.37395725 0.14733604 0.014850858 -0.12623334
-0.22503465 -0.2727446 -0.080030926 -0.24335462 -0.037595857 -0.30364308 0.28053722 0.0011983878
0.037225563 0.14308903 -0.13319014 -0.28752857 0.1244473 -0.017880667 -0.21659628 0.35838553
0.39627782 0.07980387 0.02303212 -0.23808008 0.1377684 -0.31513405 -0.14883769 -0.29365602
-0.2627884 0.04649688 -0.16394559 -0.0006433681 -0.15352963 0.1814484 0.24947573 0.1960706
-0.052798416 -0.28857058 0.0021822979 -0.19234744 -0.008900804 -0.24688172 0.049707178 0.270579
0.3033171 0.11964038 -0.04118099 0.17676377 0.0571384 0.272048 0.2823899 0.18018022
-0.28855872 -0.24605998 -0.37536305 -0.004611641 0.25643823 0.18579906 -0.046794176 0.036407106
0.35220736 -0.14539318 -0.30750412 -0.29671812 0.1356689 0.09640325 0.091641404 0.2799428
0.030703172 0.14569834 -0.08332617 -0.39862946 -0.33221918 -0.27293575 -0.54582447 -0.22258948
-0.14141484 -0.2628363 -0.3894731 0.32230863 0.0020570832 -0.13254483 0.005239804 -0.002870043
0.10579275 0.27424404 0.069185376 0.15178038 0.25832006 0.031854313 0.049562424 -0.1664909
-0.1679632 -0.20528595 -0.059436675 -0.12738961 -0.08284036 0.13299426 0.17051868 -0.12479643
0.18463004 0.28062034 0.11128256 -0.09889978 -0.23454115 -0.22872189 -0.034642205 -0.032243345
-0.106502295 0.07418025 0.2661128 0.23771165 0.05357085 -0.2589633 -0.39824054 0.07289587
-0.06587185 -0.08925675 0.40159315 0.18594457 0.25071943 0.14353617 -0.12961563 -0.08274703
-0.08711773 -0.03839986 -0.21502952 -0.13311177 0.22695462 -0.149414 -0.17317598 0.18175471
-0.31711617 0.0794871 -0.058603987 -0.45473123 -0.11550375 0.046966586 -0.3180336 0.052337408

conv_net.0.0.bias f4 [32]
00000000: 0086 8a3c 6fb5 653d a064 2bbd 034b debd
00000010: 1794 75be a819 403d a25a 7b3c da08 5b3e
00000020: bffa 74be 100c 0cbe 9601 e5bc 5fcc 27be
00000030: 28c3 563e 679b a43c 6f64 fbbd 9831 7a3e
00000040: b5e0 d1bd 19d1 30be 05cd cabd f9bd e83e
00000050: 3cbe 94be a42c eebc fa1c 00be 947c dcbd
00000060: 136a 34bd c057 94be 9abe 3dbe 02c1 7e3e
00000070: 499a 9cbd 34ab 0dbf 4704 44be ae13 2dbd
0.0169096 0.05608123 -0.04184401 -0.10854151 -0.23982273 0.046899468 0.015341433 0.21390095
-0.23923777 -0.13676476 -0.027954858 -0.16386555 0.20972884 0.020093633 -0.122750156 0.24432981
-0.102479376 -0.17267264 -0.099023856 0.45457438 -0.29051387 -0.02907402 -0.12511054 -0.10765949
-0.044046473 -0.28973198 -0.1852974 0.24878314 -0.07646615 -0.5533936 -0.19142257 -0.042255096

conv_net.0.1.weight f4 [32]
00000000: 480a 443f 1e3b 903f 6774 523f e406 843f
00000010: 1e02 393f a0f0 4c3f 90ad 943f 9be2 4d3f
00000020: 78c0 773f 6e46 083f 5ad3 2c3f d286 903f
00000030: c797 9b3f ebab 513f 994b 7b3f c2d6 8b3f
00000040: eba4 403f 23a4 1a3f d53c 393f b10a d33f
00000050: a1f6 8c3f e265 5a3f 100c 853f 929d a63f
00000060: 4a28 a43f 8963 473f 07d3 693f 4d53 3a3f
00000070: a7db 3e3f b381 553f 29ff ba3f c5e7 583f
0.7657819 1.1268041 0.82208866 1.0314603 0.72268856 0.80054665 1.1615467 0.804239
0.9677806 0.5323247 0.67509997 1.1291144 1.2155694 0.8190295 0.9816223 1.0924914
0.75251645 0.604067 0.7235845 1.6487638 1.1012765 0.8531171 1.0394306 1.3016837
1.2824795 0.77886254 0.9133763 0.72783357 0.7455391 0.8340103 1.4609119 0.8472865

conv_net.0.1.bias f4 [32]
00000000: 9cb8 a0be 4061 2dbf e744 2bbf 18ad f8be
00000010: 26c4 163e 3d94 8dbe 005c 9b3e d24c d1be
00000020: d474 90be 3605 e9bd fede 56bf 96b5 adbb
00000030: 4106 ea3d 6553 a2be 257d ce3b 9311 d53e
00000040: 5704 0cbe c68c dbbe 47cd cebe 0ff5 273e
00000050: aaa2 2c3f edfc cebe 653b 29bf fc32 bf3d
00000060: 3ae8 243f 399c 58bf 3989 5abd d364 90be
00000070: bc22 443e 1715 8b3c d502 44bd 3fd6 1ebf
-0.31390846 -0.67726517 -0.6690201 -0.4856956 0.14723262 -0.2765216 0.30343628 -0.40878922
-0.28214133 -0.11377947 -0.8393401 -0.0053011877 0.11426974 -0.3170425 0.0063015395 0.4161497
-0.1367353 -0.4288084 -0.4039099 0.16402076 0.67435706 -0.40427342 -0.66106254 0.093358964
0.6441685 -0.84613377 -0.053353522 -0.28201923 0.19153875 0.01697783 -0.047854263 -0.62045664

conv_net.1.0.weight f4 [32, 32, 3, 3]
00000000: 015f 1c3d 2369 18bb 5353 683e b7d4 ae3e
00000010: c9f1 e83d 5021 6f3e f04a cc3d c732 c33d
00000020: 65cb 103e ff92 243a 76cb 2abe 06ce 8bbe
00000030: 3e3c e43d 18e7 04be bf1d 19be 93f1 6cbd
00000040: 3eed 9ebe aa43 8fbd 3d8d 6e3e 0a77 ca3e
00000050: c16e c83d 1245 813e 0f28 653e b21d b1bd
00000060: 4907 053e ba8a 0e3e 5e22 f6bd 8b16 c6bc
00000070: 5b33 eebd a5e5 5bbe 0885 b33d 8db5 4dbd
00000080: 959f 57be c85b 6b3e 38c9 6b3d cf0b f5bd
00000090: 1c42 a1bc 5c54 9e3d 7f4c d8bd 674d f9bd
000000a0: efa3 b1bc c27b 0abd b1c9 e3bd 9239 08be
000000b0: 6183 6cbd 06f1 a73d c53d 893c 1123 9a3d
000000c0: a80f bf3c 3bdd bdbc 5c79 72bd f230 1fbe
000000d0: cd61 95bd 7618 0bbc 9063 89bd 1f86 043e
000000e0: 3216 32bd bfb7 9bbd 111f 6d3d 3c34 ddbd
000000f0: e475 103e f144 7a3e c722 de3d c533 663d
00000100: b1ec bc3d e600 b03d 5884 b73d e304 3f3e
00000110: 07dc 363e 491b fd3d 58d8 563d 9d4a 743d
00000120: fe1d 41be 0fb5 2bbe 8804 7abe aad1 61be
00000130: 404e d8bd ff2b 2dbe b5a8 40be bb10 5ebe
00000140: 6c7f edbd ec45 a63b fed3 e73c 5457 813d
00000150: c32b 84bb 3c7c 02be 54b1 85bd de25 a7bd
00000160: a149 86be 5609 a9bd 6bcf 383c 5b44 0d3e
00000170: c83c d23d 05e5 ac3d 6bd6 c83c 8544 cf3d
00000180: 620b 0f3b 0f87 b4bd 42a4 c93d b643 37be
00000190: 79e9 553c 4384 38be 7480 f5bd d39f 673d
000001a0: b038 e1bd 2ad3 9b3d e02c 0a3e 4238 68bd
000001b0: 26bd a8bd fbde 153e ce16 0ebd 336d fbbd
000001c0: da0c 9abd b034 8dbd 2633 2dbe 0524 08be
000001d0: 7727 973d b387 803c 265f d5bc b403 4f3b
000001e0: bc5c ab3d da04 943d 963a 833d 5903 503d
000001f0: 446a 84bb 0694 093d afc2 1dbe 5a5f 773c
00000200: b643 94bd 3266 67bd 4022 49bd e8aa d6bb
00000210: 3b93 193e 6090 ce3c f94d a2bd feda d83d
00000220: 7779 703e 3d0a 963d a435 193e 80ad b63c
00000230: 12c8 d6bd 502d 563e 6e3a b43d 0497 17bd
00000240: 772f 9f3e e9a9 b63e ddb9 0c3e 0490 64bd
00000250: 5410 253d 7f77 203e 33b7 9a3d c940 aebd
00000260: d8ca 5cbd 13b8 153e 4c89 afbc 51be 4cbe
00000270: c923 0a3b 556b 77bd 671f a53c d899 ae3d
00000280: 5331 a13d 9f5f 08bd a7a3 89bb ed17 0abd
00000290: 560d 5abd fde8 473e 05a0 0d3e bccf cf3d
000002a0: 6874 983e 8e8e c53d 9468 813d 5770 083e
000002b0: 3c4c 433e c426 c63d afc2 ec3d 6d1f 2b3d
000002c0: 9f21 a13d e937 dc3d 164a 4abd 3e47 253d
000002d0: d4d9 bb3a 2c5c f23c 8879 45be fe24 2c3d
000002e0: 3752 e13c ea65 4dbd 999c e13d 7794 9cbd
000002f0: 3878 7fbd d05d 07bd 5e1a e43d 6239 bb3d
00000300: afbd 393d 168c 7dbd c358 123e 7dae 1c3d
00000310: 2532 4d3e c19e 213e 3e92 983d 1e04 c43d
00000320: 51ca eb3d bbb1 323d e048 d2bd 1838 b53c
00000330: a70c ab3c d2a2 a0bd b3db dd3c 5faa c7bd
00000340: bf10 1b3e cb2b da3d 3a44 f9bd 260f abbd
00000350: 122c 83bc ce26 833d 8c05 17bc ee9f f5bd
00000360: 752e 813c 6232 8e3c b0d7 543c cc59 433d
00000370: ac50 16bb fda5 18be 8a98 ebbd 2eb7 5fbe
00000380: 65af 8aba 0879 003e a794 b23d c80c b3bc
00000390: 93ce 7d3e 712d cc3d 238d 7cbd 5060 b43e
000003a0: a8d1 323d b0ad adbc c785 66be 2655 09bf
000003b0: 6682 5cbf 5a60 3dbf e52d 09bf d319 21bf
000003c0: 2eb7 13bf b186 d5be 0995 d4be 06b4 c9be
000003d0: 76a4 12bf 006a 02bf 03e6 b9be a7ed 32bf
000003e0: ef32 0fbf cdea f7be 0056 4abf 52f4 f0be
000003f0: 499b 60be 8405 92bd e339 0fbe aa02 093d
0.03817654 -0.0023256026 0.22688036 0.34146664 0.11374242 0.23352551 0.09975231 0.095311694
0.14140089 0.00062780076 -0.16679177 -0.2730562 0.11144303 -0.1297878 -0.14952753 -0.05784757
-0.31040376 -0.06995328 0.23296066 0.39543945 0.0978675 0.2524801 0.22378562 -0.08648242
0.1299106 0.13920107 -0.12018274 -0.024180671 -0.11630889 -0.21474321 0.08765608 -0.05022197
-0.2105697 0.2298423 0.057564944 -0.11965143 -0.019684844 0.07730934 -0.105614655 -0.121729665
-0.021684615 -0.03380943 -0.11122454 -0.13303211 -0.05774248 0.082002684 0.016753087 0.0752622
0.023322895 -0.02317678 -0.05919777 -0.15546015 -0.07294045 -0.008489719 -0.06708443 0.12941788
-0.0434782 -0.07603406 0.057890955 -0.108009785 0.14107472 0.24440362 0.10846477 0.056201715
0.09224833 0.08593921 0.089607894 0.18654208 0.17857371 0.1235872 0.052452415 0.05964147
-0.18859097 -0.16768287 -0.24415791 -0.22052637 -0.105618 -0.16911314 -0.18814357 -0.2168607
-0.115965694 0.0050742533 0.028299328 0.06315485 -0.004033537 -0.12742704 -0.06527963 -0.081615195
-0.2622805 -0.08253734 0.011279921 0.13795607 0.10265499 0.084421195 0.024516305 0.10120491
0.0021826853 -0.08814823 0.09845783 -0.17896923 0.0130561525 -0.18019204 -0.11987391 0.056548905
-0.109971404 0.07608636 0.13493681 -0.056694277 -0.08239202 0.14635842 -0.034689717 -0.122766875
-0.075219825 -0.06894815 -0.16914043 -0.1329499 0.07380574 0.015689706 -0.026046347 0.00315879
0.08367297 0.07227488 0.06407659 0.050784443 -0.004040988 0.03358843 -0.15406297 0.015098417
-0.07239477 -0.056493945 -0.04910493 -0.0065511353 0.1499757 0.025215328 -0.07925028 0.105886444
0.23483835 0.073261715 0.14961869 0.022299528 -0.10487379 0.20915723 0.08800207 -0.037009254
0.310909 0.35676506 0.13742776 -0.055801407 0.040298775 0.15670584 0.07554474 -0.085084505
-0.053904384 0.14621 -0.021427773 -0.19994475 0.0021078459 -0.060405094 0.020156575 0.08525437
0.07870736 -0.033294316 -0.004200417 -0.033714224 -0.053235374 0.19522472 0.13830574 0.10147044
0.2977631 0.09646331 0.06318775 0.13324104 0.1907205 0.09675363 0.115605704 0.041778017
0.07867741 0.107528515 -0.04938706 0.040351145 0.0014331886 0.029584967 -0.19284642 0.042027466
0.027505023 -0.05014602 0.11016197 -0.07645505 -0.06237051 -0.03304845 0.11137842 0.09141804
0.045346912 -0.061901174 0.14291672 0.038252342 0.2003866 0.15783216 0.074497685 0.09571098
0.11513198 0.04362653 -0.10267806 0.022121474 0.020880057 -0.078435555 0.0270823 -0.097492926
0.15143107 0.10652884 -0.12171216 -0.08352499 -0.016012225 0.06403886 -0.009217631 -0.11993395
0.015769223 0.017358009 0.012990877 0.04769306 -0.0022936268 -0.1490707 -0.11503704 -0.21847221
-0.0010580836 0.1254617 0.087197594 -0.02185668 0.24785833 0.09969605 -0.061658036 0.3522973
0.043656975 -0.021200985 -0.2251197 -0.5364555 -0.8613647 -0.73975146 -0.53585654 -0.6293003
-0.57701385 -0.41704324 -0.41519955 -0.3939516 -0.572822 -0.50942993 -0.36308298 -0.6989388
-0.55937093 -0.48421326 -0.79037476 -0.47061402 -0.21934237 -0.07129958 -0.13986926 0.033449806

conv_net.1.0.bias f4 [32]
00000000: 08a1 de3c 1150 c03a bd06 313d f863 4fbd
00000010: 969a 8e3d 2465 a13c 603f 4dbd 2639 0c3d
00000020: e6ef 0d3d a3cc 0f3c 3602 2f3b fcc3 0a3d
00000030: d05e 3c3d c20e 52bd e4a4 50bd c0b7 8bbb
00000040: 4ab0 16bd c9ea 6f3c 609d 17bd c0a3 0e3d
00000050: a485 73ba 7e2f 803c 1668 92bd 7391 f8bc
00000060: 3b58 3dbd 40ed dc39 d9ea f4bc 8985 b73c
00000070: 75ae c53d cc36 ae3d f87e 7bbd 00fb 03bd
0.027176395 0.0014672299 0.043219317 -0.050632447 0.06963079 0.019701548 -0.050109267 0.03423419
0.034652613 0.008776817 0.0026704199 0.03387831 0.045988858 -0.051283605 -0.050938502 -0.004263848
-0.036789216 0.0146433795 -0.03701532 0.034824133 -0.00092896284 0.015647646 -0.07148759 -0.030342793
-0.04622672 0.00042138435 -0.02989714 0.022402542 0.09652416 0.085065454 -0.061400384 -0.032221794

conv_net.1.1.weight f4 [32]
00000000: fe86 633f f149 7b3f 348a 513f 7aba 803f
00000010: cc7c 853f c902 543f fff5 693f c17a 473f
00000020: 5dc1 8b3f f49e 5b3f 7bfb 5d3f a671 8a3f
00000030: 77be 5a3f ce7e 543f 03c3 6a3f d043 883f
00000040: 678c 463f 3a29 513f 2f6c 733f 1fb9 713f
00000050: 3dfb 593f aa98 703f a952 873f 05a1 473f
00000060: e0e4 6a3f d8f4 473f 90ad 663f 47cf 3e3f
00000070: fb0f 763f 866b 623f a3bf 793f 5902 743f
0.88877857 0.981597 0.81851506 1.0056908 1.042871 0.8281675 0.91390985 0.7792168
1.0918385 0.8578942 0.86711854 1.0815933 0.85446876 0.8300599 0.91703814 1.0645695
0.77557987 0.8170353 0.9508695 0.944231 0.85148984 0.93982947 1.0572101 0.7798007
0.91755486 0.78107977 0.90108585 0.7453503 0.96118134 0.8844532 0.9755804 0.9531608

conv_net.1.1.bias f4 [32]
00000000: 2828 09bf 739f c0be 036b 06bf f763 01bf
00000010: 793c 05bf f809 f4bd c945 babe 613e bbbe
00000020: d330 07bf 6987 3fbe 2481 27be 908c 47be
00000030: 7757 4fbf eb21 0cbf d804 5dbe 4f78 02bf
00000040: 310c 0ebf b68c 6dbf c1e5 9dbe 85f4 dabe
00000050: 86cb ffbe 9cc1 0cbf 5b43 05bf e62f 26bf
00000060: 840e 8bbe b183 e0be a1c6 69be e7db d1be
00000070: c031 dcbe 5fcc 02bf e3d0 f2be 5b8a babe
-0.535769 -0.3762165 -0.52507037 -0.5054316 -0.520454 -0.11915964 -0.36381367 -0.3657103
-0.52808875 -0.18703999 -0.16357857 -0.19487214 -0.80992836 -0.54739255 -0.21583879 -0.50964826
-0.5548735 -0.9279283 -0.3083935 -0.4276468 -0.49959964 -0.54982924 -0.520559 -0.6491684
-0.27159512 -0.43850473 -0.22829677 -0.40988085 -0.43006706 -0.51093096 -0.47424993 -0.36433682

conv_net.2.0.weight f4 [32, 32, 3, 3]
00000000: b8f1 cb3d 6fcf cc3d 66cd 22bd a0e3 a63e
00000010: 28c1 a83e 617e 8a3e 0389 9b3e 4504 483e
00000020: 71dd 0b3e 47d4 2bbd 4f36 c8be e421 1e3e
00000030: 5c29 e63d a437 66bd 53c8 ff3d 9188 b93d
00000040: e507 48be a8da ad3d 184d c63c 0dd6 91bd
00000050: 9673 a3bd 357c 4dbd f0e6 32bd a03c 37be
00000060: 9c22 69bd df2b 023b e2f6 143e d672 cfbd
00000070: c260 d03b 85e2 833d 5f25 f2bd 4756 a23b
00000080: 2bd9 e03c 33a6 2d3e f3f6 be3e 439c 613e
00000090: a45f c1be 805a b6bd e894 7cbe fd6a 2fbd
000000a0: 596b cc3d 2a0f d0bd d002 08be 8961 1cbe
000000b0: 23e8 3c3d fcde 523d 2358 3cbd cac3 543e
000000c0: 655a 933c af39 98bc d538 093e 0ece 6ebb
000000d0: 5ded 303d 4c9b 1d3e 66c3 53be 8e4c bfbc
000000e0: 874d 22be 6a01 243e 9cb9 d63d 64de 7d3e
000000f0: 2b8f 0bbe 1bf1 833d c418 0cbe a300 8ebe
00000100: 098e c5bd 2194 153e 360c 85ba 1786 69bd
00000110: 0088 e43d 2466 22be 1006 43bd ce6c 7a3d
00000120: f5ae 0dbf 161d e5be 137a 50be 5618 32bd
00000130: aa39 dfbd ccf7 503d e20e 9e3c 3f46 2c3e
00000140: 725d 323e 3976 49be 32f3 a6be d959 38be
00000150: d7cb e53d 563e 0c3e 7fc9 543e 0d72 e83c
00000160: cdb3 9db8 7ef9 6fbb d8ec c0be 9aa2 4dbe
00000170: 1457 c4be 54ec 583e 42bf 013e ea8f babc
00000180: 7c26 a33d 10c0 f33c 346d ca3d d5ce a6be
00000190: a752 47be ebb8 cdbd 4150 553c 25fe 58bc
000001a0: ee67 9b3d af17 f5bc 1e61 7a3c 9512 863d
000001b0: 727f 1cbf fda2 3cbf 2285 eebe b23c cabe
000001c0: bd52 c1be 5de5 94be 6ed2 b3be 7556 cfbe
000001d0: e2cc b3be a6ed 0cbf eef5 fabe 0707 90be
000001e0: 176a 43be cb93 53bd 28c4 e3bd 85bf d8be
000001f0: 0057 14be 444c 3f3e adad dcbd 3d13 b1b9
00000200: e2ed b2bc 1bbd ad3d 4342 5e3e fb29 423d
00000210: 12ca 5c3d 398b 73bd e76d 5ebd 0265 b6bd
00000220: e45d e7bd a26f 6cbe e97d c53c e2c0 363d
00000230: d813 c6bd df43 a5bd 4142 d0bc 23b1 4ebe
00000240: 8b6c 31bf e4a7 babe fceb 30be a9aa f1be
00000250: 5d23 183c 2d33 04be 4f81 b53c 6fba 653e
00000260: fd55 33bd 7447 36bf e211 74bf 60da 2cbf
00000270: 44e4 c2be 7173 36bf 39d8 203d 12d3 1dbf
00000280: c707 87be 05af 1c3c db17 66bd f13a f3bd
00000290: ddc7 4abe 756c e8bd a95f 05be b544 65be
000002a0: 140b a83e b796 503e 0361 913e 1da8 15be
000002b0: 6005 20be f1ee 953d e4c6 4cbc 2e5d 9dbd
000002c0: 2bb9 0ebe 2590 763e 7ab0 993d 30f3 483e
000002d0: 7130 9cbe 0c55 073e 6bf9 a7be 8dca d3be
000002e0: 881c 0fbd d26c 7fbe 2814 33be 8050 4ebd
000002f0: b8c5 44be 13b5 5fbe 511d 8cbe e762 0bbe
00000300: e113 b8be bc29 29be d884 86bd c219 293a
00000310: b2d0 57bd d225 ef3d e6a0 f03c caff 36be
00000320: 8f13 d1bd 9821 ddbd 9cb3 7dbd 0a59 80be
00000330: cae9 3c3e c9cc 663c 8fb4 803d 9925 7dbe
00000340: 7574 62be 1455 40be f9a9 b5bc 2484 ccbc
00000350: 6401 adbd 92ab 283e c5d0 333e 810a 3e3d
00000360: 1df3 34be b008 3dbd 90a4 24bd 7520 a9bd
00000370: 255d 1e3c 9c83 343d 2087 a13d 197f c03d
00000380: 8d12 003e 1a7e 233e c5c4 903e d26e ecbd
00000390: 3522 0b3e 5cbd 3b3e 1db5 f43d 22e1 efbc
000003a0: 8521 1c3e 22a2 a0be 5acb 033e 7f81 0a3e
000003b0: 5fa7 393e ba2a 963d 2f68 c73d 55b4 f93d
000003c0: 56fb 853d c289 3c3c 8ee8 1c3e 713f aebe
000003d0: 4479 c5bd ab08 17bd 5b0b 9abe 8bb0 d0be
000003e0: 7739 7f3c 3f37 c83d 8e11 91bd 6ba5 273e
000003f0: f845 20be a309 5cbc efbf 2ebe 3897 a73d
0.099582136 0.10000502 -0.039746664 0.3259554 0.32959867 0.27049544 0.3037797 0.19532879
0.13658692 -0.04195049 -0.39103934 0.15442616 0.112383574 -0.056205407 0.12489381 0.09059251
-0.19534262 0.08488971 0.024206683 -0.07120905 -0.07981031 -0.05016728 -0.04367727 -0.1789422
-0.05691777 0.0019862575 0.14547303 -0.10129325 0.0063591907 0.064396895 -0.11823534 0.0049541327
0.027447304 0.16957931 0.37297782 0.22032265 -0.3776828 -0.0890398 -0.24666178 -0.04282664
0.099814124 -0.10159142 -0.13282323 -0.15271582 0.04611982 0.051482186 -0.04598249 0.20777813
0.01798744 -0.018582193 0.13400586 -0.0036438736 0.043195117 0.15391272 -0.20680007 -0.023351934
-0.15849887 0.16016164 0.10484621 0.24791867 -0.13628833 0.064424716 -0.13681322 -0.2773486
-0.09646232 0.14607288 -0.0010150734 -0.057012644 0.111587524 -0.15859276 -0.047613204 0.06113892
-0.5534509 -0.44748753 -0.20359068 -0.04348024 -0.108996704 0.051017568 0.019294206 0.16823672
0.17418459 -0.19674005 -0.32607418 -0.18003024 0.1122052 0.13695654 0.2077999 0.028374696
-7.519834e-05 -0.0036617215 -0.37680697 -0.20081559 -0.38347685 0.21183902 0.12670615 -0.022773702
0.07966325 0.029754668 0.0988411 -0.32579675 -0.19465123 -0.10045036 0.013019622 -0.0132441865
0.075881824 -0.02991852 0.015281944 0.06546513 -0.61131966 -0.736862 -0.46585947 -0.39499432
-0.37758437 -0.2908124 -0.35121483 -0.4049565 -0.3511725 -0.5505012 -0.49015754 -0.2813036
-0.19083439 -0.05165462 -0.11121398 -0.42333618 -0.14486313 0.18681437 -0.107753135 -0.00033774404
-0.021841947 0.08483335 0.21704964 0.047403317 0.053903647 -0.059458945 -0.05430403 -0.089059845
-0.11297205 -0.2308946 0.02410789 0.04461754 -0.09671754 -0.08069586 -0.025422217 -0.2018476
-0.6930625 -0.36456215 -0.17277521 -0.47200516 0.009285775 -0.12910147 0.022156386 0.224344
-0.043783177 -0.7120278 -0.95339787 -0.67520714 -0.38064778 -0.712699 0.039268706 -0.6165019
-0.2637312 0.009563212 -0.056175094 -0.118764766 -0.19802804 -0.113488115 -0.13024773 -0.22389491
0.32820952 0.20369993 0.28394327 -0.14614911 -0.1562705 0.07320965 -0.012498591 -0.07683788
-0.13937823 0.24078424 0.07504363 0.19624019 -0.30505708 0.13216037 -0.32807478 -0.4136547
-0.03493932 -0.24943855 -0.17488158 -0.05036974 -0.19216049 -0.21846418 -0.27366117 -0.13611947
-0.35952666 -0.16519827 -0.06568307 0.00064506766 -0.05268926 0.116771355 0.029373597 -0.17871013
-0.10208809 -0.10797423 -0.061938867 -0.2506793 0.18448558 0.0140869105 0.06284439 -0.24721374
-0.22114737 -0.18782455 -0.022175776 -0.024965353 -0.08447531 0.16471699 0.17560108 0.046396736
-0.17670865 -0.046150863 -0.040196 -0.08258144 0.009665762 0.044070825 0.07887101 0.09399242
0.12507077 0.15966073 0.28275123 -0.11544575 0.13587268 0.18333954 0.11948607 -0.029282156
0.15247162 -0.31373698 0.12870541 0.13525961 0.18130253 0.07332368 0.09736668 0.12192599
0.06542079 0.011507453 0.15323088 -0.34032777 -0.0964227 -0.0368735 -0.3008679 -0.40759692
0.0155776655 0.09776162 -0.070834264 0.16371696 -0.15651691 -0.013430032 -0.17065404 0.081831396

conv_net.2.0.bias f4 [32]
00000000: 01f4 aebc 09c0 203d 3cc5 13bd 1564 8abd
00000010: 0a8a 65bd 6e62 9e3b 3a2b 9fbd 146e 6c3d
00000020: 36fd dbbc 2a86 9ebd 77f7 fabd bc82 353d
00000030: b8b7 853c f859 0cbc 48cc 70bd c839 b3bd
00000040: 45a9 213d 8b6f 613c 3be8 eebb 39b6 e33a
00000050: f837 ccbc ddb0 2ebd bff4 273d bf6c 8a3d
00000060: fadb ee3a 3df1 81bb b06e 8fba df7b 223c
00000070: 86f4 3f3a 7968 68bd 0c20 84bd 9f82 f33c
-0.021356585 0.03924564 -0.03607677 -0.067573704 -0.056039847 0.004833511 -0.07771917 0.057722166
-0.026854139 -0.077404335 -0.122542314 0.04431413 0.016322955 -0.008566372 -0.058788568 -0.08751255
0.03946807 0.013759504 -0.0072908676 0.0017373032 -0.024929032 -0.04264914 0.041004892 0.06759023
0.0018223517 -0.0039655254 -0.0010943022 0.0099172285 0.00073225086 -0.056740258 -0.06451425 0.02972537

conv_net.2.1.weight f4 [32]
00000000: a258 393f 61f9 be3f b8ea a53f 2a01 013f
00000010: 4433 ae3f 60f4 6f3f f49f 093f dbc5 873f
00000020: 63fb 3a3f d7d0 253f b3d1 5b3f 394e 963f
00000030: b235 303f 8d43 2d3f 3dea 0a3f c1a1 2a3f
00000040: 87cd 463f 98a3 3b3f e24a 163f c32c 673f
00000050: 98f1 533f 9c10 553f 1179 933f 8517 4f3f
00000060: ee9d 913f dd93 b83f 5435 be3f a20b 4f3f
00000070: 3a68 4c3f 8d2a 2e3f 5b92 d33f cc30 253f
0.7240087 1.4919854 1.2962255 0.503924 1.3609395 0.9373226 0.53759694 1.0607256
0.73039836 0.6477179 0.8586685 1.1742622 0.6883193 0.676812 0.5426367 0.66653067
0.7765736 0.732965 0.5870801 0.90302676 0.8279052 0.8322847 1.1521322 0.8089526
1.1376321 1.4420124 1.4860024 0.80877125 0.7984654 0.6803368 1.6529039 0.64527583

conv_net.2.1.bias f4 [32]
00000000: 21c2 9dbe c084 f4be dc16 fabe 53b3 f9be
00000010: 081c 4fbd 26bd 3ebf 8387 c4be 6b2a b3be
00000020: bcca 86bf 38fc 01bf 886e 3abe 704c 6cbe
00000030: 292b 27bf 4db5 efbe b4b3 d3be 2797 0cbf
00000040: bf44 eabe 289e 99be 49a8 1bbf 9a82 7bbe
00000050: 3006 13bf 41d0 02bf 5a49 823e 11d2 77bf
00000060: 851c 1abe b961 08bf dfca 41be cb0c b2be
00000070: 761f 1ebf 879e 0ebf 6034 38be 9368 1abf
-0.3081217 -0.4775753 -0.48845565 -0.48769626 -0.050563842 -0.7450737 -0.38384637 -0.349933
-1.053062 -0.5077548 -0.18206227 -0.23076034 -0.6530023 -0.4681801 -0.4134804 -0.5491814
-0.45755574 -0.30003476 -0.6080366 -0.2456154 -0.57431316 -0.5109902 0.25446588 -0.9680491
-0.15049942 -0.5327411 -0.18925045 -0.34775385 -0.61766756 -0.55710644 -0.1798873 -0.6031582

conv_net.3.0.weight f4 [32, 32, 3, 3]
00000000: d904 d2bd 991e d5bd cd82 6a3e 3806 12be
00000010: 4af2 8bbe 77f8 56be f69b 763e b176 92bd
00000020: c03f 713d 67df d4bd 88c9 f93c 40d6 81bc
00000030: 0c61 033e 664b c13a d5a4 1cbe 0944 103e
00000040: 762f 893c 281a 053c 3073 ccbd b1bd c83d
00000050: 001e b8bc b0f8 15bd 519f d93d cb1b a2bd
00000060: d188 f53d ea6a 6fbd b3c2 20bd 6754 1e3e
00000070: 6ff4 b33c 81ac 913c e2ec 8ebd 0368 b3bd
00000080: 7809 353d e988 5f3e 5695 c63d f97e ad3e
00000090: 1037 84bd 31df 553d 1f37 5bbd 5255 08be
000000a0: c58b 88bd 0d06 90bc 86ce f2bd da4e 093d
000000b0: 8cb9 90bd 78c8 883d 20dd 613e 95d3 5bbd
000000c0: 640b 9a3e dafd 8c3e 2c51 9e3e fac7 8f3d
000000d0: b795 123e 6c45 ef3d 1fcb 81bd 1ac1 eabe
000000e0: b57a ffbd a508 2ebe ce1c 4dbd ff73 60be
000000f0: 0ef7 1b3d c6a5 fe3b 7bb5 d03d fa7d 60be
00000100: 0b5f dcbc 2429 673e 286d edbd 762e 89be
00000110: 594b a5bc 294b 49bc bfdf 47be 49fa 09be
00000120: d19b e0bd 9b90 53be 576d ceba 9242 f3bd
00000130: ed38 e6bd be4e f13d 1ec1 3fbe 04bc 51bc
00000140: 7ccd 693d 68d4 6ebe 1144 20be 339a d9bd
00000150: d5f8 91be 00e4 d0bd 69a8 123e f112 92bd
00000160: 4f93 58be 1dae 473e b31a f23d 4d31 d23d
00000170: 04a0 d6be 8855 c43d 6721 2abc f924 7abe
00000180: e589 6d3d 23ca a3bd 753e 2bbe 0b77 313d
00000190: f7bc d6bc 62ed 43bd f5f8 053e 6d9e 21be
000001a0: 51a4 2bbe dde2 0d3e 2ecb 0fbe 8a8f 8dbe
000001b0: 35ff 983a ec87 1ebe cc56 873e 9125 3cbe
000001c0: 66b0 dcbe e885 e4bd fc39 d0bc 888e babd
000001d0: 458c a3bc 79c4 04bf ad5c 93be 20a5 343e
000001e0: c61c 0bbf ad84 22be 7e7c df3d 3dfd 52be
000001f0: b2ff 4c3e 0ca7 603e 3c0b a8bd c25e 063f
00000200: 5a0c 1d3f daf2 92bc 00a0 de3e baa7 ad3d
00000210: dcb8 babd d5e0 b03e d936 9bbe 6bc8 a93e
00000220: 3e1b ca3e 7562 103e 9863 4cbe 5e0e 883e
00000230: ec7d 0bbe 153c b0be 0f90 68be bbeb b4be
00000240: 1ece 7e3e 5226 dc3e 7942 673d 9a1b 92bc
00000250: 05dc ad3e 3ab5 d6bb b44e 723e f18e a33d
00000260: a436 32be f7a6 5ebd b6ab 10bd bb3f ab3d
00000270: 3f46 073d 9b54 833d 2baa 8f3e af2c 90be
00000280: 3a87 ee3d 3c15 83bd dc42 01bf 919c 48be
00000290: c35b abbe 256e 6cbe b069 97be f8d1 01be
000002a0: 8479 e7be 79d2 c3be a65e 213e 7ebd 28bd
000002b0: 4fe0 bd3b 9754 123e c328 90be 9207 373d
000002c0: 5c80 ea3c 995d 86bd 3df4 1ebe 5b37 d93d
000002d0: 9dfc 913d fba9 093e eac5 9d3e ee17 b63e
000002e0: 25ad a13e 8396 563e fae2 d93c b193 973d
000002f0: 6469 ba3d 157a 993d a663 00be d048 493b
00000300: c08f ae3d a6f3 2f3d 2a44 c43d 0259 f5bd
00000310: 8885 f63d 0daa 1d3e 7b91 e63d d8ed da3d
00000320: d4d3 00bd 94b2 9b3d f0d4 09be 0327 10bd
00000330: e01a ef3b 1e74 ffbd 0ed0 00be a462 d2bc
00000340: 7fc4 71be 8089 2fbe d3d5 b93d 4798 08be
00000350: 968c 99be 3e9e 003e 1314 ab3d 1b6e be3c
00000360: ad13 1bbc 79aa 06be a25e 5f3b 1042 d03d
00000370: 6c88 913c b765 2cbe 44cf 7a3e 84fa 8d3e
00000380: f7b1 b33c 599c 053e 4403 1cbe d009 c4bd
00000390: c68a 1dbd 1373 92bd 493f 6fbd 62b9 2c3e
000003a0: bd61 98bd 2e86 03be 8b77 3abe 048d a13d
000003b0: c7c3 483e 251c b6bb ad4f 393b 63eb a43d
000003c0: dc15 c1bd 9543 f8bd 4ab1 04be 92e1 3dbe
000003d0: bdc7 1ebf a6f3 9bbe e840 dd3d b703 a7be
000003e0: 8c8e 8dbe b8dc f4bd a7c9 58be 50b0 e8bd
000003f0: 90fc 1dbd f402 9bbd f49a 263e e413 03be
-0.10254831 -0.10406227 0.22901459 -0.14260185 -0.2733329 -0.2099322 0.24082932 -0.07151545
0.058898687 -0.10394173 0.030491605 -0.015849233 0.12829989 0.0014747202 -0.15297253 0.14088453
0.016746264 0.008123912 -0.09982908 0.09801806 -0.022475243 -0.03661412 0.1062609 -0.07915457
0.11988986 -0.05845157 -0.03924818 0.15461884 0.021967141 0.017782452 -0.069787756 -0.08760073
0.044198483 0.21829571 0.09696452 0.33885935 -0.06455815 0.052214805 -0.053519364 -0.13313797
-0.06667284 -0.01758101 -0.118557975 0.033522464 -0.0706664 0.066788614 0.22057009 -0.053668577
0.30086815 0.27537423 0.30921304 0.070205644 0.14314924 0.11683163 -0.063375704 -0.4585045
-0.124745764 -0.16995485 -0.0500763 -0.21919249 0.038077407 0.0077712266 0.10190865 -0.21923056
-0.026900789 0.22574288 -0.115930855 -0.2679326 -0.02017753 -0.012285986 -0.19518946 -0.13474382
-0.109672196 -0.20660631 -0.0015749139 -0.11877932 -0.112413265 0.11782597 -0.18726012 -0.012801174
0.05708073 -0.23323214 -0.15650965 -0.10625114 -0.28510156 -0.101997375 0.14322056 -0.07132519
-0.21149944 0.19500013 0.11821499 0.1026331 -0.41918957 0.09586626 -0.01038394 -0.24428166
0.057992835 -0.07997539 -0.16723044 0.04332642 -0.026213152 -0.047833808 0.13083251 -0.15783091
-0.167619 0.13856073 -0.1404235 -0.27648574 0.0011672737 -0.15481538 0.26433408 -0.18373705
-0.4310333 -0.11158353 -0.025418274 -0.09109217 -0.019964347 -0.51862293 -0.28781644 0.17641115
-0.5434078 -0.15870924 0.10912417 -0.20604415 0.20019415 0.21938723 -0.08205268 0.5248834
0.6134697 -0.017938066 0.43481445 0.08479257 -0.091172904 0.34546533 -0.30315283 0.3316072
0.3947391 0.14100058 -0.19959867 0.2657346 -0.13622254 -0.3442084 -0.22711204 -0.35336098
0.24883315 0.42997986 0.056459878 -0.017835427 0.33956924 -0.0065523656 0.23662835 0.07986248
-0.17403656 -0.05435845 -0.035320006 0.08361765 0.033025976 0.064126216 0.28059515 -0.2815909
0.11646886 -0.064005345 -0.50492644 -0.19590975 -0.33468446 -0.23088892 -0.2957282 -0.12677753
-0.45209897 -0.38246515 0.15758762 -0.04119634 0.005794562 0.14290081 -0.281561 0.044684954
0.02862566 -0.06560821 -0.15522857 0.10606261 0.0712826 0.13443749 0.3081506 0.35565132
0.3157741 0.20955853 0.026597489 0.07401217 0.09102133 0.074939884 -0.12538013 0.0030713566
0.08523512 0.04295697 0.09583314 -0.119798675 0.12037188 0.153969 0.11258217 0.10689896
-0.031452015 0.076024204 -0.13460135 -0.035193454 0.007296905 -0.124733195 -0.12579367 -0.025681801
-0.23610114 -0.17142296 0.09073987 -0.13339339 -0.2999007 0.12560365 0.08353438 0.023245862
-0.00946514 -0.13150968 0.0034083505 0.101688504 0.017765246 -0.16835676 0.24493128 0.2773019
0.021935446 0.13047923 -0.1523562 -0.09572184 -0.038462423 -0.07150855 -0.058409963 0.16867593
-0.07440517 -0.12844154 -0.18209665 0.07888225 0.19605933 -0.0055575543 0.002827625 0.08052709
-0.094279975 -0.12122265 -0.12958255 -0.1854308 -0.62023526 -0.30459327 0.108033955 -0.32620022
-0.27647817 -0.11956161 -0.21170674 -0.11361754 -0.03857094 -0.07568923 0.16270047 -0.12800556

conv_net.3.0.bias f4 [32]
00000000: ad2d 27bd 375a babc e8f1 fabc 163f 8cbd
00000010: 5a02 89bd d3ab 013d 6a54 26be 43f5 533c
00000020: 2c09 d33d b3be 503d fac7 10bc a48c 453d
00000030: 5800 833d 2ef4 63bd 0b46 d03d dce1 50bc
00000040: c7c6 cebc 02fd 053d 4296 be3b c5b1 48bd
00000050: 6b76 073e 175b 623d 6329 36bd fcc4 883d
00000060: 9fc5 d23c 47d7 11bd eb1d 31bd df96 bc3c
00000070: 020d db3c af9c 83bb 8b68 533d ed5a bebc
-0.040815044 -0.022748096 -0.030632928 -0.0684797 -0.06689902 0.031658005 -0.16243139 0.012936893
0.10304484 0.050963115 -0.008836741 0.04822983 0.0639655 -0.05565279 0.1016961 -0.012749162
-0.025241269 0.03271199 0.005816252 -0.04899766 0.13228767 0.05526265 -0.044473063 0.06678197
0.025728999 -0.035605695 -0.043241423 0.02302116 0.026739601 -0.004016481 0.05161337 -0.023236716

conv_net.3.1.weight f4 [32]
00000000: f77a 8a3f ef17 7b3f 0221 5a3f 983e 833f
00000010: c64c 913f 713a 8a3f f7c6 663f f5ff 913f
00000020: acc9 833f deb3 883f 759b be3f a674 653f
00000030: a296 753f e695 8c3f 4599 b13f 6e3d 7a3f
00000040: 2824 963f b2cd 863f 4039 6b3f 1db2 8c3f
00000050: 8285 ba3f d986 803f 5268 883f db6b be3f
00000060: 5722 853f 0629 823f 2de8 813f 0bfa 883f
00000070: f0a6 873f 0d6a 523f 6541 bf3f 4462 803f
1.0818776 0.98083395 0.85206616 1.0253477 1.1351554 1.0799085 0.90147346 1.1406237
1.029592 1.0679891 1.4891192 0.89631116 0.9593297 1.0983245 1.3874899 0.97749984
1.1729784 1.0531523 0.9188423 1.0991856 1.4571993 1.0041152 1.0656836 1.4876665
1.0401105 1.0168769 1.014898 1.0701307 1.059782 0.8219307 1.4941832 1.0029988

conv_net.3.1.bias f4 [32]
00000000: 9a1b 04bf 273d dfbe d77d d3be eec7 f9be
00000010: 1137 04bf 083c 0bbf 30d9 9ebe 4210 04bf
00000020: ae43 aebe e5be 0bbf 2373 44bd 91ca fabe
00000030: 6e29 04bf 45da 03bf 8e76 b9bb 5e34 a6be
00000040: 02d4 20bf 3554 24bf 5fdf c8be a6ff 04bf
00000050: 1635 58bd 0179 1ebf f42a f1be 7dbe 6abd
00000060: 3ea8 e1be 1319 d4be 9da1 d7be 50d5 d0be
00000070: c7af d7be de6f d7be 270d 75bd f9c8 27bf
-0.51604617 -0.43601343 -0.41306946 -0.48785347 -0.51646525 -0.54388475 -0.31025076 -0.5158731
-0.3403601 -0.54588157 -0.047961365 -0.4898267 -0.51625717 -0.5150493 -0.005659885 -0.32461828
-0.628235 -0.6419099 -0.3923292 -0.5195259 -0.052785 -0.6190339 -0.47103083 -0.05731057
-0.4407367 -0.4142538 -0.4211549 -0.40787745 -0.42126295 -0.42077535 -0.059826996 -0.65541035

fc_net.0.weight f4 [128, 800]
00000000: 73c2 73ba 858f 99bb 65ba 36bd db8f 6dbd
00000010: e28c 1abd 84dd 0cbc 07f5 6fbd a59e 003d
00000020: 5d8b 4dbd 20c0 a8bd 0f71 85bd ff95 54bd
00000030: 11fc 15bd 52b4 48bd 9350 cabd 9bb0 a6bd
00000040: bd6f bcbc 9ef7 adbc 6f76 1abd 4644 773c
00000050: 9376 d7bd 5582 c83c 3e55 be3b e9f3 70bd
00000060: 8d26 8ebd a048 08bd d732 91bd dc6d 133b
00000070: 5464 4ebd 791d b5bc 46a5 3ebc ae2d bdbd
00000080: f5ef c73b d46e 7c3b 36ad dd3b 90a6 98bb
00000090: 3022 2abd 220a d73b b037 9e3c a9b6 673c
000000a0: 8668 b43b f34f 743c 08e7 563c 62fe e3bc
000000b0: 25e6 cfbc 4ec8 88b9 a103 88bd f0f6 3cbd
000000c0: dbb8 96bd 4285 2cbd e467 b4bd 3db5 dfbc
000000d0: 33d9 3abd 8ca8 1dba ef39 9ebd adf8 96bc
000000e0: e1b5 0fbd e3f8 3e3d 2961 9cbc 1d6b 19bd
000000f0: ff72 56bd 0dde 00bd b958 2d3d 64ac dbbc
00000100: 9a3f e13b 56fe 44bd 1c3b 2cba 6c02 a83d
00000110: 8d05 ca3c 5d05 dbbb d128 ffbb 7a06 953c
00000120: 55f4 e73d 2222 db3c c454 073b 16a6 8a3c
00000130: 6739 deba 8459 91bc 9c6a bbbc 44d3 5fbd
00000140: 786e 31bd 1980 003d 7c5f 9c3c b292 1f3c
00000150: 24a9 dabc 2e8f 2abd 6ee4 633d 1364 943d
00000160: 4672 fbbc 8b0d 41bd 4f1b 65bd 5c29 353d
00000170: 548b bf3d 296f 4fbd 7af5 873c fed8 d2bc
00000180: ab04 ab3d d354 cb3d 2c56 e23c 00c3 a338
00000190: 2a92 963b eba8 463c cb4d 863d 317a 843d
000001a0: 7f82 88bc ad74 53bd e086 afbc 8452 6b3c
000001b0: 6696 28bd e932 a0bd f12b 9abc 762a a6bc
000001c0: 545b 9839 7b92 3dbd 6f27 0dbd 7f5a 963b
000001d0: 2982 78bc 3ba6 f33c e8c1 a13c 1e1a 62bd
000001e0: d393 91ba 1b5a 42bd 8f4e 83bc 3f56 643d
000001f0: 3df5 97bd 3ba0 8ebd 4a35 88bd 483d 3cbc
00000200: 6027 5cbc f340 f93b 6217 89bd 9756 37bd
00000210: 6e46 42bd b036 2f3b 6397 17bd 3428 0fbd
00000220: 71d7 883c 5bdc 9d3c a666 f3bc 8133 36bd
00000230: ab54 5a3c fd07 92bc b64d 2d3d 9675 abbc
00000240: 252d c5bc d986 debc e58c e6bd af36 bbbd
00000250: defa 05be 502a 7bbd be15 4abd db65 fdbb
00000260: 3f89 34bc 5cff 69bd 8aa0 54bc 8198 18bd
00000270: d0ba 20bd 094b 74bd 45c3 b0bd 7eed c6bd
00000280: 4a92 29bd 3398 a5bd e352 d4bc 38f8 b7bb
00000290: df02 52bd b91b 48bd 83d0 19bd 0818 d2bc
000002a0: b7f4 8cbc 0991 b7bc fd81 edbd c1de ebbc
000002b0: f2a4 7abd f6db 81bc 9704 72bd df64 b8bd
000002c0: 54c5 9cbd aee4 2ebd 70c8 6abd 5b3a aebd
000002d0: 486a a9bd e281 f239 7a9b 823c bbdb 653c
000002e0: 35f8 d9bc 1698 e6bd a3fe 34bb d525 aa3c
000002f0: 4de9 303d d9ac b7bc d086 b7bd 5d73 773c
00000300: 1a63 893d c3b8 da3c ea99 213c eea1 bebd
00000310: 1f75 573d 59a2 543d 72f2 303d 07c9 82bd
00000320: cd54 adbc b55b 55bd 1301 79bc 3e0b c1bc
00000330: 648d 75bd 3042 f9bc 904f c2bd 3ec7 6abd
00000340: 704f 6fbd 63e5 acbd 12dc c1bc 0341 d3bd
00000350: 8ec3 f03c e943 023c 06d7 95bc ee0b 7a3b
00000360: 41f6 9ebd 0717 f8bc 49ef 953c 22c2 9cbc
00000370: d843 aabc 2b74 d3bd 7c05 073d 2dc2 fbbc
00000380: 5e95 8ebd 2b2e 9d3b cfc7 83bc 5529 203c
00000390: f549 9fbc 1a55 ba3c ef67 f7bc a444 95bb
000003a0: 453b 83bd c568 54bd c1c3 1cbd 058f 0cbc
000003b0: 0f68 acbc 89e8 43bd e1cc 70bd f527 7c3c
000003c0: 650b 3bbd 7032 e2ba f036 b9bc 684e 25bd
000003d0: 2bbd c73c 0fe2 04bd bf10 9ebd 886f 67bc
000003e0: 9911 883c 2180 7e3d 4ff7 8b3b b5e3 8cbd
000003f0: cf13 d7bd 4b79 8ebd db78 113d b31d 57bd
-0.00092986895 -0.0046862983 -0.044611353 -0.05799852 -0.037732013 -0.008597735 -0.058583286 0.031401295
-0.050181735 -0.0823977 -0.06515705 -0.05190086 -0.036617342 -0.04900009 -0.098786496 -0.081391536
-0.0230025 -0.021236237 -0.037710603 0.015091961 -0.10520663 0.02447621 0.0058085015 -0.05882636
-0.06940947 -0.033272386 -0.07089775 0.0022495901 -0.05038865 -0.02210878 -0.011636084 -0.09237228
0.006101603 0.0038518207 0.006765033 -0.0046585277 -0.04153651 0.006562487 0.019313663 0.014142671
0.005505624 0.0149116395 0.013116606 -0.02783126 -0.025378296 -0.0002608918 -0.06641317 -0.046133935
-0.07359477 -0.042119272 -0.08808878 -0.0273081 -0.045617294 -0.000601419 -0.07725894 -0.018429125
-0.035085563 0.046624076 -0.019089298 -0.037455667 -0.052355763 -0.031461764 0.04232094 -0.0268156
0.006874037 -0.048094116 -0.0006570087 0.08203587 0.02466085 -0.006683989 -0.007786848 0.018191565
0.113258995 0.026749674 0.002064989 0.0169249 -0.0016954363 -0.01774288 -0.022877984 -0.054644838
-0.04331824 0.031372163 0.0190885 0.009739565 -0.02669198 -0.041640453 0.05563777 0.0724565
-0.030694138 -0.047132056 -0.055934247 0.044228896 0.093527466 -0.05064312 0.016596545 -0.025738236
0.083505 0.09928288 0.02762898 7.808767e-05 0.004595061 0.012125234 0.065578066 0.06468619
-0.016663788 -0.051624943 -0.021426618 0.014362935 -0.041159056 -0.0782221 -0.018819781 -0.020283919
0.00029059744 -0.046282273 -0.034461435 0.0045884247 -0.015167751 0.02974235 0.019745782 -0.05520069
-0.0011106677 -0.047449213 -0.01602867 0.055746313 -0.07419822 -0.06964155 -0.06650789 -0.01148922
-0.013437122 0.0076066195 -0.06693913 -0.044760313 -0.04743045 0.0026735477 -0.037009608 -0.03495045
0.016704293 0.019270113 -0.029712033 -0.04448271 0.0133258505 -0.017826075 0.04231044 -0.020930093
-0.024069378 -0.02716391 -0.11257342 -0.091412894 -0.1308398 -0.06131965 -0.04933714 -0.0077330894
-0.01101905 -0.057128295 -0.012977729 -0.037254814 -0.03924066 -0.05964187 -0.08630995 -0.09713267
-0.041399278 -0.0808567 -0.02591843 -0.005614307 -0.05127227 -0.048854563 -0.037552368 -0.025646225
-0.017206533 -0.022408025 -0.11597059 -0.02879274 -0.06119246 -0.015851956 -0.05908641 -0.09003615
-0.07654825 -0.042698555 -0.05732006 -0.08507224 -0.08272225 0.00046254607 0.015943278 0.014029439
-0.026607612 -0.11259477 -0.0027617596 0.020769993 0.043191243 -0.022421287 -0.0896126 0.015103188
0.06708355 0.02669943 0.009863356 -0.093082294 0.05260193 0.05191264 0.043199964 -0.06385999
-0.0211586 -0.05208941 -0.01519801 -0.023564931 -0.059949294 -0.030427068 -0.094878316 -0.05731892
-0.058425367 -0.084421895 -0.023664508 -0.103151344 0.029390123 0.007950761 -0.018291008 0.0038154083
-0.07761813 -0.030284418 0.018302577 -0.019135538 -0.020784304 -0.10324892 0.032964215 -0.030732239
-0.06962083 0.0047967634 -0.016086487 0.009775479 -0.019444445 0.022745658 -0.030200927 -0.0045553017
-0.06407789 -0.05185773 -0.038272623 -0.00857902 -0.021045713 -0.047829185 -0.058789138 0.015390386
-0.045665164 -0.0017257463 -0.022609204 -0.040357977 0.024382195 -0.03244215 -0.07718038 -0.014125712
0.016609954 0.062133912 0.004271425 -0.06879369 -0.10501825 -0.069567285 0.035515647 -0.052518558

fc_net.0.bias f4 [128]
00000000: f218 adbc 96be 15bd 3c49 09bd 0f46 8d3c
00000010: 84d1 80bd bf4e 953d f1d0 6c3d 851b 57bc
00000020: 13f5 0e3a 8289 d63b 03a0 da3c 4416 99ba
00000030: b7fd 623c 6926 693d 388c b63d cf8c b43a
00000040: f312 9fbd 4f31 873d 1c43 a23d 4d2d c13d
00000050: 0a1e 32bd b9a9 423c 018a dcbc 6ec1 54bd
00000060: e64e adbd 54ab 393c 638a 4a3c 60a9 4e3d
00000070: fa42 9bbd 05d2 943d 5b91 5abd 2f27 3bb9
00000080: 6781 b73b 1866 f7bc e3d8 d93b 7af5 4bbd
00000090: 3bb3 0dbd 5dbe fb3d d7b4 8f3d d996 9b3d
000000a0: 7109 9fbc c0e5 f7bc 6e03 0dbd d1a0 fd3c
000000b0: 0dd2 f63d 42da 193c 9d55 9f3a 650d abbc
000000c0: 16f6 e1bb d8ca c03d db28 29bd 5403 9ebc
000000d0: ff00 ebbc 57c5 b6bc ab1d 96bc 83c7 8f3d
000000e0: 3afc c53b de5c c4bb 3f78 8dbd a25d 383e
000000f0: 83c9 07bd e2f2 55bd e5f8 22bd cee0 203a
00000100: 3246 f3bc b6bf ac3d 6a80 70bc 454c 24bc
00000110: 6505 563e cba8 5fbd 6f98 2b3e fa9e ed3d
00000120: fae8 3ebd 9358 febc c431 db3b a52f d3bd
00000130: fbd8 3fbd 88a6 29be a0b9 f73b 77bf 79bc
00000140: ad3f 42bd 90f1 38bd 31d3 6b3d 65e3 0e3e
00000150: 9c5c a3bb 64e6 2a3e 00e5 26bc bbfc 9e3b
00000160: 6af5 9ebd aa77 24bd 2703 993b ed56 60bc
00000170: d032 1a3d 03db e6bd 7337 7fbb c5ef 68bd
00000180: c328 bbbd b618 843d a86d 17bd 55a6 78bd
00000190: 09d9 b1bc 925a 853e 575f 43bd 805f d23d
000001a0: 6e3a dcbc 1f4f d9bd 2401 83bd 36ec 133c
000001b0: 174d 42bd abdc abbd fc48 cbba 55c4 ac3b
000001c0: 6f5d cdbd 53e9 bb3d ffd3 81bd 0027 11bd
000001d0: 58c9 88bc 2b07 4b3d 617f 3fbc c3a8 4bbd
000001e0: 2c1f 07bc 56d1 fabc f298 6bbd c180 7e3e
000001f0: 3f6f 9cbc 69af 933d b245 7fbd c041 b03c
-0.021130059 -0.03655871 -0.033517107 0.01724532 -0.06289962 0.0729041 0.05781645 -0.01312912
0.0005453389 0.006547154 0.026687628 -0.0011679609 0.013854436 0.056921396 0.08913463 0.0013774874
-0.07767286 0.06601202 0.07922956 0.094324686 -0.04348568 0.011881285 -0.026921274 -0.05194228
-0.08462314 0.011332352 0.0123620955 0.050454497 -0.07581134 0.072666205 -0.053361278 -0.00017848307
0.0056001428 -0.03020005 0.0066481694 -0.04979465 -0.034594756 0.12292168 0.07016914 0.07597131
-0.019413682 -0.03026092 -0.0344271 0.030960472 0.12051783 0.009390416 0.0012156252 -0.02088041
-0.006895791 0.094136894 -0.04129873 -0.019288696 -0.028686998 -0.022310896 -0.018324694 0.07020476
0.0060420306 -0.005992516 -0.06907701 0.18004468 -0.03315116 -0.052233584 -0.039788146 0.0006137014
-0.029696558 0.084350035 -0.014679054 -0.01002795 0.20900495 -0.054604333 0.16757368 0.11602588
-0.046608903 -0.031048095 0.006689282 -0.10311822 -0.046837788 -0.16567433 0.00755997 -0.015243403
-0.047424007 -0.045152247 0.057574455 0.13953932 -0.004985405 0.1668945 -0.010186434 0.004851905
-0.07761653 -0.040153183 0.0046695652 -0.0136926 0.037646115 -0.11272242 -0.0038942962 -0.056869287
-0.09138634 0.06450026 -0.03696981 -0.0607055 -0.021709936 0.26045662 -0.047698345 0.102721214
-0.02688333 -0.10610794 -0.06396702 0.009028485 -0.0474368 -0.083916984 -0.0015509422 0.005272428
-0.10027587 0.091753624 -0.06339263 -0.035437584 -0.01669757 0.049567383 -0.011688084 -0.04972149
-0.008247178 -0.030617397 -0.057518907 0.24853803 -0.019096015 0.07211191 -0.062322326 0.021515727

fc_net.2.weight f4 [5, 128]
00000000: d0f1 eabb 34fa 97bc 2a28 483d 6937 9c3d
00000010: 1fd9 80bd b1df 12bd ad38 0fbe 99c5 253d
00000020: 9cb4 85bd 6ae3 a6bc 9a60 163d 0369 893b
00000030: 370b ddbc f486 14be 0b26 14bd 0b76 27bd
00000040: 30e9 b13c 4186 76be 4035 2d3d 7d2d 86bd
00000050: 401f 5bbc 3aed 1bba d0f6 913d 8e24 393d
00000060: 5e6e 10be 32cb 6cbc e5f6 43bd 8873 203d
00000070: 3745 10bd ee68 fdbd d727 883d c2e1 173c
00000080: 9302 dbbc 2c89 42be b548 853d cccd 0b3c
00000090: e121 de3d c6bb b3bb 02da 5fbd 18c0 faba
000000a0: 3964 adbd 4b44 16be 790a 713d 6e09 b23d
000000b0: 8927 493c bb38 fe3b cfca 9f3d 378a 8bbd
000000c0: 6d55 99bd cb94 a5bd c01a dfbd a0e4 393d
000000d0: 219f 3cbd 3adc 29bd 8077 b63c 6fd6 233d
000000e0: 77e1 d3bd d76e 5dbd 4186 903d 1256 6cbd
000000f0: 36c6 a93c b609 13bd 1378 f63c a4e0 153d
00000100: c018 003d 0c8a ce3d 54e5 4a3d f171 953c
00000110: 25e9 273d 06a8 5d3d ee0d 37be b92f 4a3d
00000120: 3d40 1bbc a776 17bd 39b2 133d 85a2 a1bd
00000130: 4c56 96bd 5393 153c 634a 793c c834 a2bc
00000140: ee21 09bd bc5c 93bb f8c9 293d aa6a 13bd
00000150: f690 44bd 80ca d8bc 7358 c33d 8245 c8bc
00000160: 3c66 62bd 7020 3bbd b141 9fbd 77e7 d53c
00000170: d4a6 aa3d 123b 5c3b 9b17 cbbd ab32 09bc
00000180: 5eb6 07bd a752 abbd f2f0 8ebd dca8 92bd
00000190: d07d 9d3c 4b31 533d 9de8 36bd 0ed9 3fbd
000001a0: 3c9d a53d 93dd dd3b 388e 093e 3e99 733d
000001b0: c9d8 e33c 391a 0b3b 8679 2c3a 6212 8d3d
000001c0: 8b8f 1cbe 3545 873d 85a0 4bbd 2bae e3bc
000001d0: e924 f73c eed8 e63c ee7f 73bd f16b 8f3c
000001e0: 96b4 8fbc d3c3 15be e766 713c 0190 443d
000001f0: 206e 4c3c e161 2bbe d546 8f3c 8356 7f3d
00000200: 8b3f 81bb beb8 52bd 17eb 34bd d242 e0bb
00000210: e5a6 16bd 210b 19bb 88a5 4c3e 93be 30bd
00000220: ae19 3e3c 86c7 1bbc 3b27 ad3d 3789 58bd
00000230: 22ae 1e3d 8f86 cdbd 724c 853d 7ad3 bebb
00000240: 8fde 12bd f5c2 1bbe 96b4 f9bc 688b cc3b
00000250: f5ae b4bc c11a 833d c5e3 5dbd a651 10ba
00000260: bc9c 34bd 9599 d93c df8f b9bd f97b 4e3d
00000270: 6bf4 05be c0c0 1e3d 1330 6f3d 211b cb3c
00000280: 622f adbd 0277 17be bdfc e53c 6f1a e23c
00000290: c5ec 683d 8884 72bd 48c6 c3bc 1755 4bbd
000002a0: d131 323c db4d 35be a382 f5bc e7ad c33c
000002b0: cf1e 1dbd f31c e53c e4c0 043d cfe1 47bd
000002c0: 3486 183d eaf8 0b3e d681 903b bec7 1c3d
000002d0: 9dcd bc3c 1554 86bd f8da 9a3d 9bfd 333d
000002e0: 5855 703d a212 59bc a22f e0bb 617e 24bd
000002f0: a568 663d 7b63 353d 56d9 243d 8171 69bd
00000300: 7262 63bd d345 30bd 3a61 24bc a8a7 aa3d
00000310: 2474 3a3d 2db0 573d 6073 81bd c4f9 aabd
00000320: 5be0 3e3d 5de6 d53c 70c7 87bd e801 fabd
00000330: 54f4 d3bd 9609 a7bd 6493 e23b c6c0 953c
00000340: e603 9d3d 78b6 29be 4f7c d5bc 0683 763c
00000350: d504 8d3d 5dcd 20bc 695c 87bd cdf4 e0bd
00000360: 9d93 8bbd 5d28 61bd e174 32bc 3093 a53d
00000370: bc33 933d 1462 6abb 3a91 873d 4419 05bd
00000380: 19e0 f8bd c440 933d 77b0 7a3c c8a2 af3d
00000390: 7254 8d3d 1947 4f3d b73b 353d c35b 9fbc
000003a0: 1bc7 b63c 24a7 013c 6ad1 06be 7284 20bd
000003b0: 5723 293c 2e50 753b 7458 3b3d 49b8 ab3d
000003c0: 888c ebbd 6713 433d 3173 d1bd 42f1 a6bd
000003d0: b293 493c e75c e3bd 07b7 10bd 6ca5 6fbc
000003e0: 0bc7 423d cd2f 1cbd 4343 87ba 51a7 5a3d
000003f0: e69d 953d 0926 953c bb2d c53c 522c eebd
-0.0071699396 -0.018551923 0.04886643 0.07627756 -0.062914126 -0.03585786 -0.13986464 0.040471647
-0.06528589 -0.020372111 0.03671322 0.0041934266 -0.026982887 -0.14504606 -0.036169093 -0.04088406
0.021717638 -0.24074651 0.04228711 -0.06551645 -0.01337415 -0.000594813 0.07127154 0.045200877
-0.14104602 -0.014452742 -0.04784288 0.03917268 -0.03522226 -0.123735294 0.06648224 0.009270133
-0.026734626 -0.1899764 0.065080084 0.0085329525 0.10846306 -0.005485031 -0.054651268 -0.0019130735
-0.084663816 -0.14674489 0.058847878 0.08693205 0.012277492 0.0077582276 0.078023545 -0.06813472
-0.07486997 -0.08085021 -0.10893774 0.04538405 -0.046050195 -0.04146979 0.022273779 0.03999942
-0.103457384 -0.054060783 0.07056857 -0.05769927 0.020724397 -0.035897933 0.030086553 0.036591187
0.031273603 0.10084924 0.04953511 0.018242808 0.04099383 0.054115318 -0.17876408 0.049361918
-0.009475765 -0.03697839 0.03605864 -0.07892326 -0.073406786 0.009129363 0.015215489 -0.019800559
-0.033479623 -0.004497139 0.041452378 -0.035990395 -0.047989808 -0.026463747 0.09538355 -0.024447206
-0.05527328 -0.04568523 -0.077762015 0.026111348 0.08332601 0.0033604545 -0.09916612 -0.008373897
-0.033132903 -0.08365374 -0.069795504 -0.071611136 0.019225031 0.05156068 -0.04465543 -0.04683786
0.08086631 0.0067707985 0.13433158 0.059472315 0.027813332 0.0021225347 0.00065793877 0.06888272
-0.15289132 0.06604997 -0.04971363 -0.02779301 0.030168967 0.028179612 -0.059448175 0.017507525
-0.017542165 -0.14625482 0.0147340065 0.047988895 0.012477428 -0.16736557 0.01748983 0.062338363
-0.0039443425 -0.051445715 -0.04416951 -0.006843903 -0.036780257 -0.002335258 0.1998502 -0.043150496
0.011602802 -0.009508019 0.08454748 -0.052865233 0.038740285 -0.10035431 0.065087214 -0.00582355
-0.03585678 -0.15211089 -0.030481618 0.0062422045 -0.022056082 0.06401587 -0.054172296 -0.00055053306
-0.044094786 0.026562491 -0.09060644 0.0504112 -0.1308152 0.03875804 0.058395457 0.02479321
-0.08456303 -0.14791492 0.028074617 0.027600495 0.056866426 -0.059208423 -0.023898259 -0.049641695
0.010876135 -0.17705481 -0.029969519 0.023886634 -0.03835946 0.027967906 0.032410517 -0.048799332
0.03723736 0.13669172 0.004410009 0.038276426 0.023047263 -0.06559006 0.07561296 0.04394303
0.05867514 -0.013249071 -0.006841616 -0.040159587 0.05625214 0.044284325 0.04024633 -0.05699301
-0.055513807 -0.04303534 -0.010032946 0.08332759 0.045520917 0.05265825 -0.06320834 -0.0834842
0.04660068 0.026110822 -0.066298366 -0.12207395 -0.10349336 -0.08156125 0.006914543 0.018280398
0.07666759 -0.16573513 -0.026060252 0.015045887 0.06885687 -0.009814587 -0.06609423 -0.10984192
-0.068152644 -0.054970134 -0.010892124 0.080847144 0.07187602 -0.0035764026 0.06619497 -0.0324948
-0.12152118 0.071900874 0.015300862 0.0857597 0.06900872 0.050604913 0.0442464 -0.019452935
0.022311738 0.007913385 -0.13165823 -0.03918881 0.010323367 0.0037431824 0.045738652 0.08384759
-0.115014136 0.047625925 -0.10227049 -0.08151485 0.01230328 -0.11101704 -0.0353308 -0.014626842
0.047553103 -0.038131524 -0.0010319728 0.05338222 0.07305507 0.018206613 0.024069658 -0.11629547

fc_net.2.bias f4 [5]
00000000: 145b d83c 9698 49bd 845e 1e3a 06d8 253e
00000010: 0202 0abd
0.026410617 -0.049217783 0.00060413056 0.16195688 -0.03369332
