Results/classification_simple/soft_adaptive/it1/maml/model_0.pt (torch, 534505 bytes, 20 tensors)

conv_net.0.0.weight f4 [32, 3, 3, 3]
-0.2815734 -0.11049808 0.0009449854 -0.019195436 0.15916768 0.07009422 0.11898929 -0.16857553
-0.22270389 -0.0946766 -0.031509213 0.029909013 0.010426422 0.36372182 0.34145102 0.29048744
-0.36838508 -0.2912796 -0.18317814 0.32712725 0.13684087 -0.18541948 0.362094 0.1770391
0.22700343 -0.15114063 -0.4740622 0.06855156 0.063085355 0.16142747 -0.16370352 0.029472215
-0.3960025 0.17517391 0.018878568 -0.20203838 0.27978796 0.38093647 -0.019926729 -0.24131037
-0.21137875 -0.45486003 -0.00022625948 0.30571854 0.21693604 -0.078930706 0.26009962 0.11736564
-0.48628217 -0.1903997 -0.1700915 0.0058613466 0.38914064 0.3016539 0.23499559 0.075732514
-0.45852736 -0.019141834 -0.20311087 -0.46676245 0.031538397 -0.14353462 0.18853803 -0.016888443
-0.26489034 -0.3422963 0.04990317 0.004430405 -0.028469963 0.006364305 -0.19040555 -0.0422442
0.32816413 0.23524444 -0.16551618 0.39198315 0.048179585 -0.008251146 0.048656404 -0.47437048
-0.20269638 -0.25863433 0.042561665 0.034036975 -0.0058374703 0.017045816 -0.020748764 -0.04922653
0.027144004 -0.24715444 0.2796284 0.41003984 0.18725716 0.4290644 0.66944814 0.19754234
0.27296636 0.49516276 0.06175108 0.01282334 -0.0121699525 -0.0081072645 -0.14092344 -0.21005562
0.0080976505 0.1637219 -0.35542583 -0.2782684 0.22017868 -0.009957112 0.30431247 -0.22718425
0.19819884 0.21258263 -0.040817067 0.0019271085 -0.10499336 -0.041221216 -0.22622247 -0.23923282
-0.42696562 -0.1672549 -0.23363535 -0.040299878 -0.26895258 -0.5405678 0.518879 0.2649493
0.1021263 0.08480946 -0.102574736 0.06412962 -0.0033655583 0.004111765 -0.49480405 0.4023777
0.17763929 -0.078675054 0.40039963 0.18831342 0.16473544 0.05045956 -0.12866479 -0.08702983
-0.205082 0.099789 0.14933065 0.05372466 0.09297503 -0.14033894 -0.025473285 -0.32727382
-0.24388862 -0.38657433 -0.015305063 -0.07790736 -0.39647096 -0.3301882 -0.18187499 -0.02308201
-0.21633269 0.44477236 -0.2482589 -0.33889842 0.07358656 -0.022977712 -0.37446535 0.09648036
-0.2832269 -0.3568315 -0.010706083 0.10780812 0.035227332 0.23110077 0.1884859 0.18885098
0.3741935 0.108786955 0.14082062 0.50604063 -0.39833915 -0.25277677 -0.20566642 0.13374816
-0.030426485 0.13964511 -0.094175175 0.031782452 0.24745087 -0.38672382 -0.16922832 -0.27281234
0.25917253 0.47343248 0.2637069 0.34208396 0.42747056 0.24707198 -0.19509926 -0.2793046
-0.23122092 -0.010164107 0.2562034 -0.16151725 -0.15753433 0.07002514 -0.23734978 -0.12239732
-0.21384697 0.16961613 -0.028422372 -0.1171091 -0.018716611 0.20516935 -0.0037255841 -0.17506924
-0.10346624 -0.13074765 0.11546162 0.017107042 -0.18379636 0.063479766 -0.17876555 -0.092039265
0.22919157 0.05014279 -0.1343297 0.33137757 -0.370173 -0.14727765 0.19016553 -0.26570982
-0.14122604 0.40100148 -0.35942942 -0.119315624 0.27829888 -0.34385335 0.060686078 0.27894804
-0.27577847 0.20807436 0.4588577 -0.11487089 -0.036116753 -0.01064224 0.28744477 0.082154155
-0.3031755 0.33853167 0.2008821 -0.19259176 0.055257134 -0.039099388 -0.041224845 0.045325246
00000000: 642a 90be d14c e2bd e6b8 773a bf3f 9dbc
00000010: dafc 223e 8f8d 8f3d a8b0 f33d 109f 2cbe
00000020: 7d0c 64be cee5 c1bd ce0f 01bd bf03 f53c
00000030: 95d3 2a3c bf39 ba3e abd2 ae3e c5ba 943e
00000040: f89c bcbe 9a22 95be 0d93 3bbe 397d a73e
00000050: 0320 0c3e 9bde 3dbe 6364 b93e bd49 353e
00000060: 9673 683e 9cc4 1abe 48b8 f2be c364 8c3d
00000070: e532 813d 3e4d 253e e5a1 27be b76f f13c
00000080: d7c0 cabe ca60 333e 3aa7 9a3c 26e3 4ebe
00000090: 5e40 8f3e 1b0a c33e 613d a3bc 111a 77be
000000a0: ac73 58be 6ae3 e8be 1140 6db9 2487 9c3e
000000b0: 7b24 5e3e 6ca6 a1bd c72b 853e 665d f03d
000000c0: faf9 f8be 24f8 42be 772c 2ebe 8a10 c03b
000000d0: 713d c73e 6172 9a3e afa2 703e a619 9b3d
000000e0: 19c4 eabe 56cf 9cbc 4cfc 4fbe 7dfb eebe
000000f0: 682e 013d bdfa 12be 1d10 413e a259 8abc
00000100: b59f 87be 7641 afbe 4467 4c3d ee2c 913b
00000110: d739 e9bc a98b d03b acf9 42be 4108 2dbd
00000120: 2105 a83e ebe3 703e 137d 29be 04b2 c83e
00000130: f557 453d d12f 07bc f04b 473d b0e0 f2be
00000140: a48f 4fbe b86b 84be 2455 2e3d 5b6a 0b3d
00000150: 4048 bfbb aba3 8b3c 50f9 a9bc c2a1 49bd
00000160: 1a5d de3c 0e16 7dbe 742b 8f3e bef0 d13e
00000170: 57c0 3f3e 54ae db3e f460 2b3f 8a48 4a3e
00000180: 3fc2 8b3e f985 fd3e b3ee 7c3d fc18 523c
00000190: 7b64 47bc 55d4 04bc 3c4e 10be d218 57be
000001a0: 02ac 043c b7a6 273e 60fa b5be 3279 8ebe
000001b0: 8576 613e 2823 23bc d8ce 9b3e fda2 68be
000001c0: a3f4 4a3e 43af 593e cc2f 27bd 0897 fc3a
000001d0: c206 d7bd 94d7 28bd dda6 67be 73f9 74be
000001e0: 3d9b dabe de44 2bbe 1b3e 6fbe 7c11 25bd
000001f0: 27b4 89be a762 0abf 41d5 043f 6fa7 873e
00000200: 9827 d13d 95b0 ad3d b412 d2bd 6456 833d
00000210: b390 5cbb fcbb 863b f556 fdbe 7304 ce3e
00000220: 13e7 353e 6320 a1bd 2e01 cd3e 3cd5 403e
00000230: 68b0 283e afae 4e3d b4c0 03be b23c b2bd
00000240: 0401 52be 2d5e cc3d 22ea 183e 640e 5c3d
00000250: b169 be3d 03b5 0fbe 5aad d0bc 6f90 a7be
00000260: f0bd 79be 12ed c5be 16c2 7abc e58d 9fbd
00000270: 3efe cabe 6e0e a9be 703d 3abe 7c16 bdbc
00000280: 5186 5dbe 34b9 e33e 9537 7ebe 1884 adbe
00000290: 8db4 963d c13b bcbc ecb9 bfbe 7f97 c53d
000002a0: 1e03 91be 9eb2 b6be 9168 2fbc 81ca dc3d
000002b0: 894a 103d aea5 6c3e 7302 413e 2762 413e
000002c0: 4a96 bf3e b2cb de3d 4833 103e e18b 013f
000002d0: 1cf3 cbbe f56b 81be 389a 52be 47f5 083e
000002e0: f740 f9bc 21ff 0e3e eade c0bd 512e 023d
000002f0: c363 7d3e aa00 c6be 304a 2dbe 0fae 8bbe
00000300: 43b2 843e be65 f23e 9704 873e a125 af3e
00000310: 6cdd da3e 7000 7d3e 1ac8 47be 0301 8fbe
00000320: 2dc5 6cbe 5b87 26bc 182d 833e c764 25be
00000330: ae50 21be 5769 8f3d d20b 73be 72ab fabd
00000340: b3fa 5abe daaf 2d3e 09d6 e8bc e5d6 efbd
00000350: 9453 99bc ea17 523e ee28 74bb 5a45 33be
00000360: 1ce6 d3bd b6e2 05be 2477 ec3d 1124 8c3c
00000370: 1d35 3cbe ae01 823d 510e 37be 157f bcbd
00000380: 32b1 6a3e 8762 4d3d ba8d 09be 52aa a93e
00000390: 5187 bdbe f4cf 16be c1ba 423e 1e0b 88be
000003a0: 8f9d 10be 1150 cd3e 2207 b8be c05b f4bd
000003b0: 317d 8e3e 8c0d b0be f791 783d 47d2 8e3e
000003c0: d632 8dbe 7211 553e 65ef ea3e 6e41 ebbd
000003d0: 29ef 13bd ca5c 2ebc f62b 933e 7040 a83d
000003e0: d239 9bbe 0654 ad3e 0ab4 4d3e c636 45be
000003f0: 4e55 623d ae26 20bd 62db 28bd f7a6 393d

conv_net.0.0.bias f4 [32]
0.27864945 -0.48561013 0.29454547 -0.028260905 0.252327 -0.021716267 0.08198425 -0.01692103
-0.33698192 0.19051786 -0.26738745 0.43318328 0.119325355 -0.1542997 0.37309152 0.28403968
0.25324893 -0.023746938 -0.38173053 0.10623227 0.11722785 0.16731165 0.4928098 0.2820257
0.024505138 0.07107567 0.016064648 -0.6953203 -0.12130307 0.27998275 -0.5276233 0.43312418
00000000: 24ab 8e3e e4a1 f8be aace 963e 6a83 e7bc
00000010: 0131 813e 50e6 b1bc 5ce7 a73d f99d 8abc
00000020: e588 acbe 1d17 433e 02e7 88be 33ca dd3e
00000030: da60 f43d be00 1ebe da05 bf3e a66d 913e
00000040: d8a9 813e f088 c2bc 2f72 c3be 4e90 d93d
00000050: 2815 f03d bf53 2b3e 9151 fc3e ac65 903e
00000060: 00bf c83c 1f90 913d 029a 833c 8300 32bf
00000070: be6d f8bd e659 8f3e 5212 07bf 74c2 dd3e

conv_net.0.1.weight f4 [32]
0.900647 0.9837143 0.8408833 0.80056375 0.89342135 0.7431283 0.93481576 0.805378
1.1919543 1.0763553 0.92802304 1.1513194 0.8012641 0.83231264 0.75098455 1.0656481
0.93931067 0.9056055 1.0279907 0.82089657 0.8542225 0.8439266 1.288525 0.9839065
0.7985388 0.9620659 1.1292616 0.8679299 0.8317997 0.93554336 1.3323996 1.0719564
00000000: cd90 663f b3d4 7b3f 2144 573f bff1 4c3f
00000010: 43b7 643f a83d 3e3f 1650 6f3f 412d 4e3f
00000020: f591 983f 03c6 893f eb92 6d3f 6f5e 933f
00000030: a51f 4d3f 7112 553f 8640 403f 2867 883f
00000040: aa76 703f c3d5 673f 3395 833f 4726 523f
00000050: 53ae 5a3f 930b 583f 63ee a43f 4ce1 7b3f
00000060: 0a6d 4c3f f349 763f a58b 903f a730 5e3f
00000070: d3f0 543f c57f 6f3f 128c aa3f de35 893f

conv_net.0.1.bias f4 [32]
-0.5372394 -0.3712785 -0.86215746 -0.29402018 -0.16885875 0.16757314 0.47450534 -0.20882447
-0.43888304 0.11722606 -0.39007396 0.38601735 -0.4829833 -0.4454427 -0.65966105 -0.3865511
-0.36719742 0.46137732 0.18727688 -0.096135356 -0.3430691 -0.6476897 -0.13789217 -0.14122193
-0.32489383 0.3352652 -0.036612708 -0.47772247 -0.32474148 -0.41171226 -0.183034 0.11582642
00000000: 8588 09bf 3718 bebe 5ab6 5cbf d089 96be
00000010: 4fe9 2cbe 4b98 2b3e 5df2 f23e 15d6 55be
00000020: 47b5 e0be 3714 f03d c6b7 c7be 11a4 c53e
00000030: 9649 f7be 1111 e4be 8cdf 28bf 07ea c5be
00000040: 4d01 bcbe a639 ec3e 83c5 3f3e 9de2 c4bd
00000050: c1a6 afbe fece 25bf 9b33 0dbe 7b9c 10be
00000060: 7c58 a6be e1a7 ab3e 35f7 15bd 0a98 f4be
00000070: 8444 a6be f3cb d2be 446d 3bbe 6736 ed3d

conv_net.1.0.weight f4 [32, 32, 3, 3]
-0.07350922 0.053866427 -0.17028251 0.049112186 -0.031579904 -0.030067189 0.20088002 0.21302241
-0.3215149 -0.102195136 -0.06442614 0.13267301 -0.31960806 -0.09862934 0.20039235 -0.021271415
-0.022039188 0.38841918 0.059390444 -0.018963689 -0.20066676 -0.05436137 0.26363656 0.0845821
0.2905447 0.20413733 0.3434775 0.13201281 0.21118991 -0.0058766115 0.017826524 0.29197243
-0.019836377 -0.08991009 0.07127709 -0.115160145 0.1940452 -0.24577194 -0.1188628 0.27293423
-0.08771911 -0.10287887 0.20854871 0.020673368 0.08507694 0.011585366 0.16210039 0.12937772
-0.089853235 0.25079527 0.24966991 -0.26998177 0.30276075 0.07708228 0.03282255 -0.3031684
-0.41241014 0.17212926 -0.10149686 -0.159571 -0.015013108 -0.2217486 0.03307739 -0.004842061
0.23237099 0.20660517 -0.19007134 0.21953744 0.040972237 -0.282701 -0.1229904 -0.10395441
0.044724606 0.32473952 0.36691743 -0.13578938 -0.13090144 0.32188416 0.27491453 -0.1553059
0.20852558 -0.029672794 0.3393447 0.117762245 -0.04746623 -0.012269399 -0.3028442 -0.22308303
0.030027682 0.08777794 0.4007039 0.4003487 0.14421508 0.5172649 0.48516202 0.2997999
0.47278103 0.48273838 0.5040387 -0.0065237214 -0.1356411 -0.22899838 0.10523704 -0.099854894
-0.07440188 -0.02079603 0.06514656 -0.20100561 0.122222655 0.10178329 -0.1503297 0.1840369
-0.11576577 0.0042318776 0.14468688 0.059673578 0.2643936 0.0014993008 0.32793927 0.15319583
-0.08059516 0.09836777 0.11244116 -0.1789343 0.0021007275 -0.021765593 -0.008218482 -0.029767744
-0.1740237 -0.16923338 -0.045573562 -0.008584646 -0.41968477 -0.31535426 -0.18575926 0.07462375
-0.0067049856 0.026816474 0.076426655 -0.034309164 -0.21888311 0.23186992 0.22294432 0.042601615
0.16954774 -0.39720148 -0.31908017 -0.20813389 -0.4012249 -0.25200275 0.14977983 -0.032292634
-0.115993515 -0.023205448 0.08418206 0.25370115 0.17708935 0.5176439 0.3107083 -0.014534982
0.42123795 0.061780576 0.12067655 0.13928056 -0.14348374 0.66958976 0.17601995 -0.20814966
0.2080535 0.2528259 -0.27532834 0.03448397 -0.08951714 -0.10708864 0.048484363 -0.21008827
-0.087032184 -0.04018101 -0.3822088 -0.174364 -0.041410737 -0.35799938 -0.025849527 -0.2224951
-0.24244374 -0.35781693 0.050538603 0.09167448 0.22520418 -0.16321562 0.0031420097 -0.157503
0.108146444 0.052065127 -0.03337437 -0.22424753 -0.041530244 -0.09142656 -0.049201943 -0.041331593
-0.057309248 0.2457765 -0.16514248 -0.24591625 0.14863501 -0.060841322 -0.07525516 -0.45753974
-0.08594929 -0.14055666 -0.15670502 0.09237369 0.09128557 -0.29304713 0.1045802 -0.15421927
0.0016032659 0.13862406 0.16218798 0.3993915 0.13425232 0.21336049 0.37783837 0.31288955
0.2916555 0.36720505 0.40408927 0.18479328 0.2514549 0.519394 -0.08362113 0.19520065
-0.10935399 -0.21581805 -0.008789289 0.22618869 -0.13000926 -0.12132974 -0.030299753 0.1500562
-0.09080191 0.0566239 0.14012928 0.06853611 -0.06374545 0.31711832 -0.207409 -0.03538031
-0.003839733 -0.28958893 -0.24487595 0.032899767 0.112424925 0.07576642 0.1075512 -0.076946706
00000000: 008c 96bd 0ba3 5c3d 8a5e 2ebe dc29 493d
00000010: ee59 01bd 774f f6bc 7eb3 4d3e 8c22 5a3e
00000020: 9a9d a4be af4b d1bd daf1 83bd 6fdb 073e
00000030: aba3 a3be 2efe c9bd a733 4d3e 6441 aebc
00000040: 878b b4bc e1de c63e 6543 733d bd59 9bbc
00000050: 967b 4dbe 07aa 5ebd 5ffb 863e 6139 ad3d
00000060: 46c2 943e 6009 513e 48dc af3e 5e2e 073e
00000070: 2b42 583e 9790 c0bb ee08 923c 697d 953e
00000080: e67f a2bc c822 b8bd b9f9 913d 15d9 ebbd
00000090: c9b3 463e a4ab 7bbe 576e f3bd 09be 8b3e
000000a0: 14a6 b3bd 28b2 d2bd cb8d 553e 325b a93c
000000b0: d23c ae3d 8cd0 3d3c a5fd 253e 987b 043e
000000c0: f904 b8bd 3d68 803e 78a9 7f3e 0d3b 8abe
000000d0: 7503 9b3e 50dd 9d3d f070 063d e338 9bbe
000000e0: 6c27 d3be a742 303e 96dd cfbd 9566 23be
000000f0: 8af9 75bc 1112 63be 287c 073d 27aa 9ebb
00000100: a9f2 6d3e 4e90 533e 10a2 42be 6cce 603e
00000110: 81d2 273d 2fbe 90be 64e2 fbbd 0de6 d4bd
00000120: 2631 373d 4244 a63e 9adc bb3e 5f0c 0bbe
00000130: 070b 06be 00ce a43e 99c1 8c3e 8308 1fbe
00000140: bb87 553e 5c14 f3bc 97be ad3e 552d f13d
00000150: f36b 42bd 9705 49bc 650e 9bbe e16f 64be
00000160: 9dfc f53c ecc4 b33d 1029 cd3e 81fa cc3e
00000170: 1ead 133e 796b 043f 2867 f83e 5f7f 993e
00000180: 5b10 f23e 7c29 f73e ae08 013f f1c4 d5bb
00000190: 80e5 0abe 8d7e 6abe 8486 d73d b980 ccbd
000001a0: 0360 98bd 705c aabc 8f6b 853d 6ad4 4dbe
000001b0: df4f fa3d c273 d03d 07f0 19be 2b74 3c3e
000001c0: 9b16 edbd 90ab 8a3b cc28 143e 486c 743d
000001d0: 995e 873e 3084 c43a a8e7 a73e 5edf 1c3e
000001e0: 130f a5bd 0b75 c93d 8d47 e63d 8e3a 37be
000001f0: 5cac 093b c24d b2bc d0a6 06bc 7cdb f3bc
00000200: 4533 32be 844b 2dbe 58ab 3abd 9da6 0cbc
00000210: ece0 d6be 1d76 a1be ad37 3ebe 56d4 983d
00000220: 7fb5 dbbb 39ae db3c 9485 9c3d c487 0cbd
00000230: e522 60be 4f6f 6d3e 844b 643e 087f 2e3d
00000240: ec9d 2d3e fe5d cbbe 7a5e a3be 0d21 55be
00000250: 5a6d cdbe 8106 81be e25f 193e 4845 04bd
00000260: 028e edbd 5a19 bebc a567 ac3d 1ee5 813e
00000270: e956 353e 5084 043f 2915 9f3e 2224 6ebc
00000280: 80ac d73e a10d 7d3d 4425 f73d 909f 0e3e
00000290: 67ed 12be 3c6a 2b3f 933e 343e 2f25 55be
000002a0: fa0b 553e 6572 813e d6f7 8cbe 103f 0d3d
000002b0: c354 b7bd 4a51 dbbd 8a97 463d 6121 57be
000002c0: ee3d b2bd d894 24bd dfb0 c3be 7a8c 32be
000002d0: 4e9e 29bd b24b b7be 63c2 d3bc c1d5 63be
000002e0: 2c43 78be c833 b7be 9101 4f3d d4bf bb3d
000002f0: ed9b 663e ff21 27be 2dea 4d3b 7748 21be
00000300: e27b dd3d 3e42 553d 90b3 08bd 25a1 65be
00000310: 9e1b 2abd d93d bbbd fa87 49bd 514b 29bd
00000320: 1abd 6abd d6ac 7b3e 1c1b 29be 78d1 7bbe
00000330: c733 183e c034 79bd 611f 9abd a642 eabe
00000340: 2e06 b0bd 16ee 0fbe 4877 20be 6b2e bd3d
00000350: eef3 ba3d 460a 96be 252e d63d a8eb 1dbe
00000360: ad24 d23a 77f3 0d3e 9b14 263e 0b7d cc3e
00000370: 7179 093e 2c7b 5a3e 0874 c13e 0f33 a03e
00000380: df53 953e 4d02 bc3e cae4 ce3e 733a 3d3e
00000390: b2be 803e 01f7 043f 8e41 abbd aee2 473e
000003a0: fcf4 dfbd 68ff 5cbe f300 10bc 029e 673e
000003b0: 2621 05be ba7b f8bd 3037 f8bc 55a8 193e
000003c0: 5af6 b9bd 76ee 673d 0d7e 0f3e a95c 8c3d
000003d0: f98c 82bd 555d a23e 0663 54be f2ea 10bd
000003e0: 08a4 7bbb 0045 94be c3c0 7abe e8c1 063d
000003f0: 0a3f e63d 6d2b 9b3d ce43 dc3d 3c96 9dbd

conv_net.1.0.bias f4 [32]
-0.010142929 0.009548743 -0.04348456 -0.0019872691 -0.020712726 0.0040056556 0.034817386 -0.06378712
0.046799175 0.023515843 0.013498391 -0.034592573 0.006634061 -0.017457461 -0.046239078 0.048604943
-0.059447225 0.031499464 0.026652183 0.016533699 -0.0817437 0.008766846 -0.020805692 -0.044131916
-0.055776577 -0.13852075 -0.028466715 0.009546432 -0.0016627775 -0.03194862 0.034491904 -0.012801538
00000000: 872e 26bc 5572 1c3c de1c 32bd d83c 02bb
00000010: bcad a9bc e041 833b ad9c 0e3d d2a2 82bd
00000020: 7eb0 3f3d 4ca4 c03c 5b28 5d3c f1b0 0dbd
00000030: 8a62 d93b f302 8fbc 3065 3dbd fa15 473d
00000040: ef7e 73bd 9505 013d ae55 da3c ae71 873c
00000050: 3e69 a7bd d1a2 0f3c b370 aabc abc3 34bd
00000060: fb75 64bd 62d8 0dbe 0733 e9bc a368 1c3c
00000070: 8ef1 d9ba 8edc 02bd 6247 0d3d 8bbd 51bc

conv_net.1.1.weight f4 [32]
0.87603664 0.7997463 1.0991145 0.991316 0.9030602 0.8410516 0.9797334 1.0068132
1.0806867 0.8448911 1.0446365 1.1317545 1.194594 0.9295164 1.2182983 0.7646743
1.0568589 0.99267673 0.83479923 0.9760417 1.02095 1.0945371 1.1125324 0.93371516
1.1436355 0.9489404 0.9992678 0.99342 1.0359195 0.83508384 0.9158525 1.0294764
00000000: f043 603f 2cbc 4c3f c9af 8c3f e3c6 7d3f
00000010: f42e 673f 284f 573f cfcf 7a3f 41df 803f
00000020: f153 8a3f c84a 583f a6b6 853f 55dd 903f
00000030: 75e8 983f c9f4 6d3f 33f1 9b3f b2c1 433f
00000040: 2747 873f 1020 7e3f 67b5 553f dedd 793f
00000050: 7dae 823f cb19 8c3f 7667 8e3f f507 6f3f
00000060: a662 923f c2ed 723f 04d0 7f3f c650 7e3f
00000070: 0399 843f 0ec8 553f 4f75 6a3f e2c5 833f

conv_net.1.1.bias f4 [32]
-0.29593801 -0.48243427 -0.59811014 -0.44283295 -0.45561686 -0.139027 -0.4501584 -0.5671133
-0.37876093 -0.37532175 -0.4811716 -0.10147722 -0.42311588 -0.38944635 -0.11034788 -0.21673152
-0.29518616 -0.20339437 -0.5090549 -0.7457109 -0.55719244 -0.42905045 -0.47324026 -0.45490876
-0.13039301 -0.33885548 -0.44305953 -0.32677644 -0.22713847 -0.4027583 -0.41656265 -0.48676816
00000000: 3085 97be a001 f7be bf1d 19bf 00bb e2be
00000010: 9d46 e9be 185d 0ebe 297b e6be 562e 11bf
00000020: f4ec c1be 2c2a c0be 205c f6be 4ad3 cfbd
00000030: a5a2 d8be 8365 c7be 12fe e1bd deee 5dbe
00000040: a422 97be 9d46 50be 6c51 02bf e9e6 3ebf
00000050: 2aa4 0ebf 80ac dbbe 8c4c f2be cde9 e8be
00000060: bf85 05be 777e adbe b3d8 e2be 3e4f a7be
00000070: fd96 68be 5636 cebe b347 d5be ad39 f9be

conv_net.2.0.weight f4 [32, 32, 3, 3]
-0.0016164932 -0.094381385 -0.04201226 0.020191612 -0.24878588 -0.13186161 0.079728395 -0.15540463
-0.32372373 -0.22929096 -0.42249814 0.12996934 -0.16381837 -0.2458669 -0.01557537 -0.17657036
0.10556496 0.19894964 0.13946894 0.052899666 0.44370806 -0.05363256 -0.028246881 0.15525271
-0.035689097 0.06579554 0.4193793 0.12361848 -0.077004686 0.024102518 0.25899318 0.31802443
0.26675123 0.0703812 -0.026655627 0.15780406 0.4446049 0.47951388 0.40867168 0.06870994
0.015312824 -0.0115894675 0.21926677 0.17354901 -0.19675528 -0.038654238 0.25251138 0.029417688
0.029421248 0.21395345 -0.25150183 -0.0036860707 0.24630019 0.16607578 0.055789832 -0.11349327
-0.04327401 -0.261136 -0.281162 -0.18112667 -0.3061744 -0.37133026 -0.012206702 -0.06895381
0.027485259 -0.117905945 0.21839614 -0.062365197 -0.0058171595 -0.16941081 0.041981928 0.031427212
-0.090890385 -0.037899617 -0.018096428 0.038736325 -0.42549062 -0.2974468 -0.35999474 -0.22172609
-0.20116991 -0.17344764 0.10227591 -0.07113012 0.06961437 -0.1473243 -0.09294001 0.05544787
0.026903717 -0.4696527 -0.053287838 -0.124120295 -0.2222972 -0.42951146 0.2496145 0.094840504
-0.1414411 0.32203844 0.19645563 0.13642733 0.06752013 -0.07135513 0.07223126 -0.19706601
-0.13035457 -0.055679385 0.34487948 0.19075793 -0.05323092 -0.17261755 0.064310916 0.0155551145
-0.07699563 -0.24391131 -0.16018781 0.22353384 -0.38440588 0.11553919 -0.23906302 -0.13717227
-0.025783962 -0.31582236 -0.04315708 0.39435524 0.07165273 0.30708507 0.17992117 0.078554764
0.099118404 -0.06248378 -0.18044594 0.00636693 0.2942709 0.26215428 -0.017737499 0.11969859
0.015037727 -0.19990279 0.22491825 0.02497694 -0.27509794 -0.038664922 0.108377196 -0.23203823
0.058949105 -0.29415765 -0.1847212 0.1859499 -0.04998746 0.03939009 0.07840053 -0.11483146
0.18518658 0.07449224 -0.021277154 0.04148601 -0.07369626 -0.055222873 0.03858719 -0.028856125
0.04987449 0.05139018 -0.0712196 -0.17887235 -0.36433226 -0.30694452 -0.4854891 0.034878403
-0.4475212 -0.43663067 -0.2074131 -0.0846853 -0.17824395 -0.27762112 -0.011285744 0.34468427
-0.1265818 -0.15811986 0.18371181 -0.04847975 -0.37276775 0.011419628 -0.28594112 -0.25687426
0.07893196 -0.06895315 -0.0861512 0.08138921 0.27138218 -0.23413959 -0.18983606 -0.065445006
0.3984026 -0.30424044 -0.18576393 0.060177684 -0.17278227 0.24921256 0.014174834 0.2751449
0.044521965 0.4549398 0.46514037 0.0037497107 0.3083828 0.0717207 0.10545014 -0.17014639
0.04585829 0.27296695 -0.20817868 -0.42512807 -0.14791264 0.2635853 0.24341884 -0.04785493
-0.26430732 -0.14575984 0.10322118 0.19779883 -0.03191197 -0.48025677 0.28556693 0.25208437
0.043168914 -0.26741895 0.31464583 -0.13493827 -0.18975443 -0.21593493 -0.013443914 0.014436792
-0.06436563 0.17702141 0.16901572 -0.06362903 0.08876975 0.089150794 0.06378177 0.051835455
0.23662789 0.16690761 0.21112143 -0.17046537 0.23846678 0.15291741 0.25962836 0.27041364
0.19809501 -0.04336327 -0.136016 -0.2542154 -0.5487815 -0.057345573 -0.15025654 0.12024214
00000000: 83e0 d3ba 074b c1bd 0c15 2cbd e168 a53c
00000010: bac1 7ebe bb06 07be a448 a33d 6422 1fbe
00000020: 1ebf a5be 40cb 6abe ad51 d8be af16 053e
00000030: 01c0 27be 88c4 7bbe d62f 7fbc dcce 34be
00000040: 7132 d83d 74b9 4b3e f2d0 0e3e 52ad 583d
00000050: b42d e33e d1ad 5bbd 0166 e7bc 91fa 1e3e
00000060: bb2e 12bd d0bf 863d e2b8 d63e b02b fd3d
00000070: a2b4 9dbd a572 c53c c19a 843e 19d4 a23e
00000080: 9e93 883e 0524 903d e75c dabc 6397 213e
00000090: 41a3 e33e d882 f53e 6a3d d13e ccb7 8c3d
000000a0: a4e2 7a3c c0e1 3dbc 7887 603e d5b6 313e
000000b0: 377a 49be e853 1ebd 2c49 813e 5dfd f03c
000000c0: d404 f13c 9d16 5b3e d9c4 80be 0192 71bb
000000d0: 1e36 7c3e c50f 2a3e e183 643d 296f e8bd
000000e0: 1740 31bd 9eb3 85be 77f4 8fbe 4579 39be
000000f0: e4c2 9cbe 001f bebe 9efe 47bc a837 8dbd
00000100: c428 e13c ac78 f1bd 3da3 5f3e a672 7fbd
00000110: df9d bebb 077a 2dbe 3ef5 2b3d d2b9 003d
00000120: bd24 babd a13c 1bbd f63e 94bc fba9 1e3d
00000130: e8d9 d9be f24a 98be 3b51 b8be 2a0c 63be
00000140: 7cff 4dbe 429c 31be 0876 d13d abac 91bd
00000150: fb91 8e3d 2edc 16be 5557 bebd 4e1d 633d
00000160: 2f65 dc3c 5276 f0be 5944 5abd c832 febd
00000170: e1a1 63be ede8 dbbe f29a 7f3e bd3b c23d
00000180: f0d5 10be 39e2 a43e aa2b 493e 9bb3 0b3e
00000190: fe47 8a3d a322 92bd fced 933d accb 49be
000001a0: ab7b 05be 1110 64bd 0b94 b03e 0c56 433e
000001b0: aa08 5abd a8c2 30be 71b5 833d e1da 7e3c
000001c0: e3af 9dbd e3c3 79be 4608 24be 0ee6 643e
000001d0: d9d0 c4be d09f ec3d f0cc 74be e376 0cbe
000001e0: e338 d3bc 78b3 a1be 7ac5 30bd eee8 c93e
000001f0: abbe 923d 413a 9d3e 413d 383e 52e1 a03d
00000200: 97fe ca3d feee 7fbd d2c6 38be aea1 d03b
00000210: adaa 963e 1639 863e 3b4e 91bc 8924 f53d
00000220: cc60 763c 51b3 4cbe f850 663e 719c cc3c
00000230: a3d9 8cbe 1c5f 1ebd ddf4 dd3d 6e9b 6dbe
00000240: 9e74 713d d59b 96be 8e27 3dbe a769 3e3e
00000250: a7bf 4cbd 8157 213d 7590 a03d c22c ebbd
00000260: 8da1 3d3e 638f 983d 6d4d aebc 3ced 293d
00000270: 11ee 96bd 6131 62bd 9a0d 1e3d ae63 ecbc
00000280: 3149 4c3d 827e 523d 95db 91bd 502a 37be
00000290: c289 babe d527 9dbe 0792 f8be a8dc 0e3d
000002a0: 8021 e5be 0e8e dfbe 1a64 54be 7d6f adbd
000002b0: 9585 36be 5b24 8ebe d7e7 38bc 757a b03e
000002c0: a99e 01be 2cea 21be f31e 3c3e b492 46bd
000002d0: 6adb bebe 6419 3b3c e066 92be 0685 83be
000002e0: 14a7 a13d 4f37 8dbd 0a70 b0bd 63af a63d
000002f0: 9bf2 8a3e 4ac2 6fbe 6264 42be 0808 86bd
00000300: 6dfb cb3e 67c5 9bbe e638 3ebe e07c 763d
00000310: d6ed 30be 9431 7f3e 903d 683c cbdf 8c3e
00000320: aa5c 363d dfed e83e e126 ee3e b5bd 753b
00000330: 5ae4 9d3e 4de2 923d 3ef6 d73d db3a 2ebe
00000340: e7d5 3b3d 53c2 8b3e cb2c 55be 63aa d9be
00000350: 6976 17be a7f4 863e ca42 793e 8803 44bd
00000360: 4a53 87be 1142 15be a065 d33d c78b 4a3e
00000370: 20b6 02bd 37e4 f5be d435 923e 3411 813e
00000380: e3d1 303d 23eb 88be 4219 a13e 422d 0abe
00000390: fc4e 42be 0c1e 5dbe dd43 5cbc 4b88 6c3c
000003a0: 21d2 83bd 1a45 353e 7512 2d3e f04f 82bd
000003b0: eacc b53d b194 b63d 04a0 823d 6a51 543d
000003c0: 954e 723e d4e9 2a3e 3730 583e 798e 2ebe
000003d0: a330 743e 6296 1c3e 02ee 843e a873 8a3e
000003e0: 6bd9 4a3e af9d 31bd c747 0bbe 8528 82be
000003f0: f27c 0cbf 31e3 6abd dadc 19be 8341 f63d

conv_net.2.0.bias f4 [32]
-0.019024055 -0.0012096312 -0.0037022682 -0.0029663949 0.124804765 -0.0046576406 -0.20733058 0.06586728
0.0741804 -0.041124865 0.032027017 -0.023751283 -0.030304674 -0.08725356 0.005257791 0.018585196
-0.023362339 0.0044964924 -0.05979239 0.13036764 -0.017918346 -0.020652208 -0.022588348 -0.010296569
-0.07016005 0.030362478 0.023293445 -0.08780239 0.02956404 -0.035756025 0.062805556 -0.0540791
00000000: 56d8 9bbc 7d8c 9eba c1a1 72bb d967 42bb
00000010: a499 ff3d 1f9f 98bb 784e 54be 6de5 863d
00000020: e5eb 973d 8c72 28bd c32e 033d 0d92 c2bc
00000030: 8241 f8bc ffb1 b2bd 8c49 ac3b fb3f 983c
00000040: 6062 bfbc 5057 933b dde8 74bd 187f 053e
00000050: 7fc9 92bc d22e a9bc 330b b9bc f1b2 28bc
00000060: 13b0 8fbd bbba f83c e5d1 be3c bdd1 b3bd
00000070: 4930 f23c e974 12bd 33a0 803d 0c82 5dbd

conv_net.2.1.weight f4 [32]
0.8357853 0.767746 0.9347825 1.0201787 1.0712383 1.0385634 0.976972 0.91732955
0.8569067 0.8826144 0.9899247 0.88494235 1.0680795 0.8221622 0.8843307 0.9208253
0.9043276 0.92548174 0.93748915 0.9364703 0.90436417 0.81486845 0.97317445 0.97095066
0.93613416 1.2297732 0.79929876 0.78035563 0.90289515 0.89287555 0.9913556 1.004964
00000000: 07f6 553f 008b 443f e84d 6f3f 3795 823f
00000010: 561e 893f a5ef 843f d61a 7a3f 1cd6 6a3f
00000020: 3d5e 5b3f 04f3 613f b56b 7d3f 958b 623f
00000030: d4b6 883f 3979 523f 7f63 623f 35bb 6b3f
00000040: 0382 673f 5fec 6c3f 4aff 6f3f 85bc 6f3f
00000050: 6984 673f 389b 503f f621 793f 3990 783f
00000060: 7da6 6f3f 3569 9d3f d89e 4c3f 63c5 473f
00000070: 2324 673f 7e93 643f 7bc9 7d3f a9a2 803f

conv_net.2.1.bias f4 [32]
-0.4588256 -0.45507446 -0.68765116 -0.61251307 -0.7396116 -0.42957258 -0.43499526 -0.6167275
-0.43210265 -0.4999495 -0.44242665 -0.7615288 -0.7764432 -0.73442847 -0.7339469 -0.69088155
-0.47651175 -0.81340504 -0.61062044 -0.4383358 -0.35581976 -0.51927495 -0.90081966 -0.7267641
-0.6226344 -0.5206082 -0.6033147 -0.36384022 -0.556275 -0.6709314 -0.55758363 -0.41463485
00000000: 30eb eabe 85ff e8be e809 30bf a8cd 1cbf
00000010: 3057 3dbf f0f0 dbbe b3b7 debe dae1 1dbf
00000020: 8f3c ddbe 62f9 ffbe bf85 e2be 8df3 42bf
00000030: fbc4 46bf 8103 3cbf f2e3 3bbf 9ddd 30bf
00000040: 59f9 f3be 503b 50bf 9f51 1cbf 8d6d e0be
00000050: 022e b6be 34ef 04bf 1e9c 66bf 360d 3abf
00000060: f864 1fbf 9446 05bf d572 1abf 4449 babe
00000070: 0a68 0ebf 29c2 2bbf cdbd 0ebf 054b d4be

conv_net.3.0.weight f4 [32, 32, 3, 3]
0.16405055 0.040870015 -0.017431654 -0.14580122 -0.27968693 0.03248218 0.121665366 0.044375654
-0.20377332 0.041871544 -0.21767385 -0.1758053 0.026807103 0.08816614 0.051310617 0.11781556
0.15924396 0.2301339 0.1568971 -0.18147504 -0.22286347 -0.19584572 -0.16624585 -0.06508047
-0.04178673 -0.2213267 0.11588704 0.20459889 -0.031752374 0.13048442 0.23024659 -0.43157402
0.1730007 -0.1387045 0.1121316 0.13449243 -0.28629434 -0.31652614 -0.0682074 0.20752656
0.31018686 -0.3068147 -0.20756467 0.32043293 0.091641545 -0.010580655 -0.15019849 -0.21062668
-0.13458961 -0.1240338 -0.12105368 0.23946112 -0.34780398 -0.24884245 0.09980926 -0.02504345
-0.12206251 -0.016025713 -0.122402 -0.20352344 -0.11004263 0.12140328 0.35352257 0.11048473
-0.11666461 0.15969202 -0.009523779 -0.31518885 -0.289401 0.21695152 0.1633527 0.010495398
0.08726991 0.37688923 0.0726761 0.057397522 -0.21553364 -0.023974901 0.029221645 -0.17941205
0.16616283 -0.060671583 0.13572337 0.4947493 0.33395493 -0.26203915 -0.2335707 -0.18449871
-0.056332175 -0.2475952 0.015118168 0.10344949 -0.03889535 -0.08098801 0.0063168164 -0.05110379
0.08579075 0.087490395 -0.02042613 0.16984236 0.4314077 0.107095875 0.04644992 0.03668434
0.13635816 0.13874958 0.0997098 -0.32113567 0.26742187 -0.026843693 -0.3969481 0.5066992
-0.029761685 -0.008873511 -0.2646193 0.12471662 0.45876622 0.33977968 0.26050922 0.07658072
0.02464796 -0.12292664 -0.15208477 0.1230775 -0.053388953 0.25042298 -0.40179935 -0.48398533
-0.06965933 -0.06263705 -0.035844393 0.012806834 0.15401757 0.103987224 -0.296908 0.12217387
0.2530984 -0.03324734 0.2173377 0.19153346 -0.0904918 -0.18908171 -0.17604211 0.038889255
-0.121071704 -0.0016820064 0.27339175 0.053094544 0.05638795 0.1495148 0.27018237 0.3662773
0.1496079 0.30318123 -0.6723841 0.36658692 0.006500584 0.19347137 -0.09181449 0.14757463
-0.03438832 -0.061924983 0.1709189 0.010327278 0.106308445 0.045193773 0.062245075 0.029047621
-0.39713016 0.21444146 0.26088473 -0.25184754 -0.5150746 -0.014604162 -0.22418295 -0.08840539
0.07430171 0.09805405 -0.06290026 -0.1445723 0.19689992 -0.22275066 -0.21097137 0.14497672
-0.052641224 -0.015425439 -0.06711015 0.2861935 0.053338878 -0.12698969 -0.09593816 0.17659307
0.28303984 0.062855214 0.28756568 0.32691556 0.028523374 -0.122147284 -0.28177032 -0.2720598
-0.042989347 -0.27826962 -0.29046038 -0.15742934 -0.40993306 -0.4098409 -0.6793693 0.37061667
0.22515993 -0.0993472 -0.46759358 -0.18701315 0.05517782 0.3930563 0.24711575 0.27445537
-0.28273177 -0.0636332 0.18326178 -0.14409511 0.24516663 -0.00040441495 -0.065630846 -0.28066254
0.24127543 -0.3349671 -0.031758294 -0.061571237 -0.11598406 -0.15659976 0.32419103 0.023934625
-0.2828655 -0.19103086 -0.15047896 -0.124818794 -0.4231568 -0.08537381 -0.027785052 -0.29889527
0.041775476 -0.36039904 -0.057441235 0.071599096 0.19363646 0.087386265 0.24695928 0.112811066
-0.15462187 -0.05675323 0.006627634 -0.06817574 0.060829043 0.20153126 0.12834926 -0.42675042
00000000: defc 273e 5167 273d d4cc 8ebc ea4c 15be
00000010: 2033 8fbe 090c 053d b12b f93d 3fc3 353d
00000020: f4a9 50be 7f81 2b3d e5e5 5ebe 4e06 34be
00000030: 929a db3c 7390 b43d 152b 523d 4949 f13d
00000040: d910 233e 39a8 6b3e a2a9 203e 98d4 39be
00000050: 5236 64be c88b 48be 5a3c 2abe e948 85bd
00000060: 9028 2bbd 77a3 62be 2f56 ed3d 5f82 513e
00000070: c70e 02bd b59d 053e c3c5 6b3e 45f7 dcbe
00000080: 1827 313e 8d08 0ebe 41a5 e53d 62b8 093e
00000090: 2c95 92be b70f a2be 52b0 8bbd d881 543e
000000a0: d0d0 9e3e d116 9dbe d58b 54be c90f a43e
000000b0: 90ae bb3d 7c5a 2dbc a2cd 19be 85ae 57be
000000c0: dcd1 09be 6f05 febd feea f7bd 4c35 753e
000000d0: 5d13 b2be 8ed0 7ebe cc68 cc3d ec27 cdbc
000000e0: e9fb f9bd 5b48 83bc e6ad fabd 7368 50be
000000f0: 085e e1bd 48a2 f83d e900 b53e d145 e23d
00000100: dbed eebd 4e86 233e a009 1cbc 6f60 a1be
00000110: 5e2c 94be 8a28 5e3e ee45 273e e4f4 2b3c
00000120: 91ba b23d a0f7 c03e 35d7 943d aa19 6b3d
00000130: dab4 5cbe 0367 c4bc 3b62 ef3c cbb7 37be
00000140: 9726 2a3e c482 78bd 11fb 0a3e c84f fd3e
00000150: 24fc aa3e ff29 86be 282d 6fbe 3bed 3cbe
00000160: 91bc 66bd 9989 7dbe 31b2 773c 54dd d33d
00000170: bb50 1fbd 0bdd a5bd 4cfd ce3b 3552 51bd
00000180: 10b3 af3d 2a2e b33d b354 a7bc 28eb 2d3e
00000190: 78e1 dc3e 1555 db3d 4542 3e3d 5242 163d
000001a0: 79a1 0b3e 5f14 0e3e a734 cc3d e56b a4be
000001b0: 85eb 883e 4ee7 dbbc c83c cbbe 0ab7 013f
000001c0: c7ce f3bc 3462 11bc 2e7c 87be 6d6b ff3d
000001d0: 68e3 ea3e 9af7 ad3e 7761 853e 5ad6 9c3d
000001e0: 85ea c93c f6c0 fbbd 1cbc 1bbe 0e10 fc3d
000001f0: 60ae 5abd 7137 803e a5b8 cdbe edcc f7be
00000200: 8da9 8ebd db47 80bd 92d1 12bd c1d3 513c
00000210: c8b6 1d3e 41f7 d43d 5304 98be 4b36 fa3d
00000220: 1d96 813e 5d2e 08bd c68d 5e3e 5921 443e
00000230: c453 b9bd a39e 41be 6244 34be 574a 1f3d
00000240: 71f4 f7bd c576 dcba 01fa 8b3e aa79 593d
00000250: 0df7 663d 681a 193e 5855 8a3e b388 bb3e
00000260: d032 193e 923a 9b3e 5d21 2cbf 48b1 bb3e
00000270: da02 d53b 5c1d 463e 3c09 bcbd ce1d 173e
00000280: c4da 0cbd 0da5 7dbd 5d05 2f3e be33 293c
00000290: 3eb8 d93d 1b1d 393d b1f4 7e3d 47f5 ed3c
000002a0: a554 cbbe 8b96 5b3e af92 853e 29f2 80be
000002b0: eedb 03bf 4c46 6fbc 3790 65be e30d b5bd
000002c0: 7f2b 983d 90d0 c83d dad1 80bd c30a 14be
000002d0: 22a0 493e c018 64be e108 58be c774 143e
000002e0: 539e 57bd fbba 7cbc 0c71 89bd f487 923e
000002f0: de79 5a3d 9609 02be 3a7b c4bd d0d4 343e
00000300: 99ea 903e 3cba 803d cf3b 933e 7a61 a73e
00000310: daa9 e93c 5b28 fabd 3344 90be 6c4b 8bbe
00000320: 9915 30bd 5b79 8ebe 39b7 94be 2835 21be
00000330: bfe2 d1be abd6 d1be 25eb 2dbf 78c1 bd3e
00000340: 5390 663e 8b76 cbbd 6d68 efbe 6080 3fbe
00000350: 2302 623d ad3e c93e e90b 7d3e 6a85 8c3e
00000360: 38c2 90be 2052 82bd faa8 3b3e ab8d 13be
00000370: f60c 7b3e a807 d4b9 7769 86bd 00b3 8fbe
00000380: e810 773e cf80 abbe fc14 02bd 1f32 7cbd
00000390: 0d89 edbd b05b 20be 5efc a53e 8c12 c43c
000003a0: bfd3 90be 989d 43be 2817 1abe ffa0 ffbd
000003b0: 02a8 d8be 77d8 aebd 7a9d e3bc cd08 99be
000003c0: c31c 2b3d 3986 b8be 8047 6bbd 8ca2 923d
000003d0: a348 463e 92f7 b23d e5e2 7c3e 7d09 e73d
000003e0: 3255 1ebe 1376 68bd a02c d93b b99f 8bbd
000003f0: e027 793d 365e 4e3e fd6d 033e 087f dabe

conv_net.3.0.bias f4 [32]
0.05183743 -0.060444515 0.002336671 -0.009204997 0.023914063 -0.12820569 -0.04176311 0.04443416
0.0075250207 0.067818575 -0.101475656 -0.10935215 -0.12229475 0.05674893 -0.02243913 -0.13698143
0.08718895 0.06783792 -0.019975284 -0.14103168 -0.04991296 -0.10021126 -0.1559028 0.17222133
-0.08463971 -0.09953303 0.07396369 -0.17019893 -0.044944476 -0.021979798 -0.06300261 -0.06478096
00000000: 7c53 543d ab94 77bd d622 193b 8ed0 16bc
00000010: 6de7 c33c 5a48 03be cb0f 2bbd 9800 363d
00000020: 7394 f63b 77e4 8a3d 78d2 cfbd 05f4 dfbd
00000030: ab75 fabd 9171 683d 44d2 b7bc dc44 0cbe
00000040: 1f90 b23d 9bee 8a3d 35a3 a3bc 9c6a 10be
00000050: 8871 4cbd 903b cdbd fca4 1fbe ca5a 303e
00000060: 9657 adbd f9d7 cbbd 467a 973d a148 2ebe
00000070: b317 38bd fa0e b4bc 8307 81bd e1ab 84bd

conv_net.3.1.weight f4 [32]
2.4713702 2.1480627 2.0448258 2.0623899 2.3091254 2.3550901 2.2330039 2.0165045
1.843194 2.412874 2.3419836 1.9866229 2.0621989 2.164491 2.0729327 2.129289
2.434857 1.9816568 2.3134 1.9242549 2.2815762 1.8481953 2.08668 2.4447174
2.224594 2.8191764 1.8956461 2.0558748 2.2702303 1.8615957 2.4592984 2.4028358
00000000: ee2a 1e40 dc79 0940 6dde 0240 32fe 0340
00000010: b6c8 1340 ccb9 1640 89e9 0e40 690e 0140
00000020: c8ed eb3f 876c 1a40 0fe3 1540 a949 fe3f
00000030: 11fb 0340 0587 0a40 eeaa 0440 4546 0840
00000040: b2d4 1b40 eea6 fd3f bf0e 1440 fc4d f63f
00000050: 5805 1240 aa91 ec3f 2a8c 0540 4076 1c40
00000060: c05f 0e40 636d 3440 88a4 f23f 7493 0340
00000070: 744b 1140 c548 ee3f 2565 1d40 10c8 1940

conv_net.3.1.bias f4 [32]
-0.017842237 -0.11570771 -0.3769655 0.06834236 -0.22504546 -0.34244218 -0.14942053 -0.0314792
-0.15251286 -0.062263515 -0.5751163 -0.18122704 -0.42725766 -0.3436993 -0.40372983 -0.23690632
-0.31275788 -0.2803095 -0.25488067 -0.3376932 -0.21820457 -0.19804661 -0.5034135 -0.30388212
-0.33858785 -0.49822137 -0.055832874 -0.325467 -0.26518396 -0.12593263 -0.18283375 -0.4681266
00000000: e229 92bc 2af8 ecbd 9f01 c1be 14f7 8b3d
00000010: 5172 66be 9554 afbe b201 19be 55f0 00bd
00000020: 552c 1cbe 0708 7fbd d23a 13bf 9593 39be
00000030: 84c1 dabe 5bf9 afbe adb5 cebe 9297 72be
00000040: cd21 a0be ba84 8fbe b87f 82be 20e6 acbe
00000050: 0571 5fbe bbcc 4abe b5df 00bf 7096 9bbe
00000060: 635b adbe df16 ffbe 03b1 64bd 9ca3 a6be
00000070: 31c6 87be 7cf4 00be c538 3bbe 4aae efbe

fc_net.0.weight f4 [128, 800]
-0.1311828 -0.31720296 0.32248256 -0.034167428 -0.20562728 -0.008241984 -0.13920616 0.08684594
-0.027050508 0.45095477 0.23617427 0.62642425 1.1688284 0.9787504 0.45947415 0.050075535
0.10398849 1.0849966 0.69058776 0.5340234 0.05425779 0.2942533 -0.27079412 0.36055827
0.12580766 -0.0762566 0.17031248 -0.18020612 0.02303519 0.0463273 0.46024922 0.27298707
0.4312554 0.28887394 0.40367946 0.06963354 0.08882776 0.26606685 0.14948441 0.66829664
0.52158004 0.020630773 0.30616888 0.5179051 0.0808574 -0.10155743 0.5755002 -0.39419708
0.043157198 0.30663052 0.02351449 0.7133423 0.7195282 -0.0072135017 0.09194104 -0.3777962
-0.5490305 -0.5758641 -0.293783 -0.22673129 -0.1108075 -0.23916832 0.18898325 -0.28987938
0.78126776 -0.46544483 -0.32390264 -0.19864613 0.1283453 0.11581435 0.083082534 -0.41101053
-0.33179376 0.36008325 0.28706914 0.7345131 0.28530145 0.21621044 0.4229722 0.3278002
0.2598874 0.7559333 0.08443188 0.5155508 0.39740974 -0.052781142 0.6851251 0.7875441
0.6645406 -0.17719452 0.18565854 0.510041 0.89370126 0.58442485 0.19606633 0.3152536
0.2959732 -0.021116823 -0.010443812 0.27202043 0.21513483 0.16268714 0.2876377 0.6109967
0.42852497 -0.23152483 -0.2880744 -0.005478577 0.05531344 0.63442916 0.34320167 -0.28820553
0.25613487 0.02185259 0.29743963 0.15627228 0.0103726005 -0.120682776 0.12587248 -0.19701436
0.07426919 0.0053418125 0.37589517 0.346865 -0.16424322 -0.11445665 -0.24047883 0.020553185
-0.01945152 -0.6326595 -0.6977381 -0.22629921 0.15134026 -0.05140899 -0.662143 -0.22643837
-0.15581621 -0.14063638 0.1647157 -0.060159028 -0.13330767 0.0059121037 -0.3163437 -0.22829273
-0.0787543 0.24761118 -5.970836e-05 0.034582105 0.34389222 -0.040473312 0.30497977 0.26673636
-0.21576686 0.39961693 0.27694395 -0.3925827 -0.43677947 -0.044711165 0.07368996 0.081420094
-0.42001066 0.09539288 0.4644003 0.006975016 0.42986795 0.083803594 0.37051398 0.16302247
0.5578267 0.049538843 -0.16575918 0.2133436 0.30912855 0.3341068 -0.3874793 0.49787894
-0.24396825 0.2235725 -0.28048164 0.4750755 0.30801263 -0.0072199292 -0.18085472 -0.20027049
-0.078652665 -0.16390415 -0.5810752 -0.45843863 -1.3057758 -0.44028568 -0.27281693 0.11167197
0.13696262 0.021558104 -0.052089833 0.050577376 0.052867223 0.46752915 0.50596106 0.1786682
-0.068585575 -0.24480225 0.37804592 0.15657637 -0.13992573 0.28710192 -0.41605017 0.17750062
0.2670855 -0.15257366 -0.0648547 -0.028445061 -0.07498829 0.02110588 0.0032821514 0.4797654
0.5040758 0.07678692 0.30657852 0.41255486 0.21885255 0.05656384 0.13957515 0.09821769
0.43006024 0.3670808 -0.016372865 0.10365079 -0.21054268 0.09358014 -0.027484396 -0.15797037
-0.529869 -0.28275922 0.34557956 0.066287845 0.047748785 -0.11828538 -0.17159726 0.55844074
0.16790557 0.09563468 0.056714375 -0.5598471 0.0453964 -0.2518479 0.011711109 0.23718342
-0.30083612 0.0067633493 0.40819612 0.18103953 0.116697714 0.64060515 0.5649023 0.573753
00000000: c954 06be 6d68 a2be 6f1c a53e 25f3 0bbd
00000010: f58f 52be 6309 07bc 0f8c 0ebe 49dc b13d
00000020: 0799 ddbc 8be3 e63e abd7 713e 575d 203f
00000030: 2b9c 953f 638f 7a3f 3240 eb3e 011c 4d3d
00000040: ebf7 d43d 2be1 8a3f 5cca 303f c2b5 083f
00000050: 6b3d 5e3d 5ea8 963e 87a5 8abe 189b b83e
00000060: b9d3 003e 6c2c 9cbd 6566 2e3e f487 38be
00000070: 4bb4 bc3c b2c1 3d3d c9a5 eb3e f6c4 8b3e
00000080: 82cd dc3e 49e7 933e 13af ce3e 089c 8e3d
00000090: 54eb b53d ea39 883e 7112 193e 7d15 2b3f
000000a0: 4586 053f de01 a93c 2bc2 9c3e 6e95 043f
000000b0: 9198 a53d 58fd cfbd fb53 133f 33d4 c9be
000000c0: 9ac5 303d adfe 9c3e 76a1 c03c 9a9d 363f
000000d0: 0033 383f 3d5f ecbb 954b bc3d 816e c1be
000000e0: 438d 0cbf d46b 13bf ba6a 96be 3f2c 68be
000000f0: 0bef e2bd 8ae8 74be d384 413e 126b 94be
00000100: 2a01 483f c94e eebe 91d6 a5be e469 4bbe
00000110: f36c 033e 1330 ed3d 2d27 aa3d f96f d2be
00000120: dfe0 a9be d55c b83e bafa 923e 0d09 3c3f
00000130: 0813 923e 4566 5d3e d08f d83e 6ed5 a73e
00000140: f60f 853e d884 413f 9fea ac3d 23fb 033f
00000150: 4a79 cb3e 0a31 58bd 5c64 2f3f 7d9c 493f
00000160: 551f 2a3f 7b72 35be 461d 3e3e 0c92 023f
00000170: 9bc9 643f de9c 153f 9dc5 483e eb68 a13e
00000180: cd89 973e 30fd acbc 861c 2bbc 4346 8b3e
00000190: 4e4c 5c3e 7597 263e 4045 933e 486a 1c3f
000001a0: a067 db3e d814 6dbe 7d7e 93be a385 b3bb
000001b0: 5890 623d f369 223f 21b8 af3e ad8f 93be
000001c0: 1c24 833e 3404 b33c 024a 983e d705 203e
000001d0: d7f1 293c 8828 f7bd b7e4 003e 22be 49be
000001e0: 721a 983d 5f0a af3b 5575 c03e 4a98 b13e
000001f0: 602f 28be 4068 eabd 1540 76be 275f a83c
00000200: cb58 9fbc f9f5 21bf f79e 32bf fbba 67be
00000210: f1f8 1a3e 3c92 52bd 3482 29bf 76df 67be
00000220: 498e 1fbe fc02 10be 3cab 283e 5069 76bd
00000230: ce81 08be 52ba c13b cdf7 a1be 92c5 69be
00000240: ef49 a1bd c98d 7d3e 5d6f 7ab8 f7a5 0d3d
00000250: a412 b03e 58c7 25bd 4f26 9c3e ab91 883e
00000260: fdf1 5cbe 979a cc3e 99cb 8d3e 9a00 c9be
00000270: 8fa1 dfbe 0e23 37bd c3ea 963d 94bf a63d
00000280: a30b d7be 585d c33d e0c5 ed3e ad8e e43b
00000290: a717 dc3e 38a1 ab3d 02b4 bd3e 5def 263e
000002a0: bbcd 0e3f 3ee9 4a3d c6bc 29be bf76 5a3e
000002b0: 1946 9e3e 0c10 ab3e b063 c6be fde9 fe3e
000002c0: d0d2 79be 30f0 643e 4a9b 8fbe 193d f33e
000002d0: d5b3 9d3e 2895 ecbb fb31 39be b513 4dbe
000002e0: a614 a1bd 7dd6 27be 58c1 14bf 78b8 eabe
000002f0: a923 a7bf 206d e1be a9ae 8bbe 46b4 e43d
00000300: ee3f 0c3e 9f9a b03c 265c 55bd 392a 4f3d
00000310: 4d8b 583d fb5f ef3e aa86 013f ccf4 363e
00000320: 9876 8cbd 71ad 7abe 3c8f c13e 8e55 203e
00000330: b148 0fbe 06ff 923e 8704 d5be b9c2 353e
00000340: 6ebf 883e 453c 1cbe 8ad2 84bd 9e05 e9bc
00000350: 7693 99bd 3de6 ac3c 5d19 573b cfa3 f53e
00000360: 1d0b 013f 7642 9d3d dcf7 9c3e 643a d33e
00000370: e21a 603e 7caf 673d caec 0e3e 5b26 c93d
00000380: db30 dc3e 04f2 bb3e 6320 86bc de46 d43d
00000390: 8098 57be f2a6 bf3d f526 e1bc fcc2 21be
000003a0: 7fa5 07bf d1c5 90be ceef b03e ecc1 873d
000003b0: 3b94 433d 9b3f f2bd 31b7 2fbe f9f5 0e3f
000003c0: 70ef 2b3e 1ddc c33d 554d 683d 2452 0fbf
000003d0: 93f1 393d 35f2 80be f4df 3f3c 36e0 723e
000003e0: 3107 9abe 169f dd3b 15ff d03e 6d62 393e
000003f0: 36ff ee3d b3fe 233f 709d 103f 7ae1 123f

fc_net.0.bias f4 [128]
0.21929546 -0.04513235 -0.016295055 -0.031059833 -0.030427206 0.027367203 0.016010225 -0.036810473
0.000985211 -0.018025223 -0.0010234346 -0.012169155 -0.008383765 -0.022581948 -0.039650835 -0.041169375
-0.033177543 0.042709958 -0.0061135446 -0.017086335 -0.008205245 0.0024962546 -0.0007386522 0.012067609
0.007814923 -0.024257658 -0.019318547 0.0029929772 -0.02994708 -0.006058645 -0.025075508 -0.027433183
-0.060496658 0.022389574 0.023425026 -0.024869097 -0.017573513 -0.04949306 0.015412878 -0.02582958
0.021858206 0.0102068875 -0.018565215 0.18685332 -0.026511002 -0.024574645 -0.028135607 -0.027252251
-0.023991121 -0.0012746068 0.015988002 0.0064542554 -0.017571775 0.021496406 0.005331319 -0.031304456
-0.007770724 -0.03215793 -0.03312531 -0.027246462 -0.029622627 0.0043960046 -0.03339787 -0.0240647
-0.033045623 -0.018347923 -0.038944867 0.011738922 -0.019447323 -0.016175603 -0.025825875 -0.022636924
0.005356639 -0.039425407 -0.024762474 0.0008542103 0.009875701 -0.035355702 -0.0051091155 -0.013107541
-0.043514226 -0.0128220655 -0.029018702 -0.032177217 -0.013404501 0.0002816029 0.016273882 0.028381001
-0.04068713 -0.018745968 0.010000178 0.010934997 0.023361396 -0.0019808037 0.004651355 -0.00045278593
0.17121929 -0.009788208 0.009859287 0.007765461 -0.024180362 -0.028552117 0.01886034 0.014170308
-0.018538387 0.0025407108 0.0008616579 0.0050945026 -0.012589259 -0.060284406 -0.008064869 -0.061600346
-0.03306925 -0.043297023 -0.0032620393 -0.014614933 -0.017400425 -0.03134893 0.015137453 -0.04638077
0.008966613 -0.045964736 -0.025316752 0.011470684 -0.042586297 -0.025858834 -0.011258131 0.01088058
00000000: fd8e 603e b3dc 38bd 357d 85bc 3171 febc
00000010: 7a42 f9bc 2f31 e03c e027 833c 94c6 16bd
00000020: 3222 813a a2a9 93bc c424 86ba 2361 47bc
00000030: 0f5c 09bc c7fd b8bc ea68 22bd 38a1 28bd
00000040: 2de5 07bd a3f0 2e3d 2154 c8bb a4f8 8bbc
00000050: 4b6f 06bc 3498 233b 1ca2 41ba 38b7 453c
00000060: 2a0a 003c ffb7 c6bc ee41 9ebc d325 443b
00000070: 9453 f5bc 9987 c6bb 276b cdbc 8ebb e0bc
00000080: 58cb 77bd 576a b73c d7e5 bf3c 47ba cbbc
00000090: 54f6 8fbc 3cb9 4abd 4c86 7c3c 8e98 d3bc
000000a0: fb0f b33c ca3a 273c 1416 98bc 7a56 3f3e
000000b0: 9a2d d9bc c450 c9bc a57c e6bc 1d40 dfbc
000000c0: 0789 c4bc b510 a7ba 45f9 823c 387e d33b
000000d0: aff2 8fbc 3b19 b03c 58b2 ae3b 1a39 00bd
000000e0: 8fa1 febb 09b8 03bd 68ae 07bd f933 dfbc
000000f0: 27ab f2bc 5c0c 903b 34cc 08bd 5523 c5bc
00000100: d95a 07bd 624e 96bc a784 1fbd 9c54 403c
00000110: fe4f 9fbc b382 84bc c990 d3bc 1271 b9bc
00000120: bf86 af3b 897c 21bd acda cabc 15ed 5f3a
00000130: b1cd 213c 24d1 10bd 5e6a a7bb 03c1 56bc
00000140: f93b 32bd a413 52bc a1b8 edbc 42cc 03bd
00000150: 8d9e 5bbc 1aa4 9339 ce50 853c 467f e83c
00000160: 8ca7 26bd 2591 99bc c9d7 233c b428 333c
00000170: 6660 bf3c 5fd0 01bb 656a 983b e663 edb9
00000180: 1c54 2f3e b85e 20bc d988 213c 6975 fe3b
00000190: e515 c6bc 21e6 e9bc 0081 9a3c 942a 683c
000001a0: d1dd 97bc 0e82 263b e2e0 613a c9ef a63b
000001b0: 2e43 4ebc c8ec 76bd 8322 04bc a550 7cbd
000001c0: 9f73 07bd 3858 31bd f0c7 55bb 7973 6fbc
000001d0: 568b 8ebc bc67 00bd 1403 783c c3f9 3dbd
000001e0: b3e8 123c 8545 3cbd 1465 cfbc 89ef 3b3c
000001f0: f86e 2ebd e8d5 d3bc 0674 38bc 7644 323c

fc_net.2.weight f4 [5, 128]
-0.020663459 -0.038800344 -0.046718273 -0.023425328 0.018140104 -0.019874329 -0.07963963 -0.06706224
-0.085072234 -0.0056692827 0.08169016 0.06975487 0.03295904 0.009734291 0.019357484 -0.03681396
-0.038731843 0.010322708 0.05849467 -0.009284539 0.015999965 0.010318345 0.06496375 0.028754864
-0.058832694 -0.00902865 0.045052927 -0.011395674 -0.014483304 -0.005035527 -0.011242238 -0.022464793
0.084875986 -0.05833708 -0.003478211 -0.0023375885 0.011207206 0.002739608 0.027354058 -0.07374026
0.030434938 -0.044144012 0.05118524 -0.070687 0.062249806 -0.056313522 -0.09647515 -0.04006783
0.025850428 0.07601163 0.06301083 0.03576303 0.0017725418 0.03392002 0.04960036 -0.040880352
-0.070749864 0.05213991 0.07926268 0.046273105 0.008664291 -0.055062134 -0.049633972 0.015361745
0.07409156 -0.060199045 0.023223862 0.0006950117 -0.04230782 -0.05558346 0.03760371 0.07818721
0.059901293 -0.010479456 0.0554475 0.036218844 0.07392609 -0.012977095 0.009477095 0.08010748
-0.058914647 -0.0047158096 -0.023861246 -0.013945464 -0.026577082 0.01516678 -0.0020940178 -0.08110864
-0.01810278 -0.04312683 0.04533608 0.0040476397 -0.07837713 0.009221085 0.0016000762 0.040352255
-0.06546972 0.057291854 -0.028423838 0.045154043 0.048086066 0.0041691656 0.0738194 -0.03584079
-0.062196475 0.07753563 0.05371575 0.049195793 -0.025637751 0.011455799 0.061602723 0.0045400937
-0.0128720505 -0.025414053 0.011765694 0.075075485 -0.011462482 0.05619183 -0.012348727 -0.0746062
0.07819529 0.040262703 -0.0024262504 -0.033626657 0.0054154135 0.033495933 -0.089024894 0.009754241
-0.01741489 -0.048992116 -0.053020127 -0.024031658 0.019077046 0.04641273 0.07858391 -0.05359386
0.038025215 -0.016994158 0.029255023 -0.003049923 -0.07444117 -0.028576722 -0.06482947 0.04586365
-0.08871799 0.0059007066 -0.036687627 -0.037374556 0.014523656 -0.031566475 -0.042697992 -0.049921148
-0.017338153 -0.008466666 0.03613178 -0.046801105 -0.048808485 0.051352333 0.037256178 -0.0146483295
-0.011828134 0.065610096 0.00025566266 0.01721724 -0.039610486 0.02211571 -0.03267002 0.01708474
0.04306476 -0.016157996 0.002842932 -0.07329635 -0.060953747 0.06709671 -0.061213903 -0.072893955
0.045082416 -0.019359257 -0.0822571 0.043222975 0.070152156 0.03340015 0.06450781 0.021962393
-0.09131362 0.032445908 0.07021966 0.06325144 0.07490223 0.021995248 -0.027313836 0.042686813
0.075047724 0.032213066 -0.037873805 -0.05513662 -0.040050283 0.0040217037 -0.05463456 0.046944283
-0.06783933 -0.011597247 -0.053596903 0.03861791 0.033165343 -0.0013848556 0.06719689 0.0007054302
-0.057913084 -0.028825363 -0.0075124577 -0.018634202 -0.047470447 -0.017293382 -0.05842814 0.05219143
0.024538305 -0.025679382 -0.045541503 0.039696362 -0.002716827 0.027278965 -0.0395641 0.034757745
-0.058007035 -0.00945766 -0.024522623 0.07888848 0.047246456 -0.026714403 0.0024289773 0.05092691
0.0025869026 0.07778477 -0.041081157 0.043443054 -0.035139743 0.07577494 0.07631506 -0.0020197204
0.046560455 -0.0054450426 -0.004654339 0.018454233 0.003463883 -0.010960006 0.0051041185 0.003544032
-0.004884556 0.025324509 0.07106353 0.00820766 -0.007558551 -0.01522722 -0.11047775 -0.04402747
00000000: 6a46 a9bc 1ced 1ebd a95b 3fbd 79e6 bfbc
00000010: 8e9a 943c 7dcf a2bc 1a1a a3bd ed57 89bd
00000020: 5a3a aebd 64c5 b9bb 2c4d a73d a4db 8e3d
00000030: 0f00 073d 937c 1f3c 9693 9e3c 3cca 16bd
00000040: 48a5 1ebd 9320 293c 1b98 6f3d 2e1e 18bc
00000050: 5c12 833c 470e 293c b70b 853d 528f eb3c
00000060: 8dfa 70bd e7ec 13bc 6b89 383d ecb4 3abc
00000070: 614b 6dbc 1001 a5bb 5d31 38bc 1608 b8bc
00000080: 76d3 ad3d ddf2 6ebd b2f2 63bb 3a32 19bb
00000090: 6e9e 373c ff8a 333b 9e15 e03c 2205 97bd
000000a0: b152 f93c 5ad0 34bd 9da7 513d 59c4 90bd
000000b0: a7f9 7e3d 02a9 66bd c394 c5bd 2a1e 24bd
000000c0: 47c4 d33c fcab 9b3d d20b 813d 417c 123d
000000d0: a254 e83a b8ef 0a3d bf29 4b3d 2872 27bd
000000e0: 4ee5 90bd a990 553d 7954 a23d de88 3d3d
000000f0: acf4 0d3c d588 61bd fe4c 4bbd d4af 7b3c
00000100: 51bd 973d 4693 76bd f83f be3c 7231 363a
00000110: f74a 2dbd 7bab 63bd 5906 1a3d 9e20 a03d
00000120: 0f5b 753d 06b2 2bbc eb1c 633d 365a 143d
00000130: 9066 973d e29d 54bc d145 1b3c 640f a43d
00000140: 7c50 71bd 1487 9abb a978 c3bc 847b 64bc
00000150: 2eb8 d9bc 167e 783c ca3b 09bb 491c a6bd
00000160: 484c 94bc c2a5 30bd 53b2 393d 10a2 843b
00000170: 3084 a0bd 0914 173c a6b9 d13a 6848 253d
00000180: fd14 86bd ddaa 6a3d 1cd9 e8bc 72f3 383d
00000190: e5f5 443d 7f9d 883b a02e 973d cbcd 12bd
000001a0: bbc1 7ebd 00cb 9e3d 0c05 5c3d 8781 493d
000001b0: 4306 d2bc 1bb1 3b3c 2353 7c3d 11c5 943b
000001c0: 4be5 52bc 2231 d0bc e6c4 403c 2dc1 993d
000001d0: 22cd 3bbc 6829 663d 5152 4abc 23cb 98bd
000001e0: da24 a03d 81ea 243d ba01 1fbb 1bbc 09bd
000001f0: c873 b13b 0833 093d af52 b6bd 41d0 1f3c
00000200: aca9 8ebc f5ab 48bd a22b 59bd 0ade c4bc
00000210: 7747 9c3c 461b 3e3d 9af0 a03d 3c85 5bbd
00000220: 54c0 1b3d 5537 8bbc 3ba8 ef3c 38e1 47bb
00000230: 9d74 98bd bb19 eabc 50c5 84bd 86db 3b3d
00000240: c7b1 b5bd b75a c13b c445 16bd 1016 19bd
00000250: a1f4 6d3c d94b 01bd 17e4 2ebd 1e7a 4cbd
00000260: be08 8ebc c5b7 0abc ebfe 133d 84b2 3fbd
00000270: 68eb 47bd d356 523d ef99 183d 8cff 6fbc
00000280: caca 41bc 965e 863d 760a 8639 2b0b 8d3c
00000290: 9b3e 22bd 012c b53c 00d1 05bd 4cf5 8b3c
000002a0: ac64 303d c65d 84bc 7c50 3a3b 661c 96bd
000002b0: a3aa 79bd 006a 893d 6ebb 7abd 6d49 95bd
000002c0: 57a8 383d 4e97 9ebc 6976 a8bd 930a 313d
000002d0: efab 8f3d 98ce 083d ac1c 843d 7aea b33c
000002e0: a302 bbbd 00e6 043d 53cf 8f3d f989 813d
000002f0: 5766 993d 612f b43c 44c1 dfbc 5ed8 2e3d
00000300: 9fb2 993d d9f1 033d 9021 1bbd f0d6 61bd
00000310: c40b 24bd 7fc8 833b 7dc8 5fbd a648 403d
00000320: 59ef 8abd 6102 3ebc 6d88 5bbd d02d 1e3d
00000330: 62d8 073d 0b84 b5ba 869e 893d 9fec 383a
00000340: 4536 6dbd 2b23 ecbc 102b f6bb c1a6 98bc
00000350: 5f70 42bd daaa 8dbc 5852 6fbd aec6 553d
00000360: 8e04 c93c 915d d2bc ba89 3abd a798 223d
00000370: cb0c 32bb 2378 df3c f70d 22bd 235e 0e3d
00000380: c998 6dbd 4df4 1abc abe3 c8bc 4990 a13d
00000390: 8085 413d 2ad8 dabc 7a2f 1f3b bc98 503d
000003a0: 0689 293b 9f4d 9f3d b744 28bd 58f1 313d
000003b0: b1ee 0fbd e42f 9b3d 124b 9c3d 495d 04bb
000003c0: 2db6 3e3d 546c b2bb 6d83 98bb 552d 973c
000003d0: 5002 633b 9991 33bc 7340 a73b fe42 683b
000003e0: a00e a0bb 5875 cf3c c289 913d 6c79 063c
000003f0: b9ad f7bb 977b 79bc 2942 e2bd 2656 34bd

fc_net.2.bias f4 [5]
0.033160258 0.059167083 0.054277416 0.020103062 -0.34645092
00000000: 0dd3 073d 2f59 723d ff51 5e3d 2daf a43c
00000010: 0462 b1be
