Results_paper/regression/5-shot/5_modes/hard/it4/reptile/5models_0.pt (torch, 10759 bytes, 9 tensors)

net.0.weight f4 [40, 1]
0	0xbf3de8bb	-0.74183244
1	0x3f041d14	0.5160687
2	0x3e38d16c	0.18048638
3	0xbf309b0e	-0.68986595
4	0xbf0db97c	-0.5536115
5	0x3e2c8d9c	0.16850895
6	0x3e87b478	0.26504874
7	0x3e78d1b8	0.24298751
8	0x3f3dc098	0.74122
9	0x3d56430b	0.05231003
10	0x3f0a02e1	0.5391064
11	0xbf32d96e	-0.6986302
12	0x3f17d53a	0.5930973
13	0xbf713e62	-0.94235814
14	0x3f3de7e2	0.7418195
15	0xbf7a7984	-0.9784167
16	0x3f0639ad	0.52431756
17	0xbf0b8626	-0.5450157
18	0x3f18245a	0.5943047
19	0x3e3dd596	0.18538508
20	0x3cb71e41	0.022353293
21	0x3f78dcd0	0.97211933
22	0xbf4074b5	-0.7517808
23	0xbf225b2d	-0.63420373
24	0x3f7863ff	0.9702758
25	0xbf374b57	-0.71599334
26	0x3ea87b1c	0.32906425
27	0xbf355a4e	-0.7084092
28	0xbf50f1e8	-0.8161912
29	0xbf6d8e18	-0.9279494
30	0x3e53d8e4	0.20688206
31	0x3e6bbd00	0.23021317
32	0x3f20e782	0.6285325
33	0x3f68871a	0.9083115
34	0xbef03db1	-0.46922067
35	0x3db1f536	0.086893484
36	0x3f58a13e	0.84621036
37	0x3f7ad366	0.9797882
38	0xbed8bcd1	-0.42331555
39	0xbf3347d5	-0.7003148

net.0.bias f4 [40]
0	0x3f28f446	0.6599773
1	0xbe3af460	-0.18257284
2	0x3e927bf4	0.28610194
3	0x3f213e12	0.62985337
4	0x3f71fc92	0.94526017
5	0x3ed1d590	0.40983248
6	0x3f33e0d2	0.70264924
7	0x3dd26af0	0.10274303
8	0x3f7cca92	0.987466
9	0x3f52b6f4	0.82310414
10	0x3f5816f2	0.8441001
11	0x3f52f73c	0.824085
12	0x3f49037c	0.7852094
13	0xbf24422c	-0.6416347
14	0x3f61954a	0.8811842
15	0x3ee2f354	0.4432627
16	0xbf4c8f1c	-0.7990587
17	0x3e8dc508	0.27689385
18	0xbf3200ac	-0.69532275
19	0x3f1f2648	0.6216779
20	0xbf2a8478	-0.6660838
21	0x3e0c8528	0.1372267
22	0x3e0c8c80	0.13725471
23	0xbec9ecec	-0.3943857
24	0x3f0eef92	0.55834305
25	0xbe8c4684	-0.2739755
26	0xbf3bb3ac	-0.7332103
27	0x3ea069b4	0.31330645
28	0xbe784150	-0.24243665
29	0x3f77f37a	0.9685589
30	0xbf5e5370	-0.86846066
31	0x3f548d68	0.8302827
32	0xbe44a998	-0.1920532
33	0xbe898d28	-0.26865506
34	0xbf104a80	-0.5636368
35	0x3f632a8c	0.88736796
36	0x3ed16ed4	0.40904868
37	0xbe9c0020	-0.30468845
38	0xbf576af6	-0.84147584
39	0x3f72d716	0.94859445

net.1.weight f4 [40]
0	0x3f82a483	1.0206455
1	0x3f786c2a	0.97040045
2	0x3f7c0073	0.98438185
3	0x3f81099a	1.0081055
4	0x3f7c185a	0.9847466
5	0x3f78eb66	0.9723419
6	0x3f751478	0.9573436
7	0x3f7bef76	0.98412263
8	0x3f7356ee	0.9505452
9	0x3f7b82f3	0.9824669
10	0x3f785966	0.9701141
11	0x3f83c9c4	1.0295949
12	0x3f74ff3c	0.95701957
13	0x3f821c5e	1.0164907
14	0x3f78a5d0	0.9712801
15	0x3f8514da	1.0396988
16	0x3f763ca8	0.96186304
17	0x3f7beba4	0.98406434
18	0x3f786b2a	0.9703852
19	0x3f7a6348	0.9780774
20	0x3f780be0	0.9689312
21	0x3f78ff90	0.9726496
22	0x3f8152d7	1.0103406
23	0x3f8439c5	1.033013
24	0x3f76ff58	0.96483374
25	0x3f82152a	1.0162709
26	0x3f76c11e	0.96388423
27	0x3f816985	1.0110327
28	0x3f7d50e7	0.9895157
29	0x3f7f5e9d	0.99753743
30	0x3f790de0	0.97286797
31	0x3f7396cf	0.9515199
32	0x3f7b8cab	0.9826152
33	0x3f79b6e3	0.9754469
34	0x3f6be213	0.92141837
35	0x3f7320ed	0.94972116
36	0x3f73da57	0.95255035
37	0x3f77da5b	0.9681756
38	0x3f814022	1.0097697
39	0x3f834fac	1.0258689

net.1.bias f4 [40]
0	0xbdaa8ed8	-0.083280265
1	0xbdd3d648	-0.10343605
2	0x3d070546	0.032964014
3	0xbe4e8c7c	-0.20170778
4	0x3d08d075	0.033401925
5	0x3dbcba7a	0.09215255
6	0xbd5c2281	-0.053743843
7	0xbe8fb7f8	-0.28070045
8	0x3ea0435a	0.31301385
9	0xbd7a79e6	-0.061151408
10	0x3cf58317	0.029969735
11	0x3d265be6	0.040614985
12	0xbd168cda	-0.03675542
13	0xbdce04e1	-0.10059524
14	0xbd5e73ca	-0.054309644
15	0xbd4b3b98	-0.04961738
16	0xbcc1547f	-0.023599861
17	0x3dd4094d	0.103533365
18	0xbe2c0c2f	-0.16801523
19	0xbdc90bb5	-0.09816686
20	0xbd89b27d	-0.06723497
21	0xbe2f9ffe	-0.17150876
22	0x3e2b8216	0.16748843
23	0x3d1a4b52	0.037669487
24	0x3d816920	0.06318879
25	0x3d45baf6	0.048274003
26	0x3d821ef1	0.06353558
27	0x3dd14644	0.1021848
28	0xbeac5dff	-0.33665463
29	0x3ead2a35	0.33821264
30	0xbeb5f61b	-0.35539326
31	0xbcdfb564	-0.027308173
32	0xbcd851d7	-0.026406212
33	0x3b28884d	0.0025716007
34	0x3f0e0d8c	0.5548942
35	0xbcc92635	-0.024554351
36	0x3e4f06e0	0.20217466
37	0x3dd8f2b1	0.10593165
38	0x3e3e00a7	0.18554936
39	0x3d824bf6	0.06362145

net.3.weight f4 [40, 40]
0	0x3e221d4f	0.15831493
1	0xbd0a5264	-0.03376998
2	0x3d03cb2e	0.03217619
3	0x3e23c43e	0.15992829
4	0x3e2bad89	0.16765417
5	0x3cb897f9	0.022533404
6	0xbdd459f6	-0.10368721
7	0x3d3248a6	0.043526314
8	0x3d6f3519	0.058400247
9	0x3d1ad49a	0.03780041
10	0x3d9594f3	0.073038004
11	0xbe102526	-0.14076671
12	0xbd5b7686	-0.05357983
13	0x3e00a9f2	0.12564829
14	0x3d0afc95	0.033932287
15	0x3d967146	0.07345824
16	0xbbe8eae7	-0.0071080807
17	0xbdb5160b	-0.08842095
18	0xbdd30c24	-0.1030505
19	0x3c5333b7	0.012890748
20	0x3e16d6b1	0.14730336
21	0x3e04e6da	0.12978688
22	0x3df07cf2	0.117425814
23	0x3dd78855	0.1052405
24	0x3dfb07eb	0.122573696
25	0x3a858e2e	0.0010189468
26	0xbbcc6421	-0.0062375222
27	0x3d087e28	0.033323437
28	0x3db618d8	0.08891457
29	0xbdcf8a80	-0.10133839
30	0xbd6ac67d	-0.0573182
31	0x3c40d580	0.011769652
32	0x3e1d0267	0.15332948
33	0x3e19c875	0.15017875
34	0xbe299250	-0.1655972
35	0xbb8433b4	-0.004034484
36	0xbda1d93e	-0.07902764
37	0x3d46a224	0.048494473
38	0xbddb2208	-0.1069985
39	0xbe073767	-0.13204728
40	0xbd8c49d0	-0.06850016
41	0xbdabe6ac	-0.083936065
42	0x3de4e9fc	0.111774415
43	0xbd9439d6	-0.07237594
44	0x3dca1059	0.09866399
45	0xbb936db5	-0.004499162
46	0x3da80a53	0.08205094
47	0x3e0c51e0	0.13703108
48	0x3d380096	0.044922434
49	0x3d4286b1	0.047491733
50	0xbe00471e	-0.12527129
51	0xbd815eb3	-0.063168906
52	0x3d9d90f2	0.07693662
53	0xbddcc93c	-0.1078057
54	0x3e0a5072	0.1350725
55	0xbdc5e030	-0.09661901
56	0x3d8a2adf	0.06746458
57	0xbe1ad215	-0.15119202
58	0x3d837891	0.064194806
59	0x3c3987f9	0.011323922
60	0xbd7f9e98	-0.062407106
61	0xbd46a93d	-0.048501242
62	0x3dac830a	0.08423431
63	0xbdb4cf72	-0.088286296
64	0xbd4c2f15	-0.04984959
65	0xbce9e487	-0.028551353
66	0xbb00aebf	-0.0019635407
67	0x3dbc6ebf	0.09200811
68	0xbc5439e3	-0.012953254
69	0x3e11f52c	0.14253682
70	0xbc781f52	-0.015144186
71	0xbd83711a	-0.06418057
72	0x3e0cbd4e	0.13744089
73	0x3d6c6c65	0.05772056
74	0x3e64a46f	0.22328351
75	0x3e108bfb	0.14115898
76	0xbe250c52	-0.16117981
77	0x3ceb4bd3	0.02872268
78	0x3e07fb15	0.13279374
79	0xbe206737	-0.15664373
80	0xbb284074	-0.0025673183
81	0x3e28ed22	0.16496709
82	0x3cc2a149	0.023758547
83	0xbe03e3d1	-0.12879874
84	0xbdc5b8ff	-0.09654426
85	0xbe0c37ef	-0.13693212
86	0xbbfba617	-0.0076797116
87	0xbdeb77ca	-0.11497457
88	0x3d517426	0.05113616
89	0xbdc9e18a	-0.09857471
90	0xbd4c0d08	-0.049817115
91	0x3c3c88c6	0.011507219
92	0xbd96f7b8	-0.07371467
93	0xbdbe7200	-0.092990875
94	0xbd2ab5de	-0.04167735
95	0x3e186e70	0.14885879
96	0xbd1bfca3	-0.03808273
97	0xbe0d0ddd	-0.1377482
98	0x3da8992f	0.082323425
99	0xbd9a1714	-0.07523933
100	0x3d9006a3	0.07032516
101	0x3e30657e	0.17226216
102	0x3df4941c	0.11942312
103	0xbce6699c	-0.02812653
104	0x3e1454de	0.144855
105	0x3d811021	0.063019045
106	0xbe0f0553	-0.13966875
107	0x3dbe2185	0.09283737
108	0xbe18c323	-0.14918189
109	0xba7d4e6c	-0.000966287
110	0x3e23305f	0.15936421
111	0xbdffbc68	-0.124871075
112	0x3e19b67b	0.15011017
113	0xbdf44c31	-0.11928595
114	0xbde45146	-0.11148314
115	0x3db5f9cb	0.08885535
116	0xbd7bfe8f	-0.061522063
117	0x3e066435	0.13124163
118	0xbd8089c3	-0.06276276
119	0x3cc2dbec	0.023786508
120	0x3d06fd3a	0.03295634
121	0x3de68fde	0.11257909
122	0x3e21ff72	0.15820101
123	0x3d9e6e53	0.077358864
124	0x3d879305	0.066198386
125	0x3df21568	0.11820489
126	0x3e00de57	0.12584816
127	0xbd1899ce	-0.037256055
128	0xbe2d02df	-0.16895626
129	0xbd8d70ef	-0.06906306
130	0x3d100814	0.035163954
131	0xbe432a82	-0.19059184
132	0xbd6cdd40	-0.057828188
133	0xbda95cbe	-0.08269642
134	0x3ca856ec	0.02054926
135	0x3d5cf04c	0.053940102
136	0xbd801459	-0.06253881
137	0xbd4121b2	-0.047151275
138	0x3e37b06d	0.17938395
139	0x3cd38de6	0.025824498
140	0xbc83c4a7	-0.016084982
141	0x3daa181d	0.083053805
142	0xbda25b5b	-0.07927581
143	0xbe26e561	-0.16298439
144	0xbdbd5e24	-0.092464715
145	0x3dbc4ffa	0.09194942
146	0xbcc0eeaa	-0.023551304
147	0x3dc71f0c	0.097227186
148	0xbe3f853f	-0.18703173
149	0x3d68c84e	0.05683165
150	0x3e0b48e0	0.13602018
151	0xbdbc1d6a	-0.09185298
152	0xbd4f5d48	-0.05062607
153	0x3d93810e	0.072023496
154	0xbd9404c9	-0.07227475
155	0xbe05db75	-0.13071997
156	0xbe2e5141	-0.17023183
157	0x3da5a9bb	0.08089014
158	0xbbde173c	-0.006777672
159	0xbc9ff8f6	-0.019527894
160	0x3db9b6e0	0.09068084
161	0xbe095751	-0.13412215
162	0xbd46e6dc	-0.04856001
163	0xbb9aa28e	-0.004719085
164	0x3cf96d12	0.030447517
165	0x3c8adeae	0.016951885
166	0xbdda56b8	-0.106610715
167	0xbd31c11b	-0.04339705
168	0xbde4d32a	-0.11173089
169	0xbd607ab2	-0.05480451
170	0x3dc0ff74	0.09423724
171	0x3d165111	0.036698405
172	0xbe0989e0	-0.13431501
173	0xbe048a3d	-0.12943359
174	0x3e1cd0ba	0.15313998
175	0xbdfd107d	-0.123566605
176	0x3e1e99b3	0.15488319
177	0xbda96f8f	-0.08273231
178	0xbdbaac2a	-0.09114869
179	0xbd46f7d1	-0.04857618
180	0x3deac136	0.11462633
181	0x3d17efa8	0.03709379
182	0x3e17c9b1	0.14823033
183	0x3d9744f8	0.073862016
184	0x3d91f900	0.07127571
185	0xbe1852a9	-0.14875282
186	0x3d86f87c	0.065903634
187	0xbdb38ced	-0.08767114
188	0xbdd805f2	-0.10548009
189	0xbdcd1d67	-0.10015374
190	0x3d4909b9	0.049081538
191	0xbd3f6700	-0.046729088
192	0xbdb89318	-0.09012431
193	0x3e26ef6e	0.16302273
194	0xbe1a3c02	-0.15061954
195	0x3c98bbca	0.018644232
196	0x3c0a9b87	0.008459932
197	0xbd3d82a6	-0.046267174
198	0x3c22c871	0.009935484
199	0x3e2246d4	0.15847331
200	0xbe187351	-0.1488774
201	0x3e0b70f1	0.13617302
202	0xbd5dd48e	-0.054157786
203	0x3cde4407	0.027132047
204	0x3d665055	0.056228954
205	0xbcdc23a9	-0.026872473
206	0xbd470e9c	-0.048597917
207	0x3e3aa3ac	0.18226498
208	0xbd1a44b6	-0.037663184
209	0xbdad2242	-0.084538
210	0xbdfdb0bf	-0.12387227
211	0xbe059609	-0.13045515
212	0x3d60ceb3	0.054884624
213	0x3d15f17f	0.03660726
214	0xb9c2ffd1	-0.00037193162
215	0x3d04c70d	0.032416392
216	0x3db67543	0.08909085
217	0x3db47651	0.088116296
218	0xbdb1e91d	-0.08687041
219	0x3b598ce8	0.003319556
220	0xbd3bbbd8	-0.04583344
221	0x3d746fcc	0.05967693
222	0xbb65bbc9	-0.0035054556
223	0xbe1b24b5	-0.15150721
224	0xbd3f76df	-0.046744224
225	0x3ca1151d	0.019663388
226	0x3d62cee1	0.055373076
227	0x3d2f260c	0.042760894
228	0xbdbfe036	-0.09368937
229	0x3db70508	0.089365065
230	0x3e0ab445	0.1354533
231	0xbdd0cae8	-0.10194951
232	0x3e059351	0.13044478
233	0xbd320624	-0.043462887
234	0xbe011a4b	-0.12607686
235	0x3c849e21	0.016188683
236	0xbdf1700d	-0.1178895
237	0x3dea35bc	0.1143603
238	0xbc63dc63	-0.013907525
239	0x3b98ec26	0.004666823
240	0xbd852674	-0.06501475
241	0x3e14ae19	0.14519538
242	0x3da1fcac	0.079095215
243	0xbd8aabb1	-0.06771029
244	0xbd45347c	-0.048145756
245	0x3d419214	0.04725845
246	0x3ddc5050	0.10757506
247	0xbc8e767c	-0.017390482
248	0x3d8eb233	0.069675826
249	0x3c4edd43	0.012625995
250	0x3dc41fb8	0.09576362
251	0x3d9b308e	0.075776204
252	0x3e0ccbdf	0.13749646
253	0xbce18dbe	-0.027533408
254	0xbe001cd5	-0.12510999
255	0x3cf95c28	0.030439451

net.3.bias f4 [40]
0	0x3dd9e9a5	0.10640267
1	0x3e19ceb7	0.15020262
2	0xbd905bf0	-0.07048786
3	0x3d63d0b6	0.055618964
4	0x3dceab86	0.10091309
5	0xbc36c590	-0.011155501
6	0xbdfc3d4b	-0.12316378
7	0x3db596e8	0.08866674
8	0x3e1feaa7	0.15616857
9	0xbcaf5dea	-0.021407086
10	0xbe209240	-0.1568079
11	0x3cd8eb37	0.026479347
12	0x3e0bd630	0.13655925
13	0x3e07e8fe	0.13272473
14	0xbe1c86c8	-0.1528579
15	0x3d19a1d7	0.037507858
16	0x3de07d4e	0.109614
17	0xbd992a9c	-0.0747883
18	0xbd8795e7	-0.066203885
19	0xbe023815	-0.12716706
20	0x3d449b00	0.047999382
21	0x3deda5c6	0.116038844
22	0xbd2c1a74	-0.042017415
23	0xbd88456b	-0.066538654
24	0xbdd9e556	-0.106394455
25	0x3cdd879d	0.027042205
26	0x3d40b73f	0.047049757
27	0xbb4b8b31	-0.0031058306
28	0xbdfd8aa8	-0.12379962
29	0xbdb4d2c6	-0.08829264
30	0xbb30474b	-0.0026897963
31	0xbdee1333	-0.11624756
32	0xbe005b5a	-0.12534848
33	0x3dd0d841	0.10197497
34	0xbd77a85a	-0.060463287
35	0xbc95e9ea	-0.018300015
36	0xba152c7e	-0.0005690529
37	0x3d321e50	0.04348594
38	0xbe172be2	-0.14762834
39	0x3c04e2d3	0.00811072

net.4.weight f4 [40]
0	0x3f8f67cd	1.1203552
1	0x3f974467	1.181775
2	0x3f8c2caf	1.0951136
3	0x3f8c673c	1.0969005
4	0x3f891199	1.0708495
5	0x3f884e24	1.0648847
6	0x3f969d3e	1.1766737
7	0x3f92d39e	1.147083
8	0x3f8b05ec	1.0861182
9	0x3f909320	1.1294899
10	0x3f91a63c	1.1378856
11	0x3f8cd2b9	1.1001807
12	0x3f8e8c10	1.1136494
13	0x3f9dd494	1.2330499
14	0x3fa3c4da	1.2794449
15	0x3f875c2f	1.0575007
16	0x3f8ccab2	1.0999358
17	0x3f8dfc1d	1.1092564
18	0x3fa325ed	1.2745949
19	0x3f87cfc2	1.0610278
20	0x3f8c4aff	1.0960387
21	0x3f87eaf7	1.061858
22	0x3f88b99f	1.0681647
23	0x3f920aff	1.1409606
24	0x3f97bd34	1.1854615
25	0x3f888471	1.0665418
26	0x3f887b0b	1.066255
27	0x3fa9e889	1.3274089
28	0x3f962352	1.1729529
29	0x3f94c47d	1.1622463
30	0x3f9593c7	1.1685723
31	0x3f8703a6	1.0547988
32	0x3f8d586d	1.104261
33	0x3f861edc	1.0478168
34	0x3f970676	1.1798847
35	0x3f8f40f5	1.1191698
36	0x3f8d74a2	1.1051219
37	0x3f8a5f50	1.0810337
38	0x3f874e16	1.0570705
39	0x3f8f1814	1.1179223

net.4.bias f4 [40]
0	0x3c163a18	0.009169124
1	0x3ca251aa	0.019814331
2	0x3df50087	0.11962991
3	0x3de2f7c8	0.11082417
4	0x3dac6948	0.08418518
5	0x3ddadf9d	0.10687182
6	0x3e2ace5b	0.16680281
7	0x3d8bdd84	0.0682936
8	0x3de3628e	0.11102782
9	0x3d6d0887	0.05786946
10	0x3dca0373	0.09863939
11	0x3e020fba	0.12701312
12	0x3eb06f61	0.34459975
13	0x3e55be0e	0.20873281
14	0x3e1352ba	0.14387026
15	0x3d6c7e94	0.0577379
16	0x3d951c78	0.072808206
17	0x3e5cf43c	0.21577543
18	0x3e5f5a60	0.21811819
19	0x3e1b8bfc	0.15190119
20	0x3d4f19ee	0.050561838
21	0x3d635af9	0.05550668
22	0x3da5d0e7	0.080964856
23	0x3cd0b724	0.025477953
24	0x3f261568	0.64876413
25	0x3d800d65	0.06252555
26	0x3d8f89b4	0.07008687
27	0x3dd4aeea	0.10384925
28	0x3e98bf12	0.29833275
29	0x3c761e4b	0.015021871
30	0x3e73ee5d	0.23821397
31	0x3d982e31	0.07430685
32	0x3d062459	0.032749508
33	0x3d7a54f8	0.06111619
34	0x3bf22d90	0.0073906854
35	0x3cba6b6d	0.022756303
36	0x3d51c19c	0.05121003
37	0x3d9b6b4e	0.07588826
38	0x3df72f15	0.12069527
39	0x3e0ba31e	0.13636443

net.6.weight f4 [1, 40]
0	0x3edd1e90	0.4318738
1	0xbf09dd1e	-0.53853023
2	0x3eb062fc	0.3445052
3	0x3eb3c5ad	0.35111752
4	0xbe248711	-0.16067149
5	0x3e59bada	0.21262684
6	0x3f09d57c	0.53841376
7	0x3efca865	0.49347225
8	0x3e85bc8e	0.26120418
9	0x3edc7550	0.43058252
10	0x3ee24053	0.441897
11	0xbebee021	-0.37280372
12	0x3ed8bcc5	0.4233152
13	0x3f2bb06a	0.6706606
14	0xbf473f30	-0.7783079
15	0x3db46f45	0.088102855
16	0xbea8e05f	-0.32983682
17	0x3ebcc844	0.3687154
18	0xbf4765c0	-0.77889633
19	0x3c671de1	0.014106245
20	0x3ea0454c	0.3130287
21	0x3e05ceaa	0.13067117
22	0x3e3616e4	0.1778217
23	0x3eec2ba7	0.46127054
24	0x3f566c41	0.8375893
25	0x3d91ce1b	0.071193896
26	0x3db4a747	0.08820968
27	0xbf52dda0	-0.8236942
28	0x3f213d5f	0.6298427
29	0x3f022afe	0.5084685
30	0x3f0e8ac3	0.55680484
31	0x3d6bdc7d	0.05758332
32	0x3ec32cdc	0.38120162
33	0xbd9b6a1c	-0.07588598
34	0xbf0f639d	-0.5601137
35	0x3ec6fb5e	0.38863653
36	0x3eaf109e	0.34192365
37	0x3e875b6c	0.26436937
38	0x3ddf3753	0.10899224
39	0x3ec1402f	0.3774428
