Results_paper/regression/10-shot/3_modes/hard/it4/maml/5te_model.pt (torch, 125731 bytes, 20 tensors)

te_net.0.weight f4 [32, 2]
0.049647726 0.34933278 0.64292073 0.57217103 0.4657227 0.54924744 0.44273615 0.49219665
-0.6916293 -0.24208307 0.07784156 0.29115385 0.40970266 0.41345325 0.68327135 -0.2642458
0.43966842 -0.13941805 -0.61845046 0.13136338 -0.2511037 0.1391712 -0.32124963 0.6834004
0.166068 -0.011644089 0.08941517 0.41847277 0.12671286 -0.19297715 -0.40036336 0.49345693
0.4185655 0.54089653 -0.23769249 0.1294599 0.58755153 0.5937463 -0.23533732 -0.5471256
0.44942275 -0.57110125 -0.1311206 0.682139 -0.57270885 0.07914578 -0.082162514 0.33108616
0.3554398 0.1497125 0.330936 0.36651427 -0.23477073 -0.13394581 -0.3513101 -0.104656026
-0.33572415 -0.17755082 -0.19038355 -0.18166545 0.49912018 0.4473038 0.53807664 -0.69601774
00000000: 6a5b 4b3d bfdb b23e 7496 243f cd79 123f
00000010: 3573 ee3e 7b9b 0c3f 50ae e23e 3301 fc3e
00000020: 9e0e 31bf a0e4 77be 656b 9f3d 1e12 953e
00000030: 8cc4 d13e 25b0 d33e dfea 2e3f 3a4b 87be
00000040: 381c e13e 9bc3 0ebe c552 1ebf 1f84 063e
00000050: aa90 80be e582 0e3e d57a a4be 54f3 2e3f
00000060: bb0d 2a3e d9c6 3ebc 4d1f b73d 1042 d63e
00000070: 04c1 013e cd9b 45be 6dfc ccbe 63a6 fc3e
00000080: 384e d63e 3278 0a3f a965 73be 2391 043e
00000090: c769 163f c2ff 173f 44fc 70be 6c10 0cbf
000000a0: bd1a e63e b133 12bf 7b44 06be a9a0 2e3f
000000b0: 0c9d 12bf 2f17 a23d d244 a8bd 2084 a93e
000000c0: 35fc b53e 3c4e 193e 7270 a93e c2a7 bb3e
000000d0: bd67 70be 1729 09be ebde b3be e655 d6bd
000000e0: 09e4 abbe e2cf 35be e8f3 42be 8206 3abe
000000f0: ae8c ff3e 0105 e53e 64bf 093f 382e 32bf

te_net.0.bias f4 [32]
-0.20711435 -0.08950423 -0.47077227 0.13897394 0.08390292 -0.38624611 -0.32774487 -0.052747212
0.39871582 -0.41430488 -0.07232519 0.13836308 0.11266857 -0.34087083 0.3942559 0.65151036
0.08271049 -0.53901345 0.70564485 0.0007784969 0.12242083 0.35892645 0.4529132 -0.115456454
-0.11197644 -0.28569877 -0.14292747 -0.6877139 -0.6899315 0.10428764 0.29579222 0.536574
00000000: c915 54be fe4d b7bd 1009 f1be 2f4f 0e3e
00000010: 4bd5 ab3d 0dc2 c5be 2dce a7be 760d 58bd
00000020: 7b24 cc3e c51f d4be 3b1f 94bd 0daf 0d3e
00000030: c7be e63d 9f86 aebe e9db c93e 62c9 263f
00000040: 1e64 a93d c9fc 09bf 24a5 343f 0b14 4c3a
00000050: c6b7 fa3d 35c5 b73e 3de4 e73e 6f74 ecbd
00000060: e753 e5bd 1c47 92be 945b 12be 050e 30bf
00000070: 5a9f 30bf c294 d53d 1472 973e ea5c 093f

te_net.2.weight f4 [32, 32]
0.1078607 0.12978211 0.05105843 0.06982709 0.0869374 0.06374802 -0.07066491 0.1148301
-0.11651362 -0.08486898 0.15789661 0.017207596 0.09601259 0.068801984 -0.041148294 0.015333746
0.1664092 0.020884775 -0.15661407 0.14763917 0.114955775 -0.17074831 -0.107413 -0.054049764
-0.09780511 0.046030197 -0.16508758 0.09892379 0.011193518 -0.097730435 -0.16100764 0.011056854
0.16733658 0.08791392 0.08885502 -0.053814422 0.0867446 0.14235336 0.10260412 0.10290367
0.030610181 0.030309744 0.09322528 -0.05116921 -0.15579648 -0.13581587 -0.07383262 -0.109905764
0.09056373 -0.013722442 -0.053421933 0.14630063 0.15858212 0.11977174 -0.12316456 -0.038850717
0.049221955 0.069878966 -0.042449005 -0.17217647 0.008303447 -0.08667147 0.048056792 0.04661318
0.016665095 0.062633716 -0.01809371 0.16105491 0.013921613 -0.0981629 -0.031189246 -0.162525
-0.181662 0.124846645 -0.039944865 -0.06733334 0.063206375 0.13451314 0.043008722 -0.08792301
0.05652949 0.099451005 -0.064903885 -0.020443931 0.13364203 0.14392018 0.10690357 0.14181912
0.055659827 0.098523036 0.14407414 0.06224469 -0.08981521 0.13170783 -0.07873532 0.046518855
0.12933114 -0.007219273 -0.05194278 0.123761855 0.05167584 0.05860832 -0.123796456 0.16623658
-0.0047579487 -0.074695945 -0.09014284 0.11951004 0.15779632 0.09693799 -0.0960652 -0.115565106
0.0650407 -0.16800953 0.12001401 -0.1394439 0.050057963 -0.10665387 -0.1246243 0.0037352995
0.01997245 -0.020297676 0.024802364 0.091048196 0.08766567 -0.052023187 0.04045048 0.1569013
-0.17949115 0.106480084 -0.08256556 -0.071498044 0.032217007 -0.13069102 -0.09753869 -0.14061187
0.072899796 -0.02628478 -0.12931933 -0.15810436 -0.13651563 -0.15814763 0.21087736 -0.00032147768
0.1754068 0.15725681 0.050681945 0.041556273 -0.07751606 0.0777815 -0.14287743 -0.03781659
-0.02302533 0.156624 0.13265266 0.14970936 -0.13302101 0.14170453 0.048157826 -0.054589126
0.07203343 0.030447196 0.088131666 0.036050156 -0.056467433 -0.007639679 0.07027688 -0.12685065
0.04892529 -0.102923036 -0.05660025 0.10072874 -0.052318405 -0.15116672 0.07598046 -0.0207278
-0.07419256 -0.085079394 -0.131752 0.15059458 0.09073661 -0.1956079 -0.02794427 0.16003056
-0.082336664 -0.06751457 -0.05377225 -0.044820655 -0.07689557 0.061101943 0.1187548 0.005582316
0.14650163 0.14642613 0.15907355 0.13406676 0.07847656 0.078637384 0.14587116 -0.032307576
-0.0024759562 -0.016039565 0.1683878 -0.16742258 0.074504025 -0.035255726 -0.064716466 -0.14617386
0.033792425 -0.13251495 0.048547015 0.08366089 0.14791419 -0.14756802 0.112653635 0.12878533
-0.17488843 -0.12270329 -0.06360188 -0.02117781 0.0601166 0.12050845 -0.16206884 -0.0891184
0.10266698 0.050031703 -0.09172633 -0.11360892 -0.016458085 0.01496246 0.018301066 -0.12822734
0.10203935 0.11714448 0.027872171 0.14144011 -0.1292645 -0.019335631 -0.085000716 -0.018632535
0.03377663 0.0010780711 -0.031852808 0.1240916 0.16366956 0.03931518 -0.06387512 -0.02032242
0.06823532 -0.14024486 -0.11267054 -0.0411835 0.071079634 -0.02936163 0.09794736 -0.011659701
00000000: 12e6 dc3d 9ae5 043e a522 513d 8101 8f3d
00000010: 3c0c b23d 528e 823d c4b8 90bd 0b2c eb3d
00000020: b19e eebd cacf adbd a6af 213e f2f6 8c3c
00000030: 40a2 c43d 0ee8 8c3d 1d8b 28bd 643a 7b3c
00000040: 2c67 2a3e 8c16 ab3c 705f 20be b92e 173e
00000050: ef6d eb3d a5d8 2ebe 59fb dbbd 4963 5dbd
00000060: 0c4e c8bd 298a 3c3d b80c 29be 8e98 ca3d
00000070: 0465 373c e526 c8bd 30df 24be cf27 353c
00000080: 485a 2b3e 370c b43d 9ff9 b53d 836c 5cbd
00000090: 27a7 b13d 14c5 113e 1c22 d23d 29bf d23d
000000a0: 34c2 fa3c 244c f83c e5ec be3d ce96 51bd
000000b0: 1d89 1fbe 5113 0bbe 8f35 97bd 4616 e1bd
000000c0: 7a79 b93d 18d4 60bc f5d0 5abd d5cf 153e
000000d0: 5a63 223e e34a f53d b33d fcbd ee21 1fbd
000000e0: f69c 493d b41c 8f3d 02df 2dbd 074f 30be
000000f0: 2e0b 083c d080 b1bd 33d7 443d 76ed 3e3d
00000100: 3d85 883c 1b46 803d 4339 94bc 94eb 243e
00000110: 7a17 643c a109 c9bd 9780 ffbc f46c 26be
00000120: 9a05 3abe 99af ff3d 3a9d 23bd 10e6 89bd
00000130: 5872 813d d0bd 093e ea29 303d fb10 b4bd
00000140: 778b 673d f8ac cb3d 54ec 84bd 087a a7bc
00000150: 75d9 083e d05f 133e 42f0 da3d 0839 113e
00000160: 8ffb 633d 72c6 c93d 2c88 133e 4af4 7e3d
00000170: 09f1 b7bd 6bde 063e fc3f a1bd 8e8a 3e3d
00000180: 626f 043e a78f ecbb f4c1 54bd db76 fd3d
00000190: 0caa 533d 470f 703d ff88 fdbd ec39 2a3e
000001a0: 91e8 9bbb 30fa 98bd cf9c b8bd aec1 f43d
000001b0: 5c95 213e 6d87 c63d d5bd c4bd 66ad ecbd
000001c0: 0f34 853d b10a 2cbe e8c9 f53d 62ca 0ebe
000001d0: 9409 4d3d 586d dabd 063b ffbd edcb 743b
000001e0: 439d a33c 5047 a6bc 542e cb3c 7a77 ba3d
000001f0: 0f8a b33d 4416 55bd 67af 253d bcaa 203e
00000200: 87cc 37be 3b12 da3d 2218 a9bd 916d 92bd
00000210: fbf5 033d ded3 05be 5dc2 c7bd 8ffc 0fbe
00000220: 7d4c 953d 2e53 d7bc 496c 04be 1ce6 21be
00000230: c1ca 0bbe 74f1 21be 3cf0 573e 018c a8b9
00000240: d79d 333e ee07 213e df97 4f3d e936 2a3d
00000250: bdc0 9ebd e84b 9f3d 764e 12be 92e5 1abd
00000260: 9e9f bcbc 0b62 203e 19d6 073e 694d 193e
00000270: a936 08be fe1a 113e 2441 453d d998 5fbd
00000280: 4386 933d 666c f93c 607e b43d 54a9 133d
00000290: 654a 67bd 4656 fabb 53ed 8f3d 23e5 01be
000002a0: e365 483d 50c9 d2bd aad5 67bd df4a ce3d
000002b0: d34b 56bd 73cb 1abe a59b 9b3d 59cd a9bc
000002c0: 45f2 97bd 1b3e aebd ffe9 06be 7735 1a3e
000002d0: 1ed4 b93d 704d 48be 62eb e4bc 0ddf 233e
000002e0: 20a0 a8bd 1445 8abd 4a40 5cbd dd95 37bd
000002f0: 6d7b 9dbd 0846 7a3d b735 f33d dceb b63b
00000300: 8604 163e bbf0 153e 2de4 223e cc48 093e
00000310: 52b8 a03d a30c a13d 405f 153e f354 04bd
00000320: a743 22bb 6865 83bc da6d 2c3e d370 2bbe
00000330: 9195 983d 4f68 10bd 118a 84bd 9aae 15be
00000340: ed69 0a3d 00b2 07be 3cd9 463d 6756 ab3d
00000350: d176 173e 121c 17be f3b6 e63d 4de0 033e
00000360: f415 33be dd4b fbbd b441 82bd 167d adbc
00000370: d33c 763d 22cd f63d 60f5 25be b583 b6bd
00000380: 1143 d23d 0bee 4c3d 04db bbbd cbab e8bd
00000390: 1bd3 86bc 1b25 753c 1eec 953c 074e 03be
000003a0: 02fa d03d 72e9 ef3d 2e54 e43c add5 103e
000003b0: ea5d 04be c265 9ebc db14 aebd 42a3 98bc
000003c0: 5d59 0a3d 104e 8d3a 1778 02bd bd23 fe3d
000003d0: fe98 273e f408 213d f5d0 82bd 347b a6bc
000003e0: f6be 8b3d 599c 0fbe d0bf e6bd 08b0 28bd
000003f0: 3392 913d cd87 f0bc a098 c83d 5508 3fbc

te_net.2.bias f4 [32]
0.17065427 -0.18870583 -0.07433588 0.12643069 -0.051278856 0.07547555 0.04789139 0.15076883
-0.17177469 -0.12955806 0.03453651 -0.12527333 -0.089126825 -0.14401409 0.08648632 0.1356588
0.10373042 0.1987082 0.013704459 0.16904142 -0.05442818 0.20585696 -0.027601622 0.09508645
0.15579836 0.090660244 -0.11188056 0.08342509 0.0047607957 0.051641826 0.03498879 -0.07841603
00000000: febf 2e3e 1a3c 41be 693d 98bd 0c77 013e
00000010: c709 52bd ed92 9a3d c329 443d 2563 1a3e
00000020: b4e5 2fbe deaa 04be 2876 0d3d a747 00be
00000030: 2088 b6bd 6e78 13be bd1f b13d 24ea 0a3e
00000040: 9d70 d43d 2a7a 4b3e ab88 603c 3219 2d3e
00000050: 15f0 5ebd 2bcc 523e cc1c e2bc afbc c23d
00000060: 9b89 1f3e 14ac b93d a321 e5bd c6da aa3d
00000070: 7300 9c3b 6186 533d 6850 0f3d 9598 a0bd

te_net.4.weight f4 [64, 32]
-0.068217 -0.07809389 -0.07840771 0.01350526 0.16607673 0.02041104 -0.03793386 0.031242022
-0.033561844 -0.09317256 -0.15565942 -0.05085196 -0.16281407 -0.15227444 0.112889454 -0.007424271
-0.06764537 0.14521728 0.06626463 -0.13731062 0.14536364 0.16628286 -0.043375902 0.15127428
0.012084665 0.05115547 -0.046312205 -0.16919874 -0.06490726 -0.06621556 -0.09828846 -0.035742085
0.08822045 0.039694 0.14871 -0.11092558 0.07189267 0.12112693 0.045106318 -0.10834353
0.15325984 0.1146848 -0.11100559 0.07806204 -0.15953851 -0.12792847 0.02657291 0.09890018
0.12578413 0.15251948 -0.1485012 -0.12961704 -0.109495655 -0.11754269 0.14835252 -0.011091037
0.06212811 0.017321808 0.012048745 0.035729155 0.13456447 -0.07924196 -0.15870059 -0.1830174
0.12298918 0.12559251 -0.15478766 -0.03124171 -0.122661546 0.13462254 0.16782218 -0.02833541
-0.17375702 0.07321712 -0.14652553 -0.13385688 0.021634234 0.011699813 -0.013512317 -0.18565045
0.1604101 -0.1347187 0.14901315 -0.034219082 0.03103065 0.11581996 -0.11470494 0.17384426
0.14254081 -0.14520356 0.14611344 -0.17128073 -0.14507061 -0.18597558 0.1318954 0.053593695
-0.1530666 0.05955717 0.020977555 0.0549957 0.0971072 -0.012454452 0.10785498 0.07014565
0.15159675 -0.11198591 0.16579129 0.04886577 0.11803646 -0.066741064 -0.024740756 0.010451896
0.14352089 -0.05110849 -0.04215132 0.003721872 0.12534958 -0.072971016 -0.02727015 0.095186345
0.15432498 -0.048387066 0.11760793 0.0547066 -0.1395682 -0.122326866 0.105558254 0.10120991
-0.05827144 0.10398614 0.13788189 -0.1193027 -0.112588815 -0.08448883 0.13884266 -0.14765464
-0.088815376 -0.13529776 0.02520915 -0.12522271 0.016708188 -0.15699191 0.07642621 -0.18029736
-0.13274002 -0.010490204 0.101436436 0.08291539 0.08544359 0.083199866 0.16090952 -0.096144035
0.15263225 0.09581095 0.019421253 -0.028843233 0.17086731 -0.18012284 0.0030885758 0.15417415
-0.1397345 0.035929754 0.1377695 -0.091443114 0.0020567623 0.04476284 0.15534872 -0.18717328
0.013392093 -0.04389782 -0.07003461 -0.12766194 -0.16679145 -0.066118814 0.100676075 0.16313617
-0.16534775 -0.114619344 -0.12917277 -0.0030138951 0.025388302 0.0388257 -0.07932482 -0.027005602
-0.12230239 0.12176312 0.1363146 0.064442135 0.1699769 -0.085190095 0.069346145 -0.15463126
0.10029049 -0.10797669 -0.1658002 -0.1473263 -0.13943177 -0.07352044 -0.16973354 0.17486629
-0.08565518 0.11142644 -0.081682205 0.14402536 0.006203712 -0.1477471 0.018715532 -0.03231341
0.083434485 -0.12500376 -0.028249154 0.059981693 0.023047969 0.11837184 0.1456189 0.062763385
-0.05718713 0.08174199 0.11086116 -0.18252344 -0.13080925 -0.123798795 0.03844517 -0.09076748
-0.06903714 -0.07818397 -0.13273063 -0.07169807 -0.1448948 -0.1681827 -0.0018327285 0.12167837
-0.11769257 0.15893981 -0.10500642 0.0927277 -0.0567431 -0.05482544 0.036818895 0.018516837
-0.14622736 -0.13946865 -0.14116967 -0.06271951 0.11994173 -0.0076090796 0.13546534 0.054022662
0.003381849 -0.14267133 0.16656633 0.052497096 -0.16223097 -0.12059811 -0.12445373 0.15333219
00000000: 5bb5 8bbd b0ef 9fbd 3994 a0bd 2b45 5d3c
00000010: 0510 2a3e 0e35 a73c 8960 1bbd 45ef ff3c
00000020: 2578 09bd 41d1 bebd 2f65 1fbe 254a 50bd
00000030: bbb8 26be d5ed 1bbe 9632 e73d 4d47 f3bb
00000040: a889 8abd d7b3 143e c0b5 873d 289b 0cbe
00000050: 35da 143e 0e46 2a3e eeaa 31bd a5e7 1a3e
00000060: c2fe 453c 6688 513d deb1 3dbd 6f42 2dbe
00000070: 19ee 84bd 069c 87bd 764b c9bd 4b66 12bd
00000080: ecac b43d 2d96 223d 6f47 183e f32c e3bd
00000090: 773c 933d 6511 f83d 67c1 383d 36e3 ddbd
000000a0: 26f0 1c3e dddf ea3d e656 e3bd fede 9f3d
000000b0: 105e 23be aeff 02be 6eaf d93c 2d8c ca3d
000000c0: 8ecd 003e 112e 1c3e b310 18be 54ba 04be
000000d0: 423f e0bd 39ba f0bd b9e9 173e 2eb7 35bc
000000e0: 0c7a 7e3d 77e6 8d3c 1968 453c bc58 123d
000000f0: 45cb 093e 9c49 a2bd 6882 22be ea68 3bbe
00000100: c0e1 fb3d 539b 003e a880 1ebe 9dee ffbc
00000110: fa35 fbbd 7eda 093e 94d9 2b3e a91f e8bc
00000120: 5ced 31be dbf2 953d ca0a 16be c711 09be
00000130: 473a b13c 93b0 3f3c c462 5dbc 271b 3ebe
00000140: 8c42 243e b3f3 09be e796 183e 4f29 0cbd
00000150: fd33 fe3c 0433 ed3d 6cea eabd 3b04 323e
00000160: 38f6 113e 3eb0 14be c39e 153e 3764 2fbe
00000170: 648d 14be 6270 3ebe 960f 073e 1085 5b3d
00000180: 7ebd 1cbe 38f2 733d 1fd9 ab3c 2c43 613d
00000190: 24e0 c63d c20d 4cbc 12e3 dc3d 86a8 8f3d
000001a0: 2e3c 1b3e de58 e5bd 31c5 293e 7927 483d
000001b0: 19bd f13d 8aaf 88bd 20ad cabc 6e3e 2b3c
000001c0: 24f7 123e 2357 51bd dda6 2cbd a7ea 733b
000001d0: a45b 003e d471 95bd a665 dfbc 0ff1 c23d
000001e0: 5e07 1e3e 8431 46bd 6ddc f03d 0714 603d
000001f0: f7ea 0ebe 8286 fabd ed2e d83d 2447 cf3d
00000200: 09ae 6ebd aff6 d43d e930 0d3e f954 f4bd
00000210: f794 e6bd 7b08 adbd c52c 0e3e c732 17be
00000220: d6e4 b5bd 7f8b 0abe 6b83 ce3c 623a 00be
00000230: 9cdf 883c 7dc2 20be 5885 9c3d df9f 38be
00000240: 00ed 07be 1bdf 2bbc e8bd cf3d 8bcf a93d
00000250: 0dfd ae3d b164 aa3d 77c5 243e 2ae7 c4bd
00000260: a14b 1c3e 8838 c43d 5219 9f3c a548 ecbc
00000270: d7f7 2e3e 1f72 38be b469 4a3b d4df 1d3e
00000280: 9016 0fbe 142b 133d 7313 0d3e 8746 bbbd
00000290: bfca 063b 3d59 373d bc13 1f3e 5aaa 3fbe
000002a0: 826a 5b3c 33ce 33bd 4e6e 8fbd d0b9 02be
000002b0: 61cb 2abe 4d69 87bd 422f ce3d 2b0d 273e
000002c0: ec50 29be 8cbd eabd de45 04be c584 45bb
000002d0: 21fb cf3c b207 1f3d 0d75 a2bd da3a ddbc
000002e0: ad79 fabd f15e f93d 0e96 0b3e 3dfa 833d
000002f0: 6d0e 2e3e 2578 aebd 5a05 8e3d a857 1ebe
00000300: 1a65 cd3d e222 ddbd 87c7 29be b5dc 16be
00000310: 34c7 0ebe e291 96bd a1ce 2dbe 2610 333e
00000320: fc6b afbd 8c33 e43d 0049 a7bd 627b 133e
00000330: 8248 cb3b 044b 17be 5151 993c 115b 04bd
00000340: b3df aa3d fc00 00be c56a e7bc 5daf 753d
00000350: 18cf bc3c ef6c f23d 1f1d 153e 178a 803d
00000360: 0d3d 6abd 5868 a73d 2d0b e33d 6de7 3abe
00000370: dcf2 05be 398a fdbd af78 1d3d 4de4 b9bd
00000380: 5863 8dbd eb1e a0bd 8aea 07be 70d6 92bd
00000390: 4d5f 14be 1638 2cbe 2a38 f0ba 8232 f93d
000003a0: cd08 f1bd 1ec1 223e 9b0d d7bd 05e8 bd3d
000003b0: 746b 68bd a490 60bd 69cf 163d 9fb0 973c
000003c0: a0bc 15be dfd0 0ebe c88e 10be 1673 80bd
000003d0: 02a4 f53d 9655 f9bb 6db7 0a3e de46 5d3d
000003e0: 03a2 5d3b 6f18 12be 5d90 2a3e 3207 573d
000003f0: e01f 26be 24fc f6bd 99e1 febd 1d03 1d3e

te_net.4.bias f4 [64]
-0.1219369 0.09373657 0.10452151 0.14605257 -0.028183563 -0.15379585 0.16129513 0.03537155
0.16600984 0.041012365 0.0020871412 -0.125171 0.021299727 -0.03920143 -0.11427663 0.15379906
0.06359295 -0.090322234 0.12124477 0.04269428 0.071306355 0.049603183 0.110698365 -0.07684723
0.034794185 0.097069085 0.100397475 0.028703662 0.17217588 -0.09733113 0.09491597 0.17324314
-0.11080633 -0.172745 -0.083469056 0.05956015 -0.088412195 -0.04493588 -0.05044943 -0.14907333
0.16213581 -0.11822171 0.03779232 0.11805509 -0.0049634655 -0.16163526 0.09541465 0.099386446
-0.14087193 0.19304381 -0.03965196 0.14397503 0.034749996 -0.075548366 -0.11072063 0.04302774
0.005460112 -0.053138364 -0.0427539 0.1113592 -0.11328954 -0.02136379 -0.10949047 0.09189528
00000000: 0eba f9bd f5f8 bf3d 600f d63d ce8e 153e
00000010: 37e1 e6bc a97c 1dbe 8d2a 253e c2e1 103d
00000020: 7cfe 293e 95fc 273d 6bc8 083b d42c 00be
00000030: c47c ae3c ae91 20bd de09 eabd 807d 1d3e
00000040: 053d 823d ddfa b8bd 2e4f f83d 33e0 2e3d
00000050: 1109 923d b52c 4b3d d3b5 e23d 1562 9dbd
00000060: 5984 0e3d 28cc c63d 319d cd3d f123 eb3c
00000070: e04e 303e 8b55 c7bd 4e63 c23d a666 313e
00000080: 6eee e2bd 11e4 30be d3f1 aabd 58f5 733d
00000090: 7411 b5bd af0e 38bd 10a4 4ebd aea6 18be
000000a0: ee06 263e 391e f2bd 1fcc 1a3d dec6 f13d
000000b0: 91a4 a2bb b783 25be c268 c33d 1f8b cb3d
000000c0: bb40 10be 47ad 453e 186a 22bd 316e 133e
000000d0: 0356 0e3d 1ab9 9abd 7fc1 e2bd db3d 303d
000000e0: bdea b23b 9da7 59bd b71e 2fbd 4b10 e43d
000000f0: 5904 e8bd 1d03 afbc 8a3c e0bd 9833 bc3d

classifier.0.weight f4 [128, 64]
0.07766742 0.09290625 -0.06067728 -0.1028293 -0.012182158 -0.047855757 0.045548096 -0.01198006
0.0745829 0.073155396 0.042050876 -0.0619763 -0.10153619 0.053168084 -0.07310696 0.10560734
0.07335102 0.108480416 0.08034894 -0.11025194 0.10683231 0.04658981 0.023775367 -0.073877044
0.08677512 -0.10898266 0.08517682 0.014514049 -0.046506774 -0.08975157 0.07150875 0.09743454
-0.017096357 0.08633982 -0.02291332 0.07490336 0.0135280555 -0.0022885157 0.06709177 0.11199121
-0.1168881 0.13759786 -0.009914506 -0.03713727 -0.1053717 0.020068184 0.0728732 0.098960556
0.07515423 -0.10796442 -0.047804277 -0.081306905 0.12232101 -0.11298721 0.082450666 -0.08799617
-0.09047643 0.03268376 0.033786684 -0.045210354 -0.01998844 -0.008166445 0.07150075 -0.06999355
0.015516143 0.023902463 -0.13995981 0.10962128 -0.054680265 0.024213461 0.04388052 -0.01461184
0.05932815 -0.041583255 0.047116015 -0.02377767 0.07403568 -0.026953762 -0.0981723 -0.00796396
-0.015388783 -0.12184186 0.07784391 -0.049189627 0.060094222 -0.017125951 -0.04446434 -0.008171822
-0.09240163 -0.024735663 0.13486105 0.14212714 -0.070627816 0.009545803 0.07159118 0.055928007
0.017685615 0.09713339 0.09621337 0.062082842 0.088099904 0.12005517 -0.12390878 0.092298865
-0.038146432 0.059707675 -0.09605013 0.086675026 -0.07956104 -0.09730297 -0.06572479 -0.13606127
-0.114515334 0.08524994 0.055340916 0.026279243 -0.066044286 -0.11128213 -0.015522413 -0.11136151
-0.04056607 0.13106963 -0.08876485 0.10808602 0.03935279 0.08142046 0.019248575 0.07048136
0.042328104 -0.06000024 -0.10673597 0.08370842 -0.08242058 0.09317625 0.043352038 0.091075435
-0.0044971593 0.049035456 0.13950464 -0.0057184245 -0.08297634 -0.026419446 0.11557273 -0.08849709
0.015250839 -0.07338282 0.06919013 -0.025672726 0.04409206 0.04370043 0.046932317 0.008644604
-0.14671153 -0.040609784 -0.07909944 0.06328896 -0.0049446574 0.06870012 0.037035484 0.06954812
-0.087966815 0.09920549 -0.046088178 -0.1006077 -0.10238535 0.059542034 -0.0299968 -0.09702201
-0.045511987 -0.06878487 0.11312469 -0.11250521 -0.100418136 -0.11128051 0.0877237 0.027018944
-0.028186731 0.00055409485 -0.083370134 -0.14206952 -0.10136466 -0.034217443 0.023604358 0.12369481
-0.033785004 0.0887837 -0.032661058 0.059637714 -0.012092457 -0.11710477 -0.09845275 -0.08948978
-0.105527475 0.033589043 0.09739064 0.050980892 -0.011544969 -0.09183199 -0.0064134067 0.12844853
-0.03018063 -0.027000876 -0.012511052 -0.11584721 0.043383453 -0.11202366 0.051376697 0.06359429
-0.055821165 -0.034479614 -0.009438602 0.079075724 -0.002394937 0.059160605 -0.01076335 0.033514943
0.115076974 -0.07759994 -0.06336495 0.0061660707 -0.08183769 0.025740162 -0.021234222 0.020319162
-0.013733801 0.122303545 -0.012411959 -0.10627646 -0.112984896 0.06886438 -0.13162713 -0.1139523
0.02146347 -0.005385543 0.0675348 0.045793414 0.122776404 -0.04068546 -0.004026481 0.06484344
-0.08729379 0.09144092 0.033861544 0.10433434 -0.06890739 0.034073774 0.046753418 0.04625097
-0.002684791 -0.050072066 -0.036278635 0.028658036 0.028744875 -0.08846279 -0.0006135702 0.046113703
00000000: 1910 9f3d a245 be3d bd88 78bd 2b98 d2bd
00000010: ad97 47bc 6604 44bd a490 3a3d 0348 44bc
00000020: ebbe 983d 7fd2 953d 8a3d 2c3d dcda 7dbd
00000030: 35f2 cfbd c7c6 593d 1ab9 95bd a948 d83d
00000040: 0f39 963d fb2a de3d fc8d a43d c5cb e1bd
00000050: e6ca da3d f5d4 3e3d 8fc4 c23c d94c 97bd
00000060: 27b7 b13d 4d32 dfbd 2f71 ae3d 55cc 6d3c
00000070: e37d 3ebd accf b7bd 2e73 923d c38b c73d
00000080: a90d 8cbc eed2 b03d b7b4 bbbc ef66 993d
00000090: c7a4 5d3c ecfa 15bb 6967 893d a65b e53d
000000a0: 0763 efbd 74e6 0c3e 7470 22bc 401d 18bd
000000b0: 1ecd d7bd 0866 a43c 8b3e 953d d5ab ca3d
000000c0: 76ea 993d 731c ddbd 6bce 43bd 3c84 a6bd
000000d0: 7083 fa3d d765 e7bd e5db a83d 5637 b4bd
000000e0: b54b b9bd 68df 053d e863 0a3d 7e2e 39bd
000000f0: ccbe a3bc 8ecc 05bc fc6e 923d c758 8fbd
00000100: 6c37 7e3c 19cf c33c a051 0fbe 1f81 e03d
00000110: 6af8 5fbd 4f5b c63c 0fbc 333d 8066 6fbc
00000120: 1302 733d 3453 2abd b9fc 403d 63c9 c2bc
00000130: 05a0 973d 23ce dcbc 8f0e c9bd 457b 02bc
00000140: 3c21 7cbc 3a88 f9bd a16c 9f3d 107b 49bd
00000150: 5c25 763d b94b 8cbc 3d20 36bd 1be3 05bc
00000160: 113d bdbd 72a2 cabc 0419 0a3e c789 113e
00000170: 51a5 90bd 0066 1c3c 669e 923d c414 653d
00000180: 6ce1 903c dfed c63d 840b c53d 944a 7e3d
00000190: b96d b43d 7cdf f53d e3c3 fdbd 3007 bd3d
000001a0: 6f3f 1cbd 0990 743d eeb5 c4bd ad82 b13d
000001b0: e6f0 a2bd c846 c7bd b89a 86bd a553 0bbe
000001c0: 0487 eabd 8597 ae3d 28ad 623d 9147 d73c
000001d0: 3a42 87bd e3e7 e3bd b851 7ebc 8111 e4bd
000001e0: 9b28 26bd 1e37 063e 58ca b5bd 345c dd3d
000001f0: 6430 213d c5bf a63d 30af 9d3c 8858 903d
00000200: 3c60 2d3d d0c2 75bd 6398 dabd 526f ab3d
00000210: 1fcc a8bd 31d3 be3d e891 313d c285 ba3d
00000220: e85c 93bb 67d9 483d 4eda 0e3e 9f61 bbbb
00000230: 80ef a9bd 986d d8bc 65b1 ec3d f63d b5bd
00000240: a8de 793c bb49 96bd 8eb3 8d3d 9c4f d2bc
00000250: e099 343d 39ff 323d 1a3c 403d 19a2 0d3c
00000260: 8c3b 16be 7256 26bd e3fe a1bd a49d 813d
00000270: cb06 a2bb a6b2 8c3d 85b2 173d 3f6f 8e3d
00000280: f227 b4bd 3f2c cb3d f5c6 3cbd 690b cebd
00000290: 69af d1bd 59e2 733d d9bb f5bc 7ab3 c6bd
000002a0: c76a 3abd 15df 8cbd ebad e73d 2269 e6bd
000002b0: 06a8 cdbd 09e7 e3bd 7ca8 b33d d556 dd3c
000002c0: dce7 e6bc ad40 113a f6bd aabd ac7a 11be
000002d0: 4698 cfbd 9727 0cbd ed5d c13c b453 fd3d
000002e0: 2562 0abd 3ad4 b53d 9ac7 05bd ad46 743d
000002f0: 711f 46bc a0d4 efbd 98a1 c9bd 6b46 b7bd
00000300: ca1e d8bd aa94 093d be74 c73d 57d1 503d
00000310: 1c27 3dbc 6912 bcbd 8e27 d2bb 0388 033e
00000320: 5e3d f7bc f130 ddbc 28fb 4cbc 4d41 edbd
00000330: d9b2 313d a96c e5bd 5f70 523d b93d 823d
00000340: bca4 64bd 7f3a 0dbd 5ea4 1abc 74f2 a13d
00000350: 60f4 1cbb 6452 723d c358 30bc f746 093d
00000360: 7aad eb3d b8ec 9ebd 7cc5 81bd c00c ca3b
00000370: 859a a7bd 08dd d23c 64f3 adbc 5f74 a63c
00000380: bd03 61bc 487a fa3d 875b 4bbc 79a7 d9bd
00000390: a064 e7bd c508 8d3d 43c9 06be d35f e9bd
000003a0: 29d4 af3c 3679 b0bb af4f 8a3d e091 3b3d
000003b0: 3272 fb3d cca5 26bd 92f0 83bb a3cc 843d
000003c0: 16c7 b2bd 6145 bb3d 67b2 0a3d 3ead d53d
000003d0: 511f 8dbd f190 0b3d 8380 3f3d a871 3d3d
000003e0: 52f3 2fbb 5e18 4dbd e898 14bd 42c4 ea3c
000003f0: 5f7a eb3c fb2b b5bd 00d8 20ba b9e1 3c3d

classifier.0.bias f4 [128]
-0.033529963 -0.110764876 0.024732387 0.027742159 -0.042969443 0.12176261 -0.017170034 0.051115453
0.08985584 -0.0265497 -0.06754065 -0.022863759 0.07626899 0.04810217 0.11247836 0.008299498
0.024860108 -0.073709115 0.102938175 -0.086306125 -0.094385214 0.11827319 -0.09000921 -0.078556605
0.004472228 0.05197386 -0.07564537 -0.09617851 0.10658971 0.053298797 0.026426494 0.055857323
-0.12877381 -0.04130394 -0.11354439 -0.12135655 0.07139402 -0.08107238 0.036453392 0.1114755
0.016938299 -0.058052197 0.008706986 0.06745959 -0.065465815 0.031264093 -0.12861778 0.024581654
0.118501 -0.07656519 -0.07069478 0.07687636 0.020621102 -0.10423418 -0.08047714 0.00091429614
0.049030658 0.12113326 -0.008782851 -0.090824984 0.06816908 -0.101503015 -0.0006436621 -0.03535674
0.01787746 -0.011040226 -0.102717005 -0.11198383 0.11307613 0.11729529 -0.00390524 0.04848684
0.008798213 -0.017511502 0.07379772 0.052733846 -0.10764772 -0.12102681 -0.12242807 0.0037894105
-0.060001414 -0.049898457 0.07488251 -0.11020977 -0.073640004 0.044735584 0.010026337 0.07059847
-0.11201339 -0.06588431 0.06906276 0.13701656 0.060106754 0.0037705586 0.026631497 -0.1041105
0.008196794 -0.08711255 -0.04872181 -0.021526637 -0.020740004 -0.014864843 -0.070241086 -0.07285124
0.03751549 -0.047730085 -0.008321129 0.11015246 0.016830903 0.06093798 0.039006293 0.12437647
-0.111617066 -0.10586499 -0.052992385 -0.0077050594 0.034926433 0.010131792 0.0038898857 -0.10191964
0.057733934 -0.040492892 0.09078017 0.056461144 0.028710458 -0.05930707 0.04215009 0.021172073
00000000: b756 09bd b2d8 e2bd 939b ca3c 8643 e33c
00000010: ba00 30bd ad5e f93d 2ca8 8cbc 705e 513d
00000020: 5706 b83d c27e d9bc c152 8abd c74c bbbc
00000030: eb32 9c3d c806 453d 0e5b e63d 9efa 073c
00000040: 6da7 cb3c cef4 96bd 40d1 d23d 44c1 b0bd
00000050: 094d c1bd 3739 f23d c056 b8bd 49e2 a0bd
00000060: c58b 923b 8be2 543d f6eb 9abd 3df9 c4bd
00000070: b54b da3d d74f 5a3d 607c d83c a6ca 643d
00000080: 48dd 03be 522e 29bd f689 e8bd c889 f8bd
00000090: 0737 923d 4709 a6bd 2750 153d 444d e43d
000000a0: 30c2 8a3c 24c8 6dbd bfa7 0e3c 4128 8a3d
000000b0: f112 86bd c70e 003d 61b4 03be 775f c93c
000000c0: a7b0 f23d 36ce 9cbd 6dc8 90bd 5a71 9d3d
000000d0: 96ed a83c bb78 d5bd 33d1 a4bd 60ad 6f3a
000000e0: 5fd4 483d b714 f83d f2e5 0fbc 7302 babd
000000f0: 3b9c 8b3d d0e0 cfbd 6fbb 28ba 3bd2 10bd
00000100: c073 923c 10e2 34bc 4b5d d2bd c757 e5bd
00000110: 7594 e73d 8338 f03d 0eef 7fbb 239a 463d
00000120: 6126 103c 4874 8fbc 4223 973d 72ff 573d
00000130: 6876 dcbd e7dc f7bd 91bb fabd c257 783b
00000140: 0bc4 75bd 5362 4cbd 005c 993d a9b5 e1bd
00000150: 92d0 96bd a93c 373d 8145 243c ee95 903d
00000160: 4767 e5bd 5aee 86bd c770 8d3d 124e 0c3e
00000170: 8032 763d 7a1b 773b 4c2a da3c e337 d5bd
00000180: d94b 063c 1168 b2bd 8590 47bd a158 b0bc
00000190: f1e6 a9bc ac8b 73bc 8fda 8fbd 0833 95bd
000001a0: d8a9 193d 9f80 43bd 5855 08bc 9d97 e13d
000001b0: f6e0 893c 1a9a 793d 10c5 1f3d 17b9 fe3d
000001c0: 7d97 e4bd becf d8bd 8b0e 59bd b97a fcbb
000001d0: 050f 0f3d d1ff 253c 74ed 7e3b 3fbb d0bd
000001e0: 6b7a 6c3d e0db 25bd f4ea b93d cd43 673d
000001f0: 3232 eb3c f8eb 72bd 93a5 2c3d 0e71 ad3c

classifier.1.weight f4 [128]
1.0016294 1.0548242 1.0203713 0.99253505 0.9700956 0.98792946 1.0174365 1.0360172
0.9816927 1.0009881 1.0147015 0.99396384 0.9719206 0.9932061 1.0315908 0.97848326
1.0200688 1.0335548 0.99311703 1.0061375 1.0402174 0.9881797 0.99640256 1.0053655
0.9878013 0.99808574 0.98735297 1.0028983 1.0162216 0.99251854 1.0071187 0.9617781
0.9845487 0.97247034 1.0379875 0.9784475 0.9897688 1.0027474 0.98311406 1.0201588
0.9882856 1.0007092 0.97514653 0.9907514 0.97878003 1.0190206 1.0088149 1.0155687
1.0039433 1.0133933 0.9726954 1.0119857 0.97506297 0.9740505 0.97598714 0.96314734
1.0058304 1.0223476 0.9815899 0.99083006 0.9904136 0.9622469 0.98520297 1.0222001
1.0262535 0.9784441 0.968944 0.9897705 0.9751252 1.001169 0.98628616 1.0410006
0.97312224 0.9843591 1.0018667 1.0021025 0.99336106 1.0036443 0.9920793 1.0045922
0.99434745 0.98755175 0.997593 0.9706867 1.0046247 0.987404 0.9911456 1.0018787
1.0190488 0.98637575 1.0190009 1.0184435 0.9891024 0.98136216 1.0206695 1.0214132
0.99786663 0.9987367 0.98674035 1.0030483 0.98232067 1.0073465 1.0551499 1.0287181
0.9977329 0.997545 0.98628235 0.9791699 0.9889592 0.98438686 1.0194315 1.0026067
0.9976534 0.9644821 0.963839 0.9876548 0.9892711 1.0096184 0.9791328 1.0014223
0.9787462 1.0026578 1.0117557 0.98864686 0.9755098 0.99147296 0.98165375 1.0007421
00000000: 6435 803f 7b04 873f 879b 823f c716 7e3f
00000010: 2f58 783f f2e8 7c3f 5c3b 823f 369c 843f
00000020: 3650 7b3f 6120 803f bde1 813f 6a74 7e3f
00000030: cacf 783f c142 7e3f 2b0b 843f e17d 7a3f
00000040: 9d91 823f 864b 843f eb3c 7e3f 1dc9 803f
00000050: d825 853f 58f9 7c3f 3d14 7f3f d1af 803f
00000060: 8ce0 7c3f 8c82 7f3f 2ac3 7c3f f95e 803f
00000070: 8d13 823f b215 7e3f 44e9 803f 1737 763f
00000080: 620b 7c3f d1f3 783f c6dc 843f 897b 7a3f
00000090: 7d61 7d3f 075a 803f 5dad 7b3f 9094 823f
000000a0: 4900 7d3f 3d17 803f 34a3 793f e2a1 7d3f
000000b0: 5491 7a3f 446f 823f d920 813f 28fe 813f
000000c0: 3781 803f dfb6 813f 9102 793f bf88 813f
000000d0: ba9d 793f 605b 793f 4bda 793f d390 763f
000000e0: 0dbf 803f 49dc 823f 7a49 7b3f 0aa7 7d3f
000000f0: bf8b 7d3f d055 763f 4336 7c3f 74d7 823f
00000100: 465c 833f 507b 7a3f b70c 783f 9961 7d3f
00000110: cea1 793f 4e26 803f 407d 7c3f 823f 853f
00000120: 8a1e 793f f5fe 7b3f 2b3d 803f e544 803f
00000130: e94c 7e3f 6b77 803f e9f8 7d3f 7a96 803f
00000140: 8e8d 7e3f 31d0 7c3f 4162 7f3f ec7e 783f
00000150: 8b97 803f 82c6 7c3f b8bb 7d3f 903d 803f
00000160: 3170 823f 1f83 7c3f 9f6e 823f 5b5c 823f
00000170: d135 7d3f 8d3a 7b3f 4ca5 823f abbd 823f
00000180: 3074 7f3f 35ad 7f3f 049b 7c3f e363 803f
00000190: 5e79 7b3f bbf0 803f 270f 873f 09ad 833f
000001a0: 6c6b 7f3f 1c5f 7f3f 007d 7c3f e1aa 7a3f
000001b0: 6e2c 7d3f c700 7c3f bb7c 823f 6b55 803f
000001c0: 3766 7f3f 4de8 763f 27be 763f f2d6 7c3f
000001d0: df40 7d3f 2d3b 813f 72a8 7a3f 9b2e 803f
000001e0: 1c8f 7a3f 1757 803f 3681 813f f617 7d3f
000001f0: 03bb 793f 2cd1 7d3f a94d 7b3f 5118 803f

classifier.1.bias f4 [128]
-0.008836671 0.027048877 0.0038901535 0.00016190464 -0.008084566 -0.011495152 -0.0059721284 0.00019442216
0.003135989 -0.009624755 -0.011548007 0.0039497316 -0.0072147828 -0.01835383 0.021842938 -0.024837196
0.014119627 0.004271962 0.0038200717 0.030718023 -0.016717812 0.0013253296 -0.013394777 0.005276062
-0.013003301 0.0032340449 0.001336002 -0.009410451 0.014741777 0.01680055 -0.030626696 0.008963772
-0.007402728 -0.012348873 0.012743592 0.018456781 -0.00036450507 0.014997973 -0.0020616846 -0.0019375379
-0.019662784 0.0014765145 0.011240212 -0.004997696 -0.022334263 0.04614643 -0.035294004 0.011276988
0.009907593 0.01605988 0.023775654 -0.013148446 -0.0108113345 -0.0045610373 -0.020295179 -0.0067197657
0.006028573 0.01663325 0.010279887 0.010179951 -0.02378519 -0.024728209 -0.0026512537 0.011550509
-0.003844551 -0.010986748 -0.019659083 0.017170697 -0.010456705 0.027658973 0.006472135 0.0053635202
0.034853317 0.0069940006 -0.027963998 -0.014942783 0.026299123 0.0040539373 -0.0013556349 0.025077844
-0.025013901 -0.00951382 0.02291068 -0.004319256 0.0075804554 0.028768295 -0.020971082 -0.02023437
-0.0026498367 0.0035749585 0.00708518 -0.025844555 0.012961637 -0.019025875 0.029307095 -0.0012934188
0.022311725 0.024597805 -0.039183132 0.020806525 -0.0031543765 0.0059300684 -0.0041265255 -0.015199549
-0.045746084 -0.021271626 -0.006751104 -0.01483849 0.0025493128 0.012416798 0.009300394 0.003688705
-0.019413967 -0.005182292 0.013623111 0.011981906 0.018179968 -0.015787588 -0.004787499 0.0069736238
-0.011905788 -0.027696976 -0.00046662884 0.00796265 -0.0028644756 -0.022391781 0.02830933 0.003174994
00000000: afc7 10bc 9b95 dd3c f2f1 7e3b f2c4 2939
00000010: 2175 04bc 2956 3cbc d8b1 c3bb cddd 4b39
00000020: 2a85 4d3b 26b1 1dbc da33 3dbc c06c 813b
00000030: fc69 ecbb c55a 96bc f6ef b23c 6077 cbbc
00000040: 0256 673c d1fb 8b3b 2b5a 7a3b 5da4 fb3c
00000050: cbf3 88bc afb6 ad3a c475 5bbc d1e2 ac3b
00000060: cc0b 55bc 45f2 533b ca1c af3a 4b2e 1abc
00000070: 7f87 713c 4fa1 893c d6e4 fabc c9dc 123c
00000080: 9592 f2bb ed52 4abc 80ca 503c ad32 973c
00000090: 0b1b bfb9 0fba 753c 541d 07bb fcf4 fdba
000000a0: d913 a1bc 9b87 c13a de28 383c b6c3 a3bb
000000b0: 58f6 b6bc 0a04 3d3d 7290 10bd 1ec3 383c
000000c0: 7553 223c 0290 833c 29c5 c23c 946c 57bc
000000d0: 0622 31bc c174 95bb 1342 a6bc 7b31 dcbb
000000e0: 568b c53b 7442 883c f96c 283c cfc9 263c
000000f0: 29d9 c2bc d092 cabc a8c0 2dbb 593e 3d3c
00000100: ddf4 7bbb c301 34bc 160c a1bc 90a9 8c3c
00000110: 9952 2bbc 1295 e23c 3414 d43b 78c0 af3b
00000120: 5ac2 0e3d ee2d e53b c114 e5bc 93d2 74bc
00000130: 4271 d73c e4d6 843b 8faf b1ba 0d70 cd3c
00000140: f4e9 ccbc dadf 1bbc 2eaf bb3c 8c88 8dbb
00000150: 7865 f83b 7dab eb3c 8ccb abbc 8dc2 a5bc
00000160: e2a8 2dbb da49 6a3b cc2a e83b f6b7 d3bc
00000170: 0c5d 543c 27dc 9bbc 6f15 f03c ef87 a9ba
00000180: 14c7 b63c 5681 c93c 7e7e 20bd 7272 aa3c
00000190: a8b9 4ebb 0551 c23b ce37 87bb 8707 79bc
000001a0: 3f60 3bbd d541 aebc 5d38 ddbb 231d 73bc
000001b0: 5f12 273b d36f 4b3c ae60 183c 33be 713b
000001c0: 0a0a 9fbc 37d0 a9bb 7833 5f3c c24f 443c
000001d0: 28ee 943c f954 81bc 74e0 9cbb ff82 e43b
000001e0: 7f10 43bc c5e4 e2bc dda5 f4b9 c675 023c
000001f0: edb9 3bbb f86e b7bc f8e8 e73c 8f13 503b

classifier.1.running_mean f4 [128]
0.06078195 -0.05657456 -0.050943457 0.08956199 0.08922515 0.05559036 -0.06144177 -0.0709158
0.07434914 -0.09485512 -0.24104851 -0.06411022 0.2169367 0.08253739 0.105781056 -0.06282138
-0.068178825 -0.08543941 0.013446622 -0.115490004 -0.07443863 0.22402482 -0.1596136 -0.16671371
0.015506417 0.04021801 -0.3384977 -0.15183485 0.17277817 0.1193627 -0.16344626 0.0024955324
-0.13763653 -0.09468158 -0.1341235 -0.07941597 0.15904294 -0.24435858 0.14624028 0.13556133
-0.1757989 -0.06936849 0.017795643 0.10839879 -0.08006396 0.08834447 -0.19603121 -0.056247532
0.113101006 -0.09976325 -0.041271962 0.03320108 -0.13068861 -0.08529403 -0.11018661 0.22508036
0.096202895 0.07708284 -0.087112956 -0.040934816 0.050634544 -0.21436939 0.1576376 -0.10221705
0.02601649 0.12344684 -0.080928065 0.038867544 0.16639501 0.12535395 0.039002743 -0.026089435
-0.032384887 -0.0122101 -0.015879454 0.061242763 -0.19172892 -0.10157588 -0.02478024 -0.01287302
-0.15083742 -0.13931608 0.13170633 0.12512082 -0.14063725 0.11963021 -0.004440554 0.07411762
-0.13443649 -0.013807568 0.03928451 0.08943095 0.07367641 -0.16909721 0.061486445 -0.13045199
0.045735747 -0.107821696 -0.061215084 -0.03235793 -0.029157927 -0.074659415 -0.1472073 -0.10540191
-0.0009144889 -0.13377893 -0.123912975 0.058886554 -0.13861819 -0.034600187 -0.044359576 -0.0346548
-0.1700549 -0.101851225 -0.02419216 -0.0032324558 0.07776467 -0.07283331 0.045447454 -0.07323459
0.19890912 -0.06264994 -0.10216514 0.054244805 -0.10114107 -0.13177724 0.11740449 -0.028846594
00000000: 7ef6 783d baba 67bd 16aa 50bd 476c b73d
00000010: adbb b63d b8b2 633d 5eaa 7bbd 4e3c 91bd
00000020: 5d44 983d 6743 c2bd 6cd5 76be 384c 83bd
00000030: a724 5e3e 5d09 a93d bda3 d83d 7fa8 80bd
00000040: 57a1 8bbd dbfa aebd 384f 5c3c 0686 ecbd
00000050: 4873 98bd c366 653e bf71 23be 00b7 2abe
00000060: a00e 7e3c a4bb 243d 924f adbe 987a 1bbe
00000070: c3ec 303e 6e74 f43d 755e 27be 168c 233b
00000080: 97f0 0cbe 6be8 c1bd ac57 09be d7a4 a2bd
00000090: 27dc 223e 2339 7abe 03c0 153e 97d0 0a3e
000000a0: a004 34be 1111 8ebd 2bc8 913c 2f00 de3d
000000b0: 93f8 a3bd f2ed b43d 68bc 48be d063 66bd
000000c0: 80a1 e73d ad50 ccbd ca0c 29bd dbfd 073d
000000d0: 3cd3 05be a3ae aebd 84a9 e1bd 777b 663e
000000e0: 0606 c53d 9cdd 9d3d 4768 b2bd 44ab 27bd
000000f0: 2b66 4f3d a683 5bbe c06b 213e 2c57 d1bd
00000100: 8920 d53c b2d1 fc3d 9dbd a5bd 9333 1f3d
00000110: 7463 2a3e c95c 003e 57c1 1f3d 83b9 d5bc
00000120: 04a6 04bd df0c 48bc a115 82bc b1d9 7a3d
00000130: 9654 44be 0407 d0bd eeff cabc 5ce9 52bc
00000140: 2075 1abe e0a8 0ebe 06de 063e ac1f 003e
00000150: 3603 10be af00 f53d 1182 91bb fbca 973d
00000160: b8a9 09be 2339 62bc cbe8 203d 9327 b73d
00000170: a8e3 963d d227 2dbe 36d9 7b3d 3595 05be
00000180: 6855 3b3d 9fd1 dcbd abbc 7abd c089 04bd
00000190: 9bdc eebc 09e7 98bd 83bd 16be f5dc d7bd
000001a0: 50ba 6fba 58fd 08be 16c6 fdbd 0733 713d
000001b0: edf1 0dbe edb8 0dbd 63b2 35bd 31f2 0dbd
000001c0: df22 2ebe 6097 d0bd a32e c6bc 9cd7 53bb
000001d0: 1543 9f3d a129 95bd 1c27 3a3d 04fc 95bd
000001e0: d5ae 4b3e 9d4e 80bd f53b d1bd cd2f 5e3d
000001f0: 0d23 cfbd 9df0 06be c471 f03d b14f ecbc

classifier.1.running_var f4 [128]
0.0015657988 0.0005722385 0.0012934409 0.00079591974 0.0028640314 0.0011300971 0.00053451053 0.0010347129
0.0009532989 0.0010632518 0.0016017373 0.0017633049 0.0014156481 0.0010821305 0.0012258372 0.0021563957
0.001070471 0.00015528471 0.0011919877 0.0029777887 0.0006189008 0.0017520762 0.0012242334 0.00024475757
0.0011901464 0.0010897276 0.0029000316 0.0009203383 0.00055915664 0.0010322982 0.00085990806 0.0013172043
0.0006815926 0.001155175 0.00030457613 0.0011365159 0.001430338 0.00065621105 0.0019576845 0.00097282365
0.0010585958 0.0011150818 0.0023870403 0.0010887597 0.0015314829 0.00058298756 0.00018794602 0.00059351255
0.00033632768 0.0011427572 0.0015320986 0.00038985827 0.0009433103 0.0012587011 0.002108785 0.0021911007
0.0006262982 0.0012536106 0.00203504 0.001776316 0.00058199745 0.00062910834 0.0049059587 0.000108196466
0.00023906423 0.000850926 0.0006889181 0.002011136 0.003362665 0.0012306655 0.0015047148 4.7902966e-05
0.0006602452 0.0014531225 0.0004519529 0.00030971644 0.0018161432 0.0005992362 0.002519254 0.0017626585
0.00090502156 0.00073548424 0.0012496819 0.002421267 0.00071163225 0.001253756 0.00051174336 8.845683e-05
0.00046078116 0.00047755204 0.00095171586 0.0005304263 0.0012125128 0.0035347221 0.0004339395 0.0004533748
0.0008267974 0.00071865617 0.0002529419 0.0001294963 0.001322275 0.0006836416 0.00047766406 0.00029992394
0.00072736153 0.0015195096 0.0009939558 0.00018141 0.0011978374 0.005464294 0.0005006512 0.00064838264
0.0010138163 0.0015164106 0.001649201 0.0010544701 0.00090939464 0.000376807 0.0005761833 0.0018864372
0.0018124584 0.0005023767 0.0008526736 0.00018391943 0.0012665718 0.0001334534 0.00027753084 0.0006412449
00000000: 7d3b cd3a 4702 163a ad88 a93a 45a5 503a
00000010: 79b2 3b3b c41f 943a 651e 0c3a 349f 873a
00000020: cee6 793a cf5c 8b3a 63f1 d13a b21e e73a
00000030: 458d b93a 46d6 8d3a 45ac a03a 5152 0d3b
00000040: 0c4f 8c3a ecd3 2239 783c 9c3a 0127 433b
00000050: bb3d 223a eca5 e53a 7576 a03a ce52 8039
00000060: b0fe 9b3a 31d5 8e3a 750e 3e3b dc42 713a
00000070: 5e94 123a 2e4e 873a 746b 613a 0ba6 ac3a
00000080: e8ac 323a 3e69 973a 84af 9f39 25f7 943a
00000090: 2e7a bb3a 9405 2c3a 7f4c 003b 1705 7f3a
000000a0: 95c0 8a3a f027 923a e46f 1c3b b7b4 8e3a
000000b0: 0abc c83a a2d3 183a 6013 4539 f495 1b3a
000000c0: 2355 b039 92c8 953a b3d0 c83a e465 cc39
000000d0: 7c48 773a 00fb a43a 8b33 0a3b 9298 0f3b
000000e0: 292e 243a 3150 a43a 4e5e 053b 46d3 e83a
000000f0: 3091 183a bfea 243a 2ac2 a03b 89e7 e238
00000100: 51ad 7a39 ad10 5f3a 8398 343a 43cd 033b
00000110: 2860 5c3b 484e a13a da39 c53a 6beb 4838
00000120: 4e14 2d3a b376 be3a 17f4 ec39 7061 a239
00000130: a70b ee3a 1016 1d3a 121a 253b 0109 e73a
00000140: f83e 6d3a 83cd 403a 5ecc a33a 1fae 1e3b
00000150: d58c 3a3a 1255 a43a 8426 063a e681 b938
00000160: 0095 f139 f35f fa39 927c 793a 4e0c 0b3a
00000170: 2eed 9e3a cca6 673b 6082 e339 f0b2 ed39
00000180: 6fbd 583a 3364 3c3a 4a9d 8439 66c9 0739
00000190: 3050 ad3a 6936 333a fc6e fa39 1c3f 9d39
000001a0: 68ac 3e3a 482a c73a 9f47 823a e038 3e39
000001b0: c100 9d3a d20d b33b 223e 033a 39f8 293a
000001c0: 08e2 843a 4cc2 c63a 012a d83a 2536 8a3a
000001d0: 7164 6e3a 2e8e c539 020b 173a 5442 f73a
000001e0: 0390 ed3a eeb1 033a f585 5f3a 7fda 4039
000001f0: 1903 a63a a0ef 0b39 8f81 9139 3719 283a

classifier.3.weight f4 [128, 128]
-0.063430086 0.03422829 0.036680426 -0.053133473 -0.014999068 0.025482284 -0.0032457223 0.03764266
0.066297024 0.06030596 -0.008709382 -0.017761055 -0.04246661 -0.05502028 0.011175921 0.027577259
-0.104925275 -0.03823607 -0.081720665 -0.05836048 0.053019628 -0.009516049 -0.06955207 -0.08413639
-0.02704851 -0.02163078 -0.028344726 0.051673617 0.05319799 -0.05225068 0.06868917 0.0048257397
-0.09045109 0.09011815 0.09380593 0.04791678 0.048643786 -0.011990627 0.0075665563 -0.0027749194
-0.059290584 0.019996686 0.064587615 -0.0646556 -0.04607053 -0.02099494 0.009049181 -0.073802724
-0.03263564 0.045681473 -0.03223287 -0.0069903745 0.00581988 0.062032126 -0.05136915 0.017299538
-0.054582987 -0.12586807 -0.020958824 -0.046067998 0.045939535 -0.01636354 0.018874105 -0.05488841
-0.07199434 0.030869404 -0.03666036 -0.012730718 0.026329337 -0.055074934 0.038688757 -0.12248102
0.04511663 0.048737567 0.05755921 -0.078027174 0.069996245 0.01999429 0.08620759 0.05789966
-0.041690603 -0.06657547 -0.0687819 0.05704662 -0.078889884 0.04714777 -0.07375496 0.021560818
0.041214593 0.04606083 0.058382817 0.0009448416 -0.028911665 0.081871666 -0.0941016 -0.056974255
0.008533707 0.053961176 0.06952621 -0.038136683 0.033193532 0.032240383 -0.07006553 -0.084608026
0.046294853 -0.10003265 0.07150168 -0.042329468 -0.0074407323 -0.06254554 -0.030386504 -0.05091409
-0.043743677 -0.020452207 0.006099301 0.063126616 0.000101595535 0.025203241 0.046037327 -0.015878195
-0.0510117 -0.01992292 0.013463801 -0.08830159 0.0033122716 -0.013446927 -0.035302635 -0.01264393
0.026284093 -0.025508547 -0.042804096 -0.04118219 -0.0927584 -0.027380908 -0.07761355 0.038315557
-0.07063125 -0.022409014 -0.04731262 0.056494914 -0.011287113 0.05248162 0.08472586 -0.090978995
-0.04246306 0.06090896 0.004334306 -0.027308976 0.100482 0.038713858 -0.045862515 0.051351476
0.020071534 0.04376647 -0.028863858 -0.0140122045 -0.08662661 0.07443775 -0.08852056 0.06224456
-0.016676873 -0.034215968 0.022342237 -0.030735804 0.0038409138 0.053477935 -0.07396216 0.016540965
0.025903152 -0.030456444 0.01439548 0.043511607 -0.00824625 -0.08469304 -0.09576167 -0.0031639049
0.08620574 -0.034549784 -0.042147085 -0.024532054 -0.018978499 0.033999648 0.039452367 0.032891184
-0.014908943 0.08755712 0.02584147 0.031555187 -0.050783303 -0.04738893 -0.018345842 -0.022026427
0.00936526 -0.03537828 0.06565879 -0.005638797 0.02972882 -0.07317419 -0.07551217 0.011863238
-0.011559907 -0.0028488238 0.022196004 0.049703524 0.06757206 -0.076718874 0.03884821 -0.005685817
-0.009748326 -0.055742454 -0.023931641 -0.0012320289 -0.086921684 0.020769486 -0.054481804 -0.07032184
0.044257592 0.06309074 0.01262517 -0.04204496 0.077196054 0.06950901 -0.031840965 -0.034820646
0.0014274876 -0.0424166 0.084551424 -0.074216045 0.038250767 0.057514533 0.088005245 0.059728738
0.033828728 -0.031899955 -0.045250528 -0.025527695 0.012603509 0.046973135 0.06795276 0.020155177
0.0054375962 0.06502939 0.031577233 0.07009347 -0.039756097 0.06590298 -0.0732015 -0.056012876
0.015484356 0.11485637 -0.08118176 -0.05158367 0.052695118 -0.053139467 -0.011619966 0.058149304
00000000: a2e7 81bd f732 0c3d 373e 163d 7ca2 59bd
00000010: a7be 75bc 39c0 d03c 2fb6 54bb 312f 1a3d
00000020: bcc6 873d 6203 773d ccb1 0ebc a27f 91bc
00000030: 78f1 2dbd f25c 61bd 361b 373c b4e9 e13c
00000040: 10e3 d6bd 6d9d 1cbd 2a5d a7bd 660b 6fbd
00000050: 1c2b 593d 34e9 1bbc 5171 8ebd b34f acbd
00000060: d694 ddbc 0933 b1bc 3333 e8bc b7a7 533d
00000070: 23e6 593d cf04 56bd e8ac 8c3d 3d21 9e3b
00000080: 6c3e b9bd dd8f b83d 531d c03d 6344 443d
00000090: b53e 473d 5674 44bc e0f0 f73b 6cdb 35bb
000000a0: afda 72bd 17d0 a33c 8346 843d 286a 84bd
000000b0: 74b4 3cbd 95fd abbc 0443 143c e225 97bd
000000c0: f3ac 05bd 7f1c 3b3d 9d06 04bd 830f e5bb
000000d0: b1b4 be3b 6615 7e3d 7568 52bd c3b7 8d3c
000000e0: 6992 5fbd 8fe3 00be d7b1 abbc ccb1 3cbd
000000f0: 182b 3c3d d50c 86bc de9d 9a3c abd2 60bd
00000100: c571 93bd d5e1 fc3c 2c29 16bd 8094 50bc
00000110: 9fb0 d73c 4196 61bd 1a78 1e3d 54d7 fabd
00000120: 37cc 383d 0ba1 473d 35c3 6b3d b6cc 9fbd
00000130: 315a 8f3d 11cb a33c 9b8d b03d 3228 6d3d
00000140: c4c3 2abd b858 88bd 86dd 8cbd b7a9 693d
00000150: 0591 a1bd 051e 413d d70c 97bd 50a0 b03c
00000160: a2d0 283d 48aa 3c3d d222 6f3d 3faf 773a
00000170: 28d8 ecbc 55ac a73d 57b8 c0bd d65d 69bd
00000180: f6d0 0b3c 6506 5d3d c263 8e3d 3635 1cbd
00000190: f1f5 073d 7e0e 043d 847e 8fbd f946 adbd
000001a0: ac9f 3d3d ebdd ccbd 796f 923d aa61 2dbd
000001b0: 63d1 f3bb e017 80bd 1eed f8bc 4b8b 50bd
000001c0: 922c 33bd 638b a7bc a5dc c73b 8748 813d
000001d0: b00f d538 0777 ce3c a391 3c3d fd12 82bc
000001e0: a5f1 50bd 6435 a3bc 4697 5c3c 77d7 b4bd
000001f0: b212 593b 8050 5cbc 7f99 10bd 7c28 4fbc
00000200: bd51 d73c 4df7 d0bc 5953 2fbd a8ae 28bd
00000210: 1ef8 bdbd ed4d e0bc daf3 9ebd c6f0 1c3d
00000220: 1ea7 90bd 1c93 b7bc e1ca 41bd 3667 673d
00000230: 95ed 38bc f8f6 563d c084 ad3d 3253 babd
00000240: bfed 2dbd ac7b 793d cb06 8e3b 13b7 dfbc
00000250: 82c9 cd3d 6c92 1e3d 55da 3bbd ed55 523d
00000260: 0f6d a43c 7844 333d e673 ecbc 7293 65bc
00000270: 4b69 b1bd d272 983d 444a b5bd 27f4 7e3d
00000280: f09d 88bc 0b26 0cbd 1107 b73c a7c9 fbbc
00000290: d7b7 7b3b ae0b 5b3d 7979 97bd eb80 873c
000002a0: d932 d43c cb7f f9bc 05db 6b3c 3a39 323d
000002b0: 481b 07bc 8b73 adbd b21e c4bd 8459 4fbb
000002c0: a38c b03d 1384 0dbd 6ca2 2cbd 72f7 c8bc
000002d0: cc78 9bbc 3743 0b3d ce98 213d e8b8 063d
000002e0: a444 74bc 2651 b33d 7eb1 d33c 0340 013d
000002f0: 2702 50bd e51a 42bd 054a 96bc c470 b4bc
00000300: bf70 193c d1e8 10bd 1e78 863d a8c5 b8bb
00000310: db89 f33c 5adc 95bd 20a6 9abd 075e 423c
00000320: c465 3dbc 55b3 3abb 65d4 b53c ec95 4b3d
00000330: 3863 8a3d c91e 9dbd 4d1f 1f3d 1750 babb
00000340: 71b7 1fbc 3352 64bd 4a0c c4bc 087c a1ba
00000350: ff03 b2bd c524 aa3c 5028 5fbd e604 90bd
00000360: 7347 353d b835 813d cdd9 4e3c 5637 2cbd
00000370: f718 9e3d bd5a 8e3d ac6b 02bd 18a0 0ebd
00000380: 891a bb3a 07bd 2dbd 4c29 ad3d 95fe 97bd
00000390: d6ac 1c3d 5c94 6b3d 183c b43d 1fa6 743d
000003a0: fe8f 0a3d 87a9 02bd 9e58 39bd 751f d1bc
000003b0: f37e 4e3c e766 403d d12a 8b3d 781c a53c
000003c0: dd2d b23b 212e 853d 2157 013d 2a8d 8f3d
000003d0: 4ad7 22bd 24f8 863d abea 95bd c26d 65bd
000003e0: 19b2 7d3c d139 eb3d 9f42 a6bd 6649 53bd
000003f0: d6d6 573d c5a8 59bd ab61 3ebc f72d 6e3d

classifier.3.bias f4 [128]
-0.090667434 -0.027518293 0.04378684 0.048443157 -0.028463017 -0.04917492 0.018616263 -0.0394188
-0.06491633 0.075844325 0.062780194 0.048280634 -0.04635684 0.021600408 0.013120653 -0.057128582
0.08496597 0.079699375 -0.035228893 -0.051809587 -0.06805552 0.038871355 0.07532348 -0.058131713
0.027766436 -0.048502307 -0.030037586 -0.005626042 -0.036401697 -0.04679853 0.07368861 0.006956737
0.061223622 -0.077028394 0.043902732 -0.035567515 -0.06668979 0.05614999 0.025246724 -0.046133194
-0.04868315 -0.02742875 0.026387535 0.010267854 0.06929591 -0.01593905 0.042989112 -0.0060080206
-0.05819022 0.04822066 0.0068132496 0.04353403 0.0013906658 0.00053623307 0.07373366 0.047413982
-0.08656462 -0.056411847 0.067255735 -0.07788322 -0.0484978 0.0011157361 0.041779622 0.018088045
-0.027594255 -0.004162746 -0.061774835 -0.07679896 -0.066912554 0.018658908 -0.052750282 -0.062578775
-0.0105862925 -0.08304178 -0.008365227 0.029907841 -0.054957982 -0.085553505 0.05898789 0.032918908
0.0018630169 -0.08703536 -0.03775312 -0.0693422 -0.05507817 0.026295353 0.06827136 -0.08738692
0.0707498 -0.036952436 -0.016699417 0.047158618 -0.029361783 0.0566616 0.076254055 0.020836988
0.009512896 -0.045521107 0.04499162 -0.004397858 -0.041213803 0.009151446 -0.0005910292 -0.05594913
0.08600612 0.074900605 0.04702773 -0.085810244 0.035659675 -0.06871731 0.06999907 -0.036351927
-0.042114828 0.0072391564 -0.028271478 -0.0074832905 0.016299782 -0.046904497 -0.03895848 -0.07406927
0.0021487994 -0.012033742 -0.032605793 0.08687934 0.013667292 0.06590436 -0.021452527 0.017954625
00000000: d9af b9bd 0b6e e1bc d459 333d 556c 463d
00000010: 462b e9bc a46b 49bd 2281 983c 9c75 21bd
00000020: daf2 84bd 4554 9b3d e792 803d eac1 453d
00000030: abe0 3dbd 57f3 b03c 02f8 563c a9ff 69bd
00000040: a302 ae3d 6d39 a33d 2c4c 10bd 4a36 54bd
00000050: b160 8bbd 9237 1f3d 3243 9a3d 851b 6ebd
00000060: 7076 e33c 5baa 46bd 6211 f6bc a95a b8bb
00000070: f219 15bd d1af 3fbd 0eea 963d 57f5 e33b
00000080: 9fc5 7a3d 10c1 9dbd 5ad3 333d 3eaf 11bd
00000090: a894 88bd 88fd 653d 38d2 ce3c 29f6 3cbd
000000a0: fc67 47bd 42b2 e0bc ac2a d83c 803a 283c
000000b0: 04eb 8d3d 9c92 82bc 5a15 303d eede c4bb
000000c0: de58 6ebd 0783 453d ae41 df3b bd50 323d
000000d0: 0047 b63a fe91 0c3a ac01 973d 2a35 423d
000000e0: cb48 b1bd 1c10 67bd 60bd 893d 3d81 9fbd
000000f0: a1a5 46bd e43d 923a 1c21 2b3d 612d 943c
00000100: 590d e2bc a567 88bb 9c07 7dbd c648 9dbd
00000110: 7309 89bd 91da 983c ae10 58bd 4d29 80bd
00000120: 2172 2dbc cf11 aabd 4e0e 09bc 4a01 f53c
00000130: 9f1b 61bd ad36 afbd 499d 713d fad5 063d
00000140: 7930 f43a 983f b2bd 04a3 1abd 4903 8ebd
00000150: a699 61bd 5a69 d73c dbd1 8b3d eaf7 b2bd
00000160: 45e5 903d 705b 17bd 37cd 88bc 6529 413d
00000170: 1f88 f0bc fe15 683d 162b 9c3d 55b2 aa3c
00000180: fadb 1b3c 5774 3abd 2249 383d e81b 90bb
00000190: cecf 28bd f2ef 153c 4cef 1aba ea2a 65bd
000001a0: fa23 b03d 7d65 993d 26a0 403d 48bd afbd
000001b0: e10f 123d a9bb 8cbd ac5b 8f3d c2e5 14bd
000001c0: 9980 2cbd 7236 ed3b 9699 e7bc 6436 f5bb
000001d0: 1f87 853c ee1e 40bd ed92 1fbd a1b1 97bd
000001e0: dfd2 0c3b 2c29 45bc a78d 05bd cced b13d
000001f0: c7ec 5f3c ddf8 863d 36bd afbc 9415 933c
