Results_paper/classification_aircraft_fungi_bird/it2/maml/5models_3.pt (torch, 534505 bytes, 20 tensors)

conv_net.0.0.weight f4 [32, 3, 3, 3]
0	0xbdcf2d2c	-0.10116038
1	0x3ea0c7bb	0.31402382
2	0xbe599049	-0.21246447
3	0xbe50b0c6	-0.20379934
4	0x3df29e14	0.11846557
5	0xbe7c21dc	-0.24622291
6	0xbdadf966	-0.084948346
7	0x3e5731d8	0.21015108
8	0xbded009b	-0.11572381
9	0xbeb0421a	-0.3442543
10	0x3d87fec1	0.06640387
11	0x3da9308a	0.08261211
12	0xbef27eda	-0.47362405
13	0x3e6284f0	0.22121024
14	0xbebfff16	-0.37499303
15	0x3dc85fbe	0.097838864
16	0x3eeb19f8	0.4591825
17	0xbe77380c	-0.24142474
18	0x3e030b71	0.12797333
19	0x3ec23eb7	0.37938473
20	0x3c937bec	0.018003426
21	0xbd83cb33	-0.064352416
22	0x3ef04888	0.46930337
23	0xbdc3751d	-0.09543822
24	0xbdf9d90a	-0.121996
25	0x3e9863ac	0.29763544
26	0xbd703043	-0.058639776
27	0xbe83a2f1	-0.25710252
28	0xbe101d2d	-0.1407363
29	0xbd6c12f5	-0.057635266
30	0xbdbc64d5	-0.0919892
31	0x3e9e7597	0.3094909
32	0x3e239c14	0.15977508
33	0xbe5cb221	-0.21552326
34	0xbd47e1ab	-0.048799198
35	0x3c20d324	0.009815965
36	0xbe497bb5	-0.19676097
37	0xbe366cb9	-0.17814912
38	0xbe35e28f	-0.17762206
39	0xbd4eb3db	-0.050464492
40	0x3ce22085	0.027603397
41	0x3eb29fa5	0.34887424
42	0xbe893e96	-0.26805562
43	0x3e59c179	0.2126521
44	0x3e0fe57f	0.1405239
45	0xbec355c4	-0.3815137
46	0xbe8e4906	-0.27790087
47	0xbe86a73a	-0.2629946
48	0xbebceede	-0.3690099
49	0x3e729712	0.23690441
50	0x3e720923	0.23636298
51	0xbc97c7e4	-0.018527932
52	0x3df05ba4	0.11736229
53	0x3eae614a	0.340586
54	0x3e425b37	0.18980108
55	0xbd4c5dc8	-0.049894124
56	0x3d1cb473	0.038258027
57	0x3e0206ea	0.1269795
58	0xbeccf884	-0.40033352
59	0x3eeaf0cd	0.4588684
60	0xbe88db59	-0.2672985
61	0xbe96ceb7	-0.29454586
62	0x3ea6fd0f	0.32614943
63	0xbd1bf10e	-0.038071685
64	0x3e013e8f	0.1262152
65	0xbe3ce91c	-0.18448299
66	0xbe9e067e	-0.30864328
67	0xbee7e88a	-0.452946
68	0x3e6dacc6	0.23210439
69	0xbcbf433e	-0.023347493
70	0xbd366b78	-0.044536084
71	0x3ee2efcf	0.44323584
72	0x3dbbcf62	0.091704145
73	0x3e6e6657	0.23281227
74	0xbe312f58	-0.17303216
75	0xbe526993	-0.20548086
76	0xbebb6e22	-0.36607462
77	0x3e5af3d6	0.21382079
78	0x3d4702a7	0.048586514
79	0x3dd18fb3	0.102324866
80	0x3e2e7705	0.1703759
81	0x3e640b88	0.22270024
82	0xbe9ac752	-0.30230194
83	0x3dd678a3	0.104722284
84	0x3d61f8f6	0.05516907
85	0x3cde7087	0.027153267
86	0x3ea31a12	0.31855828
87	0x3d083929	0.033257637
88	0xbed7d34a	-0.42153388
89	0x3ec7f65c	0.39055145
90	0x3e09c740	0.13454914
91	0xbec8fd6f	-0.39255854
92	0xbe233b96	-0.15940699
93	0x3e63fc8c	0.22264308
94	0xbea1f56c	-0.31632555
95	0xbe723cff	-0.2365608
96	0x3dc3524c	0.09537181
97	0xbe97140a	-0.29507476
98	0x3dad4bf4	0.084617525
99	0x3e40d446	0.18830976
100	0x3cfd1dfd	0.030898089
101	0x3e1eca24	0.15506798
102	0x3ed81817	0.4220588
103	0xbe00b00d	-0.12567158
104	0xbe6b3e2d	-0.22972937
105	0x3ec9b125	0.39392963
106	0xbecc709c	-0.39929664
107	0x3d39f38a	0.045398273
108	0xbc44b2c4	-0.012005512
109	0xbdc63bbc	-0.09679362
110	0x3e3e0d44	0.18559748
111	0xbe570fb1	-0.2100208
112	0xbd874e01	-0.06606675
113	0x3d654e85	0.055983085
114	0xbd5c83a4	-0.05383648
115	0xbe68f0ea	-0.22748151
116	0x3e2d75f1	0.16939522
117	0xbe383fa3	-0.17993025
118	0x3e13db97	0.14439236
119	0x3ee330d9	0.44373205
120	0xbe09aa88	-0.13443959
121	0x3d320cf1	0.043469373
122	0x3ed9dcc0	0.4255123
123	0xbb92ddae	-0.0044819927
124	0x3a4d0e3c	0.00078222505
125	0x3ed1c789	0.40972546
126	0xbeb1f5b5	-0.34757772
127	0x3cfb768b	0.030696174
128	0x3db36f6b	0.08761486
129	0xbee22fce	-0.44177097
130	0xbe3bfd33	-0.18358307
131	0xbdcaf63a	-0.09910245
132	0xbe9a06e3	-0.3008338
133	0xbe8994cf	-0.26871344
134	0x3e0a7d91	0.13524462
135	0xbe8cb632	-0.27482754
136	0xbe7fe8f0	-0.24991202
137	0xbd96da6a	-0.07365878
138	0xbe7a68c1	-0.24454023
139	0xbed61aad	-0.41817227
140	0xbdd1dd0c	-0.102472395
141	0xbe07060c	-0.131859
142	0xbe600a4c	-0.21878928
143	0x3bf49685	0.0074642324
144	0x3e9308f9	0.28717783
145	0x3ea4a890	0.32159853
146	0xbe4c592d	-0.19955893
147	0xbda96c91	-0.082726605
148	0xbe09e147	-0.13464843
149	0x3e622f90	0.22088456
150	0x3e1bb95c	0.15207428
151	0x3d79dfec	0.061004564
152	0x3d19f9f7	0.0375919
153	0x3eed167e	0.46306223
154	0x3ef0dc1f	0.4704294
155	0x3e20058d	0.15627117
156	0x3c61a814	0.013772983
157	0x3da423a8	0.080146134
158	0x3e268cb4	0.16264611
159	0xbea3f16c	-0.32020128
160	0xbc28f3a7	-0.0103119975
161	0xbe3934be	-0.18086526
162	0xbdc678c5	-0.09691004
163	0xbbed6065	-0.007244157
164	0x3e060d4e	0.13091013
165	0x3df76444	0.12079671
166	0xbea83096	-0.32849568
167	0x3d4bbd8b	0.04974131
168	0x3ecfd2b0	0.4059043
169	0x3e484d94	0.19560844
170	0xbdee1434	-0.11624947
171	0xbe607f87	-0.21923648
172	0xbe56df4c	-0.20983618
173	0x3e68d3fc	0.22737116
174	0xbe20e519	-0.15712394
175	0xbecb8cb7	-0.39755794
176	0xbeb0877d	-0.3447837
177	0x3ec262a1	0.37965873
178	0x3e249939	0.16074075
179	0xbe8db2fd	-0.2767562
180	0xbe0c2cb1	-0.13688923
181	0x3dd709cf	0.10499918
182	0xbd3ff5db	-0.046865325
183	0x3d7fb9f6	0.062433206
184	0xbdcb8430	-0.09937322
185	0xbe047d57	-0.12938438
186	0x3ef9124d	0.48646775
187	0x3e6743fb	0.22584526
188	0xbe47f7ad	-0.19528075
189	0xbebacc79	-0.36484125
190	0xbe93814a	-0.28809577
191	0x3e14b22e	0.14521095
192	0x3d901e32	0.07037009
193	0xbe949683	-0.2902108
194	0x3d9421bf	0.07232999
195	0xbe1de1b8	-0.15418136
196	0xbed44e41	-0.41465953
197	0x3e84ab87	0.25912115
198	0xbe1195a8	-0.14217246
199	0x3c4029df	0.011728733
200	0x3e999d4a	0.30002815
201	0x3e2a1dbe	0.16612908
202	0x3d735cd1	0.05941469
203	0x3dba2a98	0.09090155
204	0xbdced79d	-0.10099719
205	0xbe98001a	-0.29687577
206	0x3eacf97f	0.337841
207	0xbd95702b	-0.07296785
208	0x3c6f4b9e	0.014605431
209	0x3eddace4	0.43295968
210	0x3e9007dc	0.28130996
211	0xbc494e52	-0.012286739
212	0x3e40c42f	0.18824838
213	0xbdeddb97	-0.11614149
214	0x3dceb439	0.100929685
215	0x3eaec511	0.34134725
216	0x3e93231e	0.2873773
217	0x3e911621	0.28337196
218	0xbe8d62d5	-0.27614465
219	0xbd82e60e	-0.06391536
220	0x3e97080d	0.2949833
221	0x3ef7b847	0.4838278
222	0xbd937d4a	-0.07201631
223	0x3e965df3	0.29368553
224	0x3ebfa7d8	0.37432742
225	0x3e159f0a	0.1461145
226	0xbe31deed	-0.17370196
227	0xbe9a224e	-0.30104297
228	0xbe8fec86	-0.2811014
229	0xbe0a575c	-0.13509887
230	0xbd099773	-0.0335917
231	0xbec4159b	-0.38297734
232	0xbe3ebfe2	-0.18627885
233	0x3e1a83fb	0.15089409
234	0x3e4305d9	0.190452
235	0x3e983a39	0.2973192
236	0x3d9bf475	0.07614986
237	0xbe8e53d4	-0.2779833
238	0xbd3015c6	-0.042989515
239	0x3e955d5b	0.29172787
240	0x3ca553c3	0.020181542
241	0x3e01e4be	0.12684914
242	0x3d779aa6	0.06045022
243	0xbe1d94ee	-0.15388843
244	0xbe51aa30	-0.20475078
245	0xbdcbc0d2	-0.09948887
246	0x3dbaf5d4	0.09128919
247	0x3d5f5e85	0.0545335
248	0x3ecd237d	0.40066138
249	0x3e08b53a	0.13350382
250	0x3e1d8369	0.1538216
251	0x3e5146bf	0.20437144
252	0xbf07769a	-0.52915347
253	0xbea90f5d	-0.33019534
254	0xbe889683	-0.2667733
255	0xbef9067f	-0.4863777

conv_net.0.0.bias f4 [32]
0	0xbe1e3107	-0.1544839
1	0x3e7f4240	0.24927616
2	0xbdadb60b	-0.084819876
3	0x3d531f2d	0.051543403
4	0xbea0e424	-0.31424057
5	0x3d4cf4f1	0.05003828
6	0x3d8f1a13	0.06987395
7	0xbd297288	-0.04136899
8	0xbe39bd63	-0.18138652
9	0x3eae8c98	0.3409164
10	0x3dc1bced	0.09459863
11	0x3dfecb5f	0.12441134
12	0xbe001c4f	-0.12510799
13	0xbe3b16bb	-0.1827039
14	0x3db86e5b	0.09005424
15	0xbe6b54e3	-0.229816
16	0xbdbc441f	-0.091926806
17	0x3c97b80b	0.018520376
18	0x3d120881	0.03565264
19	0x3d1f6d2c	0.038922474
20	0xbea78359	-0.32717398
21	0x3e78d9e2	0.24301866
22	0x3e00a5cc	0.12563246
23	0x3c4649a8	0.012102522
24	0x3d8ea2e6	0.06964664
25	0xbd65e167	-0.056123164
26	0x3ea72a68	0.3264954
27	0x3e8b7ef1	0.27245286
28	0xbad6773f	-0.0016362442
29	0x3d53f1ef	0.051744398
30	0x3e65e753	0.22451524
31	0xbd10f37e	-0.035388462

conv_net.0.1.weight f4 [32]
0	0x3f7f04bd	0.99616605
1	0x3f6c26aa	0.92246497
2	0x3f8118f6	1.0085742
3	0x3f959cab	1.1688436
4	0x3f808451	1.004038
5	0x3f6cc7be	0.9249228
6	0x3f79c68e	0.97568595
7	0x3f776d67	0.9665131
8	0x3f70eb71	0.94109255
9	0x3f5db061	0.8659726
10	0x3f781c66	0.9691833
11	0x3fa1514a	1.2602932
12	0x3f551535	0.83235484
13	0x3f5c791f	0.86122316
14	0x3f8065f3	1.0031112
15	0x3f8ed5bc	1.1158977
16	0x3f657243	0.89627475
17	0x3f67a404	0.90484643
18	0x3f8cdccd	1.1004883
19	0x3f4e4c81	0.80585486
20	0x3f80c943	1.006142
21	0x3f7dbc68	0.9911561
22	0x3f4ddb1d	0.80412465
23	0x3f9d4b76	1.2288654
24	0x3f8dd2a8	1.1079912
25	0x3f73eb3e	0.95280826
26	0x3f80be84	1.0058141
27	0x3f66d6e5	0.90171653
28	0x3f712d1b	0.9420945
29	0x3f7ce69d	0.9878939
30	0x3f6ce1ee	0.9253224
31	0x3f75bb1a	0.9598862

conv_net.0.1.bias f4 [32]
0	0xbe3402a9	-0.1757914
1	0xbe231a65	-0.15928037
2	0x3e4fdfa1	0.20300151
3	0xbe41e097	-0.1893333
4	0xbd5e2d4c	-0.054242417
5	0xbdbf0960	-0.0932796
6	0xbe34264a	-0.17592731
7	0xbe6a27ce	-0.22866747
8	0xbf1827c0	-0.59435654
9	0xbefe7b23	-0.4970332
10	0xbdb47667	-0.08811646
11	0xbe30e3b8	-0.17274368
12	0xbdcb7ae1	-0.09935547
13	0xbeb1b527	-0.3470852
14	0xbf113447	-0.56720394
15	0xbd96aba5	-0.07356957
16	0xbf0857a2	-0.5325872
17	0x3d250691	0.040289465
18	0xbe160c1b	-0.14653055
19	0xbf04a41b	-0.51812905
20	0xbe12f447	-0.14350997
21	0xbe98c03a	-0.29834157
22	0xbece7606	-0.4032442
23	0xbeb5315b	-0.35389218
24	0xbeaf3b04	-0.34224713
25	0xbeffa880	-0.49933243
26	0xbe8471b4	-0.25868
27	0xbe4b8531	-0.19875027
28	0xbe608da1	-0.21929027
29	0xbec1c295	-0.37843767
30	0xbea6da26	-0.3258831
31	0xbe77d53d	-0.24202438

conv_net.1.0.weight f4 [32, 32, 3, 3]
0	0x3d62b1b4	0.055345252
1	0xbdc8b8d7	-0.098008804
2	0xbd91fc5f	-0.07128214
3	0x3d73b9ab	0.05950324
4	0xbe579d79	-0.21056165
5	0x3e4dbb9e	0.20091102
6	0xbe4627bb	-0.19351093
7	0xbed6c939	-0.41950396
8	0x3cb284e1	0.021791877
9	0x3e15aa4e	0.14615747
10	0x3e42f425	0.19038446
11	0x3eb21802	0.34783942
12	0x3e93d876	0.28876084
13	0xbcdbbab8	-0.026822433
14	0xbd06f7d6	-0.0329512
15	0x3db94788	0.09046847
16	0x3e136b2e	0.14396355
17	0x3e40530a	0.18781677
18	0xbe40ec69	-0.18840183
19	0xbd220e27	-0.039564278
20	0xbce6552f	-0.02811679
21	0xbd33a08e	-0.04385429
22	0x3d6a6063	0.057220828
23	0x3da60fb1	0.08108462
24	0x3c073feb	0.008254985
25	0x3d93588b	0.071946226
26	0xbd50e375	-0.05099817
27	0xbd68c7d0	-0.05683118
28	0xbe44f45c	-0.1923384
29	0x3e40f1c0	0.1884222
30	0x3df4beab	0.119504295
31	0x3dae9c14	0.08525863
32	0x3e83c1ac	0.25733697
33	0xbc9c9c75	-0.019117573
34	0xbe9535e9	-0.29142693
35	0x3e129b53	0.14317064
36	0x3de29492	0.11063494
37	0xbd773193	-0.060350012
38	0xbe9efd8b	-0.31052813
39	0x3e0be2a7	0.1366068
40	0x3e7350b8	0.2376126
41	0x3c832c69	0.016012387
42	0xbcb6ec2f	-0.022329418
43	0x3e037d20	0.128407
44	0x3e886262	0.2663756
45	0xbca93a81	-0.02065778
46	0xbd243698	-0.040091127
47	0xbe57f915	-0.21091111
48	0xbe737bf3	-0.23777752
49	0x3e06edf0	0.13176703
50	0x3e74bc4c	0.23899955
51	0x3dd33109	0.10312087
52	0x3e371d5e	0.17882296
53	0xbe84e4fe	-0.25955957
54	0xbcd34c16	-0.025793117
55	0xbe82844a	-0.25491554
56	0x3ddfcc1a	0.10927601
57	0x3ef59af7	0.4796979
58	0xbd7491e0	-0.05970943
59	0xbd897d60	-0.067133665
60	0xbec93a40	-0.39302254
61	0xbc1e9a4c	-0.009680342
62	0x3e696ec2	0.22796157
63	0x3e06ec91	0.1317618
64	0x3e9afc93	0.30270824
65	0xbd9a5037	-0.07534831
66	0xbce7b5aa	-0.028284866
67	0x3e45ac10	0.19303918
68	0xbd6da39b	-0.058017354
69	0xbed0c235	-0.40773168
70	0x3d947d1c	0.07250425
71	0xbe3abcfd	-0.18236156
72	0x3e217ace	0.15769503
73	0x3e401b1b	0.1876034
74	0xbd85770b	-0.06516846
75	0x3e7c213c	0.24622053
76	0x3e4d0e96	0.20025095
77	0x3e3e4699	0.18581618
78	0x3db98956	0.09059398
79	0x3d249b44	0.040187135
80	0x3e092e88	0.13396657
81	0x3df8f408	0.1215592
82	0x3ea5072f	0.32232043
83	0x3eccbf03	0.3998948
84	0x3e321a2a	0.17392793
85	0x3e3a16b1	0.18172719
86	0x3eb81610	0.35954332
87	0xbdeb68fc	-0.114946336
88	0x3e725a12	0.23667172
89	0x3e91e30b	0.28493533
90	0x3bccc3a9	0.0062489104
91	0x3dbb90ab	0.091584526
92	0x3d95b15a	0.07309218
93	0x3daa4ccf	0.08315431
94	0xbe6478ce	-0.22311708
95	0x3e38e043	0.18054299
96	0xbeb7364c	-0.35783613
97	0xbe9e62ac	-0.30934656
98	0xbc9816cc	-0.018565558
99	0xbcda74f2	-0.026667092
100	0xbc0367d9	-0.008020365
101	0x3de0e4d0	0.109811425
102	0xbd54a216	-0.05191239
103	0xbe90b1f5	-0.2826077
104	0x3de72571	0.11286438
105	0x3d4d66c3	0.05014683
106	0xbdfc2c2c	-0.123131126
107	0x3d0e9abd	0.03481554
108	0x3e3f2420	0.18666124
109	0x3d5a9178	0.053361386
110	0x3d85077f	0.064955704
111	0x3e418fec	0.18902558
112	0xbe048237	-0.12940298
113	0x3df505cf	0.119639985
114	0x3deef8af	0.116685264
115	0xbd98d97a	-0.07463355
116	0x3df8a527	0.12140875
117	0xbc4686c3	-0.012117091
118	0xbcf5bbe0	-0.029996812
119	0xbe33fb00	-0.17576218
120	0x3d8cc981	0.06874371
121	0x3e434115	0.19067796
122	0x3e5b04d1	0.21388556
123	0x3d833038	0.06405681
124	0xbdb63a43	-0.08897831
125	0xbe9ab880	-0.30218887
126	0x3e1d8c9e	0.15385672
127	0x3df629af	0.12019669
128	0xbeabd3ea	-0.33560115
129	0x3e3db8cd	0.18527527
130	0x3ecf26e0	0.40459347
131	0x3e88bf82	0.2670861
132	0xbe9e47bd	-0.30914107
133	0xbe4e55f1	-0.20149972
134	0xbe749e65	-0.23888548
135	0xbe5bd22b	-0.21466891
136	0x3d8e21e6	0.06940059
137	0xbec510ed	-0.38489476
138	0x3d2b1ace	0.04177361
139	0x3ea9f32f	0.33193347
140	0xbe49d7b6	-0.19711193
141	0xbe866b26	-0.26253623
142	0x3deb9a45	0.11504034
143	0x3d1d119a	0.038346864
144	0xbca1e0af	-0.019760458
145	0x3d81b085	0.063324966
146	0xbd206a7d	-0.039164055
147	0xbdf75f4c	-0.12078723
148	0x3d9781f0	0.073978305
149	0x3c139ded	0.00900982
150	0xbe8d4302	-0.27590185
151	0x3e328b48	0.17435944
152	0x3e2607fd	0.16213985
153	0x3cb966f7	0.022632105
154	0xbe3d6136	-0.18494114
155	0x3e7911cc	0.24323195
156	0x3eb7efdc	0.35925186
157	0xbe3aaf96	-0.18231043
158	0x3e215908	0.15756619
159	0x3defd97b	0.11711403
160	0x3c5c32b7	0.013439826
161	0x3d467086	0.048447154
162	0x3dadbbb8	0.0848307
163	0xbe974be0	-0.29550076
164	0xbe927476	-0.28604478
165	0x3ce240c2	0.02761877
166	0x3e51a070	0.20471358
167	0x3e9b97b1	0.3038917
168	0x3d3eb017	0.04655465
169	0xbe140223	-0.1445394
170	0xbb589c4d	-0.0033052147
171	0xbd6392ba	-0.05555985
172	0xbe130d06	-0.14360437
173	0xbd90d2de	-0.0707147
174	0xbcfde762	-0.030994121
175	0x3d6fea3e	0.058573
176	0xbe039d57	-0.12852989
177	0xbe83b194	-0.2572142
178	0x3d3ea904	0.046547905
179	0x3e1cbc17	0.15306126
180	0xbc76dda6	-0.015067494
181	0xbe2128da	-0.1573824
182	0x3e14dc5d	0.14537187
183	0x3dab6d0c	0.083704084
184	0x3e66efe7	0.22552453
185	0xbd50950c	-0.050923392
186	0xbed3c49d	-0.41360942
187	0xbcaf01be	-0.021363135
188	0xbd544bba	-0.05183003
189	0x3dc0bf19	0.09411449
190	0xbdca49b9	-0.09877343
191	0xbdd86f0a	-0.10568054
192	0x3e033af9	0.12815465
193	0x3e16f438	0.147416
194	0x3eb6372f	0.35588977
195	0x3e811c8a	0.25217086
196	0xbc9f0156	-0.019409817
197	0xbd3df00b	-0.0463715
198	0x3e293753	0.16525011
199	0xbebc0f86	-0.36730593
200	0xbe185497	-0.14876018
201	0xbdb03835	-0.08604471
202	0x3e76786a	0.24069372
203	0x3e1e5196	0.1546081
204	0xbd88e3f6	-0.06684105
205	0xbd1e817f	-0.038697716
206	0xbe603998	-0.2189697
207	0xbe859670	-0.26091337
208	0xbe3808aa	-0.17972055
209	0x3ea82e21	0.32847694
210	0x3e19e74c	0.15029639
211	0x3ef7ad02	0.48374182
212	0xbcadd2ce	-0.021218684
213	0xbe6b50cf	-0.22980045
214	0xbdc8d09a	-0.098054126
215	0x3d311498	0.04323253
216	0x3e2694d5	0.16267712
217	0x3d57a645	0.0526488
218	0x3cbcad81	0.023031952
219	0xbe184299	-0.14869155
220	0x3e962f30	0.29332876
221	0x3e4f8998	0.20267332
222	0xbe4f57a3	-0.20248275
223	0x3d71fddb	0.059079986
224	0x3c858d56	0.016302746
225	0x3d0b5d6b	0.034024637
226	0xbe088bcb	-0.13334577
227	0x3e9ef81b	0.31048664
228	0x3e2fb18d	0.17157574
229	0x3e34411d	0.17602964
230	0x3de85166	0.113436505
231	0xbe5d2f6f	-0.21600126
232	0x3e3c8360	0.1840949
233	0x3d02957f	0.03188085
234	0x3c6e6712	0.014550941
235	0xbd2599e7	-0.040429976
236	0x3d6497e6	0.055808924
237	0x3d95366f	0.07285773
238	0xbca0957b	-0.019602528
239	0x3da36322	0.079778925
240	0xbe595fb4	-0.21227914
241	0xbd9f0f24	-0.0776656
242	0xbedac405	-0.42727676
243	0x3e95168d	0.29118767
244	0x3e42af5d	0.19012208
245	0xbdbc49d9	-0.09193773
246	0x3e636220	0.222054
247	0xbdb50728	-0.088392556
248	0xbe3da74b	-0.18520848
249	0x3dd75d84	0.105158836
250	0x3dd58c67	0.1042717
251	0xbed9f86a	-0.42572337
252	0xbe2dd1a5	-0.16974504
253	0xbcaeef08	-0.021354213
254	0x3e88b2ae	0.26698822
255	0x3e333765	0.175016

conv_net.1.0.bias f4 [32]
0	0xbb937528	-0.00450005
1	0xbdb69033	-0.089142226
2	0x3cb1507a	0.02164482
3	0xbdc95335	-0.098303236
4	0xbd86c0d3	-0.06579747
5	0xbe18ceaa	-0.14922586
6	0xbb960439	-0.00457814
7	0x3d9f2ed8	0.077726066
8	0x3c706e46	0.014674729
9	0xbd9dd300	-0.07706261
10	0x3d4663bf	0.04843497
11	0xbb15e95d	-0.002287469
12	0xbd69c090	-0.057068408
13	0x3d3b461b	0.045721155
14	0xbba93b66	-0.0051645515
15	0x3d063744	0.03276755
16	0x3d967732	0.073469535
17	0xbd5a032f	-0.053225692
18	0xbd3875f7	-0.045034375
19	0x3d89bf01	0.06725884
20	0xbd1a1313	-0.037615847
21	0xbdbd548d	-0.092446424
22	0xb9563a08	-0.00020430249
23	0xbb65b090	-0.0035047866
24	0x3d407974	0.046990827
25	0xbce3fc71	-0.027830334
26	0x3deb7e37	0.11498683
27	0xbd629584	-0.05531837
28	0x3ceaaafd	0.028645987
29	0xbdd64e14	-0.10464111
30	0x3dac9aa7	0.08427935
31	0x3b9cd16f	0.0047857086

conv_net.1.1.weight f4 [32]
0	0x3f5006aa	0.8126017
1	0x3f630eac	0.8869426
2	0x3f3d60cb	0.7397582
3	0x3f760ad4	0.9611027
4	0x3f76a89a	0.96351016
5	0x3f8e3839	1.1110908
6	0x3f844b85	1.0335547
7	0x3f93702e	1.151861
8	0x3f6b5915	0.91932803
9	0x3f83ca3c	1.0296092
10	0x3f73f56c	0.9529636
11	0x3f562400	0.8364868
12	0x3f91c37b	1.1387781
13	0x3f844167	1.0332459
14	0x3f4a7a00	0.7909241
15	0x3f5bdd96	0.8588499
16	0x3f5af1aa	0.85525
17	0x3f8953ce	1.07287
18	0x3f7dd03c	0.99145865
19	0x3f967465	1.1754271
20	0x3f56cf91	0.8391047
21	0x3f8da90d	1.1067215
22	0x3f852093	1.0400566
23	0x3f9960fb	1.1982721
24	0x3f46fae5	0.77726585
25	0x3f9d75ac	1.2301536
26	0x3f83fb62	1.0311091
27	0x3fa63eed	1.2987953
28	0x3f7b6c55	0.98212177
29	0x3f6f6426	0.9351219
30	0x3f91adc8	1.1381159
31	0x3f883ab5	1.0642916

conv_net.1.1.bias f4 [32]
0	0xbed5859f	-0.41703507
1	0xbf016fbc	-0.5056112
2	0xbf0cfce5	-0.55073386
3	0xbec5d5db	-0.3863972
4	0xbeafdf23	-0.34349927
5	0xbe78c4dd	-0.24293847
6	0xbeabf3f7	-0.33584568
7	0xbec3b75b	-0.38225827
8	0xbedffc42	-0.43747145
9	0xbf0b7f79	-0.5449138
10	0xbecb1291	-0.39662603
11	0xbf18fe93	-0.5976345
12	0xbe17e191	-0.1483214
13	0xbe1d93f7	-0.15388475
14	0xbeda3836	-0.4262101
15	0xbe9fe749	-0.31231144
16	0xbf1b9ed2	-0.60789216
17	0xbeb0a732	-0.3450256
18	0xbd4ff364	-0.050769225
19	0xbd0e12ba	-0.034685828
20	0xbf0d6d18	-0.5524459
21	0xbf0394e1	-0.51399046
22	0xbf2d4828	-0.67688227
23	0xbe83d4ae	-0.257482
24	0xbedffda1	-0.4374819
25	0xbd306ab6	-0.043070517
26	0xbdfb7010	-0.122772336
27	0xbef223ec	-0.4729303
28	0xbee58e9b	-0.44835362
29	0xbeda57ff	-0.4264526
30	0xbe4c0f9e	-0.19927832
31	0xbf00c639	-0.50302464

conv_net.2.0.weight f4 [32, 32, 3, 3]
0	0x3eab1863	0.33417043
1	0x3db094a9	0.08622105
2	0xbdbc8ad1	-0.09206165
3	0xbe026d4b	-0.12737004
4	0xbd92b3c1	-0.071631916
5	0xbe887aa7	-0.26656076
6	0xbcdacbc1	-0.026708486
7	0x3d51e95d	0.051247943
8	0xbd864a28	-0.06557113
9	0xba8e8964	-0.0010874686
10	0xbd52997e	-0.051415913
11	0xbd2c9073	-0.042129945
12	0xbe561168	-0.20905077
13	0xbd34de1a	-0.044157125
14	0x3cd5d851	0.026104124
15	0x3d3d22cc	0.046175763
16	0xbe15e636	-0.146386
17	0x3e36993d	0.17831893
18	0x3dfc34c2	0.1231475
19	0x3da1703c	0.07882735
20	0x3e158478	0.14601314
21	0xbcbcef97	-0.023063464
22	0xbdddde56	-0.10833423
23	0x3e651d51	0.22374465
24	0x3c9b7fe1	0.018981876
25	0x3e1af828	0.15133727
26	0xbe15045f	-0.14552449
27	0x3de5a5c6	0.112132594
28	0xbe05a0c8	-0.13049614
29	0xbd5e632e	-0.054293804
30	0x3d3826b0	0.04495877
31	0xbe46f9f4	-0.19431287
32	0x3c3fdfef	0.011711105
33	0x3d82c52d	0.063852645
34	0xbca34d53	-0.019934332
35	0x3d834aa2	0.064107195
36	0xbdf1b721	-0.11802507
37	0x3e025c37	0.1273049
38	0x3e34cc7e	0.17656133
39	0xbe77b071	-0.24188401
40	0x3eb64e3b	0.3560656
41	0xbe38dbde	-0.18052623
42	0x3dee4587	0.11634355
43	0xbdf29da1	-0.118464716
44	0x3b8a1ca2	0.004214839
45	0xbdf65682	-0.12028219
46	0x3cb93bdc	0.022611551
47	0xbc450a6a	-0.012026409
48	0x3e0126fd	0.12612529
49	0xbdad11c8	-0.08450657
50	0xbe3f7dae	-0.18700287
51	0x3e27da51	0.16391875
52	0xbde9b17a	-0.11410804
53	0xbe99e896	-0.3006026
54	0xbcf37df4	-0.029723145
55	0xbee64bc7	-0.4497969
56	0xbe0dabc1	-0.1383505
57	0x3e25cfa3	0.16192488
58	0x3ea98dfa	0.33116132
59	0x3e5ce283	0.21570782
60	0xbd6e2fa4	-0.058150902
61	0xbc3d4f2d	-0.0115545215
62	0x3d77093d	0.060311545
63	0xbd09dcfb	-0.03365801
64	0x3e89f662	0.26945788
65	0xbcefe145	-0.029282222
66	0xbe56dad4	-0.20981914
67	0x3ea67dba	0.32517797
68	0x3e19338f	0.14961074
69	0x3e2f27eb	0.17105071
70	0x3e2eb5c1	0.17061521
71	0xbe2a0d6c	-0.16606683
72	0x3e949cb7	0.29025814
73	0xbd04d535	-0.032429893
74	0x3d3e35cf	0.046438035
75	0x3c830864	0.015995212
76	0x3de75e7a	0.11297317
77	0x3e31d60d	0.1736681
78	0xbe7f2db6	-0.24919781
79	0x3d4f21f9	0.05056951
80	0x3e253374	0.16132909
81	0xbd52e97a	-0.05149219
82	0xbe4bc393	-0.19898824
83	0x3e1b3c14	0.15159637
84	0x3e848e0e	0.2588963
85	0x3e1a05c4	0.15041262
86	0x3e4fec1c	0.20304912
87	0x3e2b6c50	0.16740537
88	0x3e59e4d7	0.21278702
89	0x3d047752	0.032340355
90	0xbe37c230	-0.1794517
91	0x3cc7b9c3	0.02438057
92	0x3e8f7595	0.28019395
93	0x3dd94de2	0.10610558
94	0x3dab1641	0.08353854
95	0xbe9f1ea9	-0.3107808
96	0x3e2f20f6	0.17102417
97	0xbe673470	-0.22578597
98	0xbebf2965	-0.3733627
99	0xbe9074fa	-0.28214246
100	0xbee1a475	-0.44070783
101	0x3e944e53	0.28966007
102	0xbeb42769	-0.35186318
103	0xbe2d602d	-0.1693122
104	0xbe0de788	-0.13857853
105	0x3dcd7bbd	0.10033367
106	0x3ea420cd	0.32056275
107	0xbdf13ab1	-0.117787726
108	0x3df883f6	0.121345446
109	0xbe833662	-0.25627428
110	0xbe83af1c	-0.25719535
111	0x3ca537e5	0.020168254
112	0x3e83aa70	0.2571597
113	0x3ce32010	0.02772525
114	0xbd32335c	-0.04350601
115	0xbdbd0454	-0.09229341
116	0xbe1bc64d	-0.15212364
117	0x3d8094a7	0.06278353
118	0x3e893066	0.26794738
119	0x3dad16c0	0.08451605
120	0x3e59e1cb	0.2127754
121	0x3ce2f876	0.027706366
122	0xbe4545ee	-0.19264957
123	0x3dc9af01	0.098478325
124	0xbde00d55	-0.10940043
125	0x3d831bd7	0.064017944
126	0x3d14397e	0.03618764
127	0x3c6a9153	0.014316875
128	0x3d24551f	0.04012024
129	0x3e916d38	0.2840364
130	0xbe0f22b7	-0.13978086
131	0xbd93904d	-0.072052576
132	0x3df0f06e	0.11764608
133	0x3e55c65b	0.20876448
134	0xbe223ae3	-0.15842776
135	0xbe589977	-0.21152292
136	0xbe1ebe9d	-0.155024
137	0x3eaf1329	0.34194306
138	0xbe04166a	-0.12899175
139	0xbdccbff8	-0.09997553
140	0x3e0f2c7a	0.1398181
141	0x3d465bfa	0.04842756
142	0x3dd20aeb	0.10255989
143	0x3d841030	0.064484
144	0x3e2172f4	0.15766507
145	0x3d07bc7e	0.033138745
146	0x3e01cfa1	0.1267686
147	0x3df9ee01	0.12203599
148	0xbd09e39e	-0.03366434
149	0xbd9fd713	-0.07804694
150	0x3db1848c	0.086678594
151	0xbd9d9105	-0.07693676
152	0x3c235840	0.009969771
153	0xbe247970	-0.1606195
154	0xbe313a55	-0.17307408
155	0xbddec8c0	-0.10878134
156	0xbd62c24d	-0.05536108
157	0x3cef7544	0.029230721
158	0x3ce1e23a	0.027573694
159	0xbd8a3685	-0.0674868
160	0xbe246c1d	-0.16056867
161	0xbe23847b	-0.15968506
162	0x3de4b5ad	0.111674644
163	0x3da7dafe	0.08196066
164	0xbde8840e	-0.113533124
165	0x3abed814	0.0014560246
166	0xbe2444cb	-0.16041867
167	0xbde9eedc	-0.11422512
168	0xbecfadd7	-0.40562317
169	0xbe3cd870	-0.1844194
170	0xbda61a7c	-0.0811052
171	0x3d869002	0.06570436
172	0xbdf3a07f	-0.118958466
173	0xbd1788e0	-0.03699577
174	0xbe2be494	-0.16786414
175	0x3ea21003	0.3165284
176	0x3e5bbd9b	0.21459047
177	0xbeb37dbb	-0.35056862
178	0xbd8cd9b8	-0.06877464
179	0x3eef6fc7	0.46764967
180	0x3e1e6e83	0.15471844
181	0xbdf50eb7	-0.11965697
182	0xbe814019	-0.25244215
183	0xbf331d24	-0.6996634
184	0xbd145477	-0.036213364
185	0xbda628cf	-0.08113252
186	0xbd2f9397	-0.042865362
187	0x3d12d551	0.035847966
188	0xbdc50f54	-0.09622064
189	0x3d752c4b	0.059856694
190	0x3e85130c	0.25991094
191	0x3e104266	0.14087829
192	0xbe88487d	-0.26617804
193	0x3d09f4f5	0.033680875
194	0xbddf6767	-0.10908394
195	0x3e09798b	0.13425271
196	0xbea2f40d	-0.3182682
197	0x3c2994fd	0.010350463
198	0xbd06f374	-0.03294702
199	0x3d91638f	0.070990674
200	0x3d9cbb45	0.07652906
201	0xbe4d850a	-0.20070282
202	0xbe9fee9d	-0.31236735
203	0x3ce808ab	0.028324446
204	0x3b8f629d	0.0043757693
205	0xbe751220	-0.23932695
206	0x3deccfa7	0.11563044
207	0x3f01c9ac	0.5069835
208	0xbd5605b8	-0.052251548
209	0x3c1b428e	0.009476317
210	0x3ef4f19c	0.47840583
211	0x3ce62749	0.028094904
212	0xbe87653d	-0.26444426
213	0xbe696863	-0.22793727
214	0x3dfd84d0	0.123788476
215	0xbe9dd30e	-0.30825084
216	0xbe15654e	-0.14589426
217	0xbe9b8498	-0.30374599
218	0xbc66edfa	-0.014094824
219	0xbe43e57c	-0.1913051
220	0xbc85e4f4	-0.016344525
221	0x3e5e94c5	0.21736439
222	0xbdec6082	-0.11541845
223	0x3dc46725	0.09589986
224	0x3d9a1002	0.075225845
225	0x3dcc6b40	0.09981394
226	0xbe8083b7	-0.2510049
227	0x3d8de0d6	0.0692765
228	0xbe3ce615	-0.18447144
229	0x3e334146	0.17505369
230	0xbebc8172	-0.3681751
231	0xbe3a57b6	-0.18197522
232	0xbe99b990	-0.30024385
233	0x3e0f672c	0.140042
234	0x3e70d4fb	0.23518746
235	0xbe852d7e	-0.2601127
236	0x3caa6bf8	0.020803437
237	0x3e2738a8	0.16330206
238	0x3eac51b1	0.33656076
239	0x3d77e929	0.060525093
240	0xbdbfc0e1	-0.093629606
241	0xbd767a6e	-0.06017535
242	0x3d623fcc	0.055236623
243	0x3eba08d1	0.3633485
244	0x3ebff0f5	0.37488523
245	0xbef9a731	-0.4876037
246	0xbd2d56c8	-0.04231909
247	0x3f2169b9	0.63051945
248	0xbe68a4e8	-0.22719157
249	0xbd6a4084	-0.057190433
250	0x3eb10aff	0.34578702
251	0xbe230193	-0.1591857
252	0xbca7ad9a	-0.020468522
253	0x3cd44548	0.025911942
254	0x3e6ebb69	0.23313679
255	0xbe91a6d6	-0.28447598

conv_net.2.0.bias f4 [32]
0	0x3cf8e0c6	0.030380618
1	0xbd31d90d	-0.043419886
2	0x3c9a0243	0.018799907
3	0x3d538cd4	0.051647976
4	0x3d11e9e2	0.03562344
5	0x3d5a64f6	0.05331894
6	0x3d572300	0.052523613
7	0x3d50f8ef	0.05101865
8	0x3d99c334	0.07507935
9	0x3db4b369	0.08823282
10	0x3e2a52e9	0.1663319
11	0x3df3ead1	0.11910022
12	0x3d0acd3a	0.033887126
13	0xbce16abb	-0.027516713
14	0x3d58c969	0.052926455
15	0x3d53a6a5	0.051672596
16	0x3d8d8bff	0.06911468
17	0xbd5e93e9	-0.054340277
18	0x3b31f263	0.002715253
19	0xbbdf4aac	-0.0068143215
20	0x3bb2bd16	0.0054546697
21	0x3db047f0	0.08607471
22	0x3da08cb5	0.07839338
23	0x3d5da310	0.054110587
24	0x3ce78d37	0.028265579
25	0x3d0d0a4b	0.034433644
26	0x3d283b46	0.041072153
27	0xbba2e067	-0.0049705985
28	0xbd11b32d	-0.035571266
29	0xbc0b302c	-0.008495372
30	0x3d0825bb	0.033239108
31	0xbd8ebc38	-0.06969494

conv_net.2.1.weight f4 [32]
0	0x3f4f8a21	0.81070143
1	0x3f6461ff	0.8921203
2	0x3f5902fe	0.8477019
3	0x3f779ab0	0.9672041
4	0x3f80bfe5	1.0058562
5	0x3f5df473	0.86701125
6	0x3f7844fc	0.9698026
7	0x3f6a2588	0.9146352
8	0x3f79ad16	0.97529733
9	0x3f605946	0.8763622
10	0x3f82b1aa	1.0210469
11	0x3f87144a	1.0553067
12	0x3f863c82	1.0487216
13	0x3f5bab2f	0.8580808
14	0x3f892603	1.0714725
15	0x3f78a403	0.9712526
16	0x3f78f274	0.97244954
17	0x3f3e19ce	0.74258125
18	0x3f708f8a	0.93969023
19	0x3f6f76f7	0.935409
20	0x3f8352c9	1.0259639
21	0x3f8e5e0e	1.1122453
22	0x3f8076d7	1.0036267
23	0x3f60e432	0.878482
24	0x3f7e6f31	0.99388415
25	0x3f877f58	1.0585737
26	0x3f663e69	0.8993898
27	0x3f81643c	1.0108714
28	0x3f5f577d	0.8724287
29	0x3f709bbf	0.9398765
30	0x3f56404b	0.83691853
31	0x3f6eb8a6	0.932505

conv_net.2.1.bias f4 [32]
0	0xbea00c04	-0.31259167
1	0xbf158b71	-0.58415896
2	0xbedaf099	-0.42761686
3	0xbf1cb9ac	-0.6122081
4	0xbeec5441	-0.4615803
5	0xbebd1cdc	-0.3693608
6	0xbf0e9631	-0.55697924
7	0xbecec95c	-0.40388
8	0xbf2e36de	-0.6805247
9	0xbf39219e	-0.7231692
10	0xbef50dfb	-0.4786223
11	0xbf10cde7	-0.5656418
12	0xbf092dab	-0.5358531
13	0xbf127f64	-0.5722563
14	0xbedd3929	-0.43207672
15	0xbf09e011	-0.53857523
16	0xbe86e627	-0.26347467
17	0xbf4add9d	-0.79244405
18	0xbf033de4	-0.5126631
19	0xbef42873	-0.4768711
20	0xbeec8491	-0.4619489
21	0xbee8ab26	-0.45443076
22	0xbef199ec	-0.47187746
23	0xbf2774e8	-0.6541276
24	0xbf043a89	-0.5165182
25	0xbf05472a	-0.5206171
26	0xbf3e8bfb	-0.74432343
27	0xbec87dcc	-0.39158475
28	0xbf1c7b2f	-0.61125463
29	0xbefd565c	-0.4947995
30	0xbf14160b	-0.57846135
31	0xbf1b3441	-0.6062661

conv_net.3.0.weight f4 [32, 32, 3, 3]
0	0x3d909f56	0.07061641
1	0x3e99d6ea	0.3004678
2	0x3eaa9324	0.33315384
3	0xbc81321e	-0.015770968
4	0x3d3efaae	0.046625786
5	0x3da2e43e	0.0795369
6	0x3dad0492	0.08448137
7	0xbd5ddf65	-0.054168124
8	0xbdfa08d9	-0.12208719
9	0x3e771f31	0.24132992
10	0xbde7554a	-0.112955645
11	0x3da12fad	0.078704216
12	0x3d0efa33	0.034906577
13	0xbead152f	-0.33805224
14	0xbe4cf123	-0.20013861
15	0x3e5cb63a	0.21553889
16	0x3d1a7b8a	0.037715472
17	0x3c954327	0.018220497
18	0x3e45f57c	0.19331926
19	0x3e8eac4c	0.27865827
20	0xbc97d415	-0.018533746
21	0xbd9a3f20	-0.075315714
22	0x3e0c5c96	0.13707194
23	0x3dd6e890	0.104935765
24	0x3d83791e	0.06419586
25	0xbd9626de	-0.07331632
26	0x3de29bc0	0.11064863
27	0xbc3ab5bc	-0.011395868
28	0xbdbe5ec3	-0.09295418
29	0xbe1fe6ec	-0.15615433
30	0x3d0e3ff2	0.03472895
31	0xbe602801	-0.2189026
32	0x3e65d97f	0.2244625
33	0xbe00cb1f	-0.12577485
34	0x3e6d956d	0.23201533
35	0x3ea7d3d5	0.32778803
36	0x3e69d95e	0.22836825
37	0xbe02976d	-0.12753077
38	0xbe087e56	-0.13329443
39	0xbe90ee20	-0.28306675
40	0x3aa5e83e	0.0012657715
41	0x3c56bb13	0.013106125
42	0xbdbac6ad	-0.09119926
43	0xbe767860	-0.24069357
44	0x3e6d0854	0.23147708
45	0x3ea0903d	0.31360045
46	0x3da9803f	0.08276414
47	0xbe0a2876	-0.13491997
48	0x3e474243	0.1945887
49	0xbed46a8f	-0.41487548
50	0x3dca76a4	0.0988591
51	0x3d807114	0.06271568
52	0xbc9b00fb	-0.018921366
53	0xbe2a96e7	-0.16659127
54	0xbd36409d	-0.044495214
55	0xbdf2815f	-0.11841082
56	0xbe524c2a	-0.20536867
57	0x3e6ba0e4	0.23010594
58	0x3df6c92f	0.120500915
59	0x3df51411	0.11966718
60	0xbd3c63e2	-0.045993693
61	0x3d8660b8	0.065614164
62	0xbe0d464f	-0.13796352
63	0x3eb96bdb	0.362151
64	0x3e8b818c	0.27247274
65	0x3c8ff5a5	0.017573187
66	0x3dc2b67d	0.09507463
67	0x3d69ac03	0.05704881
68	0x3db61d20	0.08892274
69	0xbdee756f	-0.116434924
70	0x3dca3fb6	0.09875433
71	0x3d9cc556	0.07654826
72	0x3d4aa92d	0.049477745
73	0xbdf232c9	-0.11826093
74	0xbde4252e	-0.11139904
75	0x3dbb3772	0.09141435
76	0x3d8f55e3	0.069988035
77	0x3db1819f	0.086673014
78	0x3d9573ac	0.07297453
79	0xbe0e3953	-0.13889055
80	0xbe250d04	-0.16118246
81	0x3c20af33	0.009807396
82	0xbe41a35c	-0.18909973
83	0xbda23e58	-0.079220474
84	0x3c46a36e	0.012123926
85	0xbcc676a7	-0.0242265
86	0xbe85d3dc	-0.26138198
87	0xbdda60aa	-0.106629685
88	0x3e77293b	0.24136822
89	0xbe7d50ee	-0.24737903
90	0xbd08b760	-0.033378005
91	0x3ec9151b	0.39273915
92	0x3dcfbffc	0.1014404
93	0xbd8d5c0e	-0.06902324
94	0xbdc5772b	-0.0964187
95	0xbded4f76	-0.115874216
96	0xbe4db193	-0.2008727
97	0xbd0c330e	-0.034228377
98	0xbe469afe	-0.19395062
99	0xbea5faab	-0.32417807
100	0xbe0d8b0b	-0.13822572
101	0x3e998cea	0.2999032
102	0x3da6c40a	0.0814286
103	0xbd85220b	-0.06500634
104	0x3e8d8fbc	0.27648723
105	0xbdb68baf	-0.08913361
106	0xbda89c13	-0.08232894
107	0x3ea278fe	0.31732935
108	0xbe67e5c4	-0.22646242
109	0xbdba7c71	-0.091057666
110	0xbd950468	-0.07276231
111	0x3e3eb3f2	0.18623331
112	0xbe2bd2e2	-0.16779664
113	0xbe746eda	-0.23870412
114	0x3e037cad	0.12840529
115	0x3e84f3f8	0.25967383
116	0x3da659c7	0.081225924
117	0x3e0587ef	0.13040136
118	0xbde9fecd	-0.114255525
119	0x3d34e334	0.04416199
120	0xbe95fc32	-0.29293972
121	0x3dd1692f	0.1022514
122	0xbe27055a	-0.16310635
123	0x3ca9f87d	0.020748371
124	0x3e6f3b12	0.23362377
125	0x3cbd78e4	0.023128934
126	0xbe8fdb97	-0.2809722
127	0x3db3364d	0.087505914
128	0xbe0141f5	-0.12622817
129	0xbe2ad480	-0.16682625
130	0xbdeb42ba	-0.114873365
131	0x3d9bd583	0.076090835
132	0xbdd66b63	-0.10469701
133	0x3da0e597	0.07856291
134	0xbb7738de	-0.0037723104
135	0xbe13c50b	-0.14430635
136	0xbdeb2a12	-0.11482634
137	0xbf045fa9	-0.51708466
138	0x3ef75b98	0.48312068
139	0x3e1f348d	0.1554739
140	0xbcfc8024	-0.030822821
141	0x3eb80657	0.35942337
142	0x3e126e4c	0.14299887
143	0xbebdb855	-0.37054697
144	0x3e56023d	0.20899291
145	0xbe493bf4	-0.19651777
146	0xbe2586c6	-0.16164693
147	0xbdbf328e	-0.093358144
148	0x3c5c2657	0.013436875
149	0x3eb266b9	0.34843996
150	0x3d01c5c7	0.031682756
151	0x3d9f197e	0.07768534
152	0x3e542c94	0.2072013
153	0x3baabdbf	0.005210608
154	0x3d90c8e1	0.070695646
155	0xbd9447b8	-0.07240242
156	0x3dc79e07	0.09746938
157	0xbe3692c4	-0.17829424
158	0xbe2435d6	-0.16036162
159	0xbd90ebe7	-0.07076245
160	0xbd8f5724	-0.06999043
161	0x3de30625	0.11085156
162	0x3e63b0c2	0.22235397
163	0xbdd62b31	-0.10457457
164	0x3e15162b	0.14559238
165	0x3d8a3048	0.0674749
166	0xbc67825d	-0.014130202
167	0x3dea134a	0.1142946
168	0x3e03313b	0.12811749
169	0xbe1abca7	-0.15111028
170	0x3d118de6	0.035535716
171	0x3e6e5779	0.23275556
172	0xbe8354cf	-0.2565064
173	0x3eea8b62	0.45809466
174	0xbcee846e	-0.029115882
175	0x3db21815	0.086959995
176	0x3d70e4f4	0.058812097
177	0x3b50415b	0.0031777236
178	0xbe462f36	-0.19353947
179	0xbcdb63b4	-0.02678094
180	0xbe643a05	-0.22287758
181	0x3ed4481c	0.41461265
182	0xbde8243b	-0.113350354
183	0xbeab769c	-0.3348893
184	0x3e032625	0.1280752
185	0x3dd1ae72	0.10238351
186	0xbed98c0a	-0.42489654
187	0x3c91125e	0.017708953
188	0xbe0fe5a3	-0.14052443
189	0xbdc37785	-0.09544281
190	0xbdff175d	-0.12455628
191	0x3e531606	0.2061387
192	0xbd7cf560	-0.061757445
193	0x3e0895fb	0.13338463
194	0x3cdade1c	0.026717238
195	0x3cff6b44	0.031179078
196	0xbe88f68e	-0.26750606
197	0x3d1e01da	0.038575985
198	0xbd11f900	-0.035637856
199	0x3d08f9f7	0.03344151
200	0x3e92fcac	0.28708398
201	0xbe6d7ff3	-0.2319334
202	0x3df28524	0.11841801
203	0x3eb51526	0.35367697
204	0x3e43f020	0.19134569
205	0x3e38d606	0.18050393
206	0x3ddd5ce4	0.10808733
207	0xba84254e	-0.0010081918
208	0xbdf8929c	-0.121373385
209	0xbda6f833	-0.08152809
210	0x3e02686a	0.12735143
211	0xbdaa0f3f	-0.08303689
212	0x3c3a8465	0.011384104
213	0xbdfdea55	-0.12398211
214	0xbe564ca0	-0.20927668
215	0x3e370955	0.17874654
216	0xbe623bdf	-0.22093152
217	0xbe8e81f3	-0.27833518
218	0xbdc3e56c	-0.09565243
219	0x3e777586	0.24165925
220	0x3e7bf6b1	0.24605824
221	0x3d4e5dab	0.050382297
222	0x3e68de2f	0.22741006
223	0xbdffe92d	-0.124956466
224	0x3d2d903c	0.04237388
225	0xbe925f24	-0.28588212
226	0xbc64ea2c	-0.013971847
227	0xbdfb5081	-0.12271214
228	0xbe194466	-0.14967498
229	0xbe91b947	-0.28461668
230	0xbe383a46	-0.1799098
231	0xbbccf14d	-0.006254351
232	0x3e79ff1c	0.24413723
233	0x3ead0019	0.33789137
234	0xbbe93688	-0.0071170963
235	0xbe8e9632	-0.27848965
236	0xbdcd9bb3	-0.10039463
237	0xbd8bfbc6	-0.06835131
238	0xbe34cd04	-0.17656332
239	0xbc3d6fcf	-0.011562302
240	0xbcd0c7b2	-0.025485847
241	0x3d5953e2	0.053058513
242	0xbe5dc57f	-0.2165737
243	0xbe1b49df	-0.15164898
244	0x3e74dd91	0.23912646
245	0xbd54c368	-0.051944166
246	0xbcacd200	-0.02109623
247	0xbe1fc76b	-0.15603416
248	0xbe0568b8	-0.13028228
249	0xbda35ba0	-0.079764605
250	0xbe43c4a5	-0.19117983
251	0xbe93f4d0	-0.28897715
252	0x3e3d521f	0.18488358
253	0x3d8a7e60	0.06762385
254	0x3e7e7abe	0.2485151
255	0xbc90e7fe	-0.017688747

conv_net.3.0.bias f4 [32]
0	0x3db7b054	0.08969179
1	0x3c998d72	0.018744204
2	0xbb52115b	-0.0032053802
3	0xbda2160d	-0.07914362
4	0x3dd5be0d	0.1043664
5	0xbcf49225	-0.029854843
6	0xbd5b326e	-0.05351489
7	0xbd38cec0	-0.045119047
8	0xbd8fc213	-0.070194386
9	0xbe24aa57	-0.16080604
10	0x3d0b2fb3	0.033981036
11	0xbd7d5f03	-0.06185819
12	0xbde0e70b	-0.10981568
13	0xbd2345ba	-0.03986142
14	0xbd2f9497	-0.042866316
15	0x3c73c35c	0.01487812
16	0x3da5f659	0.08103628
17	0xbd771c62	-0.060329802
18	0x3c927275	0.017876843
19	0x3d01aecc	0.03166084
20	0xbda59f63	-0.08087041
21	0xbd05f60e	-0.03270536
22	0xbd1d953f	-0.03847241
23	0x3c433579	0.011914604
24	0xbcdde7f1	-0.027088137
25	0xbcbd614b	-0.023117682
26	0xbde35125	-0.110994615
27	0xbbf282b1	-0.0074008335
28	0x3d5d5b27	0.054042008
29	0xbe280d1e	-0.16411254
30	0xbdfdf6cd	-0.12400589
31	0xbd0b5cd7	-0.034024086

conv_net.3.1.weight f4 [32]
0	0x40084615	2.1292775
1	0x40407331	3.0070307
2	0x4010a2cc	2.2599363
3	0x40274c2e	2.6140246
4	0x40090711	2.1410563
5	0x400da31c	2.2130804
6	0x400c0991	2.188084
7	0x4015471b	2.332465
8	0x4031767f	2.7728574
9	0x401f89e7	2.492792
10	0x40297cf5	2.6482518
11	0x403bc169	2.9336798
12	0x40746af7	3.8190286
13	0x402ac9de	2.668571
14	0x404593da	3.0871491
15	0x400b6b2f	2.178417
16	0x4025f28d	2.5929291
17	0x401b9350	2.4308662
18	0x4026454b	2.5979793
19	0x401dd8aa	2.4663491
20	0x401942ae	2.3946948
21	0x403e2a73	2.971341
22	0x4017ed2d	2.373851
23	0x401b822e	2.4298205
24	0x401adcdd	2.4197304
25	0x40154052	2.3320508
26	0x403e8171	2.9766505
27	0x4011b9f6	2.2769752
28	0x40389c17	2.884527
29	0x4014a988	2.3228474
30	0x4023ec6c	2.561305
31	0x40299a8b	2.6500576

conv_net.3.1.bias f4 [32]
0	0xbe840e6d	-0.25792256
1	0xbe13c832	-0.14431837
2	0xbdeed779	-0.11662192
3	0xbe764fc0	-0.2405386
4	0x3d4b6fbc	0.049667105
5	0xbe4602fb	-0.19337074
6	0xbdec4ab7	-0.11537688
7	0xbe011816	-0.12606844
8	0xbe0ee88b	-0.13955896
9	0xbed13d72	-0.40867192
10	0xbe930db4	-0.28721392
11	0xbe8b72d2	-0.27236038
12	0xbf4d4db2	-0.8019668
13	0xbd1fc0c2	-0.039002188
14	0xbedcc55d	-0.43119326
15	0xbdc83f77	-0.0977773
16	0xbd9d8f28	-0.076933205
17	0xbe2a1de9	-0.16612972
18	0xbe2d3816	-0.16915926
19	0xbdc95a2d	-0.09831653
20	0xbe37f79d	-0.1796555
21	0xbe4c6473	-0.19960193
22	0xbe344c14	-0.17607147
23	0xbe8fc651	-0.2808099
24	0xbdcee6c8	-0.10102612
25	0xbe159c95	-0.14610513
26	0xbef78afd	-0.48348227
27	0xbe4be776	-0.19912514
28	0xbe7d5de7	-0.24742852
29	0xbe3e36c3	-0.18575577
30	0xbe5b7cfd	-0.21434398
31	0xbea31239	-0.3184984

fc_net.0.weight f4 [128, 800]
0	0x3c971909	0.018444555
1	0xbce66701	-0.028125288
2	0x3ca0cd84	0.019629247
3	0xbbe51837	-0.006991412
4	0x3ac5c7f2	0.0015089496
5	0xbd1be1db	-0.03805719
6	0xbb96290f	-0.0045825313
7	0xbccbbefc	-0.024871342
8	0x3cd39797	0.02582912
9	0xbd20fb58	-0.0393022
10	0xbd0cb4de	-0.034352176
11	0x3ab6728a	0.0013919633
12	0xbbffe066	-0.007808733
13	0xbbcb2694	-0.006199667
14	0x3cbc4400	0.022981644
15	0xbcad59fb	-0.02116107
16	0x3c732db8	0.014842443
17	0xbc77b39e	-0.015118508
18	0xbca0a6d6	-0.019610804
19	0xbcef8311	-0.029237302
20	0xbd26ef61	-0.040755633
21	0xbbfa6f7c	-0.0076426845
22	0xbd10bbd1	-0.035335366
23	0xbc544b8d	-0.012957466
24	0xb9be52d0	-0.00036301324
25	0x3cb2ba1c	0.02181726
26	0x3b612fed	0.0034360841
27	0x3c4117d4	0.011785466
28	0x3c9c5d1d	0.019087369
29	0xbc2a2bbf	-0.010386406
30	0x3bf9cb6d	0.007623127
31	0x3cb4e0cc	0.022079848
32	0x3c18b6bd	0.009320912
33	0xbcd4a491	-0.025957378
34	0xbccf9cbd	-0.025343293
35	0xbc84363e	-0.016139146
36	0xbd1e80ea	-0.03869716
37	0xbd155d8b	-0.036466163
38	0xbc5851d4	-0.013203103
39	0xbad37feb	-0.0016136145
40	0xbc81b0da	-0.0158314
41	0xbd15e821	-0.03659833
42	0x3cd62fcc	0.026145838
43	0x3cb2dd90	0.021834165
44	0xba6f3519	-0.00091250386
45	0x3c8f0d4a	0.017462391
46	0x3c8403c7	0.016115082
47	0xbc350d89	-0.01105059
48	0x3c79d57f	0.015248655
49	0x3c9ae575	0.018908242
50	0x3bd3841a	0.0064549567
51	0x3be4c4ca	0.006981467
52	0x3c822547	0.015886916
53	0x3b9a5ff5	0.004711146
54	0x3beb44c8	0.00717983
55	0x3c79d7c9	0.015249201
56	0x3cb50b6f	0.022100179
57	0xbcafc183	-0.021454578
58	0xbc830565	-0.015993783
59	0xbc5bc497	-0.01341357
60	0x3ccc026d	0.0249035
61	0xbcfe577f	-0.03104758
62	0xbd18949f	-0.03725111
63	0x3b9956e7	0.004679549
64	0xbc4ad23b	-0.012379224
65	0xbcacae9e	-0.021079358
66	0xbc1ed08f	-0.009693279
67	0xbb2c3e7e	-0.0026282365
68	0xbc84f8b6	-0.016231876
69	0x3d0bef94	0.034164026
70	0xbcd6a1b8	-0.02620016
71	0x3ceee675	0.029162625
72	0x3ca4a0f3	0.020096278
73	0x3c759019	0.014987969
74	0x3d1d6de7	0.03843489
75	0x3c9cb2e9	0.01912828
76	0xbd20de04	-0.03927423
77	0xbb6682bc	-0.0035173139
78	0xbc1810e4	-0.009281371
79	0xbd22d041	-0.039749388
80	0xbd2a9bbf	-0.041652437
81	0xbc83861d	-0.016055161
82	0xbce48f78	-0.027900442
83	0x3c284ec5	0.010272686
84	0x3d0bc05f	0.034119006
85	0x3cb9258d	0.022600913
86	0xbace2e51	-0.0015730356
87	0xbc191d0b	-0.009345303
88	0x3c2dc78c	0.010606658
89	0xbc89378b	-0.016750118
90	0xbd03fe65	-0.03222503
91	0xbcd5afc9	-0.026084797
92	0xbc96ad2b	-0.01839312
93	0xbce32264	-0.02772636
94	0x3c959b01	0.018262388
95	0xbc532f02	-0.0128896255
96	0xbd1bee03	-0.038068783
97	0xbcea935a	-0.028634716
98	0x3b78b688	0.0037950594
99	0xbcfa5046	-0.030555855
100	0xbcbd3949	-0.023098605
101	0x3bd7e40a	0.0065884637
102	0xbca8a72e	-0.02058753
103	0x3be09107	0.006853226
104	0x3ccca8cf	0.024982838
105	0xbb930c33	-0.0044875382
106	0xbd18e8e6	-0.037331484
107	0xbc811d3a	-0.015761007
108	0xbc73ea61	-0.014887423
109	0xbd0a6ebb	-0.033797007
110	0xbc9a7adf	-0.018857418
111	0xbcb59c47	-0.022169245
112	0x3b80852b	0.003922125
113	0x3b904633	0.0044028996
114	0x3c332f45	0.010936563
115	0x3cc8810a	0.024475593
116	0xbbac44ce	-0.0052572256
117	0x3c446def	0.011989101
118	0xbb502b96	-0.003176426
119	0xbd12ddb0	-0.03585595
120	0x3bf722be	0.0075419834
121	0x3cf07fb7	0.029357774
122	0xbc6e5598	-0.014546774
123	0x3ab99fe4	0.0014162031
124	0x3cd0dfc6	0.025497328
125	0x3c115a67	0.008871651
126	0x3bf85c55	0.007579366
127	0x3c6ec3f2	0.014573084
128	0x3c4a39e4	0.012342904
129	0xbbf1b690	-0.0073764995
130	0xbd02527b	-0.03181694
131	0x3c933be1	0.017972888
132	0x3cecc2a5	0.028901407
133	0xbc16b42e	-0.009198232
134	0xbd0a11dc	-0.03370844
135	0xbce846ff	-0.028354166
136	0xbcd4872d	-0.025943363
137	0x3cd5bf62	0.026092235
138	0xbcbef334	-0.023309328
139	0xbd2c54b9	-0.042072985
140	0xbc6b1618	-0.014348529
141	0xbd07e7b6	-0.03317996
142	0xbd27441d	-0.040836442
143	0x3cd60aca	0.026128192
144	0x3c211787	0.0098322695
145	0x3c342943	0.010996166
146	0xbc8e858e	-0.017397668
147	0xbc9de653	-0.019274866
148	0xbd006e07	-0.03135493
149	0xbcd05124	-0.025429316
150	0xbcfb0aa6	-0.030644726
151	0xbd238923	-0.039925706
152	0xbc1d9213	-0.009617346
153	0xbd10f19b	-0.035386663
154	0xbcc971a9	-0.02459033
155	0xbcee5108	-0.029091373
156	0x3c129de8	0.008948781
157	0x3c1e5bef	0.009665473
158	0xb9c5a96d	-0.00037701
159	0xbc9c6ed5	-0.019095818
160	0xbb20db7d	-0.0024544888
161	0xbae1c188	-0.0017223815
162	0xbb6a4629	-0.0035747385
163	0xb96e3272	-0.00022716241
164	0xbc8dfe52	-0.017333183
165	0x3bf4733f	0.0074600275
166	0xbc39b3b9	-0.011334353
167	0xbc89cb50	-0.01682058
168	0x3cde81e4	0.027161546
169	0xbd238891	-0.03992516
170	0x3ca3be1e	0.019988116
171	0x3b8f889e	0.0043802997
172	0xbc5cac9d	-0.013468889
173	0xb8c76250	-9.5073716e-05
174	0x3c65d389	0.014027485
175	0x3cd5b5a2	0.026087586
176	0xbd21fbb9	-0.039546702
177	0x3be1f043	0.0068950965
178	0x3ca0711a	0.019585181
179	0x3cb1dd9c	0.021712117
180	0xbca5e965	-0.020252893
181	0xbd227cf6	-0.039669953
182	0xbb5b8042	-0.0033493196
183	0x3b978a83	0.004624666
184	0xbd14c416	-0.036319815
185	0xbd113aba	-0.035456397
186	0xbbb8d246	-0.005640301
187	0xbc9deca9	-0.019277887
188	0xbc87c7e7	-0.016574813
189	0x3c5a1194	0.013309855
190	0xbc486902	-0.012232067
191	0x3ca35d7d	0.01994204
192	0xbcab8718	-0.020938441
193	0xbca644f1	-0.020296546
194	0x3cd3da23	0.025860852
195	0x3c0e57fa	0.008687967
196	0x3c441f06	0.011970287
197	0xbb7bbbc5	-0.003841148
198	0xbbc0d808	-0.005885128
199	0xbc0659f4	-0.008200157
200	0xbc80f499	-0.015741633
201	0xbcf01dc3	-0.029311066
202	0xbd1d428f	-0.038393553
203	0xbab44fa3	-0.0013756644
204	0x3c98ef41	0.018668773
205	0x3c820d1b	0.01587539
206	0xbd0ff893	-0.03514917
207	0xbc72212a	-0.014778415
208	0xbd057e96	-0.032591425
209	0xbd250424	-0.040287152
210	0xbc8eac6e	-0.017416205
211	0xbbe8d839	-0.007105854
212	0xbc1d4493	-0.009598869
213	0xbc93600a	-0.01799013
214	0xbbfbff58	-0.0076903515
215	0x3c2f14da	0.010686124
216	0xbca0408e	-0.019562032
217	0x3c767407	0.0150423115
218	0xbc378a32	-0.011202382
219	0x3ce109a1	0.027470412
220	0xbcb8fed5	-0.02258245
221	0x3c3032e6	0.010754323
222	0x3c8b3d1b	0.01699691
223	0x3cdae60a	0.02672102
224	0xbc821142	-0.01587737
225	0xbc3599bf	-0.011084019
226	0x3ca12674	0.019671656
227	0xbcb6e0cb	-0.022323987
228	0x3b7b7700	0.003837049
229	0xbcf2ae94	-0.029624261
230	0xbcd48dca	-0.025946517
231	0xbd2bfba0	-0.041988015
232	0xbaf71f0d	-0.0018853858
233	0x3c6598c6	0.014013475
234	0xbb3de629	-0.0028976297
235	0xbcdf28d3	-0.027241146
236	0x3d26507d	0.040604103
237	0x3c4b0bb9	0.012392932
238	0x3c507697	0.0127235865
239	0xbd2a45e6	-0.041570567
240	0xbd1a4716	-0.03766545
241	0x3c03400f	0.008010878
242	0xbb621f9b	-0.0034503702
243	0xbd094c96	-0.033520304
244	0x3c8137fc	0.015773766
245	0x3c1b3e19	0.009475254
246	0xbc0dfe19	-0.008666539
247	0xbba9570b	-0.005167847
248	0xbd2476f1	-0.040152494
249	0xbd0f68b0	-0.035011947
250	0xbc431542	-0.011906924
251	0xbc9986ef	-0.0187411
252	0x3ccf205c	0.025283985
253	0xbcb9ae68	-0.022666171
254	0xbcfbf33c	-0.030755632
255	0x3b05317a	0.002032368

fc_net.0.bias f4 [128]
0	0xbd07ffe3	-0.033203017
1	0xbc42027f	-0.011841415
2	0xbbb1ff88	-0.005432073
3	0x3ca2fc57	0.019895716
4	0xbd210da8	-0.039319664
5	0x3cc84c54	0.024450459
6	0xbcddebe5	-0.027090022
7	0xbd53c9d7	-0.05170616
8	0x3bf021c4	0.007328244
9	0x3bdb44d1	0.006691553
10	0xbcd95283	-0.026528602
11	0x3cba6f2b	0.022758087
12	0xbd09d2c1	-0.033648256
13	0xbcc353b4	-0.023843624
14	0x3c6f5c95	0.014609476
15	0x3bbde78d	0.0057954253
16	0x3c7bdc89	0.015372404
17	0xbd2cf375	-0.042224366
18	0x3a18901b	0.0005819813
19	0xbcd4abcf	-0.025960831
20	0x3aeb005c	0.0017929184
21	0xbb4ccb4c	-0.0031249104
22	0xbc836400	-0.016038895
23	0xbc986e0d	-0.018607164
24	0xbcc3c422	-0.023897234
25	0xbd5130d0	-0.05107194
26	0xbd00da4f	-0.031458195
27	0x3e16f357	0.14741264
28	0xbcc17736	-0.023616415
29	0xbd2060a2	-0.039154656
30	0xbd12472d	-0.03571241
31	0xbdf4ebb7	-0.119590215
32	0x3cbc68c3	0.022999173
33	0x3c801715	0.015636006
34	0x3c957429	0.018243866
35	0x3d9e89d5	0.07741133
36	0xbbba44c0	-0.005684465
37	0xbcb5c17c	-0.022186987
38	0x3dbf5430	0.09342229
39	0xbd335b9a	-0.04378853
40	0x3b878272	0.0041354233
41	0xbcea6ce5	-0.028616378
42	0xbb419cbf	-0.002954289
43	0x3e17116e	0.14752743
44	0xbc9b26e5	-0.018939445
45	0x3c9d57c1	0.019206883
46	0xbd377df3	-0.04479785
47	0xbbaee5ab	-0.005337437
48	0x3e5f369f	0.2179818
49	0x3b6564df	0.003500275
50	0xbc3dd57f	-0.011586546
51	0x3c3675fe	0.01113653
52	0xbce25969	-0.027630525
53	0xbd2a19be	-0.041528456
54	0x3cbdca21	0.023167672
55	0xbce028ea	-0.02736326
56	0xbc437abf	-0.01193112
57	0xbcce8fa1	-0.025214972
58	0xbd06fece	-0.032957844
59	0xbd1daeb6	-0.038496695
60	0xbd367aab	-0.04455058
61	0x3bc5c0e1	0.006034956
62	0xbcb7cc32	-0.022436235
63	0xbcf6a22f	-0.030106632
64	0x3e193543	0.14961724
65	0xbd1ef98d	-0.03881221
66	0x3c728c12	0.014803903
67	0xbc8ab911	-0.01693395
68	0xbd6a7cb8	-0.057247847
69	0x3c22cf0f	0.009937062
70	0x3b528a38	0.0032125842
71	0xbd02e1e4	-0.031953707
72	0xbd3ef2e6	-0.046618365
73	0xbb4bf67e	-0.0031122263
74	0xbcf3a8fb	-0.029743662
75	0x3c126aea	0.008936623
76	0x3942d9b3	0.00018582381
77	0x3b8570da	0.004072291
78	0x3b3dcd05	0.0028961312
79	0xbcec6526	-0.028856825
80	0xbd0cec3b	-0.034404974
81	0xbb3a7e5f	-0.002845667
82	0xbd2e79ab	-0.0425965
83	0x3c9c0ead	0.019049967
84	0x3c8f0467	0.017458154
85	0xbbb32618	-0.0054671876
86	0x3cd32ac1	0.025777223
87	0xbd17409e	-0.036926858
88	0x3bdd6903	0.006756903
89	0xbd25bc6f	-0.040462907
90	0x3c919d82	0.0177753
91	0xbd080ad8	-0.033213466
92	0xbc02f057	-0.007991872
93	0x3b409e04	0.002939106
94	0xba9bc3a0	-0.0011883862
95	0xbd132094	-0.03591974
96	0x3cb679d2	0.022274885
97	0x3b418b18	0.002953237
98	0xbcddd595	-0.027079383
99	0xbd09c6d4	-0.033636883
100	0x395eb17e	0.00021237691
101	0x3caf63e9	0.021409946
102	0xbd254309	-0.040347133
103	0xbd2e8377	-0.042605843
104	0x3cb6d071	0.02231619
105	0x3e23932e	0.15974113
106	0x3c96392d	0.01833781
107	0x3a88a592	0.001042532
108	0xb9988a66	-0.00029094814
109	0xbcd83886	-0.02639414
110	0x3cec47d3	0.028842842
111	0x3b576afd	0.0032870166
112	0x3c3b190a	0.011419544
113	0x3bc69bbb	0.006061045
114	0xbd045b19	-0.03231344
115	0x3c06d19f	0.0082286885
116	0xbd509b44	-0.050929323
117	0x3dd3b680	0.103375435
118	0xbc89a91e	-0.016804274
119	0xbc8a7841	-0.016903045
120	0x3cb76762	0.022388164
121	0xbc2773f4	-0.0102205165
122	0x3b2d935c	0.0026485538
123	0x3c68201a	0.01416781
124	0x3c739cad	0.014868897
125	0x3cbf07d5	0.023319164
126	0xbd1266db	-0.035742622
127	0x3c2148da	0.009844029
