Results/regression/5-shot/3_modes/hard/it3/reptile/3te_model.pt (torch, 124707 bytes, 20 tensors)

te_net.0.weight f4 [32, 2]
0.39823067 -0.7065601 -0.40642723 -0.24944781 0.16481572 0.38004807 0.38644695 0.23647206
-0.00013186982 -0.21540727 -0.39236912 0.36909816 0.0016895805 0.33399266 -0.5235787 -0.22684073
0.5739068 -0.053155728 0.1518569 0.13880749 -0.56302947 -0.43856794 0.59652984 -0.41917616
0.42141438 0.1458044 0.025637811 0.10280333 0.5708581 0.5281942 0.24233684 0.680708
-0.16025849 0.16731745 -0.33425534 -0.6371482 -0.15242983 -0.6214076 0.17865467 -0.6507591
0.53097177 -0.38032442 -0.021590404 -0.050637774 -0.08738569 -0.58185685 0.010881094 0.56776506
0.023994517 0.44406864 0.4734192 -0.13065457 0.18819518 0.14476286 -0.4053487 0.43411204
0.39950663 0.32432958 -0.5918705 -0.17909029 -0.04481496 0.03211176 0.6031149 -0.43766826
00000000: e4e4 cb3e 1fe1 34bf 3b17 d0be 3f6f 7fbe
00000010: 74c5 283e a995 c23e 60dc c53e bb25 723e
00000020: 8946 0ab9 b993 5cbe 9be4 c8be 6ffa bc3e
00000030: ea74 dd3a 1601 ab3e 4109 06bf f048 68be
00000040: 8eeb 123f d2b9 59bd 6080 1b3e 8d23 0e3e
00000050: b322 10bf fa8b e0be 2eb6 183f 429e d6be
00000060: a0c3 d73e c04d 153e 6306 d23c 8d8a d23d
00000070: c223 123f bc37 073f 2627 783e e142 2e3f
00000080: cd1a 24be 4455 2b3e 8423 abbe 251c 23bf
00000090: 9116 1cbe 9214 1fbf 40f1 363e 2698 26bf
000000a0: c4ed 073f e2b9 c2be 5cde b0bc 8e69 4fbd
000000b0: 45f7 b2bd 92f4 14bf 9e46 323c 0d59 113f
000000c0: 2690 c43c f75c e33e 0064 f23e 50ca 05be
000000d0: 3db6 403e b73c 143e dd89 cfbe ef43 de3e
000000e0: 228c cc3e 870e a63e d384 17bf 7263 37be
000000f0: e48f 37bd 9f87 033d bd65 1a3f 0e16 e0be

te_net.0.bias f4 [32]
-0.42444578 0.03950113 -0.55422044 -0.5649776 -0.34713924 -0.5653048 0.54813576 -0.11514028
0.4007139 0.17504989 -0.26353452 0.7158917 -0.57631373 -0.1387025 -0.25659433 0.3926972
0.5433391 -0.65525657 0.12292891 0.49306086 -0.01955508 0.6347003 0.5475533 -0.5591756
-0.12858832 0.011364655 0.4165913 0.17081358 -0.40718728 0.15017597 -0.074928924 -0.3931297
00000000: f550 d9be f0cb 213d 64e1 0dbf 5fa2 10bf
00000010: 3cbc b1be d1b7 10bf a052 0c3f abce ebbd
00000020: 5f2a cd3e 4740 333e ffed 86be ae44 373f
00000030: 4c89 13bf 0708 0ebe 5560 83be 9b0f c93e
00000040: 4518 0b3f e5be 27bf 27c2 fb3d 7972 fc3e
00000050: fa31 a0bc b87b 223f 742c 0c3f 2226 0fbf
00000060: a8ac 03be d132 3a3c 744b d53e c1e9 2e3e
00000070: da7a d0be bbc7 193e 5674 99bd 4c48 c9be

te_net.2.weight f4 [32, 32]
0.15228644 0.0028558283 -0.09791667 0.03230377 0.1456944 -0.0928721 0.03404557 -0.025751008
0.08117978 -0.13619804 -0.12054403 0.053256188 -0.13408999 0.044774156 -0.14796448 0.059486397
-0.05395098 0.073588565 -0.07265023 -0.020011619 -0.1736626 0.04789673 -0.020475296 0.039141104
-0.08857999 -0.057454184 -0.12581137 -0.15385462 0.06838145 -0.14313729 0.101175934 -0.10970803
-0.15151653 0.15119456 -0.08747318 0.04484914 -0.16973718 0.044951063 0.09249843 -0.12420745
-0.027986338 -0.0674486 -0.0016435253 -0.0070808353 0.08350491 -0.03349363 0.017676715 -0.0025523356
-0.1459758 0.109073386 0.004078149 -0.07660268 -0.09914923 0.17150709 0.16011557 -0.16508137
0.08376329 0.064829595 -0.062064115 -0.103594944 0.15458946 0.033939276 0.15641636 0.015917815
0.013316266 0.06276428 0.15452406 0.05295915 0.10684426 -0.16745445 -0.117832206 -0.15493374
0.18183096 0.11132496 0.1353769 -0.11993535 -0.08853972 -0.1560147 -0.11291622 -0.01046198
-0.07130572 0.16614263 0.16556151 -0.15187435 -0.09717326 -0.106074855 -0.076015815 0.1378996
0.17461531 0.13122892 -0.12648372 -0.09532729 0.16624129 -0.14478916 -0.10190882 -0.023020921
-0.12660982 -0.022595197 -0.024616556 0.15595353 0.05199152 -0.10610791 -0.019896017 -0.03550843
0.121434465 0.06653919 -0.16010842 -0.08562053 0.05150702 0.13616443 -0.06170742 0.13128181
-0.1415006 -0.025986746 -0.10174262 -0.01059209 0.011599566 -0.16787931 0.025906116 -0.08167993
-0.04687117 -0.02022454 0.094868705 0.070235305 0.03268653 -0.14184584 -0.09518254 0.1522083
-0.019000528 -0.15393186 0.05987239 0.004645022 0.019390017 -0.067700416 0.074571736 0.041754365
-0.08195717 0.0008791876 0.09090817 0.09848589 -0.010156646 -0.12101871 -0.005848791 -0.048346046
0.15861435 -0.019651363 0.11368449 0.11776574 0.09298901 0.012219738 -0.04602177 0.038357507
-0.17210028 0.15533704 -0.014166385 0.104873985 -0.044933688 -0.033502173 -0.06928536 0.100178
-0.029960522 0.09400175 -0.016340774 -0.036996964 -0.13301416 0.17177363 -0.06940472 0.10191174
0.13769682 -0.027899276 0.04279007 -0.17532644 0.028982896 -0.08997824 0.10501414 0.0013082979
-0.054537322 -0.0054509398 0.0017570922 -0.011010288 0.1019087 -0.005909173 0.11687451 0.10598225
0.09964094 0.10083633 0.05072646 -0.12789539 0.11243711 -0.016502997 0.120301075 -0.12582655
0.15278122 0.06773143 0.12628624 0.07840738 0.043631822 0.10066176 -0.0385486 -0.017293222
-0.099095866 -0.11973221 0.04360304 0.16760184 -0.08161937 -0.12023154 -0.0055857305 0.17115371
0.11493883 -0.034858454 -0.026946615 -0.10392927 -0.12175235 0.0425109 -0.115360074 -0.00062181463
0.00044634927 -0.1282474 0.016753858 0.101412654 -0.008118112 0.11965884 0.077113315 -0.14337294
0.18203124 -0.02705973 0.05519446 0.07836165 0.0002144266 0.11619083 -0.15558605 -0.027259707
0.15368365 -0.0037434495 0.12712914 -0.07155079 0.10842176 0.011075499 0.15607543 0.1216973
-0.14305662 -0.15050445 0.17615764 -0.15783292 -0.14276044 0.056229495 -0.053527534 -0.040295836
0.13134082 0.14411047 -0.10846204 0.08933955 -0.046622477 -0.10239919 0.08813105 -0.08217079
00000000: faf0 1b3e d928 3b3b 8988 c8bd f550 043d
00000010: ea30 153e ba33 bebd 5e73 0b3d c7f3 d2bc
00000020: 9641 a63d 8077 0bbe cadf f6bd 2923 5a3d
00000030: e34e 09be 1b65 373d 0084 17be 02a8 733d
00000040: b4fb 5cbd 9ab5 963d a5c9 94bd 68ef a3bc
00000050: 9cd4 31be 5d2f 443d cfbb a7bc 6c52 203d
00000060: 6d69 b5bd 1455 6bbd b2d4 00be 118c 1dbe
00000070: 930b 8c3d 9592 12be 5435 cf3d 9bae e0bd
00000080: 2627 1bbe bfd2 1a3e 2325 b3bd bbb3 373d
00000090: 95cf 2dbe 9b1e 383d d16f bd3d 7a60 febd
000000a0: 9b43 e5bc 7e22 8abd 8f6b d7ba 5a06 e8bb
000000b0: 9f04 ab3d 9e30 09bd c2ce 903c 1645 27bb
000000c0: ae7a 15be de61 df3d fea1 853b dee1 9cbd
000000d0: c00e cbbd 8e9f 2f3e 56f5 233e 170b 29be
000000e0: 168c ab3d 61c5 843d f136 7ebd 9629 d4bd
000000f0: b34c 1e3e e903 0b3d 9c2b 203e 1466 823c
00000100: 782c 5a3c 8f8a 803d 8e3b 1e3e b2eb 583d
00000110: 2ad1 da3d 2e79 2bbe 0352 f1bd f3a6 1ebe
00000120: e531 3a3e 57fe e33d 3ea0 0a3e aaa0 f5bd
00000130: 5054 b5bd 51c2 1fbe 9f40 e7bd b968 2bbc
00000140: bc08 92bd 4b21 2a3e f588 293e f384 1bbe
00000150: c602 c7bd c63d d9bd 2eae 9bbd 8e35 0d3e
00000160: 5bce 323e e060 063e f384 01be f43a c3bd
00000170: 283b 2a3e 9c43 14be 92b5 d0bd 5f96 bcbc
00000180: 01a6 01be 9019 b9bc a9a8 c9bc 48b2 1f3e
00000190: 0ff5 543d 1b4f d9bd f9fc a2bc 4a71 11bd
000001a0: a2b2 f83d b345 883d 76f3 23be d159 afbd
000001b0: 06f9 523d b06e 0b3e ebc0 7cbd bd6e 063e
000001c0: 89e5 10be 28e2 d4bc 6f5e d0bd 728a 2dbc
000001d0: 1b0c 3e3c 8ee8 2bbe 1039 d43c cf47 a7bd
000001e0: fcfb 3fbd efad a5bc 864a c23d 87d7 8f3d
000001f0: 50e2 053d 0940 11be 10ef c2bd 7edc 1b3e
00000200: ffa6 9bbc 50a0 1dbe c03c 753d 4535 983b
00000210: d0d7 9e3c 84a6 8abd 11b9 983d a006 2b3d
00000220: 29d9 a7bd 4879 663a 102e ba3d f8b2 c93d
00000230: 1068 26bc a8d8 f7bd 37a7 bfbb 8106 46bd
00000240: cd6b 223e e5fb a0bc 6ad3 e83d 2a2f f13d
00000250: 0671 be3d 4c35 483c 5381 3cbd c31c 1d3d
00000260: 0e3b 30be ac10 1f3e 201a 68bc 2cc8 d63d
00000270: 630c 38bd 9339 09bd 7ce5 8dbd 202a cd3d
00000280: c56f f5bc fd83 c03d 16dd 85bc 218a 17bd
00000290: dd34 08be 6de5 2f3e 1024 8ebd 1ab7 d03d
000002a0: 6500 0d3e 068d e4bc a444 2f3d c688 33be
000002b0: 8a6d ed3c 8346 b8bd a711 d73d 317b ab3a
000002c0: 8762 5fbd cc9d b2bb 3b4e e63a 7f64 34bc
000002d0: 82b5 d03d bca1 c1bb e75b ef3d 390d d93d
000002e0: 8d10 cc3d 4783 ce3d 8cc6 4f3d 02f7 02be
000002f0: 6d45 e63d 4b31 87bc 6960 f63d add8 00be
00000300: ae72 1c3e c7b6 8a3d 2e51 013e 0c94 a03d
00000310: 48b7 323d c127 ce3d 23e5 1dbd 84aa 8dbc
00000320: c6f2 cabd 2936 f5bd 1a99 323d d19f 2b3e
00000330: 0e28 a7bd f43b f6bd 8108 b7bb eb42 2f3e
00000340: 0d65 eb3d bdc7 0ebd 26bf dcbc ded8 d4bd
00000350: 4c59 f9bd e91f 2e3d e741 ecbd 4601 23ba
00000360: fc03 ea39 4953 03be 633f 893c 70b1 cf3d
00000370: d401 05bc b20f f53d 96ed 9d3d 5bd0 12be
00000380: 6666 3a3e 5eac ddbc 9613 623d 137c a03d
00000390: b4d7 6039 75f5 ed3d f351 1fbe c04f dfbc
000003a0: 3f5f 1d3e a954 75bb 242e 023e 3889 92bd
000003b0: 3a0c de3d 0276 353c 3dd2 1f3e 6f3c f93d
000003c0: 6f7d 12be d71d 1abe ab62 343e f49e 21be
000003d0: cb2f 12be e650 663d b03f 5bbd 3f0d 25bd
000003e0: 357e 063e b291 133e 5921 debd a7f7 b63d
000003f0: 36f7 3ebd abb6 d1bd 0d7e b43d 2949 a8bd

te_net.2.bias f4 [32]
-0.018581554 0.11314425 0.12574859 0.14529495 -0.0018838227 -0.08114485 -0.12054676 -0.068546556
-0.08518815 0.12785731 0.047372077 -0.116146415 0.023946613 0.12553932 -0.12753709 0.037340753
-0.16451839 0.15831546 -0.11459241 0.032563027 0.15123646 -0.07205886 -0.118703544 -0.109606795
0.14976 -0.11166844 0.0854772 0.062856145 0.127866 -0.17176291 0.06631247 -0.0014562146
00000000: 5838 98bc 2cb8 e73d 3dc4 003e 33c8 143e
00000010: 9aea f6ba 452f a6bd 38e1 f6bd 2362 8cbd
00000020: 2077 aebd 07ed 023e 3909 423d 2cde edbd
00000030: b02b c43c 618d 003e 1599 02be 9ef2 183d
00000040: 8277 28be 731d 223e 6daf eabd cf60 053d
00000050: bbdd 1a3e 9893 93bd d81a f3bd 8779 e0bd
00000060: af5a 193e 6cb2 e4bd ac0e af3d b9ba 803d
00000070: 4eef 023e 9ee2 2fbe d5ce 873d 74de beba

te_net.4.weight f4 [64, 32]
0.09606959 0.060662616 0.10195027 -0.012715243 -0.12218683 0.070649974 0.009292962 0.16730188
0.13162304 0.044478193 -0.039244093 -0.14636548 0.11499159 -0.14046486 -0.022053268 0.03608719
-0.1412322 0.05318849 0.016297644 0.094499096 -0.10840784 -0.08417404 0.06599256 -0.009598712
-0.14162831 0.028136343 -0.0870022 -0.081088945 0.06195157 0.039846018 -0.05092892 0.17203276
0.037388828 0.023333106 -0.06181912 -0.15233475 -0.12537804 -0.16284157 0.07385272 0.02113262
-0.047989666 -0.053124543 -0.15289372 -0.14670546 -0.084103465 0.15382086 -0.024921305 -0.13601902
-0.09075407 0.079466954 -0.059575118 -0.00681995 -0.17609647 0.00014869407 0.08452411 0.10824986
-0.16114396 0.05063558 0.14154789 0.032475136 -0.09490378 -0.17272855 0.14522935 0.018111048
-0.017827526 -0.080920964 -0.15297204 0.076156035 0.101267 0.06415062 -0.091751225 0.025649348
0.12697347 -0.15477002 -0.1795617 0.073397964 -0.11645549 -0.09717492 0.11515495 0.0021919494
-0.098386236 0.11723422 -0.121939845 0.021145903 0.06886627 -0.08783241 0.12048448 -0.0361621
0.056330718 0.02204238 -0.09491844 0.12190236 0.09135342 -0.013680043 0.12107884 -0.093416885
0.17603569 0.15594205 0.05273843 -0.106588535 -0.07445624 -0.184798 0.13824745 0.109081864
-0.055989116 0.12372628 -0.059258606 0.07219492 0.14857559 -0.12915555 0.099743366 -0.1142787
-0.12030973 -0.12375291 0.12369178 -0.12077942 -0.058678493 0.16113718 -0.100274086 0.0568491
0.11528154 -0.019614238 -0.026947092 -0.09385131 -0.1758583 0.014319879 -0.100895934 -0.10773959
-0.08600861 0.1649078 -0.008311388 -0.060310993 -0.07657883 0.08555786 -0.14477497 0.15471095
-0.012317922 -0.035892107 -0.03726481 0.06461765 0.116043776 0.17508087 -0.18025564 -0.13787964
0.14978181 -0.0827701 0.015603227 -0.09431597 -0.0036371064 -0.04517904 0.020279925 -0.02522864
-0.06169882 0.12703842 -0.15506278 0.16323493 -0.12439372 0.044162456 -0.10621696 -0.015983742
0.037721764 0.16400504 0.05774737 0.07942971 -0.15147075 -0.13329764 0.026960714 0.02928778
0.067265496 -0.0022973341 0.09437884 -0.16798249 0.07067309 0.12069182 -0.122071706 0.11678969
-0.06674561 0.0035917482 -0.05736063 0.040350392 0.085586175 0.1502606 0.014799668 0.03596361
0.091876626 -0.092240915 0.105217785 0.031005196 0.033217695 0.0074107004 -0.17175616 0.021437502
0.09980576 -0.024121078 0.055739667 0.031700473 -0.057966284 -0.07858482 0.047949694 0.06876852
-0.13816361 -0.17090277 -0.0915252 0.05299363 0.049650006 -0.034320105 0.09774051 0.092547655
-0.13725822 0.02283241 0.15981999 0.02561951 0.076408684 -0.074924834 0.06960602 -0.046360604
0.13170722 -0.110740505 -0.14580141 0.15748776 -0.033156533 -0.026429804 0.016183037 -0.05819942
0.123947136 -0.072608784 -0.033967543 0.119483314 -0.14507537 -0.14358306 0.06510263 -0.15412752
-0.022768544 0.07623243 0.15645723 0.077467255 0.003024553 -0.07094286 0.08723824 -0.0062462525
-0.16299628 -0.03932652 0.051901806 -0.05038614 -0.151508 0.14857264 0.1611069 0.04596761
-0.10781381 0.0036968314 0.08522442 0.043054357 0.04422734 -0.050478023 0.05479231 -0.057816435
00000000: 22c0 c43d 5d79 783d 4ecb d03d 9853 50bc
00000010: 173d fabd efb0 903d 8241 183c 2f51 2b3e
00000020: 31c8 063e c42e 363d 6abe 20bd d5e0 15be
00000030: b680 eb3d 05d6 0fbe 0ea9 b4bc 29d0 133d
00000040: 2d9f 10be 2ddc 593d a382 853c be88 c13d
00000050: ee04 debd 7063 acbd 1b27 873d eb43 1dbc
00000060: 0307 11be 307e e63c 362e b2bd f611 a6bd
00000070: eec0 7d3d 9435 233d d89a 50bd 5b29 303e
00000080: 0725 193d 1225 bf3c 0c36 7dbd a4fd 1bbe
00000090: 1a63 00be f1bf 26be 1840 973d 511e ad3c
000000a0: d090 44bd 1f99 59bd 2c90 1cbe f539 16be
000000b0: 703e acbd 3783 1d3e c427 ccbc 9248 0bbe
000000c0: 45dd b9bd 92bf a23d 0a05 74bd e379 dfbb
000000d0: a252 34be c3ea 1b39 fa1a ad3d 1ab2 dd3d
000000e0: ec02 25be 4167 4f3d eef1 103e a604 053d
000000f0: ea5c c2bd c1df 30be 01b7 143e 9f5d 943c
00000100: 080b 92bc e4b9 a5bd b4a4 1cbe b2f7 9b3d
00000110: 1365 cf3d 6661 833d 11e8 bbbd 951e d23c
00000120: 5505 023e 087c 1ebe 06df 37be ac51 963d
00000130: 3780 eebd a503 c7bd 5cd6 eb3d cfa6 0f3b
00000140: b97e c9bd 7f18 f03d 99bb f9bd 2c3a ad3c
00000150: c209 8d3d 7be1 b3bd 91c0 f63d b61e 14bd
00000160: 0abb 663d 3992 b43c 9964 c2bd f2a7 f93d
00000170: 8017 bb3d 4222 60bc 2ff8 f73d 5a51 bfbd
00000180: b342 343e 46af 1f3e 4104 583d 174b dabd
00000190: 837c 98bd b03b 3dbe bd90 0d3e 5066 df3d
000001a0: d854 65bd 3464 fd3d 27b9 72bd eeda 933d
000001b0: 3324 183e 5a41 04be 4046 cc3d f30a eabd
000001c0: f364 f6bd 2a72 fdbd 1e52 fd3d 335b f7bd
000001d0: dc58 70bd 2501 253e 805c cdbd 9ada 683d
000001e0: ba18 ec3d 0aae a0bc 26c0 dcbc 1e35 c0bd
000001f0: 3314 34be ed9d 6a3c 87a2 cebd 93a6 dcbd
00000200: 4825 b0bd 97dd 283e 7d2c 08bc a908 77bd
00000210: 5dd5 9cbd f638 af3d e43f 14be 8c6c 1e3e
00000220: 1cd1 49bc 9a03 13bd fca2 18bd 4256 843d
00000230: 5ca8 ed3d 6648 333e ef94 38be 5230 0dbe
00000240: 6760 193e 5f83 a9bd ada4 7f3c bb28 c1bd
00000250: 855c 6ebb a80d 39bd 1622 a63c 4bac cebc
00000260: e7b7 7cbd 5c16 023e c7c8 1ebe 0f27 273e
00000270: 22c2 febd b1e3 343d 4788 d9bd 56f0 82bc
00000280: 2382 1a3d f0f0 273e 8288 6c3d 0bac a23d
00000290: 261b 1bbe 2d7f 08be b7dc dc3c edec ef3c
000002a0: 7ec2 893d df8e 16bb b149 c13d 9a03 2cbe
000002b0: 0ebd 903d 462d f73d bb00 fabd 6f2f ef3d
000002c0: ecb1 88bd 8963 6b3b fbf2 6abd 7446 253d
000002d0: ce47 af3d eadd 193e 4f7a 723c 944e 133d
000002e0: d029 bc3d cee8 bcbd 6c7c d73d 9cfe fd3c
000002f0: 470f 083d 76d5 f23b d9e0 2fbe b39d af3c
00000300: f666 cc3d 9199 c5bc 474f 643d 5bd8 013d
00000310: 0e6e 6dbd 14f1 a0bd e666 443d 83d6 8c3d
00000320: c37a 0dbe 2301 2fbe 9071 bbbd d90f 593d
00000330: ce5d 4b3d 3d93 0cbd 2d2c c83d a089 bd3d
00000340: 6b8d 0cbe 090b bb3c daa7 233e 02e0 d13c
00000350: 287c 9c3d 3172 99bd 9a8d 8e3d 9ee4 3dbd
00000360: 42de 063e ebcb e2bd f74c 15be 7944 213e
00000370: 25cf 07bd 5183 d8bc 4a92 843c 8462 6ebd
00000380: ffd7 fd3d eab3 94bd 8d21 0bbd abb3 f43d
00000390: a38e 14be 7007 13be 8754 853d 9bd3 1dbe
000003a0: 1985 babc c01f 9c3d 5336 203e 27a7 9e3d
000003b0: 9437 463b 7d4a 91bd f6a9 b23d 5dad ccbb
000003c0: 7fe8 26be d814 21bd fd96 543d b261 4ebd
000003d0: ea24 1bbe 6d23 183e 35f9 243e 8848 3c3d
000003e0: 7dcd dcbd 8a46 723b 248a ae3d c459 303d
000003f0: ba27 353d 0bc2 4ebd e76d 603d edd0 6cbd

te_net.4.bias f4 [64]
0.09383794 -0.059116434 -0.01962302 -0.02248677 -0.13557956 0.1063135 0.15870516 0.13510115
0.17982921 -0.039846465 0.0936001 -0.139753 0.04465618 0.13427372 0.050466638 -0.07089281
-0.0016323414 0.11219403 -0.16119002 -0.0054376535 0.061724145 -0.1306448 -0.040155336 -0.054223865
0.002583441 -0.0030370504 -0.17284594 -0.041081905 -0.07835723 0.04391203 -0.1434189 0.17922181
-0.1557423 0.16717188 -0.07364312 0.07627502 0.010631669 0.10475732 -0.024813836 -0.08025437
-0.03690083 0.06637767 -0.084575936 0.10022007 -0.023989823 -0.08626563 0.1546895 0.10816776
0.11464612 -0.0023354557 -0.06969267 0.038142264 0.017172977 -0.1699183 -0.12018571 -0.14535686
-0.08634642 -0.11033378 0.041252356 0.015785165 -0.013723881 -0.00456286 -0.15125689 0.08138696
00000000: 1b2e c03d 1324 72bd 75c0 a0bc 2d36 b8bc
00000010: 5ed5 0abe e4ba d93d 9b83 223e f557 0a3e
00000020: 2625 383e 0c36 23bd 69b1 bf3d 691b 0fbe
00000030: 66e9 363d 0d7f 093e 1bb6 4e3d 4030 91bd
00000040: 4af4 d5ba fcc5 e53d ff0e 25be 582e b2bb
00000050: 75d2 7c3d c0c7 05be ec79 24bd d819 5ebd
00000060: f34e 293b 4009 47bb 87fe 30be 8045 28bd
00000070: c179 a0bd 1add 333d 67dc 12be ec85 373e
00000080: e97a 1fbe 1b2f 2b3e 34d2 96bd 1436 9c3d
00000090: 7430 2e3c 018b d63d 6346 cbbc 675c a4bd
000000a0: 5325 17bd 04f1 873d 2636 adbd 2e40 cd3d
000000b0: 4e86 c4bc 09ac b0bd ed66 1e3e 0f87 dd3d
000000c0: 96cb ea3d 720e 19bb 08bb 8ebd 103b 1c3d
000000d0: 58ae 8c3c 10ff 2dbe ed23 f6bd 6ed8 14be
000000e0: 64d6 b0bd adf6 e1bd 3bf8 283d e44f 813c
000000f0: 21da 60bc 0b84 95bb 16e3 1abe 35ae a63d

classifier.0.weight f4 [128, 64]
0.0006825268 -0.114073 -0.070672944 -0.10877867 -0.033943806 0.115321696 0.097487725 0.07510372
0.056952458 0.07584269 -0.03049172 -0.04245179 -0.05715518 0.019610072 0.10676514 -0.0068047545
0.059412003 0.024553707 -0.10846231 -0.09534283 -0.11895731 -0.08465968 -0.05969262 -0.022675443
-0.04215472 -0.0006439146 0.08895293 -0.089958675 0.02719903 0.070947975 0.028922604 -0.076868385
0.012696893 0.048215978 0.061283868 -0.11680308 0.043963004 -0.014930645 0.042685237 -0.055748858
-0.07023669 0.054220233 0.06589518 0.10195499 -0.1297502 0.07140574 -0.013633497 0.06801699
-0.098109834 0.020969883 -0.016289037 -0.057536773 0.06982053 0.08544412 0.033167258 0.12189695
-0.0041202786 0.026780695 -0.0040049916 -0.06841364 -0.041776776 0.075907305 0.1271948 0.081095
-0.0817791 -0.08555673 0.118067704 0.10172335 0.016025744 0.06339764 -0.030318573 0.043435577
-0.08113385 0.020398274 -0.096097104 -0.10100164 -0.025269967 -0.0126073 0.1148305 -0.051981125
0.05205649 0.024858657 0.06960021 -0.08454109 0.07594845 0.0017354272 -0.037487675 0.06386821
-0.12700026 0.052379128 -0.037536718 -0.12374457 -0.035477906 -0.10520136 0.0798495 -0.06560793
0.10698954 0.054732528 -0.044219587 0.07405104 -0.11199628 -0.03709233 0.07875424 0.043520216
-0.04809116 0.014509878 -0.00564175 -0.026519157 0.009417485 0.088907756 -0.054015968 0.06403718
-0.12768573 0.042562116 -0.045691557 0.08112115 0.038575593 0.013607457 -0.03465745 -0.098242365
0.0049247034 -0.066245124 0.091644645 0.06840884 0.030601496 -0.08069149 -0.00471949 0.012558872
-0.03394633 -0.07578554 0.07954408 -0.10766162 -0.111596055 0.10804055 -0.0032089045 -0.10238805
0.008263676 -0.13051218 0.019405572 0.015304802 -0.08654898 0.034405764 0.013006339 0.1128095
-0.046440914 -0.11175855 -0.0073098103 0.035976253 -0.013213369 0.09489404 0.016059574 -0.12769158
-0.053175073 -0.11785954 0.09120964 0.10599295 0.07188532 -0.03969133 -0.04093449 0.048631795
-0.030594543 0.11142818 0.08528772 -0.12724158 0.04764694 -0.061893616 -0.07721394 -0.09449265
0.118901536 -0.052599557 0.034517474 0.0648442 0.13371113 0.042931434 -0.05090086 0.03625539
-0.02402248 -0.04123733 0.0057825707 0.042054832 0.10470412 -0.048496023 -0.12997328 -0.041856915
0.08471213 -0.036890425 -0.075514145 0.08587728 -0.091796994 -0.05813951 0.089688025 -0.01858355
-0.030112807 -0.11489776 0.07801241 -0.03669334 0.017440818 -0.11027512 -0.07084199 -0.0017185259
0.04227291 -0.085318334 -0.0119709475 -0.052902482 -0.030627763 0.103956975 0.0024757923 0.06702257
0.08555083 -0.04010538 -0.041005913 0.030188369 0.07547275 0.01974243 0.097954966 -0.012263371
0.10060812 -0.00083668437 -0.09428916 -0.14156958 -0.03225573 -0.010617705 -0.020845423 0.018971195
0.040003777 -0.11548177 -0.091495454 0.00024771233 0.016808446 0.09625804 -0.13564175 -0.07593606
0.06586942 -0.08275925 0.05068832 0.010616898 0.079275094 -0.090349205 -0.109700605 0.011036723
-0.037585206 -0.13627042 0.08276128 -0.00798063 0.04586785 -0.058585614 0.07511407 0.09604758
0.08532645 0.117306635 -7.8396944e-05 0.030126078 0.09976523 0.015450329 0.040605262 -0.015628321
00000000: 99eb 323a 1b9f e9bd fabc 90bd 5ac7 debd
00000010: a908 0bbd c82d ec3d a5a7 c73d fbcf 993d
00000020: fb46 693d 6a53 9b3d c6c9 f9bc eee1 2dbd
00000030: 8d1b 6abd 4da5 a03c afa7 da3d 6bfa debb
00000040: 005a 733d db24 c93c 7d21 debd 1a43 c3bd
00000050: e49f f3bd 0e62 adbd 4080 74bd dac1 b9bc
00000060: 6daa 2cbd 61cc 28ba f42c b63d 413c b8bd
00000070: 80d0 de3c 2c4d 913d 19ef ec3c 2c6d 9dbd
00000080: a106 503c 1e7e 453d cb04 7b3d 7436 efbd
00000090: 8d12 343d aa9f 74bc b7d6 2e3d ea58 64bd
000000a0: 41d8 8fbd 0916 5e3d 0df4 863d c7cd d03d
000000b0: 3ddd 04be 2c3d 923d 085f 5fbc 7e4c 8b3d
000000c0: cfed c8bd 08c9 ab3c 9670 85bc aeab 6bbd
000000d0: 11fe 8e3d 54fd ae3d 64da 073d 1ca5 f93d
000000e0: 6703 87bb 3063 db3c 4e3c 83bb 731c 8cbd
000000f0: 201e 2bbd 4a75 9b3d 5b3f 023e 2315 a63d
00000100: cd7b a7bd 5e38 afbd 7bcd f13d 5554 d03d
00000110: 6c48 833c 9fd6 813d a85e f8bc 81e9 313d
00000120: 8129 a6bd 481a a73c 8fce c4bd f3d9 cebd
00000130: f602 cfbc d98e 4ebc 412c eb3d 29ea 54bd
00000140: 3039 553d 62a4 cb3c 8e8a 8e3d e123 adbd
00000150: dc8a 9b3d 4677 e33a ad8c 19bd 56cd 823d
00000160: 5b0c 02be 7f8b 563d 1ac0 19bd cb6d fdbd
00000170: 4851 11bd d073 d7bd 2288 a33d 735d 86bd
00000180: 551d db3d 372f 603d 991f 35bd 12a8 973d
00000190: 4e5e e5bd 21ee 17bd e749 a13d 4142 323d
000001a0: 3cfb 44bd d7ba 6d3c 6ede b8bb b43e d9bc
000001b0: cc4b 1a3c 4515 b63d d93f 5dbd ed25 833d
000001c0: 0cc0 02be 9d55 2e3d 1227 3bbd d822 a63d
000001d0: 7101 1e3d d0f1 5e3c f8f4 0dbd 4b33 c9bd
000001e0: 685f a13b 86ab 87bd 30b0 bb3d ef19 8c3d
000001f0: fdaf fa3c 9441 a5bd f4a5 9abb bac3 4d3c
00000200: 4f0b 0bbd 7335 9bbd 02e8 a23d b27d dcbd
00000210: 798c e4bd 5d44 dd3d 7c4c 52bb d3b0 d1bd
00000220: 5f64 073c fca4 05be 6ff8 9e3c fec0 7a3c
00000230: 9740 b1bd 0fed 0c3d 8a18 553c ab08 e73d
00000240: d438 3ebd abe1 e4bd 2287 efbb d65b 133d
00000250: e37c 58bc ce57 c23d 5e8f 833c 95c1 02be
00000260: 1bce 59bd 5860 f1bd 1fcc ba3d d512 d93d
00000270: 9c38 933d 6093 22bd ecaa 27bd 2232 473d
00000280: 68a1 fabc 7534 e43d 54ab ae3d 9e4b 02be
00000290: 7029 433d 2984 7dbd 5822 9ebd 5d85 c1bd
000002a0: a682 f33d a272 57bd 3262 0d3d 09cd 843d
000002b0: 92eb 083e dfd8 2f3d 6c7d 50bd 8880 143d
000002c0: cbca c4bc 79e8 28bd b87b bd3b b041 2c3d
000002d0: 1d6f d63d c4a3 46bd b717 05be 2872 2bbd
000002e0: 8e7d ad3d 6a1a 17bd 29a7 9abd 6de0 af3d
000002f0: 1000 bcbd b223 6ebd 5bae b73d 873c 98bc
00000300: 22af f6bc 844f ebbd f8c4 9f3d c14b 16bd
00000310: 0ce0 8e3c ecd7 e1bd 9b15 91bd 2940 e1ba
00000320: 5c26 2d3d 61bb aebd cb21 44bc 46b0 58bd
00000330: 13e7 fabc 65e7 d43d e740 223b 2143 893d
00000340: 4635 af3d 8a45 24bd d1f5 27bd 994d f73c
00000350: 7591 9a3d e0ba a13c 9d9c c83d 4eec 48bc
00000360: a10b ce3d f054 5bba ad1a c1bd 9ef7 10be
00000370: 961e 04bd e2f5 2dbc 05c4 aabc 7b69 9b3c
00000380: 00db 233d b581 ecbd f861 bbbd 63df 8139
00000390: deb1 893c ef22 c53d ace5 0abe 5d84 9bbd
000003a0: 8ce6 863d af7d a9bd 8e9e 4f3d 7ff2 2d3c
000003b0: fb5a a23d 0109 b9bd b6aa e0bd 5fd3 343c
000003c0: f2f2 19bd 798a 0bbe bf7e a93d 30c1 02bc
000003d0: eddf 3b3d 78f7 6fbd 68d5 993d 98b4 c43d
000003e0: a2bf ae3d 763e f03d 0a69 a4b8 f7ca f63c
000003f0: b751 cc3d 6023 7d3c b451 263d f706 80bc

classifier.0.bias f4 [128]
-0.068898395 0.037148558 -0.06639036 0.06685279 -0.07876787 -0.09361961 -0.08240525 -0.065691985
-0.08908904 0.048488744 0.11779315 -0.0810786 0.037565216 0.019950034 0.07027407 0.06867363
0.08225609 0.0694709 -0.00544256 0.119008444 0.06616349 0.09959159 0.10671216 -0.011469807
0.09154761 -0.08185597 0.112232536 0.03860257 0.11177786 0.08858207 0.12192631 0.12825274
0.024904106 -0.052553516 0.02300778 -0.0033290917 0.11066147 -0.120344505 -0.032953266 -0.07609722
-0.099896684 0.10762793 0.09738032 -0.0648601 0.008824847 0.06888873 -0.11040991 -0.016047308
-0.10182098 0.035012685 -0.02298133 -0.11438287 0.104727894 0.056834154 -0.01310284 0.10955241
-0.0024038674 0.08745548 -0.022091193 0.09849856 -0.042032134 0.011463769 0.090968706 0.10116183
-0.050407346 -0.0758873 -0.11960004 -0.016758917 0.0790476 0.11872473 -0.07532639 0.013670426
0.08117221 -0.10798516 0.017380454 0.12357542 -0.12016485 -0.039460763 -0.09802024 -0.12778191
0.0147466 0.024541324 0.016288353 0.065467864 -0.03668193 0.023948418 0.11255198 0.04416908
0.11466778 -0.106564455 0.036961388 0.12453563 -0.099675365 -0.093292154 0.113589495 0.11630494
-0.028542195 0.10336628 -0.025940854 0.0330211 0.100214906 -0.074439 -0.049813304 0.022632135
-0.032094102 0.11695412 0.09531501 0.11361779 0.109597385 -0.010045447 -0.04372556 -0.013298735
0.029070586 -0.10392022 0.09373924 0.019203437 -0.047991704 -0.053134352 -0.009541524 -0.078238316
0.056470446 -0.10434803 0.06867648 0.12304555 -0.10746366 -0.13261001 -0.09510108 -0.04435102
00000000: 9a1a 8dbd 1629 183d abf7 87bd 1eea 883d
00000010: 0d51 a1bd a3bb bfbd 15c4 a8bd 8589 86bd
00000020: 5174 b6bd 229c 463d 893d f13d 890c a6bd
00000030: fcdd 193d 416e a33c daeb 8f3d c3a4 8c3d
00000040: e275 a83d c246 8e3d 8157 b2bb b3ba f33d
00000050: b980 873d adf6 cb3d e88b da3d dbeb 3bbc
00000060: 507d bb3d 1aa4 a7bd 2cda e53d ba1d 1e3d
00000070: caeb e43d 846a b53d 80b4 f93d b054 033e
00000080: b203 cc3c 5b42 57bd d07a bc3c e42c 5abb
00000090: 7ba2 e23d 2e77 f6bd 01fa 06bd dcd8 9bbd
000000a0: a296 ccbd 086c dc3d 556f c73d 5fd5 84bd
000000b0: 1796 103c 8915 8d3d 971e e2bd a575 83bc
000000c0: 8587 d0bd 7669 0f3d 5843 bcbc 9141 eabd
000000d0: 947b d63d eeca 683d 4bad 56bc 045d e03d
000000e0: 348a 1dbb dc1b b33d 97f8 b4bc 9db9 c93d
000000f0: e329 2cbd 88d2 3b3c cd4d ba3d ef2d cf3d
00000100: ef77 4ebd cd6a 9bbd def0 f4bd ff49 89bc
00000110: b5e3 a13d f425 f33d b944 9abd ecf9 5f3c
00000120: 9e3d a63d 5327 ddbd 7461 8e3c 1c15 fd3d
00000130: fd18 f6bd 9ca1 21bd d6be c8bd 43d9 02be
00000140: b99b 713c e30a c93c 276f 853c 0414 863d
00000150: cb3f 16bd 792f c43c a781 e63d a3ea 343d
00000160: f1d6 ea3d 773e dabd d364 173d 890c ff3d
00000170: 9922 ccbd f50f bfbd 9ca1 e83d 4931 ee3d
00000180: 52d1 e9bc b3b1 d33d ea81 d4bc 2241 073d
00000190: 793d cd3d 7973 98bd 0909 4cbd 0767 b93c
000001a0: 1b75 03bd a485 ef3d 8434 c33d 72b0 e83d
000001b0: 9874 e03d a995 24bc 9319 33bd f0e2 59bc
000001c0: 7025 ee3c 20d4 d4bd 5cfa bf3d 8750 9d3c
000001d0: f392 44bd 68a3 59bd 0d54 1cbc 693b a0bd
000001e0: 8e4d 673d 6cb4 d5bd 41a6 8c3d 4eff fb3d
000001f0: e815 dcbd ebca 07be 5bc4 c2bd 6aa9 35bd

classifier.1.weight f4 [128]
0.9981569 0.99198633 0.991324 1.0105731 1.0034766 1.0058959 0.9812671 0.9979158
0.98527426 0.9806386 1.0082152 0.99808276 0.9854777 0.98821825 0.98700094 0.9974148
1.0012965 1.0002782 1.0017525 1.0046202 1.0092947 1.0015022 0.9843712 1.0099975
0.9928747 0.9969402 1.0071644 1.0086 0.9856193 1.0175632 1.0031636 1.0190066
0.9957119 0.98886824 0.9683464 1.0070897 0.99931645 1.0090913 0.9950884 1.0211034
0.9965569 0.99449384 0.9949015 1.0006077 1.0060676 0.9900059 0.9928549 1.0006706
1.026348 0.9955064 0.9904591 0.98962843 0.98520577 0.9973348 1.0047034 1.0001737
1.0007601 0.99379015 1.0006691 0.98771757 1.0175782 0.99210835 0.98308223 1.0017751
0.99085975 1.0135714 1.0059135 0.9966913 0.9839644 0.9965458 1.0242226 0.99367046
0.9981717 0.9981356 1.0022364 1.0052154 0.989477 0.9907132 0.9988864 1.0143292
0.9970544 0.99508303 1.0104976 0.99603534 1.0062969 0.9913305 1.0177647 1.0016124
1.0148284 1.0209323 0.9809378 0.99878216 0.9899906 1.0098672 0.99338377 1.0084106
1.0010666 0.9869153 1.0230113 0.99491256 0.99007875 0.98915756 0.9813716 1.0008873
1.0064805 1.0272832 0.9912674 0.9883289 1.0015731 0.99230826 0.99693286 1.0156354
1.0068084 0.9765399 1.021506 0.9900277 0.97223175 1.0079482 0.9908823 0.9828117
0.9998701 0.9848154 1.0036148 0.9945745 0.99081755 1.015544 1.0104184 1.0061113
00000000: 3687 7f3f d1f2 7d3f 69c7 7d3f 765a 813f
00000010: ec71 803f 32c1 803f 5234 7b3f 6977 7f3f
00000020: ef3a 7c3f 220b 7b3f 320d 813f 5a82 7f3f
00000030: 4448 7c3f dffb 7c3f 18ac 7c3f 9456 7f3f
00000040: 7c2a 803f 1e09 803f 6d39 803f 6597 803f
00000050: 9230 813f 3931 803f c0ff 7b3f 9947 813f
00000060: 092d 7e3f 7937 7f3f c3ea 803f ce19 813f
00000070: 8c51 7c3f 833f 823f aa67 803f cf6e 823f
00000080: fae6 7e3f 7826 7d3f 8de5 773f 51e8 803f
00000090: 34d3 7f3f e729 813f 1dbe 7e3f 84b3 823f
000000a0: 5a1e 7f3f 2697 7e3f ddb1 7e3f ea13 803f
000000b0: d3c6 803f 0771 7d3f bd2b 7e3f f915 803f
000000c0: 5f5f 833f 82d9 7e3f ba8e 7d3f 4a58 7d3f
000000d0: 7236 7c3f 5551 7f3f 1f9a 803f b105 803f
000000e0: e818 803f 0869 7e3f ed15 803f 0fdb 7c3f
000000f0: 0140 823f d0fa 7d3f 47ab 7b3f 2b3a 803f
00000100: fca8 7d3f b5bc 813f c6c1 803f 2927 7f3f
00000110: 17e5 7b3f a01d 7f3f ba19 833f 3061 7e3f
00000120: 2e88 7f3f d185 7f3f 4849 803f e6aa 803f
00000130: 5d4e 7d3f 619f 7d3f 05b7 7f3f 8ad5 813f
00000140: f53e 7f3f c3bd 7e3f fc57 813f 2cfc 7e3f
00000150: 56ce 803f d6c7 7d3f 1d46 823f d634 803f
00000160: e6e5 813f e9ad 823f bd1e 7b3f 30b0 7f3f
00000170: 0670 7d3f 5443 813f 664e 7e3f 9913 813f
00000180: f322 803f 7ba6 7c3f 09f2 823f 97b2 7e3f
00000190: cd75 7d3f 6e39 7d3f 2b3b 7b3f 131d 803f
000001a0: 5ad4 803f 047e 833f b3c3 7d3f 1f03 7d3f
000001b0: 8c33 803f ea07 7e3f fe36 7f3f 5700 823f
000001c0: 19df 803f 85fe 793f b5c0 823f 7572 7d3f
000001d0: 2ee4 783f 7204 813f 76aa 7d3f 8c99 7b3f
000001e0: 7df7 7f3f dd1c 7c3f 7376 803f 6f9c 7e3f
000001f0: 38a6 7d3f 59fd 813f 6455 813f 41c8 803f

classifier.1.bias f4 [128]
-0.007819165 0.0116446335 0.0064161993 0.0090721 0.014620027 0.013806523 -0.007488973 0.0005993088
-1.774537e-05 -0.005291962 0.00032661075 0.009055526 -0.0061403816 0.002033067 -0.0011901644 0.009669041
-0.0017881569 0.009240364 -0.0014531222 0.003711406 0.0053236973 -0.0052873604 -0.008880715 0.013108301
0.006193114 0.012921532 0.011327135 0.002947491 0.0024983836 0.0071757166 -0.009136584 0.011105964
0.0021119253 -0.010191515 -0.025666527 0.00438459 -0.00273894 -0.0003095343 -0.022494158 0.0173896
0.016396217 0.0047695427 -0.00021448678 0.0074111996 -0.0063107223 -0.010183388 -0.012047743 -0.0034116195
0.0029932738 0.0076120356 -0.0051242174 -0.012875491 -0.0011155073 0.007201462 0.0023456467 0.0010941072
-0.002764838 -0.00524451 -0.0064730775 -0.0010637187 0.006474892 -0.00013687478 -0.0024434594 0.012740045
0.015161665 0.01880616 -0.013331759 -0.0038042052 -0.007501845 -0.001158754 -0.004501803 -0.008456845
0.0003701443 0.018201767 0.012856618 0.0024795532 0.004065604 0.00027747455 -0.0032071217 0.014274711
0.006679509 -0.008346986 0.009561926 -0.0052397754 0.0018047646 4.214002e-05 0.019609543 -0.009277133
0.014106846 0.008126488 -0.0024320148 0.011212652 -0.0015115418 0.019724403 0.0015100102 0.000333962
0.011531612 0.0026997637 -0.007829494 0.00037436793 0.006218609 -0.011074683 0.0006133818 0.0015218066
0.008858008 -0.0025179093 -0.008083531 -0.007550121 -0.00326177 -0.0048629404 0.0017598365 0.007182375
0.0004471567 -0.019836597 -0.00055716257 0.008317175 -0.0026743475 -0.0013484041 -0.0073511377 -0.0020994425
0.0029354768 -0.011664372 0.007550697 0.009528336 0.009871639 0.012911605 0.008628472 -0.0015069897
00000000: f41b 00bc 22c9 3e3c fb3e d23b 25a3 143c
00000010: d688 6f3c c134 623c 0f66 f5bb ef1a 1d3a
00000020: e4db 94b7 3268 adbb f43c ab39 a15d 143c
00000030: 4135 c9bb 343d 053b 4aff 9bba e66a 1e3c
00000040: 9760 eaba e564 173c b176 beba 0f3b 733b
00000050: 6972 ae3b 9841 adbb 6b80 11bc 33c4 563c
00000060: 9bef ca3b d5b4 533c 7395 393c b12a 413b
00000070: ecbb 233b 4622 eb3b 9cb1 15bc caf5 353c
00000080: 3a68 0a3b 50fa 26bc 9c42 d2bc 9bac 8f3b
00000090: ca7f 33bb fe48 a2b9 ab45 b8bc a274 8e3c
000000a0: 5c51 863c d349 9c3b dbe7 60b9 a6d9 f23b
000000b0: 2dca cebb 3ad8 26bc e663 45bc 7a95 5fbb
000000c0: cd2a 443b 626e f93b 0de9 a7bb b9f3 52bc
000000d0: 3736 92ba 3efa eb3b 6cb9 193b 2568 8f3a
000000e0: 4932 35bb 23da abbb 1c1c d4bb 7a6c 8bba
000000f0: 552b d43b 0b86 0fb9 7222 20bb 9fbb 503c
00000100: a268 783c 600f 9a3c 736d 5abc f94f 79bb
00000110: 09d2 f5bb 55e1 97ba dc83 93bb 948e 0abc
00000120: ed0f c239 df1b 953c 90a4 523c 0080 223b
00000130: c238 853b 017a 9139 932e 52bb 7ae0 693c
00000140: c8df da3b ccc1 08bc a0a9 1c3c 6cb2 abbb
00000150: da8d ec3a 80bf 3038 31a4 a03c 1eff 17bc
00000160: 6720 673c f624 053c 7062 1fbb 45b5 373c
00000170: ed1e c6ba 1295 a13c 89eb c53a 9f17 af39
00000180: 16ef 3c3c 85ee 303b 4747 00bc d046 c439
00000190: 79c5 cb3b 9672 35bc 5bcb 203a 5b77 c73a
000001a0: 2e21 113c 8203 25bb c970 04bc 0167 f7bb
000001b0: 6bc3 55bb 4d59 9fbb 50aa e63a 215a eb3b
000001c0: 5b70 ea39 5c80 a2bc 8c0e 12ba c344 083c
000001d0: 1b44 2fbb efbc b0ba d0e1 f0bb cd96 09bb
000001e0: 2161 403b ec1b 3fbc d66b f73b bd1c 1c3c
000001f0: a8bc 213c 328b 533c 6f5e 0d3c 2f86 c5ba

classifier.1.running_mean f4 [128]
0.0116635095 0.0016956773 -0.09863052 -0.011682185 -0.030861983 -0.25026274 -0.0077029523 0.0016908011
-0.1372815 0.061584074 0.06888642 -0.046263844 0.07097398 0.017045872 0.101727635 0.1653511
0.003286009 0.11886473 -0.14204851 -0.020134281 -0.022785002 0.06769025 0.12339144 0.018343642
0.22487879 -0.12304286 0.040821575 0.09751736 0.16246983 0.061647233 0.08107702 0.23425816
0.1018419 -0.03940852 -0.03339082 -0.039781585 0.13981088 -0.14950444 -0.09889881 -0.22827157
-0.04845489 0.15069564 0.12010015 0.085438065 -0.1725613 -0.013885111 -0.13623458 -0.037390623
-0.13205495 0.14358915 0.11561332 -0.10093102 0.04734898 0.06287982 0.0416472 -0.019236984
-0.043034706 0.21273534 0.03488728 0.23662627 -0.14294508 -0.034818176 0.23461702 0.06892233
0.02225484 -0.10574675 -0.2640867 0.009805192 0.10446887 0.054606132 -0.09898083 0.04161832
0.050420184 0.007812459 -0.037112497 0.0041445307 0.0005291061 -0.0833753 -0.15377219 -0.13007818
0.06717028 0.05420833 0.095443726 0.0357207 -0.11616735 0.090129696 0.1596677 0.057039976
0.037035454 -0.123607054 0.074051514 0.17107771 -0.15679069 -0.06853222 0.22187571 0.13677913
-0.049734186 0.06530469 -0.0070563904 -0.15080827 0.13130344 -0.16032301 -0.06183396 -0.097308636
-0.09229899 0.10690735 0.030917495 0.026962219 0.21208684 -0.12673311 -0.037179008 0.035595704
-0.065247476 -0.07086078 0.013203029 0.057110693 -0.06643762 0.0277568 0.10705059 0.01633696
0.066557266 -0.19181114 0.18915543 0.0473645 -0.26143214 -0.15250002 -0.022841189 -0.075114444
00000000: 4e18 3f3c 7d41 de3a ccfe c9bd a366 3fbc
00000010: 45d2 fcbc 7022 80be 0c69 fcbb df9d dd3a
00000020: 8693 0cbe 953f 7c3d 5314 8d3d 287f 3dbd
00000030: ce5a 913d c9a3 8b3c 9456 d03d cc51 293e
00000040: 155a 573b 5a6f f33d 2a75 11be a6f0 a4bc
00000050: 9da7 babc 30a1 8a3d a7b4 fc3d 6845 963c
00000060: a046 663e e5fd fbbd 8634 273d 2eb7 c73d
00000070: 7e5e 263e cf81 7c3d b50b a63d 5fe1 6f3e
00000080: 7c92 d03d d46a 21bd d0c4 08bd 04f2 22bd
00000090: 952a 0f3e b117 19be 768b cabd 06c0 69be
000000a0: a278 46bd f54f 1a3e 11f7 f53d 27fa ae3d
000000b0: e9b3 30be 607e 63bc 1481 0bbe e926 19bd
000000c0: 6a39 07be 0909 133e adc6 ec3d ecb4 cebd
000000d0: 01f1 413d 23c7 803d 4196 2a3d e196 9dbc
000000e0: 2945 30bd 4bd7 593e f7e5 0e3d 284e 723e
000000f0: 3260 12be 819d 0ebd 723f 703e 2727 8d3d
00000100: c84f b63c c191 d8bd 5f36 87be f5a5 203c
00000110: c6f3 d53d aeaa 5f3d 76b6 cabd f977 2a3d
00000120: 6585 4e3d a8ff ff3b 4603 18bd d8ce 873b
00000130: b6b3 0a3a abc0 aabd 7576 1dbe 3733 05be
00000140: 9290 893d 8e09 5e3d 0078 c33d de4f 123d
00000150: 26e9 edbd eb95 b83d ee7f 233e c0a2 693d
00000160: 7db2 173d b225 fdbd 52a8 973d ff2e 2f3e
00000170: bd8d 20be 9f5a 8cbd 6333 633e d40f 0c3e
00000180: 13b6 4bbd 77be 853d 4b39 e7bb 7c6d 1abe
00000190: 6974 063e b72b 24be 9b45 7dbd c049 c7bd
000001a0: 4107 bdbd 3ef2 da3d b046 fd3c dfdf dc3c
000001b0: 4b2d 593e 53c6 01be 0449 18bd cdcc 113d
000001c0: 78a0 85bd 751f 91bd 8451 583c e7ec 693d
000001d0: 7210 88bd 3b62 e33c 573d db3d 17d5 853c
000001e0: 2d4f 883d 246a 44be f6b1 413e 4701 423d
000001f0: 6fda 85be f728 1cbe 721d bbbc 9ad5 99bd

classifier.1.running_var f4 [128]
0.00033140267 0.0014273045 0.00060223066 0.00068956596 0.00042920237 0.0029220972 0.0005405628 0.0012580496
0.001662278 0.0002902296 0.0006007134 0.00094391557 0.00075224636 0.0009984118 0.0010330697 0.0006658634
0.0012723382 0.0016311781 0.000979741 0.0035333913 0.0010769229 0.0021527456 0.0019739044 0.0002874697
0.0008904455 0.004888933 0.00032080652 0.00065521384 0.00085837883 0.00026841907 0.00027963886 9.572032e-05
0.0023722828 0.0031848578 0.0006576687 0.0013701941 0.0022262773 0.00064914353 0.0005354027 0.0014295968
0.00032090832 0.0015332267 0.0011525595 0.001660144 0.00065711094 0.0012525852 0.00047916992 0.0009101608
0.00023786072 0.0055122124 0.0018659162 0.005321022 0.00074816175 0.00076475396 0.00022389239 0.0017979665
0.00053811364 0.0012218204 0.00022257009 0.0016826605 0.0021919527 0.0026252123 0.0016030228 0.0018560137
0.0005599915 0.004039913 0.0005026854 0.0009683911 0.00090113946 0.0016592045 0.00018326318 0.0014301427
0.0012249387 0.0012784505 0.0035394377 0.0012122708 0.00060570386 0.000989422 0.0032139074 0.00012463663
0.0022009052 0.0005825464 0.0014785443 0.0012826808 0.00036537493 0.0015965439 0.00011183026 8.789582e-05
0.0023420316 0.001307861 0.0015342964 0.0062153544 0.0025847866 0.0008410346 0.00058095646 0.00019208157
0.00054538104 0.00042351842 0.0006761741 0.007862885 0.00021330426 0.00046931423 0.0005099014 0.007966709
0.0012403552 0.00055249414 0.00071917713 0.00331281 0.0005116302 0.0011610399 0.0007333384 0.0007869089
0.0021440834 0.00087527797 0.000497153 0.0010269717 0.0008585683 0.0009959586 0.0018947504 0.0036702722
0.0017785287 0.0007782419 0.009291541 0.0015111029 0.0008072561 0.00024874436 0.0018656139 0.0042736097
00000000: 1dc0 ad39 6414 bb3a 04df 1d3a fdc3 343a
00000010: 9106 e139 a880 3f3b 8eb4 0d3a 24e5 a43a
00000020: cbe0 d93a f529 9839 3279 1d3a 1a71 773a
00000030: 6632 453a 24dd 823a 1168 873a 568d 2e3a
00000040: 96c4 a63a 41cd d53a a76a 803a 7890 673b
00000050: 8927 8d3a 1415 0d3b 9f5c 013b 88b7 9639
00000060: c96c 693a 5833 a03b ec31 a839 a8c2 2b3a
00000070: d404 613a 99ba 8c39 7e9c 9239 75bd c838
00000080: 4d78 1b3b 0cb9 503b 6667 2c3a 1698 b33a
00000090: bce6 113b 492b 2a3a 445a 0c3a 4f61 bb3a
000000a0: 963f a839 8df6 c83a 7b11 973a 3099 d93a
000000b0: f841 2c3a c92d a43a 1939 fb39 db97 6e3a
000000c0: 406a 7939 ca9f b43b c291 f43a f85b ae3b
000000d0: 4920 443a c579 483a a8c4 6a39 bfa9 eb3a
000000e0: 3210 0d3a 7d25 a03a b461 6939 b88c dc3a
000000f0: dda6 0f3b c10b 2c3b 851c d23a 7c45 f33a
00000100: 65cc 123a 3f61 843b a5c6 033a a0db 7d3a
00000110: 723a 6c3a aa79 d93a 562a 4039 a073 bb3a
00000120: 1f8e a03a ae91 a73a e9f5 673b 0fe5 9e3a
00000130: 19c8 1e3a 7eaf 813a 6ba0 523b e4b0 0239
00000140: 103d 103b 07b6 183a b7cb c13a a01f a83a
00000150: cb8f bf39 2043 d13a 6a86 ea38 b654 b838
00000160: c57c 193b 886c ab3a 721a c93a 2caa cb3b
00000170: 8665 293b e078 5c3a 544b 183a 8169 4939
00000180: e7f7 0e3a ae0b de39 4741 313a 54d3 003c
00000190: 6daa 5f39 4a0e f639 e7aa 053a cd86 023c
000001a0: 6a93 a23a 41d5 103a 2987 3c3a bb1b 593b
000001b0: ec1e 063a 092e 983a 823d 403a 9048 4e3a
000001c0: c083 0c3b e972 653a 6053 023a 749b 863a
000001d0: 8b11 613a d38a 823a 4659 f83a f388 703b
000001e0: 851d e93a ee02 4c3a 8c3b 183c 3310 c63a
000001f0: 0a9e 533a e769 8239 9d87 f43a a309 8c3b

classifier.3.weight f4 [128, 128]
0.02020072 0.04771844 0.06635073 0.0074894 -0.056679923 0.026376927 -0.018350035 0.0029929925
-0.05228658 -0.019542288 0.07412941 -0.055297412 0.0877488 0.0031522992 -0.054533135 -0.074319236
0.004175816 0.0080545405 0.05839604 0.0067669656 -0.049677577 0.03391612 -0.021059085 -0.040733628
0.06553947 0.06059399 0.011545678 0.05303686 -0.024873327 0.0063957395 -0.028789258 -0.0073663937
0.08122958 -0.0032887121 -0.06323712 -0.019539382 0.027966967 -0.012687511 -0.026533255 0.0721446
0.014270675 -0.059391376 -0.032217264 -0.027023913 -0.04879333 0.06439456 -0.046068408 0.0113168685
-0.09380494 0.053738877 -0.016115524 -0.016919855 0.024333926 0.060520254 -0.07079537 -0.057275083
0.070539474 0.012203711 0.046253536 -0.07078498 0.0023859644 -0.08603819 -0.06259949 0.032404877
0.027855497 -0.0850104 0.090967454 -0.05581254 -0.055264324 0.04569336 0.077817366 0.017716208
0.06067143 0.009387832 -0.08942627 -0.030261597 0.10461989 0.019861626 0.0640565 -0.084142976
-0.009193761 0.07604 0.045795348 -0.04489471 -0.04680179 0.009634481 0.06409622 0.028001416
0.076374635 0.03687652 -0.02794293 0.034870513 0.03917256 0.00064984197 0.05012322 -0.011775114
0.0666526 0.03839555 0.059601914 -0.017660672 -0.012997657 -0.02179138 -0.022519328 -0.06253277
-0.0010559589 -0.023501432 -0.018686948 0.0130129745 -0.063806325 0.04019101 0.06558481 -0.057456125
0.033866327 1.992769e-05 0.041089743 -0.042624675 -0.04497239 0.043399546 -0.055121876 0.033161897
0.047554795 -0.06519238 0.07316874 0.0052400413 -0.09273407 0.019310882 0.072068416 0.027022017
-0.040571705 -0.08580491 0.06373729 -0.03330764 0.053893685 0.018273253 0.01234963 0.058816962
-0.031924844 -0.029372025 0.058107104 -0.05196735 -0.06222308 0.009102624 0.063222624 0.04604865
-0.036908373 0.003405831 0.012371155 -0.042910416 -0.039475746 -0.045049887 0.03216013 0.07496387
-0.024424857 -0.08860738 -0.009486936 0.086132765 -0.03882114 0.05306741 0.082092404 -0.08365998
-0.012254589 -0.028028801 -0.09049303 0.0050548213 0.03439642 0.013843002 -0.05590163 -0.056957178
-0.08138907 -0.016747829 0.062927306 -0.05250332 0.06072848 0.029967887 0.05422149 0.038224857
0.08517065 0.034479115 -0.06947954 -0.06367163 0.011560137 0.004414739 0.079799704 -0.0670551
0.030199375 0.008460131 0.030044815 0.019191626 -0.059961904 -0.056012295 -0.031361017 -0.05235941
0.004477664 -0.047256533 -0.0044092494 0.021702345 -0.0588009 -0.042551573 -0.004252236 -0.07310156
0.013237536 -0.00092615763 0.04059111 0.055170704 -0.07007738 0.022496384 0.05481836 0.04263708
0.08777728 0.040082775 -0.066360645 0.044225078 0.074053794 0.05865155 -0.019900057 -0.09705937
-0.038101748 0.023228617 -0.010941618 0.034440905 0.056708418 0.016265636 0.017122472 -0.0154137695
-0.011791202 0.017369676 0.080470316 -0.059416097 0.02690991 -0.03219808 -0.034760986 0.052405227
0.008195258 -0.024754686 0.006706854 -0.04044306 0.06718499 0.08236621 0.06316447 -0.062544465
-0.005191037 -0.031071698 -0.046991076 -0.04813733 0.054884706 0.059674423 -0.024393758 0.062176645
-0.026390987 0.04682422 0.032903746 -0.0024469746 0.065554455 0.093596414 -0.082642056 0.02004474
00000000: fb7b a53c 6974 433d e4e2 873d a469 f53b
00000010: 3529 68bd 6d14 d83c d052 96bc 1526 443b
00000020: 742a 56bd 2617 a0bc 29d1 973d 8a7f 62bd
00000030: a5b5 b33d ce96 4e3b 235e 5fbd af34 98bd
00000040: 49d5 883b 31f7 033c b030 6f3d 6cbd dd3b
00000050: b77a 4bbd a1eb 0a3d 1a84 acbc 4ed8 26bd
00000060: 8f39 863d 6731 783d 152a 3d3c 2e3d 593d
00000070: 26c3 cbbc 5a93 d13b 73d7 ebbc ca61 f1bb
00000080: b25b a63d 6f87 57bb 7782 81bd 0e11 a0bc
00000090: fb1a e53c 47df 4fbc 455c d9bc 8cc0 933d
000000a0: 8dcf 693c 5f44 73bd 40f6 03bd 4161 ddbc
000000b0: 84db 47bd 4ce1 833d 3ab2 3cbd 636a 393c
000000c0: ce1c c0bd 4c1d 5c3d b404 84bc 829b 8abc
000000d0: f157 c73c 16e4 773d 2afd 90bd 4799 6abd
000000e0: 0077 903d 13f2 473c 5974 3d3d b7f7 90bd
000000f0: d75d 1c3b ca34 b0bd 2934 80bd faba 043d
00000100: 3631 e43c ef19 aebd 254d ba3d b19b 64bd
00000110: d85c 62bd f628 3b3d b65e 9f3d 9521 913c
00000120: 9b82 783d 6ccf 193c 1f25 b7bd 2be7 f7bc
00000130: f442 d63d d9b4 a23c 0e30 833d 2753 acbd
00000140: 6ea1 16bc dcba 9b3d e793 3b3d 84e3 37bd
00000150: 3cb3 3fbd f1d9 1d3c e144 833d 3a63 e53c
00000160: 4e6a 9c3d d50b 173d 92e8 e4bc 62d4 0e3d
00000170: 6873 203d 285a 2a3a 014e 4d3d 68ec 40bc
00000180: 2981 883d a744 1d3d 2321 743d 1dad 90bc
00000190: 20f4 54bc d683 b2bc 747a b8bc 2e11 80bd
000001a0: 1a68 8aba 1386 c0bc 5f15 99bc 5f34 553c
000001b0: e4ac 82bd 549f 243d 5451 863d 1d57 6bbd
000001c0: 6bb7 0a3d 632a a737 b84d 283d 3697 2ebd
000001d0: f834 38bd b9c3 313d 7ac7 61bd c5d4 073d
000001e0: d1c8 423d 9583 85bd 7ed9 953d a7b4 ab3b
000001f0: 5ceb bdbd db31 9e3c 9b98 933d 475d dd3c
00000200: 842e 26bd 7cba afbd b288 823d 986d 08bd
00000210: a0bf 5c3d cab1 953c 1a56 4a3c 0eea 703d
00000220: a0c3 02bd 9a9d f0bc b701 6e3d b7db 54bd
00000230: a1dd 7ebd 2c23 153c dd7a 813d 829d 3c3d
00000240: 3c2d 17bd 5d34 5f3b 63b0 4a3c d5c2 2fbd
00000250: 52b1 21bd 3b86 38bd 57ba 033d a886 993d
00000260: a316 c8bc c977 b5bd 186f 1bbc 6066 b03d
00000270: ea02 1fbd 365d 593d 1020 a83d ec55 abbd
00000280: 79c7 48bc a89c e5bc 6954 b9bd eaa2 a53b
00000290: 43e3 0c3d c2cd 623c 1cf9 64bd ee4b 69bd
000002a0: 50af a6bd be32 89bc 08e0 803d b90d 57bd
000002b0: 6dbe 783d 377f f53c 5a17 5e3d ab91 1c3d
000002c0: f36d ae3d f939 0d3d 4a4b 8ebd 4666 82bd
000002d0: bb66 3d3c 84a9 903b 076e a33d 2f54 89bd
000002e0: ae64 f73c 5c9c 0a3c 8b20 f63c c237 9d3c
000002f0: 9d9a 75bd 266d 65bd 6974 00bd d276 56bd
00000300: 5eb9 923b 1190 41bd 777b 90bb 1ec9 b13c
00000310: 36d9 70bd 8f4a 2ebd 5756 8bbb 45b6 95bd
00000320: 40e2 583c 63c9 72ba dd42 263d adfa 613d
00000330: bb84 8fbd 564a b83c 3789 603d 38a4 2e3d
00000340: 93c4 b33d d62d 243d 17e8 87bd 5b25 353d
00000350: 84a9 973d 9c3c 703d 7205 a3bc 10c7 c6bd
00000360: 9410 1cbd f149 be3c 7944 33bc e811 0d3d
00000370: 1647 683d 833f 853c 6d44 8c3c 098a 7cbc
00000380: e32f 41bc da4a 8e3c 9fcd a43d 4b5e 73bd
00000390: 2c72 dc3c 22e2 03bd 8961 0ebd dda6 563d
000003a0: 6745 063c 57ca cabc 2bc5 db3b 9fa7 25bd
000003b0: 4998 893d 9eaf a83d 605c 813d 5017 80bd
000003c0: 9319 aabb 138a febc b779 40bd a62b 45bd
000003d0: c9ce 603d 2b6d 743d 6bd5 c7bc f0ac 7e3d
000003e0: e931 d8bc c1ca 3f3d 14c6 063d 6c5d 20bb
000003f0: 6a41 863d 7aaf bf3d 3d40 a9bd de34 a43c

classifier.3.bias f4 [128]
0.0028345662 0.0072541125 -0.072631486 -0.032953914 0.07167543 -0.007968387 -0.06914354 -0.07527637
0.06955851 -0.0065794103 0.02622063 -0.031039936 -0.017880274 0.08232677 -0.0021709888 0.0017460133
-0.045017093 -0.06220124 -0.084216885 -0.04359258 0.02090665 -0.02535413 -0.04890325 0.022743702
0.044958804 0.05189465 0.01644312 -0.06286985 -0.011421351 0.040427905 -0.05784562 -0.013695524
0.04086664 0.03338211 0.07063915 -0.058909263 -0.023038676 0.08540081 -0.076901026 0.058298342
-0.0262566 0.025009466 0.06592971 0.062270112 0.049536306 0.03550494 0.026198579 -0.030346528
0.06842275 -0.0323535 -0.06444253 -0.054712247 -0.03869603 -0.05778455 -0.036810208 -0.06669555
0.0034503595 -0.040294703 0.07111556 0.028985932 0.0037548726 0.054438896 0.07444654 0.04940199
0.05551453 -0.0059359376 -0.019493282 0.056426708 -0.0076234187 0.026363954 -0.045250718 -0.06629511
0.061703727 -0.081794545 0.045471366 -0.0041191448 0.04750049 0.041996554 0.03310489 0.0238186
0.08438525 -0.061350096 -0.018664608 0.054964922 -0.01838771 0.031434476 0.06814173 0.07924265
-0.046463124 -0.0860085 0.04994899 -0.045530517 -0.016010923 -0.027165633 0.039943166 -0.06683223
-0.06502544 0.037683412 -0.029808737 -0.0046647624 0.030934831 -0.04868487 0.055199202 0.034468543
0.004051158 0.0648237 0.055483267 -0.05344309 -0.07826188 0.013223442 0.04029003 -0.06831989
-0.052413423 0.030909926 -0.0011618906 -0.03809494 -0.012840983 0.08699649 0.05376509 -0.060861018
0.060471326 -0.018575495 -0.0012775193 -0.06267158 0.055713423 0.08399199 -0.030839715 -0.02631854
00000000: 21c4 393b e8b3 ed3b d1bf 94bd affa 06bd
00000010: 91ca 923d d68d 02bc 219b 8dbd 7f2a 9abd
00000020: b174 8e3d 1898 d7bb a6cc d63c 7747 febc
00000030: a779 92bc f09a a83d 2647 0ebb 7cda e43a
00000040: d863 38bd bac6 7ebd e779 acbd 228e 32bd
00000050: 6c44 ab3c 77b3 cfbc c64e 48bd 0051 ba3c
00000060: b926 383d 7c8f 543d b9b3 863c e8c1 80bd
00000070: 9e20 3bbc bb97 253d 87ef 6cbd 3163 60bc
00000080: c763 273d aebb 083d 42ab 903d d74a 71bd
00000090: 9bbb bcbc 9fe6 ae3d 497e 9dbd 3eca 6e3d
000000a0: 1518 d7bc a7e0 cc3c 2806 873d f20e 7f3d
000000b0: 95e6 4a3d a16d 113d 679e d63c 4899 f8bc
000000c0: 3a21 8c3d 1b85 04bd 72fa 83bd f319 60bd
000000d0: ba7f 1ebd 7eaf 6cbd 4dc6 16bd ad97 88bd
000000e0: 6d1f 623b 0f0c 25bd 09a5 913d e873 ed3c
000000f0: 4f14 763b 52fb 5e3d 6d77 983d be59 4a3d
00000100: 3463 633d 4182 c2bb 60b0 9fbc b11f 673d
00000110: dfcd f9bb 38f9 d73c d158 39bd bbc5 87bd
00000120: 0cbd 7c3d e683 a7bd 2f40 3a3d e4f9 86bb
00000130: e08f 423d 9404 2c3d fe98 073d 3a1f c33c
00000140: 2dd2 ac3d 3d4a 7bbd 85e6 98bc e622 613d
00000150: d3a1 96bc 70c1 003d e48d 8b3d f849 a23d
00000160: 1e50 3ebd 3925 b0bd 5097 4c3d 357e 3abd
00000170: 5729 83bc 768a debc 729b 233d 56df 88bd
00000180: 0f2c 85bd ec59 1a3d 7431 f4bc ddda 98bb
00000190: 0b6b fd3c c969 47bd 8f18 623d e32e 0d3d
000001a0: 94bf 843b 4ac2 843d 6c42 633d 24e7 5abd
000001b0: c447 a0bd 23a7 583c 2907 253d 4ceb 8bbd
000001c0: 75af 56bd d036 fd3c 944a 98ba 7109 1cbd
000001d0: fd62 52bc 372b b23d c838 5c3d 6749 79bd
000001e0: c8b0 773d a32b 98bc 6f72 a7ba f559 80bd
000001f0: c233 643d fe03 ac3d 92a3 fcbc fb99 d7bc
