Results/regression/5-shot/3_modes/hard/it3/reptile/multi_model_0.pt (torch, 10759 bytes, 9 tensors)

net.0.weight f4 [40, 1]
-0.7696372 0.5858274 0.7060813 -0.7974777 0.5092727 0.4124504 0.9389272 -0.3081887
-0.66495234 0.3787087 -0.84822834 0.47178042 0.5867671 -0.71390444 -0.49614155 0.36032957
0.12960441 -0.13513823 -0.65396583 -0.6071329 -0.7418569 -0.059845485 -0.4202339 -0.62624985
-0.7049764 -0.46720958 0.06689426 -0.41650814 0.8695298 -0.3535248 -0.29573438 -0.9915458
0.6698873 0.83393854 0.52892816 -0.6377849 0.90510917 0.23669648 0.19608283 0.608044
00000000: f206 45bf c9f8 153f bec1 343f 8027 4cbf
00000010: b25f 023f b32c d33e 885d 703f e9ca 9dbe
00000020: 513a 2abf 1be6 c13e 7e25 59bf 348d f13e
00000030: 5e36 163f 71c2 36bf 4406 febe 1e7d b83e
00000040: 05b7 043e ad61 0abe 4e6a 27bf 106d 1bbf
00000050: 55ea 3dbf 8a20 75bd e628 d7be e951 20bf
00000060: 5579 34bf 1836 efbe dcff 883d 8e40 d5be
00000070: 8199 5e3f 3401 b5be 7f6a 97be f2d5 7dbf
00000080: bc7d 2b3f ff7c 553f d667 073f df45 23bf
00000090: 3cb5 673f 9060 723e f0c9 483e c6a8 1b3f

net.0.bias f4 [40]
-0.18056583 0.50420165 -0.693221 0.020745635 0.7008196 -0.9674064 -0.72683 0.5349624
0.40693378 0.8755739 0.14517426 -0.6946068 0.9841958 0.13538349 -0.028453708 0.25090802
0.73470485 -0.91422176 -0.9941881 -0.12620771 -0.57394385 0.34221125 0.58979106 -0.7050327
-0.8623873 -0.10333145 -0.6932485 -0.7264756 -0.25793803 0.17880201 -0.8787432 0.11664295
0.4417572 0.9825543 -0.31087828 -0.43212152 -0.001546979 -0.72652674 -0.18821883 0.26929975
00000000: 40e6 38be 5c13 013f ee76 31bf c0f2 a93c
00000010: ea68 333f f2a7 77bf 8811 3abf 4cf3 083f
00000020: a059 d03e 9c25 603f 90a8 143e c0d1 31bf
00000030: 42f4 7b3f f8a1 0a3e c017 e9bc 0477 803e
00000040: 9e15 3c3f 700a 6abf 1c83 7ebf 983c 01be
00000050: fced 12bf 5036 af3e 8cfc 163f 067d 34bf
00000060: 6ac5 5cbf 709f d3bd bc78 31bf 4efa 39bf
00000070: 7410 84be e017 373e 50f5 60bf 80e2 ee3d
00000080: 002e e23e ae88 7b3f 702b 9fbe 083f ddbe
00000090: 00c4 caba a8fd 39bf 70bc 40be a8e1 893e

net.1.weight f4 [40]
0.9577059 1.0042717 0.9872518 0.8855248 1.0256021 0.9401374 0.93590206 0.98016447
0.96906996 1.0102777 1.0000058 0.92297053 0.996973 0.97334325 0.8929406 1.0633969
0.9378022 0.9680156 0.94359523 1.026025 0.91602415 0.95358425 0.91047555 0.9123697
0.91197443 1.019216 0.97575086 0.96172476 0.9424188 0.96390176 0.9608143 0.9598812
0.9294095 0.9322479 0.91481495 1.0060699 1.0135233 0.9970858 0.98286164 0.936032
00000000: 372c 753f fa8b 803f 89bc 7c3f c1b1 623f
00000010: ee46 833f d8ac 703f 4797 6f3f 0fec 7a3f
00000020: f814 783f c850 813f 3100 803f cc47 6c3f
00000030: 9f39 7f3f 062d 793f c197 643f 641d 883f
00000040: ce13 703f dfcf 773f 758f 713f ca54 833f
00000050: 8f80 6a3f 191e 743f ed14 693f 1091 693f
00000060: 2877 693f ab75 823f cfca 793f 9833 763f
00000070: 5c42 713f 44c2 763f edf7 753f c6ba 753f
00000080: c8ed 6d3f cca7 6e3f 5031 6a3f e6c6 803f
00000090: 22bb 813f 0441 7f3f d29c 7b3f cb9f 6f3f

net.1.bias f4 [40]
0.21247323 -0.03105027 0.044784267 0.45773554 -0.13861726 0.3091861 0.14791195 -0.17617568
0.3736805 -0.017146967 -0.03240826 0.45387396 -0.05567755 -0.026670791 0.39610833 -0.4306835
0.40821534 -0.0051406515 -0.21496932 -0.17233537 0.42989108 0.019697385 0.21069498 0.17676337
0.4307825 -0.4283676 0.21322232 -0.037324324 0.3613003 0.012435658 0.188018 0.07375132
0.12949316 0.30479378 0.37318173 -0.12068636 -0.118735634 -0.002837555 -0.00039284697 0.19505486
00000000: 9592 593e 235d febc b56f 373d 505c ea3e
00000010: aff1 0dbe a44d 9e3e 3b76 173e 6667 34be
00000020: 0d53 bf3e cc77 8cbc 86be 04bd 2b62 e83e
00000030: 250e 64bd b47c dabc b6ce ca3e 8c82 dcbe
00000040: 9a01 d13e e972 a8bb eb20 5cbe af78 30be
00000050: af1a dc3e 695c a13c 6dc0 573e 7501 353e
00000060: 868f dc3e 0053 dbbe f456 5a3e 64e1 18bd
00000070: 5afc b83e eebe 4b3c ca87 403e ef0a 973d
00000080: db99 043e ee0d 9c3e ad11 bf3e 692a f7bd
00000090: ab2b f3bd 46f6 39bb 07f7 cdb9 76bc 473e

net.3.weight f4 [40, 40]
-0.18732804 -0.11418954 -0.18955332 0.101021774 -0.09637821 -0.076979 -0.1729654 -0.16195291
-0.24483244 -0.10744373 -0.18861523 -0.15440087 -0.024114648 -0.15504652 0.044061087 -0.082887195
-0.007824497 0.10266708 -0.135448 0.07020613 -0.0646488 0.023517156 0.044527005 -0.12203564
-0.18087333 -0.10730875 0.113634184 -0.19256228 -0.028158395 0.08459523 -0.18340792 0.11716545
0.002866522 0.088664964 -0.08789397 0.08730449 -0.04050055 -0.06344535 -0.13350493 0.105496496
0.0385096 -0.067596234 0.012422987 -0.1342507 0.082709625 0.1385742 -0.032910872 -0.12673466
0.04266272 -0.070774324 0.07168711 0.15245758 -0.17357662 -0.16055238 0.023620851 0.070317164
0.11809137 -0.055436462 0.093788475 -0.071899615 0.074123934 0.005784783 -0.08936505 -0.050359864
-0.088908285 0.23407464 -0.05875313 -0.13741875 -0.088777155 -0.06918917 -0.13984178 0.08840121
0.054742515 -0.036327343 -0.049178682 0.01573375 0.038016714 -0.107662 -0.17150265 -0.10296484
0.070828386 0.026745167 0.13660893 0.06387895 -0.08701604 0.1249036 0.046522934 0.13626106
0.0010212546 -0.07395369 0.049459316 0.12442211 0.042350065 0.11790694 -0.044011816 0.026859052
-0.110129684 -0.14702775 0.01088856 -0.0678619 0.030167107 -0.017226577 0.13564603 0.1162915
0.095666096 0.0952891 0.026740443 0.093508646 0.05679107 0.034592085 -0.10358405 0.0075161867
-0.027349174 0.043065865 -0.02337593 0.0859489 0.03219138 0.0038821464 0.04437355 -0.012289452
-0.0064995536 -0.066105336 0.12566146 0.026339004 -0.056392115 0.0013382386 -0.121904604 -0.10042788
-0.115100116 0.10968115 -0.14562389 0.07371591 0.14303471 -0.10778288 0.08279906 -0.13680638
-0.073139876 0.0647298 0.10599733 -0.050421875 -0.11419069 -0.031272005 -0.12772322 0.05396862
-0.13376921 -0.07836889 0.00056321756 0.048393764 0.13890666 0.03900741 -0.13647008 -0.03011679
0.14396775 -0.016863467 0.010238368 -0.080729306 0.016337484 0.008587791 -0.050642777 -0.095594816
0.105935544 -0.15211022 -0.15379207 0.13383089 -0.06565125 -0.10749145 0.060226485 0.09993093
0.084301725 -0.15712413 -0.0787989 0.011924194 -0.15896979 -0.10100233 -0.100881726 -0.0397934
-0.13746972 0.04830669 -0.03520376 0.08518989 -0.11542614 -0.053427786 0.11347186 0.10856294
0.091443054 0.121734425 0.09160646 0.09757352 0.12565917 0.025515163 0.0041553527 0.09684932
-0.085571535 0.0561502 0.047550723 0.0020511658 0.11518775 0.06265119 -0.047024507 -0.14522363
-0.102736 0.14493763 0.076303005 0.044944093 -0.14109245 -0.14669558 -0.08649416 -0.13107216
0.025909502 0.10298613 0.055011395 -0.17819746 -0.027801922 -0.12267717 -0.11081453 0.17373258
-0.21180388 -0.04432796 0.012362096 -0.19423136 -0.07197302 0.012648605 -0.04273249 -0.09550942
0.06896332 -0.024901938 -0.16446576 -0.21013483 -0.069237165 0.024777614 -0.19494194 -0.13852574
-0.024349201 -0.08445863 -0.16794482 -0.14688481 0.008749568 0.015328236 0.12285301 0.09904853
0.16172715 -0.08316724 0.07472563 -0.08669573 -0.023025572 -0.024844471 -0.007474958 -0.09020028
0.112067685 0.03972818 0.0727665 -0.07551449 0.014337579 0.014939945 -0.013293124 0.04551262
00000000: ecd2 3fbe 35dc e9bd 441a 42be 81e4 ce3d
00000010: f061 c5bd 2aa7 9dbd d81d 31be fcd6 25be
00000020: 5bb5 7abe 750b dcbd 5a24 41be 431b 1ebe
00000030: 158c c5bc 84c4 1ebe 6679 343d c3c0 a9bd
00000040: 5232 00bc 1e43 d23d e1b2 0abe 3bc8 8f3d
00000050: 9766 84bd 0da7 c03c f361 363d d2ed f9bd
00000060: dc36 39be b1c4 dbbd 0ab9 e83d 0c2f 45be
00000070: 6fac e6bc 4440 ad3d 49cf 3bbe 70f4 ef3d
00000080: 42dc 3b3b fa95 b53d c101 b4bd b2cc b23d
00000090: e8e3 25bd a3ef 81bd 84b5 08be 8c0e d83d
000000a0: 3ebc 1d3d e56f 8abd c989 4b3c 0479 09be
000000b0: aa63 a93d 65e6 0d3e 8dcd 06bd bbc6 01be
000000c0: 1bbf 2e3d 21f2 90bd b1d0 923d d71d 1c3e
000000d0: 12be 31be d867 24be 8480 c13c 7202 903d
000000e0: e3d9 f13d 5811 63bd 2c14 c03d 1b40 93bd
000000f0: 4ace 973d 478e bd3b 0605 b7bd 2546 4ebd
00000100: 8c15 b6bd 43b1 6f3e 1fa7 70bd 80b7 0cbe
00000110: ccd0 b5bd 0db3 8dbd af32 0fbe b20b b53d
00000120: b039 603d fbcb 14bd 966f 49bd 11e4 803c
00000130: 6ab7 1b3d e57d dcbd 649e 2fbe 3bdf d2bd
00000140: 790e 913d ae18 db3c 36e3 0b3e f8d2 823d
00000150: 7735 b2bd 75cd ff3d d58e 3e3d 0588 0b3e
00000160: 9edb 853a 0875 97bd da95 4a3d 05d1 fe3d
00000170: 4377 2d3d 3279 f13d bc45 34bd 8407 dc3c
00000180: ac8b e1bd 718e 16be ee65 323c 2efb 8abd
00000190: 0221 f73c c01e 8dbc cbe6 0a3e 3d2a ee3d
000001a0: 96ec c33d ef26 c33d c60e db3c 7681 bf3d
000001b0: c19d 683d 6eb0 0d3d e023 d4bd 584a f63b
000001c0: 600b e0bc d565 303d e17e bfbc fa05 b03d
000001d0: 1cdb 033d 9c6b 7e3b 0ac1 353d b359 49bc
000001e0: 35fa d4bb 3c62 87bd 66ad 003e e5c4 d73c
000001f0: 6bfb 66bd d667 af3a 1fa9 f9bd 22ad cdbd
00000200: 9cb9 ebbd 83a0 e03d 6e1e 15be 5ef8 963d
00000210: b177 123e 45bd dcbd 8e92 a93d f916 0cbe
00000220: 5cca 95bd 0f91 843d 2115 d93d 2b87 4ebd
00000230: cfdc e9bd 1317 00bd e0c9 02be 330e 5d3d
00000240: ccfa 08be de7f a0bd e4a4 133a 8a38 463d
00000250: 8c3d 0e3e 3cc6 1f3d d0be 0bbe 7db7 f6bc
00000260: 486c 133e 4125 8abc d4be 273c 6855 a5bd
00000270: 30d6 853c ceb3 0c3c cd6e 4fbd 37c7 c3bd
00000280: bcf4 d83d c8c2 1bbe ab7b 1dbe f70a 093e
00000290: 2a74 86bd 7a24 dcbd 0cb0 763d 96a8 cc3d
000002a0: 62a6 ac3d 26e5 20be 5161 a1bd b25d 433c
000002b0: fac8 22be 4fda cebd 149b cebd 67fe 22bd
000002c0: ddc4 0cbe 3cdd 453d d131 10bd 0978 ae3d
000002d0: 8a64 ecbd 18d7 5abd ef63 e83d 3f56 de3d
000002e0: 7f46 bb3d e64f f93d 2b9c bb3d a0d4 c73d
000002f0: ccac 003e 2d05 d13c a029 883b f058 c63d
00000300: 2140 afbd c1fd 653d 8cc4 423d da6c 063b
00000310: 8ee7 eb3d 444f 803d c59c 40bd 81b5 14be
00000320: 4167 d2bd 886a 143e c044 9c3d 4c17 383d
00000330: 8a7a 10be 5e37 16be da23 b1bd c837 06be
00000340: 2a40 d43c 64ea d23d a153 613d 6579 36be
00000350: dbc0 e3bc 2b3e fbbd baf2 e2bd f4e6 313e
00000360: 1ee3 58be 3c91 35bd 648a 4a3c 96e4 46be
00000370: 9766 93bd 183c 4f3c 4308 2fbd 719a c3bd
00000380: a43c 8d3d 26ff cbbc b669 28be 962d 57be
00000390: 37cc 8dbd 6cfa ca3c dc9e 47be b1d9 0dbe
000003a0: fa77 c7bc a5f8 acbd baf9 2bbe f968 16be
000003b0: 595a 0f3c 4823 7b3c 5c9a fb3d f5d9 ca3d
000003c0: cd9b 253e 9653 aabd c009 993d 888d b1bd
000003d0: 20a0 bcbc a286 cbbc 7ef0 f4bb edba b8bd
000003e0: be83 e53d 04ba 223d 9a06 953d 57a7 9abd
000003f0: 2ae8 6a3c acc6 743c 67cb 59bc 716b 3a3d

net.3.bias f4 [40]
-0.118270844 0.10200064 -0.07862048 -0.043008175 0.14127745 -0.14780922 0.060802914 0.14658721
0.1348825 -0.00159698 0.034582343 0.044864163 0.031438537 0.05016559 -0.15730983 -0.054144293
0.05362569 -0.1487529 -0.13821454 0.11898545 0.12205168 0.07951747 -0.015426112 0.07724387
-0.05589618 0.12988505 0.115047745 0.031994045 -0.12299746 0.09631041 0.08991606 -0.01909906
0.045868684 0.15250713 -0.14140391 0.0643779 0.07686714 0.066949196 -0.09475928 -0.14150377
00000000: fc37 f2bd b6e5 d03d c603 a1bd 5729 30bd
00000010: 09ab 103e 4d5b 17be 7a0c 793d f51a 163e
00000020: a31e 0a3e c251 d1ba 37a6 0d3d 7cc3 373d
00000030: b2c5 003d 6f7a 4d3d d415 21be 68c6 5dbd
00000040: 9da6 5b3d ae52 18be 1d88 0dbe a5ae f33d
00000050: 3bf6 f93d 0eda a23d cebd 7cbc 0932 9e3d
00000060: 65f3 64bd 9600 053e 279e eb3d 300c 033d
00000070: 18e6 fbbd 643e c53d e925 b83d a275 9cbc
00000080: cde0 3b3d d42a 1c3e 30cc 10be 8fd8 833d
00000090: 856c 9d3d a91c 893d 2711 c2bd 5de6 10be

net.4.weight f4 [40]
1.3105377 1.085823 1.0291767 1.0455874 1.1103568 1.2274767 1.3311237 1.1831617
1.3134983 1.0582862 1.1953161 1.0742908 1.3156166 1.073402 1.3288875 1.3248204
1.4808068 1.0187242 1.3939834 1.2008107 1.0372541 1.0190809 1.189827 1.0565398
1.2327366 1.3243865 1.3521856 1.0848856 1.3528309 1.1798275 1.3313742 1.4172785
1.0447469 1.0125048 1.2451769 1.0961976 1.0327325 1.1845253 1.2622024 1.156774
00000000: b3bf a73f 40fc 8a3f 10bc 833f cfd5 853f
00000010: 2c20 8e3f f51d 9d3f 4362 aa3f d871 973f
00000020: b620 a83f ec75 873f 1e00 993f 5c82 893f
00000030: 2066 a83f 3d65 893f fc18 aa3f b793 a93f
00000040: 148b bd3f 8e65 823f 0c6e b23f 2ab4 993f
00000050: bec4 843f 3e71 823f 404c 983f b23c 873f
00000060: 50ca 9d3f 7f85 a93f 6b14 ad3f 88dd 8a3f
00000070: 9029 ad3f 9604 973f 786a aa3f 6269 b53f
00000080: 44ba 853f c299 813f f561 9f3f 3450 8c3f
00000090: 9430 843f 869e 973f d98f a13f 2c11 943f

net.4.bias f4 [40]
0.3988969 -0.065488264 -0.02814802 0.03769893 0.12427095 0.04174539 0.078784764 -0.03081569
-0.061897222 0.056877706 -0.30240384 -0.043738715 0.039202034 0.035467234 0.009397153 -0.38613322
0.13821064 0.023386844 -0.39051235 0.08189542 0.033612315 0.029091952 0.052489236 0.067283615
-0.40901318 -0.20899099 0.12952441 0.017318076 0.24177766 0.08362703 0.42143533 -0.17803274
0.047200214 -0.004437554 -0.4727509 0.020098945 0.039141953 0.028587533 -0.05656093 -0.12215465
00000000: 373c cc3e b61e 86bd ad96 e6bc 316a 1a3d
00000010: c581 fe3d 37fd 2a3d e859 a13d 3071 fcbc
00000020: f187 7dbd 99f8 683d add4 9abe 5e27 33bd
00000030: 5092 203d 1746 113d 84f6 193c 41b3 c5be
00000040: 1787 0d3e c495 bf3c 3cf1 c7be c9b8 a73d
00000050: 11ad 093d 3f52 ee3c f4fe 563d fecb 893d
00000060: 2d6a d1be bc01 56be 0ca2 043e a3de 8d3c
00000070: 9094 773e a644 ab3d 5fc6 d73e 374e 36be
00000080: 0355 413d e768 91bb 680c f2be 8ba6 a43c
00000090: 5053 203d 6730 ea3c 6fac 67bd 382c fabd

net.6.weight f4 [1, 40]
-0.9636973 0.44277203 -0.1980041 0.22836894 0.47319654 0.72859615 0.8659888 0.6470718
0.8889751 0.26837134 -0.722811 0.4078931 0.8375821 0.37214106 0.89229304 -0.9717735
-1.1258183 0.23459876 -1.0700097 0.6379261 0.18935388 0.07884273 0.62704396 0.26503497
-0.8434054 -0.902852 -0.93610704 0.42808154 -0.96525 0.61927587 -1.005082 -1.0339783
0.21683514 0.14535545 -0.8927181 0.37647521 0.13694952 0.65301526 0.7863399 -0.59803677
00000000: deb4 76bf 04b3 e23e 96c1 4abe 8cd9 693e
00000010: d146 f23e 4785 3a3f 71b1 5d3f 7fa6 253f
00000020: df93 633f f867 893e 240a 39bf 5dd7 d03e
00000030: c86b 563f 4689 be3e 516d 643f 26c6 78bf
00000040: d01a 90bf a83a 703e 14f6 88bf 204f 233f
00000050: fce5 413e 4c78 a13d f485 203f aab2 873e
00000060: 6be9 57bf 4f21 67bf b6a4 6fbf 812d db3e
00000070: a01a 77bf dd88 1e3f 87a6 80bf 6759 84bf
00000080: 080a 5e3e 0fd8 143e 2c89 64bf 5cc1 c03e
00000090: 7f3c 0c3e 022c 273f 924d 493f f018 19bf
